data/dataset/negative/0fbf15b1-6b33-4d44-b20e-7ac98596af19.npz (npz, 28097 bytes, 5 tensors)

methane f8 [32, 32]
0	0xc007688000000000	-2.926025390625
1	0x4024142000000000	10.039306640625
2	0xc016821000000000	-5.62701416015625
3	0x3fe6120000000000	0.689697265625
4	0x3fe04e0000000000	0.509521484375
5	0xc01a472000000000	-6.5694580078125
6	0xbff0bd8000000000	-1.0462646484375
7	0x3fec1e8000000000	0.87872314453125
8	0xc02db29000000000	-14.8487548828125
9	0x4005558000000000	2.666748046875
10	0x3fd9e70000000000	0.40472412109375
11	0x40151b0000000000	5.2763671875
12	0x4005a14000000000	2.7037353515625
13	0x400d290000000000	3.64501953125
14	0x4017c76000000000	5.9447021484375
15	0x3fb0200000000000	0.06298828125
16	0xbffb858000000000	-1.7200927734375
17	0xc01db26000000000	-7.4241943359375
18	0x4000698000000000	2.051513671875
19	0xc01348c000000000	-4.821044921875
20	0xbff0b84000000000	-1.04498291015625
21	0xc0102e6000000000	-4.0452880859375
22	0x400a51c000000000	3.2899169921875
23	0xbfe9670000000000	-0.7938232421875
24	0xc00fbec000000000	-3.9681396484375
25	0x400617c000000000	2.7615966796875
26	0xbff4340000000000	-1.2626953125
27	0x3fe3570000000000	0.6043701171875
28	0x4014c0e000000000	5.1883544921875
29	0xbfc7580000000000	-0.182373046875
30	0xc013ea5000000000	-4.97882080078125
31	0x3ff0428000000000	1.0162353515625
32	0x400ab7c000000000	3.3397216796875
33	0x401c15f000000000	7.02142333984375
34	0xc0209a1000000000	-8.3009033203125
35	0x401b0fc000000000	6.765380859375
36	0xc02053b000000000	-8.1634521484375
37	0x401261b000000000	4.59539794921875
38	0xc01332a000000000	-4.7994384765625
39	0xbff1230000000000	-1.071044921875
40	0xc022675000000000	-9.2017822265625
41	0x3fc8880000000000	0.191650390625
42	0x3fde640000000000	0.474853515625
43	0x3ffb5ac000000000	1.70965576171875
44	0xbfdfcc0000000000	-0.496826171875
45	0x40000f0000000000	2.00732421875
46	0xbfe37e0000000000	-0.609130859375
47	0x400f2b4000000000	3.8961181640625
48	0xbffae7c000000000	-1.68157958984375
49	0xbfbe980000000000	-0.1195068359375
50	0xc02e36d000000000	-15.1070556640625
51	0xbfe8d50000000000	-0.7760009765625
52	0xc011b70000000000	-4.4287109375
53	0x4002474000000000	2.2847900390625
54	0xbfbe640000000000	-0.11871337890625
55	0x4009418000000000	3.156982421875
56	0x4013484000000000	4.820556640625
57	0x4023f1d000000000	9.9722900390625
58	0xc00f6f8000000000	-3.929443359375
59	0xbffc388000000000	-1.7637939453125
60	0xc000a6e000000000	-2.08148193359375
61	0xc0095b8000000000	-3.169677734375
62	0x3ff52c0000000000	1.3232421875
63	0x4022f5b000000000	9.4798583984375
64	0x400ee68000000000	3.862548828125
65	0x4010ec2000000000	4.2305908203125
66	0xc0209ea800000000	-8.30987548828125
67	0xc013260000000000	-4.787109375
68	0xbff1508000000000	-1.0821533203125
69	0xc029107000000000	-12.5321044921875
70	0x40039c8000000000	2.451416015625
71	0x3ff3264000000000	1.19683837890625
72	0xbff67d0000000000	-1.405517578125
73	0xbff6c00000000000	-1.421875
74	0xc013f03000000000	-4.98455810546875
75	0x3fd3c20000000000	0.3087158203125
76	0xbfc52c0000000000	-0.1654052734375
77	0x3ff94dc000000000	1.58148193359375
78	0x4021843800000000	8.75823974609375
79	0xc017d9e000000000	-5.9627685546875
80	0x4020fcf000000000	8.4940185546875
81	0x4007cd4000000000	2.9752197265625
82	0xc01138c000000000	-4.305419921875
83	0x4001964000000000	2.1983642578125
84	0xbff6a24000000000	-1.41461181640625
85	0xbfeef90000000000	-0.9678955078125
86	0xc00452c000000000	-2.5404052734375
87	0x4002a1e000000000	2.32904052734375
88	0xbfdd400000000000	-0.45703125
89	0xc025dfe000000000	-10.937255859375
90	0x3fc6fc0000000000	0.1795654296875
91	0xc005a36000000000	-2.70477294921875
92	0x40156e0000000000	5.357421875
93	0x3fe40a0000000000	0.626220703125
94	0x4005276000000000	2.64422607421875
95	0x400eecc000000000	3.8656005859375
96	0x3ff8208000000000	1.5079345703125
97	0x4018fd2000000000	6.2471923828125
98	0xc024009000000000	-10.0010986328125
99	0x4012296000000000	4.5404052734375
100	0xbfef188000000000	-0.97174072265625
101	0xc001eda000000000	-2.24102783203125
102	0xc005c00000000000	-2.71875
103	0x400f5e0000000000	3.9208984375
104	0x400bdbe000000000	3.48236083984375
105	0xc00143c000000000	-2.1580810546875
106	0xc01a7a8000000000	-6.61962890625
107	0x4015b4a000000000	5.4263916015625
108	0xc015878000000000	-5.38232421875
109	0x4019cb4000000000	6.448486328125
110	0x4007690000000000	2.92626953125
111	0xc0217fd000000000	-8.7496337890625
112	0x3ff84fc000000000	1.51947021484375
113	0xbff1840000000000	-1.0947265625
114	0x3ffb5c0000000000	1.7099609375
115	0x3fe6210000000000	0.6915283203125
116	0xbff6628000000000	-1.3990478515625
117	0x40105d2000000000	4.0909423828125
118	0xbfff3b0000000000	-1.951904296875
119	0x3ff1310000000000	1.074462890625
120	0x3ffdb48000000000	1.8565673828125
121	0xc022bc6800000000	-9.36798095703125
122	0xbfe2360000000000	-0.569091796875
123	0xbfeb6e0000000000	-0.857177734375
124	0x400b69a000000000	3.42657470703125
125	0x3fe16e0000000000	0.544677734375
126	0xc00ad58000000000	-3.354248046875
127	0x4017918000000000	5.89208984375
128	0xc013260000000000	-4.787109375
129	0x4015664000000000	5.349853515625
130	0xbff98ac000000000	-1.59637451171875
131	0x400a5a4000000000	3.2940673828125
132	0xbff2a28000000000	-1.1646728515625
133	0xbfcc200000000000	-0.2197265625
134	0xbff7508000000000	-1.4571533203125
135	0x400af5e000000000	3.37005615234375
136	0x3fde8c0000000000	0.477294921875
137	0xc0030ec000000000	-2.3822021484375
138	0x400471e000000000	2.55560302734375
139	0x4009978000000000	3.198974609375
140	0xbfff790000000000	-1.967041015625
141	0xc0109bd000000000	-4.15216064453125
142	0x3ffa108000000000	1.6290283203125
143	0xbfc00c0000000000	-0.1253662109375
144	0x3fb3480000000000	0.0753173828125
145	0xc0207a7000000000	-8.2391357421875
146	0xc019c76000000000	-6.4447021484375
147	0x400fc24000000000	3.9698486328125
148	0x3fd4eb0000000000	0.32684326171875
149	0xbfbcac0000000000	-0.11199951171875
150	0x4016178000000000	5.52294921875
151	0x400681e000000000	2.81341552734375
152	0xbfff514000000000	-1.95733642578125
153	0xc0213e7000000000	-8.6219482421875
154	0xbffc9e4000000000	-1.78863525390625
155	0x40085d6000000000	3.04559326171875
156	0xbfb6200000000000	-0.08642578125
157	0x3ffa5d4000000000	1.64776611328125
158	0x4019e61000000000	6.47467041015625
159	0x4003f40000000000	2.494140625
160	0x401dcb0000000000	7.4482421875
161	0x40209a6000000000	8.301513671875
162	0xbffe198000000000	-1.8812255859375
163	0xbfde500000000000	-0.4736328125
164	0xc012aea000000000	-4.6705322265625
165	0x4011a35000000000	4.40948486328125
166	0xc02e4fc000000000	-15.15576171875
167	0xc00013c000000000	-2.0096435546875
168	0xbfe18b8000000000	-0.54827880859375
169	0xc01e180000000000	-7.5234375
170	0x401d7c6000000000	7.3714599609375
171	0x40298b0000000000	12.771484375
172	0x3fe4d00000000000	0.650390625
173	0x4014066000000000	5.0062255859375
174	0xc02450e000000000	-10.157958984375
175	0xbfe7720000000000	-0.732666015625
176	0xbfd1490000000000	-0.27008056640625
177	0x0000000000000000	0.0
178	0xc014424000000000	-5.064697265625
179	0x3f91400000000000	0.016845703125
180	0xc0119b2000000000	-4.4014892578125
181	0x0000000000000000	0.0
182	0x4001f68000000000	2.245361328125
183	0xc014096000000000	-5.0091552734375
184	0xc01aa72000000000	-6.6632080078125
185	0x400d0be000000000	3.63079833984375
186	0xbffda18000000000	-1.8519287109375
187	0x4017160000000000	5.771484375
188	0x4001782000000000	2.18365478515625
189	0x3fddf20000000000	0.4678955078125
190	0x3fd7e20000000000	0.3731689453125
191	0x4007d8c000000000	2.9808349609375
192	0xc00ca68000000000	-3.581298828125
193	0xc00f768000000000	-3.932861328125
194	0x4023f62000000000	9.980712890625
195	0x3fc5920000000000	0.16851806640625
196	0x3fa8500000000000	0.0474853515625
197	0x3ff8ec0000000000	1.5576171875
198	0x3ffbff0000000000	1.749755859375
199	0xc02b20d800000000	-13.56414794921875
200	0xc006e78000000000	-2.863037109375
201	0x4010a08000000000	4.15673828125
202	0xbfd9070000000000	-0.39105224609375
203	0x4020ffa000000000	8.499267578125
204	0x3ffec50000000000	1.923095703125
205	0xbfe2e98000000000	-0.59100341796875
206	0x4020b88000000000	8.3603515625
207	0x4012cfa000000000	4.7027587890625
208	0x40061a0000000000	2.7626953125
209	0xbff7cb0000000000	-1.487060546875
210	0xc0111ee000000000	-4.2801513671875
211	0xbffccf0000000000	-1.800537109375
212	0x3ffb404000000000	1.70318603515625
213	0xbfbefc0000000000	-0.12103271484375
214	0xc00787c000000000	-2.9412841796875
215	0x40142e5000000000	5.04522705078125
216	0x3fd58d0000000000	0.33673095703125
217	0xc0206c1000000000	-8.2110595703125
218	0xbf55000000000000	-0.00128173828125
219	0x4013f75000000000	4.99151611328125
220	0xc011808000000000	-4.37548828125
221	0x40206f4800000000	8.21734619140625
222	0x4000ef6000000000	2.11688232421875
223	0x0000000000000000	0.0
224	0xc01c4b4000000000	-7.073486328125
225	0x401d365000000000	7.30303955078125
226	0xc00db68000000000	-3.714111328125
227	0xbfe3520000000000	-0.603759765625
228	0x3fb1380000000000	0.0672607421875
229	0x401ce5b000000000	7.22430419921875
230	0xc00c47c000000000	-3.5350341796875
231	0xbfe0c50000000000	-0.5240478515625
232	0x3fd1790000000000	0.27301025390625
233	0xbff5048000000000	-1.3135986328125
234	0xbffac60000000000	-1.67333984375
235	0x400cee0000000000	3.6162109375
236	0xc015f84000000000	-5.492431640625
237	0x40172a0000000000	5.791015625
238	0x40081d0000000000	3.01416015625
239	0xbfa0200000000000	-0.031494140625
240	0x401d97f000000000	7.39837646484375
241	0x3fbac00000000000	0.1044921875
242	0xbffa5b0000000000	-1.647216796875
243	0xc00a608000000000	-3.297119140625
244	0xbff6e18000000000	-1.4300537109375
245	0xbffbc78000000000	-1.7362060546875
246	0xbffafa0000000000	-1.68603515625
247	0x3feed30000000000	0.9632568359375
248	0xbffc670000000000	-1.775146484375
249	0x4003e24000000000	2.4854736328125
250	0xbff4b10000000000	-1.293212890625
251	0x3ffc9b0000000000	1.787841796875
252	0xbfb1900000000000	-0.068603515625
253	0xc004af0000000000	-2.58544921875
254	0x401534a000000000	5.3013916015625
255	0xbfc0200000000000	-0.1259765625

lat f4 [32, 32]
0	0xc2a09004	-80.28128
1	0xc2a070c1	-80.22022
2	0xc2a05173	-80.15908
3	0xc2a03219	-80.09785
4	0xc2a012b0	-80.0365
5	0xc29ff337	-79.97503
6	0xc29fd3ad	-79.91343
7	0xc29fb410	-79.851685
8	0xc29f945f	-79.78979
9	0xc29f7498	-79.72772
10	0xc29f54b9	-79.665474
11	0xc29f34c2	-79.60304
12	0xc29f14af	-79.5404
13	0xc29ef480	-79.47754
14	0xc29ed433	-79.41445
15	0xc29eb3c6	-79.35112
16	0xc29e9337	-79.28753
17	0xc29e7285	-79.22367
18	0xc29e51ae	-79.15953
19	0xc29e30af	-79.095085
20	0xc29e0f88	-79.030334
21	0xc29dee36	-78.965256
22	0xc29dccb7	-78.89983
23	0xc29dab09	-78.83405
24	0xc29d892a	-78.7679
25	0xc29d6719	-78.70136
26	0xc29d44d2	-78.634415
27	0xc29d2254	-78.56705
28	0xc29cff9c	-78.49924
29	0xc29cdca9	-78.43098
30	0xc29cb977	-78.362236
31	0xc29c9604	-78.293
32	0xc2a08663	-80.262474
33	0xc2a06730	-80.20154
34	0xc2a047f1	-80.14051
35	0xc2a028a5	-80.079384
36	0xc2a0094b	-80.01815
37	0xc29fe9e1	-79.956795
38	0xc29fca66	-79.89531
39	0xc29faad8	-79.83368
40	0xc29f8b35	-79.77189
41	0xc29f6b7d	-79.70994
42	0xc29f4bad	-79.647804
43	0xc29f2bc3	-79.58547
44	0xc29f0bbf	-79.52294
45	0xc29eeb9e	-79.46019
46	0xc29ecb5f	-79.39721
47	0xc29eab00	-79.333984
48	0xc29e8a80	-79.27051
49	0xc29e69dc	-79.20676
50	0xc29e4913	-79.14272
51	0xc29e2822	-79.078384
52	0xc29e0709	-79.01374
53	0xc29de5c5	-78.94877
54	0xc29dc454	-78.88345
55	0xc29da2b4	-78.81778
56	0xc29d80e4	-78.75174
57	0xc29d5ee0	-78.6853
58	0xc29d3ca7	-78.61846
59	0xc29d1a37	-78.5512
60	0xc29cf78d	-78.4835
61	0xc29cd4a8	-78.415344
62	0xc29cb184	-78.34671
63	0xc29c8e20	-78.27759
64	0xc2a07ca7	-80.24346
65	0xc2a05d82	-80.18263
66	0xc2a03e53	-80.12173
67	0xc2a01f16	-80.060715
68	0xc29fffcb	-79.999596
69	0xc29fe070	-79.938354
70	0xc29fc104	-79.87698
71	0xc29fa184	-79.81546
72	0xc29f81f0	-79.753784
73	0xc29f6247	-79.69195
74	0xc29f4285	-79.62992
75	0xc29f22aa	-79.5677
76	0xc29f02b4	-79.50528
77	0xc29ee2a2	-79.44264
78	0xc29ec271	-79.37977
79	0xc29ea221	-79.31666
80	0xc29e81af	-79.25329
81	0xc29e6119	-79.189644
82	0xc29e405e	-79.12572
83	0xc29e1f7c	-79.06149
84	0xc29dfe71	-78.996956
85	0xc29ddd3b	-78.93209
86	0xc29dbbd8	-78.86688
87	0xc29d9a46	-78.801315
88	0xc29d7884	-78.73538
89	0xc29d568e	-78.66905
90	0xc29d3463	-78.60232
91	0xc29d1201	-78.535164
92	0xc29cef66	-78.467575
93	0xc29ccc8e	-78.39952
94	0xc29ca979	-78.331
95	0xc29c8622	-78.26198
96	0xc2a072cd	-80.22422
97	0xc2a053b8	-80.16351
98	0xc2a03498	-80.10272
99	0xc2a0156b	-80.04183
100	0xc29ff62f	-79.98083
101	0xc29fd6e3	-79.9197
102	0xc29fb785	-79.85844
103	0xc29f9815	-79.797035
104	0xc29f7890	-79.73547
105	0xc29f58f5	-79.673744
106	0xc29f3942	-79.61183
107	0xc29f1975	-79.54972
108	0xc29ef98e	-79.48741
109	0xc29ed98a	-79.42488
110	0xc29eb968	-79.36212
111	0xc29e9926	-79.29912
112	0xc29e78c2	-79.235855
113	0xc29e583b	-79.172325
114	0xc29e378e	-79.108505
115	0xc29e16ba	-79.04439
116	0xc29df5bd	-78.97996
117	0xc29dd496	-78.91521
118	0xc29db341	-78.850105
119	0xc29d91be	-78.78465
120	0xc29d7009	-78.71882
121	0xc29d4e22	-78.6526
122	0xc29d2c05	-78.585976
123	0xc29d09b1	-78.51893
124	0xc29ce724	-78.45145
125	0xc29cc45b	-78.38351
126	0xc29ca153	-78.31509
127	0xc29c7e0b	-78.24618
128	0xc2a068dd	-80.20481
129	0xc2a049d8	-80.144226
130	0xc2a02ac7	-80.08355
131	0xc2a00ba9	-80.02277
132	0xc29fec7c	-79.96188
133	0xc29fcd3f	-79.90087
134	0xc29fadf1	-79.83973
135	0xc29f8e90	-79.77844
136	0xc29f6f19	-79.71699
137	0xc29f4f8d	-79.65537
138	0xc29f2fe9	-79.593575
139	0xc29f102c	-79.531586
140	0xc29ef053	-79.46938
141	0xc29ed05e	-79.40697
142	0xc29eb04a	-79.344315
143	0xc29e9017	-79.281425
144	0xc29e6fc1	-79.21827
145	0xc29e4f49	-79.154854
146	0xc29e2eaa	-79.09114
147	0xc29e0de5	-79.02714
148	0xc29decf6	-78.962814
149	0xc29dcbdd	-78.89817
150	0xc29daa97	-78.83318
151	0xc29d8922	-78.76784
152	0xc29d677c	-78.70212
153	0xc29d45a2	-78.636
154	0xc29d2394	-78.56949
155	0xc29d014f	-78.502556
156	0xc29cded0	-78.43518
157	0xc29cbc15	-78.36735
158	0xc29c991b	-78.299034
159	0xc29c75e1	-78.23023
160	0xc2a05ed3	-80.1852
161	0xc2a03fdd	-80.12473
162	0xc2a020dc	-80.06418
163	0xc2a001cd	-80.00352
164	0xc29fe2b0	-79.94275
165	0xc29fc382	-79.88185
166	0xc29fa443	-79.82082
167	0xc29f84f1	-79.75965
168	0xc29f658a	-79.69832
169	0xc29f460c	-79.63681
170	0xc29f2677	-79.57513
171	0xc29f06c8	-79.513245
172	0xc29ee6ff	-79.451164
173	0xc29ec718	-79.388855
174	0xc29ea713	-79.32632
175	0xc29e86ee	-79.263535
176	0xc29e66a8	-79.2005
177	0xc29e463d	-79.137184
178	0xc29e25ae	-79.07359
179	0xc29e04f7	-79.0097
180	0xc29de417	-78.94549
181	0xc29dc30c	-78.88095
182	0xc29da1d4	-78.81607
183	0xc29d806d	-78.75083
184	0xc29d5ed6	-78.68523
185	0xc29d3d0b	-78.619225
186	0xc29d1b0b	-78.55282
187	0xc29cf8d4	-78.48599
188	0xc29cd663	-78.418724
189	0xc29cb3b7	-78.351006
190	0xc29c90cc	-78.28281
191	0xc29c6da0	-78.21411
192	0xc2a054ac	-80.165375
193	0xc2a035c6	-80.10503
194	0xc2a016d4	-80.044586
195	0xc29ff7d5	-79.98405
196	0xc29fd8c7	-79.92339
197	0xc29fb9a9	-79.86262
198	0xc29f9a79	-79.801704
199	0xc29f7b36	-79.74065
200	0xc29f5bde	-79.67943
201	0xc29f3c6f	-79.618034
202	0xc29f1ce9	-79.556465
203	0xc29efd49	-79.4947
204	0xc29edd8e	-79.432724
205	0xc29ebdb7	-79.37054
206	0xc29e9dc1	-79.30811
207	0xc29e7dab	-79.245445
208	0xc29e5d73	-79.18252
209	0xc29e3d17	-79.119316
210	0xc29e1c96	-79.05583
211	0xc29dfbee	-78.99205
212	0xc29ddb1c	-78.92795
213	0xc29dba20	-78.863525
214	0xc29d98f7	-78.79876
215	0xc29d779e	-78.73363
216	0xc29d5615	-78.66813
217	0xc29d3459	-78.60224
218	0xc29d1268	-78.53595
219	0xc29cf03f	-78.46923
220	0xc29ccddd	-78.40208
221	0xc29cab3f	-78.334465
222	0xc29c8862	-78.26637
223	0xc29c6545	-78.19779
224	0xc2a04a6a	-80.14534
225	0xc2a02b94	-80.08511
226	0xc2a00cb1	-80.02479
227	0xc29fedc2	-79.96437
228	0xc29fcec3	-79.90383
229	0xc29fafb4	-79.84317
230	0xc29f9094	-79.78238
231	0xc29f7160	-79.721436
232	0xc29f5217	-79.66033
233	0xc29f32b8	-79.59906
234	0xc29f1341	-79.537605
235	0xc29ef3b0	-79.47595
236	0xc29ed404	-79.41409
237	0xc29eb43c	-79.35202
238	0xc29e9454	-79.2897
239	0xc29e744d	-79.22715
240	0xc29e5424	-79.16434
241	0xc29e33d7	-79.10125
242	0xc29e1364	-79.03787
243	0xc29df2cb	-78.974205
244	0xc29dd208	-78.91022
245	0xc29db11a	-78.8459
246	0xc29d9000	-78.78125
247	0xc29d6eb6	-78.71623
248	0xc29d4d3c	-78.65085
249	0xc29d2b8e	-78.58507
250	0xc29d09ab	-78.51888
251	0xc29ce791	-78.45228
252	0xc29cc53e	-78.38524
253	0xc29ca2ae	-78.31773
254	0xc29c7fe0	-78.249756
255	0xc29c5cd2	-78.18129

lon f4 [32, 32]
0	0x41c7ad0c	24.959496
1	0x41c8dd63	25.108099
2	0x41ca0b89	25.255632
3	0x41cb3795	25.40214
4	0x41cc619f	25.547667
5	0x41cd89bf	25.692259
6	0x41ceb00c	25.83596
7	0x41cfd49b	25.978811
8	0x41d0f784	26.120857
9	0x41d218db	26.262136
10	0x41d338b4	26.402687
11	0x41d45726	26.542553
12	0x41d57442	26.681767
13	0x41d6901f	26.820372
14	0x41d7aace	26.9584
15	0x41d8c463	27.095892
16	0x41d9dcf1	27.232882
17	0x41daf48a	27.369404
18	0x41dc0b40	27.505493
19	0x41dd2126	27.641186
20	0x41de364d	27.776514
21	0x41df4ac7	27.911512
22	0x41e05ea5	28.046213
23	0x41e171f9	28.18065
24	0x41e284d2	28.314854
25	0x41e39744	28.44886
26	0x41e4a95d	28.582697
27	0x41e5bb2f	28.716398
28	0x41e6ccca	28.849995
29	0x41e7de3f	28.983519
30	0x41e8ef9e	29.117
31	0x41ea00f7	29.250471
32	0x41c57dfa	24.686512
33	0x41c6b11a	24.836475
34	0x41c7e203	24.985357
35	0x41c910cc	25.133202
36	0x41ca3d8f	25.280058
37	0x41cb6863	25.42597
38	0x41cc915e	25.57098
39	0x41cdb898	25.715134
40	0x41cede26	25.85847
41	0x41d0021e	26.001034
42	0x41d12494	26.14286
43	0x41d2459e	26.283993
44	0x41d36550	26.424469
45	0x41d483bd	26.564325
46	0x41d5a0fa	26.703602
47	0x41d6bd19	26.842333
48	0x41d7d82e	26.980556
49	0x41d8f24a	27.118305
50	0x41da0b81	27.255617
51	0x41db23e5	27.392527
52	0x41dc3b86	27.529064
53	0x41dd5278	27.665268
54	0x41de68cc	27.80117
55	0x41df7e93	27.936804
56	0x41e093dd	28.072199
57	0x41e1a8bd	28.207392
58	0x41e2bd43	28.342413
59	0x41e3d180	28.477295
60	0x41e4e584	28.612068
61	0x41e5f960	28.746765
62	0x41e70d25	28.881418
63	0x41e820e2	29.016056
64	0x41c350f1	24.414522
65	0x41c486d0	24.565826
66	0x41c5ba72	24.716038
67	0x41c6ebf0	24.865204
68	0x41c81b63	25.013372
69	0x41c948e1	25.160585
70	0x41ca7483	25.30689
71	0x41cb9e5e	25.452328
72	0x41ccc689	25.596941
73	0x41cded1a	25.740772
74	0x41cf1226	25.883862
75	0x41d035c1	26.026247
76	0x41d15800	26.167969
77	0x41d278f7	26.309065
78	0x41d398ba	26.449574
79	0x41d4b75c	26.58953
80	0x41d5d4f0	26.728973
81	0x41d6f189	26.867937
82	0x41d80d39	27.006456
83	0x41d92813	27.144567
84	0x41da4229	27.282305
85	0x41db5b8c	27.4197
86	0x41dc744f	27.556791
87	0x41dd8c82	27.693607
88	0x41dea438	27.830185
89	0x41dfbb80	27.966553
90	0x41e0d26c	28.102745
91	0x41e1e90e	28.238796
92	0x41e2ff75	28.374735
93	0x41e415b2	28.510593
94	0x41e52bd7	28.646406
95	0x41e641f3	28.782202
96	0x41c1262f	24.143644
97	0x41c25ec3	24.29627
98	0x41c39515	24.447794
99	0x41c4c93e	24.598263
100	0x41c5fb57	24.747725
101	0x41c72b77	24.896223
102	0x41c859b5	25.043802
103	0x41c98629	25.190508
104	0x41cab0e8	25.33638
105	0x41cbda09	25.481462
106	0x41cd01a1	25.625795
107	0x41ce27c5	25.769419
108	0x41cf4c89	25.91237
109	0x41d07001	26.05469
110	0x41d19242	26.196415
111	0x41d2b35f	26.337584
112	0x41d3d36b	26.478231
113	0x41d4f279	26.618395
114	0x41d6109b	26.758108
115	0x41d72de4	26.897408
116	0x41d84a67	27.03633
117	0x41d96634	27.174904
118	0x41da815f	27.31317
119	0x41db9bf8	27.451157
120	0x41dcb611	27.5889
121	0x41ddcfba	27.726429
122	0x41dee907	27.863783
123	0x41e00206	28.000988
124	0x41e11ac9	28.138079
125	0x41e23362	28.27509
126	0x41e34be0	28.412048
127	0x41e46454	28.548988
128	0x41befd48	23.873672
129	0x41c0388a	24.027607
130	0x41c17184	24.180428
131	0x41c2a851	24.332186
132	0x41c3dd09	24.482927
133	0x41c50fc3	24.632696
134	0x41c64098	24.78154
135	0x41c76f9d	24.929499
136	0x41c89ceb	25.07662
137	0x41c9c896	25.222942
138	0x41caf2b4	25.368507
139	0x41cc1b5a	25.513355
140	0x41cd429d	25.657526
141	0x41ce6891	25.801058
142	0x41cf8d4a	25.943989
143	0x41d0b0dc	26.086357
144	0x41d1d359	26.228197
145	0x41d2f4d6	26.369549
146	0x41d41565	26.510447
147	0x41d53519	26.650927
148	0x41d65402	26.79102
149	0x41d77235	26.930765
150	0x41d88fc2	27.070194
151	0x41d9acbc	27.209343
152	0x41dac934	27.348244
153	0x41dbe53a	27.486927
154	0x41dd00e1	27.62543
155	0x41de1c3a	27.763783
156	0x41df3755	27.902018
157	0x41e05244	28.040169
158	0x41e16d17	28.178267
159	0x41e287e0	28.316345
160	0x41bcd6b2	23.604832
161	0x41be1498	23.760056
162	0x41bf5031	23.914156
163	0x41c08998	24.067184
164	0x41c1c0e5	24.219187
165	0x41c2f631	24.37021
166	0x41c42993	24.5203
167	0x41c55b21	24.669497
168	0x41c68af4	24.817848
169	0x41c7b920	24.965393
170	0x41c8e5bc	25.112175
171	0x41ca10dc	25.258232
172	0x41cb3a96	25.403606
173	0x41cc62fd	25.548334
174	0x41cd8a27	25.692457
175	0x41ceb026	25.83601
176	0x41cfd50f	25.979033
177	0x41d0f8f3	26.121557
178	0x41d21be7	26.263624
179	0x41d33dfd	26.405268
180	0x41d45f48	26.546524
181	0x41d57fd8	26.687424
182	0x41d69fc1	26.828005
183	0x41d7bf15	26.968302
184	0x41d8dde4	27.108345
185	0x41d9fc41	27.24817
186	0x41db1a3d	27.387812
187	0x41dc37e8	27.527298
188	0x41dd5555	27.666666
189	0x41de7294	27.805946
190	0x41df8fb6	27.945171
191	0x41e0accc	28.084373
192	0x41bab23c	23.337029
193	0x41bbf2bb	23.49352
194	0x41bd30ea	23.648884
195	0x41be6ce3	23.803167
196	0x41bfa6bd	23.956415
197	0x41c0de91	24.108675
198	0x41c21478	24.259995
199	0x41c34887	24.410414
200	0x41c47ad7	24.55998
201	0x41c5ab7c	24.708733
202	0x41c6da8e	24.856716
203	0x41c80821	25.00397
204	0x41c9344a	25.150532
205	0x41ca5f1d	25.296442
206	0x41cb88b0	25.441742
207	0x41ccb116	25.586468
208	0x41cdd861	25.730654
209	0x41cefea7	25.874342
210	0x41d023f9	26.017565
211	0x41d1486b	26.16036
212	0x41d26c0f	26.302763
213	0x41d38ef7	26.444807
214	0x41d4b136	26.586529
215	0x41d5d2dd	26.72796
216	0x41d6f3fe	26.869137
217	0x41d814ab	27.010092
218	0x41d934f4	27.150856
219	0x41da54ed	27.291468
220	0x41db74a5	27.431955
221	0x41dc942e	27.572353
222	0x41ddb39a	27.712696
223	0x41ded2f8	27.853012
224	0x41b88ff0	23.070282
225	0x41b9d300	23.228027
226	0x41bb13bb	23.384634
227	0x41bc523c	23.540154
228	0x41bd8e9a	23.69463
229	0x41bec8ee	23.84811
230	0x41c00151	24.000643
231	0x41c137d8	24.152267
232	0x41c26c9d	24.303034
233	0x41c39fb3	24.452978
234	0x41c4d133	24.602148
235	0x41c60130	24.75058
236	0x41c72fc0	24.898315
237	0x41c85cf8	25.045395
238	0x41c988ec	25.191856
239	0x41cab3b0	25.337738
240	0x41cbdd58	25.483078
241	0x41cd05f8	25.627914
242	0x41ce2da1	25.77228
243	0x41cf5468	25.916214
244	0x41d07a5e	26.05975
245	0x41d19f97	26.202925
246	0x41d2c424	26.345772
247	0x41d3e818	26.488327
248	0x41d50b84	26.630623
249	0x41d62e7a	26.772694
250	0x41d7510c	26.914574
251	0x41d8734c	27.056297
252	0x41d99549	27.197893
253	0x41dab716	27.339397
254	0x41dbd8c5	27.480844
255	0x41dcfa65	27.622263

qa f4 [32, 32]
0	0x3ecccccc	0.39999998
1	0x3ecccccc	0.39999998
2	0x3ecccccc	0.39999998
3	0x3ecccccc	0.39999998
4	0x3ecccccc	0.39999998
5	0x3ecccccc	0.39999998
6	0x3ecccccc	0.39999998
7	0x3ecccccc	0.39999998
8	0x3ecccccc	0.39999998
9	0x3ecccccc	0.39999998
10	0x3ecccccc	0.39999998
11	0x3ecccccc	0.39999998
12	0x3ecccccc	0.39999998
13	0x3ecccccc	0.39999998
14	0x3ecccccc	0.39999998
15	0x3ecccccc	0.39999998
16	0x3ecccccc	0.39999998
17	0x3ecccccc	0.39999998
18	0x3ecccccc	0.39999998
19	0x3ecccccc	0.39999998
20	0x3ecccccc	0.39999998
21	0x3ecccccc	0.39999998
22	0x3ecccccc	0.39999998
23	0x3ecccccc	0.39999998
24	0x3ecccccc	0.39999998
25	0x3ecccccc	0.39999998
26	0x3ecccccc	0.39999998
27	0x3ecccccc	0.39999998
28	0x3ecccccc	0.39999998
29	0x3ecccccc	0.39999998
30	0x3ecccccc	0.39999998
31	0x3ecccccc	0.39999998
32	0x3ecccccc	0.39999998
33	0x3ecccccc	0.39999998
34	0x3ecccccc	0.39999998
35	0x3ecccccc	0.39999998
36	0x3ecccccc	0.39999998
37	0x3ecccccc	0.39999998
38	0x3ecccccc	0.39999998
39	0x3ecccccc	0.39999998
40	0x3ecccccc	0.39999998
41	0x3ecccccc	0.39999998
42	0x3ecccccc	0.39999998
43	0x3ecccccc	0.39999998
44	0x3ecccccc	0.39999998
45	0x3ecccccc	0.39999998
46	0x3ecccccc	0.39999998
47	0x3ecccccc	0.39999998
48	0x3ecccccc	0.39999998
49	0x3ecccccc	0.39999998
50	0x3ecccccc	0.39999998
51	0x3ecccccc	0.39999998
52	0x3ecccccc	0.39999998
53	0x3ecccccc	0.39999998
54	0x3ecccccc	0.39999998
55	0x3ecccccc	0.39999998
56	0x3ecccccc	0.39999998
57	0x3ecccccc	0.39999998
58	0x3ecccccc	0.39999998
59	0x3ecccccc	0.39999998
60	0x3ecccccc	0.39999998
61	0x3ecccccc	0.39999998
62	0x3ecccccc	0.39999998
63	0x3ecccccc	0.39999998
64	0x3ecccccc	0.39999998
65	0x3ecccccc	0.39999998
66	0x3ecccccc	0.39999998
67	0x3ecccccc	0.39999998
68	0x3ecccccc	0.39999998
69	0x3ecccccc	0.39999998
70	0x3ecccccc	0.39999998
71	0x3ecccccc	0.39999998
72	0x3ecccccc	0.39999998
73	0x3ecccccc	0.39999998
74	0x3ecccccc	0.39999998
75	0x3ecccccc	0.39999998
76	0x3ecccccc	0.39999998
77	0x3ecccccc	0.39999998
78	0x3ecccccc	0.39999998
79	0x3ecccccc	0.39999998
80	0x3ecccccc	0.39999998
81	0x3ecccccc	0.39999998
82	0x3ecccccc	0.39999998
83	0x3ecccccc	0.39999998
84	0x3ecccccc	0.39999998
85	0x3ecccccc	0.39999998
86	0x3ecccccc	0.39999998
87	0x3ecccccc	0.39999998
88	0x3ecccccc	0.39999998
89	0x3ecccccc	0.39999998
90	0x3ecccccc	0.39999998
91	0x3ecccccc	0.39999998
92	0x3ecccccc	0.39999998
93	0x3ecccccc	0.39999998
94	0x3ecccccc	0.39999998
95	0x3ecccccc	0.39999998
96	0x3ecccccc	0.39999998
97	0x3ecccccc	0.39999998
98	0x3ecccccc	0.39999998
99	0x3ecccccc	0.39999998
100	0x3ecccccc	0.39999998
101	0x3ecccccc	0.39999998
102	0x3ecccccc	0.39999998
103	0x3ecccccc	0.39999998
104	0x3ecccccc	0.39999998
105	0x3ecccccc	0.39999998
106	0x3ecccccc	0.39999998
107	0x3ecccccc	0.39999998
108	0x3ecccccc	0.39999998
109	0x3ecccccc	0.39999998
110	0x3ecccccc	0.39999998
111	0x3ecccccc	0.39999998
112	0x3ecccccc	0.39999998
113	0x3ecccccc	0.39999998
114	0x3ecccccc	0.39999998
115	0x3ecccccc	0.39999998
116	0x3ecccccc	0.39999998
117	0x3ecccccc	0.39999998
118	0x3ecccccc	0.39999998
119	0x3ecccccc	0.39999998
120	0x3ecccccc	0.39999998
121	0x3ecccccc	0.39999998
122	0x3ecccccc	0.39999998
123	0x3ecccccc	0.39999998
124	0x3ecccccc	0.39999998
125	0x3ecccccc	0.39999998
126	0x3ecccccc	0.39999998
127	0x3ecccccc	0.39999998
128	0x3ecccccc	0.39999998
129	0x3ecccccc	0.39999998
130	0x3ecccccc	0.39999998
131	0x3ecccccc	0.39999998
132	0x3ecccccc	0.39999998
133	0x3ecccccc	0.39999998
134	0x3ecccccc	0.39999998
135	0x3ecccccc	0.39999998
136	0x3ecccccc	0.39999998
137	0x3ecccccc	0.39999998
138	0x3ecccccc	0.39999998
139	0x3ecccccc	0.39999998
140	0x3ecccccc	0.39999998
141	0x3ecccccc	0.39999998
142	0x3ecccccc	0.39999998
143	0x3ecccccc	0.39999998
144	0x3ecccccc	0.39999998
145	0x3ecccccc	0.39999998
146	0x3ecccccc	0.39999998
147	0x3ecccccc	0.39999998
148	0x3ecccccc	0.39999998
149	0x3ecccccc	0.39999998
150	0x3ecccccc	0.39999998
151	0x3ecccccc	0.39999998
152	0x3ecccccc	0.39999998
153	0x3ecccccc	0.39999998
154	0x3ecccccc	0.39999998
155	0x3ecccccc	0.39999998
156	0x3ecccccc	0.39999998
157	0x3ecccccc	0.39999998
158	0x3ecccccc	0.39999998
159	0x3ecccccc	0.39999998
160	0x3ecccccc	0.39999998
161	0x3ecccccc	0.39999998
162	0x3ecccccc	0.39999998
163	0x3ecccccc	0.39999998
164	0x3ecccccc	0.39999998
165	0x3ecccccc	0.39999998
166	0x3ecccccc	0.39999998
167	0x3ecccccc	0.39999998
168	0x3ecccccc	0.39999998
169	0x3ecccccc	0.39999998
170	0x3ecccccc	0.39999998
171	0x3ecccccc	0.39999998
172	0x3ecccccc	0.39999998
173	0x3ecccccc	0.39999998
174	0x3ecccccc	0.39999998
175	0x3ecccccc	0.39999998
176	0x3ecccccc	0.39999998
177	0x3ecccccc	0.39999998
178	0x3ecccccc	0.39999998
179	0x3ecccccc	0.39999998
180	0x3ecccccc	0.39999998
181	0x3ecccccc	0.39999998
182	0x3ecccccc	0.39999998
183	0x3ecccccc	0.39999998
184	0x3ecccccc	0.39999998
185	0x3ecccccc	0.39999998
186	0x3ecccccc	0.39999998
187	0x3ecccccc	0.39999998
188	0x3ecccccc	0.39999998
189	0x3ecccccc	0.39999998
190	0x3ecccccc	0.39999998
191	0x3ecccccc	0.39999998
192	0x3ecccccc	0.39999998
193	0x3ecccccc	0.39999998
194	0x3ecccccc	0.39999998
195	0x3ecccccc	0.39999998
196	0x3ecccccc	0.39999998
197	0x3ecccccc	0.39999998
198	0x3ecccccc	0.39999998
199	0x3ecccccc	0.39999998
200	0x3ecccccc	0.39999998
201	0x3ecccccc	0.39999998
202	0x3ecccccc	0.39999998
203	0x3ecccccc	0.39999998
204	0x3ecccccc	0.39999998
205	0x3ecccccc	0.39999998
206	0x3ecccccc	0.39999998
207	0x3ecccccc	0.39999998
208	0x3ecccccc	0.39999998
209	0x3ecccccc	0.39999998
210	0x3ecccccc	0.39999998
211	0x3ecccccc	0.39999998
212	0x3ecccccc	0.39999998
213	0x3ecccccc	0.39999998
214	0x3ecccccc	0.39999998
215	0x3ecccccc	0.39999998
216	0x3ecccccc	0.39999998
217	0x3ecccccc	0.39999998
218	0x3ecccccc	0.39999998
219	0x3ecccccc	0.39999998
220	0x3ecccccc	0.39999998
221	0x3ecccccc	0.39999998
222	0x3ecccccc	0.39999998
223	0x3ecccccc	0.39999998
224	0x3ecccccc	0.39999998
225	0x3ecccccc	0.39999998
226	0x3ecccccc	0.39999998
227	0x3ecccccc	0.39999998
228	0x3ecccccc	0.39999998
229	0x3ecccccc	0.39999998
230	0x3ecccccc	0.39999998
231	0x3ecccccc	0.39999998
232	0x3ecccccc	0.39999998
233	0x3ecccccc	0.39999998
234	0x3ecccccc	0.39999998
235	0x3ecccccc	0.39999998
236	0x3ecccccc	0.39999998
237	0x3ecccccc	0.39999998
238	0x3ecccccc	0.39999998
239	0x3ecccccc	0.39999998
240	0x3ecccccc	0.39999998
241	0x3ecccccc	0.39999998
242	0x3ecccccc	0.39999998
243	0x3ecccccc	0.39999998
244	0x3ecccccc	0.39999998
245	0x3ecccccc	0.39999998
246	0x3ecccccc	0.39999998
247	0x3ecccccc	0.39999998
248	0x3ecccccc	0.39999998
249	0x3ecccccc	0.39999998
250	0x3ecccccc	0.39999998
251	0x3ecccccc	0.39999998
252	0x3ecccccc	0.39999998
253	0x3ecccccc	0.39999998
254	0x3ecccccc	0.39999998
255	0x3ecccccc	0.39999998

non_destriped f4 [32, 32]
0	0x44d730f9	1721.5304
1	0x44da5a01	1746.8126
2	0x44d5806a	1708.013
3	0x44d66fb6	1715.491
4	0x44d72fe4	1721.4966
5	0x44d54f30	1706.4746
6	0x44d6a4e8	1717.1533
7	0x44d82000	1729.0
8	0x44d584ce	1708.1501
9	0x44d82ce9	1729.4034
10	0x44d7068e	1720.2048
11	0x44d7b5f9	1725.6866
12	0x44d7afe7	1725.497
13	0x44d78a11	1724.3146
14	0x44d60276	1712.0769
15	0x44d6f5f4	1719.686
16	0x44d713b4	1720.6157
17	0x44d59a2d	1708.818
18	0x44d77f94	1723.9868
19	0x44d63ffe	1713.9998
20	0x44d65d5b	1714.9174
21	0x44d58f2b	1708.474
22	0x44d6f52e	1719.6619
23	0x44d61376	1712.6082
24	0x44d46917	1699.284
25	0x44d699ed	1716.8102
26	0x44d5e0c8	1711.0244
27	0x44d4ebcb	1703.3685
28	0x44d6b0f8	1717.5303
29	0x44d6e536	1719.1628
30	0x44d4f93b	1703.7885
31	0x44d57878	1707.7646
32	0x44d7e0bb	1727.0228
33	0x44d9dc02	1742.8752
34	0x44d4f91a	1703.7844
35	0x44d6f93f	1719.789
36	0x44d60add	1712.3395
37	0x44d6bbed	1717.8727
38	0x44d62b7e	1713.3591
39	0x44d7e47e	1727.1404
40	0x44d627cf	1713.244
41	0x44d7e357	1727.1044
42	0x44d710e6	1720.5281
43	0x44d74f45	1722.4772
44	0x44d755f2	1722.6858
45	0x44d7624b	1723.0717
46	0x44d53cfb	1705.9056
47	0x44d77c1f	1723.8788
48	0x44d72143	1721.0394
49	0x44d66aec	1715.3413
50	0x44d56804	1707.2505
51	0x44d7009c	1720.019
52	0x44d64274	1714.0767
53	0x44d6af20	1717.4727
54	0x44d6bab6	1717.8347
55	0x44d698cc	1716.7749
56	0x44d592db	1708.5892
57	0x44d76886	1723.2664
58	0x44d59982	1708.7971
59	0x44d4ac18	1701.3779
60	0x44d5d693	1710.7054
61	0x44d6389e	1713.7693
62	0x44d537cc	1705.7437
63	0x44d5b424	1709.6294
64	0x44d837c5	1729.7428
65	0x44d9c455	1742.1354
66	0x44d56196	1707.0496
67	0x44d5f306	1711.5945
68	0x44d7415b	1722.0424
69	0x44d4c192	1702.0491
70	0x44d73430	1721.6309
71	0x44d858b6	1730.7722
72	0x44d76ae0	1723.3398
73	0x44d7e698	1727.206
74	0x44d69290	1716.5801
75	0x44d7530c	1722.5952
76	0x44d78a94	1724.3306
77	0x44d7975e	1724.7302
78	0x44d6a97e	1717.2966
79	0x44d64fca	1714.4934
80	0x44d83021	1729.504
81	0x44d6c191	1718.049
82	0x44d6dec9	1718.962
83	0x44d75d5b	1722.9174
84	0x44d6af33	1717.475
85	0x44d65f0b	1714.9701
86	0x44d684c1	1716.1486
87	0x44d6e07f	1719.0155
88	0x44d549b2	1706.303
89	0x44d530ad	1705.5211
90	0x44d6571b	1714.722
91	0x44d4d547	1702.6649
92	0x44d71755	1720.7291
93	0x44d71929	1720.7863
94	0x44d5bbba	1709.8665
95	0x44d54984	1706.2974
96	0x44d7806e	1724.0134
97	0x44d99891	1740.7677
98	0x44d4c2dd	1702.0895
99	0x44d6cedc	1718.4644
100	0x44d6f1a4	1719.5513
101	0x44d5e29a	1711.0813
102	0x44d64575	1714.1705
103	0x44d85529	1730.6613
104	0x44d79da0	1724.9258
105	0x44d71d4d	1720.9156
106	0x44d5f387	1711.6102
107	0x44d745c1	1722.1798
108	0x44d64596	1714.1746
109	0x44d7c744	1726.227
110	0x44d5883b	1708.2572
111	0x44d59b5a	1708.8547
112	0x44d70485	1720.1412
113	0x44d5d57a	1710.6711
114	0x44d73278	1721.5771
115	0x44d6db59	1718.8546
116	0x44d665c3	1715.18
117	0x44d69df4	1716.936
118	0x44d65cb2	1714.8967
119	0x44d664b2	1715.1467
120	0x44d55dbb	1706.9291
121	0x44d55935	1706.7877
122	0x44d61117	1712.534
123	0x44d4ccec	1702.4038
124	0x44d6a305	1717.0944
125	0x44d6cd24	1718.4106
126	0x44d4f7d9	1703.7452
127	0x44d59ea0	1708.957
128	0x44d6d4b0	1718.6465
129	0x44d9993f	1740.789
130	0x44d5f39c	1711.6128
131	0x44d6dc05	1718.8756
132	0x44d73a76	1721.8269
133	0x44d669a8	1715.3018
134	0x44d6aded	1717.4352
135	0x44d8673b	1731.226
136	0x44d78905	1724.2819
137	0x44d798f5	1724.7799
138	0x44d76529	1723.1613
139	0x44d78be9	1724.3722
140	0x44d71c91	1720.8927
141	0x44d6c842	1718.258
142	0x44d5b410	1709.627
143	0x44d6ffe8	1719.9971
144	0x44d76493	1723.143
145	0x44d57e5a	1707.9485
146	0x44d69e6f	1716.951
147	0x44d7a8b6	1725.2722
148	0x44d6e7bd	1719.2418
149	0x44d65ed7	1714.9637
150	0x44d76b71	1723.3575
151	0x44d6b640	1717.6953
152	0x44d4cce6	1702.4031
153	0x44d551f4	1706.561
154	0x44d5e986	1711.2976
155	0x44d5577f	1706.7343
156	0x44d63356	1713.6042
157	0x44d6f1fd	1719.5621
158	0x44d61739	1712.7257
159	0x44d518a2	1704.7698
160	0x44d817e0	1728.7461
161	0x44d9b3a9	1741.6144
162	0x44d5a8a3	1709.2699
163	0x44d5f07e	1711.5154
164	0x44d65c94	1714.8931
165	0x44d68aca	1716.3372
166	0x44d4a469	1701.1378
167	0x44d7b7ed	1725.7477
168	0x44d705b1	1720.1779
169	0x44d68ce6	1716.4031
170	0x44d7b7ee	1725.7478
171	0x44d87a1f	1731.8163
172	0x44d74bbc	1722.3667
173	0x44d7b9fe	1725.8123
174	0x44d40fd4	1696.4946
175	0x44d6c42f	1718.1307
176	0x44d722c6	1721.0867
177	0x44d6675e	1715.2302
178	0x44d6a4f6	1717.155
179	0x44d71bee	1720.8728
180	0x44d62b27	1713.3485
181	0x44d62fab	1713.4896
182	0x44d6e861	1719.2618
183	0x44d5a2dc	1709.0894
184	0x44d43844	1697.7583
185	0x44d6bbe5	1717.8717
186	0x44d5cbdd	1710.3707
187	0x44d5884d	1708.2594
188	0x44d664c4	1715.1489
189	0x44d6a2a3	1717.0824
190	0x44d53c9e	1705.8943
191	0x44d51b32	1704.8499
192	0x44d6b0cb	1717.5248
193	0x44d7f9c9	1727.8058
194	0x44d6d26e	1718.5759
195	0x44d5d4e8	1710.6533
196	0x44d681c7	1716.0555
197	0x44d59da2	1708.926
198	0x44d6388c	1713.7671
199	0x44d5b682	1709.7034
200	0x44d665d8	1715.1826
201	0x44d7cc18	1726.3779
202	0x44d64dfb	1714.4369
203	0x44d77dd1	1723.9318
204	0x44d73d2b	1721.9115
205	0x44d6ec09	1719.3761
206	0x44d63e4b	1713.9467
207	0x44d77f92	1723.9866
208	0x44d7a225	1725.067
209	0x44d64fa5	1714.4889
210	0x44d6f8bf	1719.7733
211	0x44d704b2	1720.1467
212	0x44d6ee0e	1719.4392
213	0x44d626e2	1713.2151
214	0x44d61937	1712.788
215	0x44d6b997	1717.7997
216	0x44d4ed45	1703.4147
217	0x44d503ed	1704.1227
218	0x44d5cc7c	1710.3901
219	0x44d52662	1705.1995
220	0x44d548af	1706.2714
221	0x44d768d0	1723.2754
222	0x44d548d1	1706.2755
223	0x44d47efb	1699.9681
224	0x44d68486	1716.1414
225	0x44d9cc6e	1742.3884
226	0x44d5b14d	1709.5406
227	0x44d62802	1713.2502
228	0x44d71409	1720.6261
229	0x44d6f5e8	1719.6846
230	0x44d61858	1712.7607
231	0x44d7c33a	1726.1008
232	0x44d75ba5	1722.8639
233	0x44d77e32	1723.9436
234	0x44d6b5ae	1717.6775
235	0x44d7752f	1723.662
236	0x44d67805	1715.7506
237	0x44d77d25	1723.9108
238	0x44d55839	1706.757
239	0x44d69d15	1716.9088
240	0x44d7d448	1726.6338
241	0x44d5ff05	1711.9694
242	0x44d6b1b8	1717.5537
243	0x44d658c5	1714.774
244	0x44d64f2a	1714.4739
245	0x44d5eab3	1711.3344
246	0x44d6429d	1714.0817
247	0x44d63999	1713.7999
248	0x44d4ad53	1701.4164
249	0x44d68a85	1716.3287
250	0x44d5d4c1	1710.6486
251	0x44d4fad6	1703.8386
252	0x44d60f69	1712.4816
253	0x44d678c5	1715.774
254	0x44d5e182	1711.0471
255	0x44d4b124	1701.5356
