data/dataset/negative/11bb6848-aaed-42b5-b526-70fc6dc6a9fc.npz (npz, 23743 bytes, 4 tensors)

methane f8 [32, 32]
000000 00 00 00 00 00 00 9e 47 00 00 00 00 00 00 9e 47
       9.969209968386869e+36 9.969209968386869e+36
000010 00 00 00 00 00 00 9e 47 00 00 00 00 00 00 9e 47
       9.969209968386869e+36 9.969209968386869e+36
000020 00 00 00 00 00 00 9e 47 00 00 00 00 00 00 9e 47
       9.969209968386869e+36 9.969209968386869e+36
000030 00 00 00 00 00 00 9e 47 00 00 00 00 00 00 9e 47
       9.969209968386869e+36 9.969209968386869e+36
000040 00 00 00 00 00 00 9e 47 00 00 00 00 00 00 9e 47
       9.969209968386869e+36 9.969209968386869e+36
000050 00 00 00 00 00 00 9e 47 00 00 00 00 00 00 9e 47
       9.969209968386869e+36 9.969209968386869e+36
000060 00 00 00 00 00 00 9e 47 00 00 00 00 00 00 9e 47
       9.969209968386869e+36 9.969209968386869e+36
000070 00 00 00 00 00 00 9e 47 00 00 00 00 00 00 9e 47
       9.969209968386869e+36 9.969209968386869e+36
000080 00 00 00 00 00 00 9e 47 00 00 00 00 00 00 9e 47
       9.969209968386869e+36 9.969209968386869e+36
000090 00 00 00 00 00 00 9e 47 00 00 00 00 00 00 9e 47
       9.969209968386869e+36 9.969209968386869e+36
0000a0 00 00 00 00 00 00 9e 47 00 00 00 00 00 00 9e 47
       9.969209968386869e+36 9.969209968386869e+36
0000b0 00 00 00 00 00 00 9e 47 00 00 00 00 00 00 9e 47
       9.969209968386869e+36 9.969209968386869e+36
0000c0 00 00 00 00 00 00 9e 47 00 00 00 00 00 00 9e 47
       9.969209968386869e+36 9.969209968386869e+36
0000d0 00 00 00 00 00 00 9e 47 00 00 00 00 00 00 9e 47
       9.969209968386869e+36 9.969209968386869e+36
0000e0 00 00 00 00 00 00 9e 47 00 00 00 00 00 00 9e 47
       9.969209968386869e+36 9.969209968386869e+36
0000f0 00 00 00 00 00 00 9e 47 00 00 00 00 00 00 9e 47
       9.969209968386869e+36 9.969209968386869e+36
000100 00 00 00 00 00 00 9e 47 00 00 00 00 00 00 9e 47
       9.969209968386869e+36 9.969209968386869e+36
000110 00 00 00 00 00 00 9e 47 00 00 00 00 00 00 9e 47
       9.969209968386869e+36 9.969209968386869e+36
000120 00 00 00 00 00 00 9e 47 00 00 00 00 00 00 9e 47
       9.969209968386869e+36 9.969209968386869e+36
000130 00 00 00 00 00 00 9e 47 00 00 00 00 00 00 9e 47
       9.969209968386869e+36 9.969209968386869e+36
000140 00 00 00 00 00 00 9e 47 00 00 00 00 00 00 9e 47
       9.969209968386869e+36 9.969209968386869e+36
000150 00 00 00 00 00 00 9e 47 00 00 00 00 00 00 9e 47
       9.969209968386869e+36 9.969209968386869e+36
000160 00 00 00 00 00 00 9e 47 00 00 00 00 00 00 9e 47
       9.969209968386869e+36 9.969209968386869e+36
000170 00 00 00 00 00 00 9e 47 00 00 00 00 00 00 9e 47
       9.969209968386869e+36 9.969209968386869e+36
000180 00 00 00 00 00 00 9e 47 00 00 00 00 00 00 9e 47
       9.969209968386869e+36 9.969209968386869e+36
000190 00 00 00 00 00 00 9e 47 00 00 00 00 00 00 9e 47
       9.969209968386869e+36 9.969209968386869e+36
0001a0 00 00 00 00 00 00 9e 47 00 00 00 00 00 00 9e 47
       9.969209968386869e+36 9.969209968386869e+36
0001b0 00 00 00 00 00 00 9e 47 00 00 00 00 00 00 9e 47
       9.969209968386869e+36 9.969209968386869e+36
0001c0 00 00 00 00 00 00 9e 47 00 00 00 00 00 00 9e 47
       9.969209968386869e+36 9.969209968386869e+36
0001d0 00 00 00 00 00 00 9e 47 00 00 00 00 00 00 9e 47
       9.969209968386869e+36 9.969209968386869e+36
0001e0 00 00 00 00 00 00 9e 47 00 00 00 00 00 00 9e 47
       9.969209968386869e+36 9.969209968386869e+36
0001f0 00 00 00 00 00 00 9e 47 00 00 00 00 00 00 9e 47
       9.969209968386869e+36 9.969209968386869e+36
000200 00 00 00 00 00 00 9e 47 00 00 00 00 00 00 9e 47
       9.969209968386869e+36 9.969209968386869e+36
000210 00 00 00 00 00 00 9e 47 00 00 00 00 00 00 9e 47
       9.969209968386869e+36 9.969209968386869e+36
000220 00 00 00 00 00 00 9e 47 00 00 00 00 00 00 9e 47
       9.969209968386869e+36 9.969209968386869e+36
000230 00 00 00 00 00 00 9e 47 00 00 00 00 00 00 9e 47
       9.969209968386869e+36 9.969209968386869e+36
000240 00 00 00 00 00 00 9e 47 00 00 00 00 00 00 9e 47
       9.969209968386869e+36 9.969209968386869e+36
000250 00 00 00 00 00 00 9e 47 00 00 00 00 00 00 9e 47
       9.969209968386869e+36 9.969209968386869e+36
000260 00 00 00 00 00 00 9e 47 00 00 00 00 00 00 9e 47
       9.969209968386869e+36 9.969209968386869e+36
000270 00 00 00 00 00 00 9e 47 00 00 00 00 00 00 9e 47
       9.969209968386869e+36 9.969209968386869e+36
000280 00 00 00 00 00 00 9e 47 00 00 00 00 00 00 9e 47
       9.969209968386869e+36 9.969209968386869e+36
000290 00 00 00 00 00 00 9e 47 00 00 00 00 00 00 9e 47
       9.969209968386869e+36 9.969209968386869e+36
0002a0 00 00 00 00 00 00 9e 47 00 00 00 00 00 00 9e 47
       9.969209968386869e+36 9.969209968386869e+36
0002b0 00 00 00 00 00 00 9e 47 00 00 00 00 00 00 9e 47
       9.969209968386869e+36 9.969209968386869e+36
0002c0 00 00 00 00 00 00 9e 47 00 00 00 00 00 00 9e 47
       9.969209968386869e+36 9.969209968386869e+36
0002d0 00 00 00 00 00 00 9e 47 00 00 00 00 00 00 9e 47
       9.969209968386869e+36 9.969209968386869e+36
0002e0 00 00 00 00 00 00 9e 47 00 00 00 00 00 00 9e 47
       9.969209968386869e+36 9.969209968386869e+36
0002f0 00 00 00 00 00 00 9e 47 00 00 00 00 00 00 9e 47
       9.969209968386869e+36 9.969209968386869e+36
000300 00 00 00 00 00 00 9e 47 00 00 00 00 00 00 9e 47
       9.969209968386869e+36 9.969209968386869e+36
000310 00 00 00 00 00 00 9e 47 00 00 00 00 00 00 9e 47
       9.969209968386869e+36 9.969209968386869e+36
000320 00 00 00 00 00 00 9e 47 00 00 00 00 00 00 9e 47
       9.969209968386869e+36 9.969209968386869e+36
000330 00 00 00 00 00 00 9e 47 00 00 00 00 00 00 9e 47
       9.969209968386869e+36 9.969209968386869e+36
000340 00 00 00 00 00 00 9e 47 00 00 00 00 00 00 9e 47
       9.969209968386869e+36 9.969209968386869e+36
000350 00 00 00 00 00 00 9e 47 00 00 00 00 00 00 9e 47
       9.969209968386869e+36 9.969209968386869e+36
000360 00 00 00 00 00 00 9e 47 00 00 00 00 00 00 9e 47
       9.969209968386869e+36 9.969209968386869e+36
000370 00 00 00 00 00 00 9e 47 00 00 00 00 00 00 9e 47
       9.969209968386869e+36 9.969209968386869e+36
000380 00 00 00 00 00 00 9e 47 00 00 00 00 00 00 9e 47
       9.969209968386869e+36 9.969209968386869e+36
000390 00 00 00 00 00 00 9e 47 00 00 00 00 00 00 9e 47
       9.969209968386869e+36 9.969209968386869e+36
0003a0 00 00 00 00 00 00 9e 47 00 00 00 00 00 00 9e 47
       9.969209968386869e+36 9.969209968386869e+36
0003b0 00 00 00 00 00 00 9e 47 00 00 00 00 00 00 9e 47
       9.969209968386869e+36 9.969209968386869e+36
0003c0 00 00 00 00 00 00 9e 47 00 00 00 00 00 00 9e 47
       9.969209968386869e+36 9.969209968386869e+36
0003d0 00 00 00 00 00 00 9e 47 00 00 00 00 00 00 9e 47
       9.969209968386869e+36 9.969209968386869e+36
0003e0 00 00 00 00 00 00 9e 47 00 00 00 00 00 00 9e 47
       9.969209968386869e+36 9.969209968386869e+36
0003f0 00 00 00 00 00 00 9e 47 00 00 00 00 00 00 9e 47
       9.969209968386869e+36 9.969209968386869e+36
000400 00 00 00 00 00 00 9e 47 00 00 00 00 00 00 9e 47
       9.969209968386869e+36 9.969209968386869e+36
000410 00 00 00 00 00 00 9e 47 00 00 00 00 00 00 9e 47
       9.969209968386869e+36 9.969209968386869e+36
000420 00 00 00 00 00 00 9e 47 00 00 00 00 00 00 9e 47
       9.969209968386869e+36 9.969209968386869e+36
000430 00 00 00 00 00 00 9e 47 00 00 00 00 00 00 9e 47
       9.969209968386869e+36 9.969209968386869e+36
000440 00 00 00 00 00 00 9e 47 00 00 00 00 00 00 9e 47
       9.969209968386869e+36 9.969209968386869e+36
000450 00 00 00 00 00 00 9e 47 00 00 00 00 00 00 9e 47
       9.969209968386869e+36 9.969209968386869e+36
000460 00 00 00 00 00 00 9e 47 00 00 00 00 00 00 9e 47
       9.969209968386869e+36 9.969209968386869e+36
000470 00 00 00 00 00 00 9e 47 00 00 00 00 00 00 9e 47
       9.969209968386869e+36 9.969209968386869e+36
000480 00 00 00 00 00 00 9e 47 00 00 00 00 00 00 9e 47
       9.969209968386869e+36 9.969209968386869e+36
000490 00 00 00 00 00 00 9e 47 00 00 00 00 00 00 9e 47
       9.969209968386869e+36 9.969209968386869e+36
0004a0 00 00 00 00 00 00 9e 47 00 00 00 00 00 00 9e 47
       9.969209968386869e+36 9.969209968386869e+36
0004b0 00 00 00 00 00 00 9e 47 00 00 00 00 00 00 9e 47
       9.969209968386869e+36 9.969209968386869e+36
0004c0 00 00 00 00 00 00 9e 47 00 00 00 00 00 00 9e 47
       9.969209968386869e+36 9.969209968386869e+36
0004d0 00 00 00 00 00 00 9e 47 00 00 00 00 00 00 9e 47
       9.969209968386869e+36 9.969209968386869e+36
0004e0 00 00 00 00 00 00 9e 47 00 00 00 00 00 00 9e 47
       9.969209968386869e+36 9.969209968386869e+36
0004f0 00 00 00 00 00 00 9e 47 00 00 00 00 00 00 9e 47
       9.969209968386869e+36 9.969209968386869e+36
000500 00 00 00 00 00 00 9e 47 00 00 00 00 00 00 9e 47
       9.969209968386869e+36 9.969209968386869e+36
000510 00 00 00 00 00 00 9e 47 00 00 00 00 00 00 9e 47
       9.969209968386869e+36 9.969209968386869e+36
000520 00 00 00 00 00 00 9e 47 00 00 00 00 00 00 9e 47
       9.969209968386869e+36 9.969209968386869e+36
000530 00 00 00 00 00 00 9e 47 00 00 00 00 00 00 9e 47
       9.969209968386869e+36 9.969209968386869e+36
000540 00 00 00 00 00 00 9e 47 00 00 00 00 00 00 9e 47
       9.969209968386869e+36 9.969209968386869e+36
000550 00 00 00 00 00 00 9e 47 00 00 00 00 00 00 9e 47
       9.969209968386869e+36 9.969209968386869e+36
000560 00 00 00 00 00 00 9e 47 00 00 00 00 00 00 9e 47
       9.969209968386869e+36 9.969209968386869e+36
000570 00 00 00 00 00 00 9e 47 00 00 00 00 00 00 9e 47
       9.969209968386869e+36 9.969209968386869e+36
000580 00 00 00 00 00 00 9e 47 00 00 00 00 00 00 9e 47
       9.969209968386869e+36 9.969209968386869e+36
000590 00 00 00 00 00 00 9e 47 00 00 00 00 00 00 9e 47
       9.969209968386869e+36 9.969209968386869e+36
0005a0 00 00 00 00 00 00 9e 47 00 00 00 00 00 00 9e 47
       9.969209968386869e+36 9.969209968386869e+36
0005b0 00 00 00 00 00 00 9e 47 00 00 00 00 00 00 9e 47
       9.969209968386869e+36 9.969209968386869e+36
0005c0 00 00 00 00 00 00 9e 47 00 00 00 00 00 00 9e 47
       9.969209968386869e+36 9.969209968386869e+36
0005d0 00 00 00 00 00 00 9e 47 00 00 00 00 00 00 9e 47
       9.969209968386869e+36 9.969209968386869e+36
0005e0 00 00 00 00 00 00 9e 47 00 00 00 00 00 00 9e 47
       9.969209968386869e+36 9.969209968386869e+36
0005f0 00 00 00 00 00 00 9e 47 00 00 00 00 00 00 9e 47
       9.969209968386869e+36 9.969209968386869e+36
000600 00 00 00 00 00 00 9e 47 00 00 00 00 00 00 9e 47
       9.969209968386869e+36 9.969209968386869e+36
000610 00 00 00 00 00 00 9e 47 00 00 00 00 00 00 9e 47
       9.969209968386869e+36 9.969209968386869e+36
000620 00 00 00 00 00 00 9e 47 00 00 00 00 00 00 9e 47
       9.969209968386869e+36 9.969209968386869e+36
000630 00 00 00 00 00 00 9e 47 00 00 00 00 00 00 9e 47
       9.969209968386869e+36 9.969209968386869e+36
000640 00 00 00 00 00 00 9e 47 00 00 00 00 00 00 9e 47
       9.969209968386869e+36 9.969209968386869e+36
000650 00 00 00 00 00 00 9e 47 00 00 00 00 00 00 9e 47
       9.969209968386869e+36 9.969209968386869e+36
000660 00 00 00 00 00 00 9e 47 00 00 00 00 00 00 9e 47
       9.969209968386869e+36 9.969209968386869e+36
000670 00 00 00 00 00 00 9e 47 00 00 00 00 00 00 9e 47
       9.969209968386869e+36 9.969209968386869e+36
000680 00 00 00 00 00 00 9e 47 00 00 00 00 00 00 9e 47
       9.969209968386869e+36 9.969209968386869e+36
000690 00 00 00 00 00 00 9e 47 00 00 00 00 00 00 9e 47
       9.969209968386869e+36 9.969209968386869e+36
0006a0 00 00 00 00 00 00 9e 47 00 00 00 00 00 00 9e 47
       9.969209968386869e+36 9.969209968386869e+36
0006b0 00 00 00 00 00 00 9e 47 00 00 00 00 00 00 9e 47
       9.969209968386869e+36 9.969209968386869e+36
0006c0 00 00 00 00 00 00 9e 47 00 00 00 00 00 00 9e 47
       9.969209968386869e+36 9.969209968386869e+36
0006d0 00 00 00 00 00 00 9e 47 00 00 00 00 00 00 9e 47
       9.969209968386869e+36 9.969209968386869e+36
0006e0 00 00 00 00 00 00 9e 47 00 00 00 00 00 00 9e 47
       9.969209968386869e+36 9.969209968386869e+36
0006f0 00 00 00 00 00 00 9e 47 00 00 00 00 00 00 9e 47
       9.969209968386869e+36 9.969209968386869e+36
000700 00 00 00 00 00 00 9e 47 00 00 00 00 00 00 9e 47
       9.969209968386869e+36 9.969209968386869e+36
000710 00 00 00 00 00 00 9e 47 00 00 00 00 00 00 9e 47
       9.969209968386869e+36 9.969209968386869e+36
000720 00 00 00 00 00 00 9e 47 00 00 00 00 00 00 9e 47
       9.969209968386869e+36 9.969209968386869e+36
000730 00 00 00 00 00 00 9e 47 00 00 00 00 00 00 9e 47
       9.969209968386869e+36 9.969209968386869e+36
000740 00 00 00 00 00 00 9e 47 00 00 00 00 00 00 9e 47
       9.969209968386869e+36 9.969209968386869e+36
000750 00 00 00 00 00 00 9e 47 00 00 00 00 00 00 9e 47
       9.969209968386869e+36 9.969209968386869e+36
000760 00 00 00 00 00 00 9e 47 00 00 00 00 00 00 9e 47
       9.969209968386869e+36 9.969209968386869e+36
000770 00 00 00 00 00 00 9e 47 00 00 00 00 00 00 9e 47
       9.969209968386869e+36 9.969209968386869e+36
000780 00 00 00 00 00 00 9e 47 00 00 00 00 00 00 9e 47
       9.969209968386869e+36 9.969209968386869e+36
000790 00 00 00 00 00 00 9e 47 00 00 00 00 00 00 9e 47
       9.969209968386869e+36 9.969209968386869e+36
0007a0 00 00 00 00 00 00 9e 47 00 00 00 00 00 00 9e 47
       9.969209968386869e+36 9.969209968386869e+36
0007b0 00 00 00 00 00 00 9e 47 00 00 00 00 00 00 9e 47
       9.969209968386869e+36 9.969209968386869e+36
0007c0 00 00 00 00 00 00 9e 47 00 00 00 00 00 00 9e 47
       9.969209968386869e+36 9.969209968386869e+36
0007d0 00 00 00 00 00 00 9e 47 00 00 00 00 00 00 9e 47
       9.969209968386869e+36 9.969209968386869e+36
0007e0 00 00 00 00 00 00 9e 47 00 00 00 00 00 00 9e 47
       9.969209968386869e+36 9.969209968386869e+36
0007f0 00 00 00 00 00 00 9e 47 00 00 00 00 00 00 9e 47
       9.969209968386869e+36 9.969209968386869e+36

lat f4 [32, 32]
000000 3e 2c 66 42 0d 40 66 42 ab 53 66 42 18 67 66 42
       57.543205 57.56255 57.581707 57.600677
000010 54 7a 66 42 62 8d 66 42 40 a0 66 42 f0 b2 66 42
       57.61946 57.63807 57.656494 57.674744
000020 72 c5 66 42 c7 d7 66 42 ef e9 66 42 ea fb 66 42
       57.692818 57.71072 57.72845 57.74601
000030 b9 0d 67 42 5c 1f 67 42 d4 30 67 42 1f 42 67 42
       57.7634 57.780624 57.797684 57.81457
000040 40 53 67 42 36 64 67 42 01 75 67 42 a1 85 67 42
       57.8313 57.847862 57.86426 57.880497
000050 17 96 67 42 61 a6 67 42 82 b6 67 42 77 c6 67 42
       57.896572 57.91248 57.92823 57.943813
000060 42 d6 67 42 e1 e5 67 42 56 f5 67 42 9f 04 68 42
       57.959236 57.97449 57.989586 58.004513
000070 bd 13 68 42 af 22 68 42 75 31 68 42 0e 40 68 42
       58.019276 58.03387 58.048298 58.062553
000080 1b 5d 66 42 ef 70 66 42 92 84 66 42 04 98 66 42
       57.590923 57.610287 57.629463 57.648453
000090 46 ab 66 42 58 be 66 42 3b d1 66 42 f0 e3 66 42
       57.66726 57.685883 57.704327 57.722595
0000a0 77 f6 66 42 d1 08 67 42 fe 1a 67 42 fd 2c 67 42
       57.74069 57.75861 57.77636 57.793934
0000b0 d1 3e 67 42 79 50 67 42 f5 61 67 42 46 73 67 42
       57.811344 57.828587 57.84566 57.86257
0000c0 6b 84 67 42 65 95 67 42 35 a6 67 42 da b6 67 42
       57.879314 57.895893 57.91231 57.928566
0000d0 53 c7 67 42 a3 d7 67 42 c7 e7 67 42 c1 f7 67 42
       57.944653 57.960583 57.976345 57.991947
0000e0 90 07 68 42 34 17 68 42 ad 26 68 42 fb 35 68 42
       58.007385 58.02266 58.03777 58.052715
0000f0 1d 45 68 42 13 54 68 42 dc 62 68 42 7a 71 68 42
       58.067493 58.082104 58.096542 58.110817
000100 f2 8d 66 42 cb a1 66 42 73 b5 66 42 ea c8 66 42
       57.63862 57.658 57.677197 57.696205
000110 31 dc 66 42 48 ef 66 42 31 02 67 42 eb 14 67 42
       57.71503 57.733673 57.75214 57.770428
000120 77 27 67 42 d5 39 67 42 06 4c 67 42 0b 5e 67 42
       57.78854 57.806477 57.82424 57.84184
000130 e3 6f 67 42 90 81 67 42 11 93 67 42 66 a4 67 42
       57.859264 57.876526 57.89362 57.910545
000140 90 b5 67 42 8f c6 67 42 63 d7 67 42 0c e8 67 42
       57.927307 57.943905 57.96034 57.97661
000150 8a f8 67 42 de 08 68 42 07 19 68 42 05 29 68 42
       57.992714 58.00866 58.02444 58.04006
000160 d8 38 68 42 81 48 68 42 fe 57 68 42 4f 67 68 42
       58.05551 58.070805 58.08593 58.100887
000170 76 76 68 42 70 85 68 42 3e 94 68 42 df a2 68 42
       58.115685 58.13031 58.144768 58.159054
000180 cd be 66 42 ab d2 66 42 58 e6 66 42 d4 f9 66 42
       57.68633 57.70573 57.724945 57.743973
000190 20 0d 67 42 3c 20 67 42 2a 33 67 42 e8 45 67 42
       57.762817 57.78148 57.799965 57.818268
0001a0 79 58 67 42 dc 6a 67 42 13 7d 67 42 1c 8f 67 42
       57.8364 57.854355 57.872143 57.889755
0001b0 f9 a0 67 42 aa b2 67 42 30 c4 67 42 8a d5 67 42
       57.9072 57.924477 57.94159 57.958534
0001c0 b8 e6 67 42 bc f7 67 42 94 08 68 42 42 19 68 42
       57.97531 57.99193 58.008377 58.024666
0001d0 c5 29 68 42 1d 3a 68 42 4a 4a 68 42 4d 5a 68 42
       58.04079 58.05675 58.072548 58.088184
0001e0 24 6a 68 42 d1 79 68 42 52 89 68 42 a8 98 68 42
       58.103653 58.11896 58.1341 58.14908
0001f0 d3 a7 68 42 d1 b6 68 42 a3 c5 68 42 48 d4 68 42
       58.16389 58.17853 58.193005 58.207306
000200 a5 ef 66 42 89 03 67 42 3b 17 67 42 bc 2a 67 42
       57.734028 57.753452 57.772686 57.791733
000210 0d 3e 67 42 2e 51 67 42 20 64 67 42 e4 76 67 42
       57.810596 57.829277 57.84778 57.866104
000220 7a 89 67 42 e2 9b 67 42 1d ae 67 42 2b c0 67 42
       57.884254 57.90223 57.920033 57.937664
000230 0d d2 67 42 c3 e3 67 42 4d f5 67 42 ab 06 68 42
       57.955128 57.972424 57.98955 58.00651
000240 df 17 68 42 e7 28 68 42 c4 39 68 42 76 4a 68 42
       58.02331 58.039944 58.05641 58.072716
000250 fd 5a 68 42 5a 6b 68 42 8c 7b 68 42 93 8b 68 42
       58.088856 58.104836 58.12065 58.136303
000260 6f 9b 68 42 20 ab 68 42 a5 ba 68 42 00 ca 68 42
       58.15179 58.167114 58.18227 58.197266
000270 2e d9 68 42 31 e8 68 42 07 f7 68 42 b0 05 69 42
       58.21209 58.22675 58.241238 58.255554
000280 7d 20 67 42 65 34 67 42 1d 48 67 42 a3 5b 67 42
       57.781727 57.801167 57.820423 57.83949
000290 f9 6e 67 42 1f 82 67 42 17 95 67 42 df a7 67 42
       57.85837 57.87707 57.895596 57.913937
0002a0 7a ba 67 42 e7 cc 67 42 27 df 67 42 3a f1 67 42
       57.932106 57.9501 57.967922 57.985573
0002b0 21 03 68 42 db 14 68 42 6a 26 68 42 ce 37 68 42
       58.003056 58.020367 58.037514 58.054497
0002c0 06 49 68 42 12 5a 68 42 f4 6a 68 42 ab 7b 68 42
       58.071312 58.08796 58.104446 58.12077
0002d0 37 8c 68 42 98 9c 68 42 ce ac 68 42 d9 bc 68 42
       58.13693 58.152924 58.168755 58.18442
0002e0 ba cc 68 42 6f dc 68 42 f9 eb 68 42 58 fb 68 42
       58.19993 58.215267 58.230442 58.245453
0002f0 8b 0a 69 42 91 19 69 42 6c 28 69 42 19 37 69 42
       58.260296 58.274967 58.289474 58.303806
000300 52 51 67 42 40 65 67 42 fd 78 67 42 88 8c 67 42
       57.829414 57.848877 57.868153 57.887238
000310 e3 9f 67 42 0e b3 67 42 0b c6 67 42 d8 d8 67 42
       57.90614 57.92486 57.9434 57.96176
000320 78 eb 67 42 ea fd 67 42 2f 10 68 42 47 22 68 42
       57.97995 57.997963 58.015804 58.033474
000330 32 34 68 42 f1 45 68 42 85 57 68 42 ed 68 68 42
       58.050972 58.068302 58.08547 58.102467
000340 2a 7a 68 42 3b 8b 68 42 21 9c 68 42 dc ac 68 42
       58.1193 58.135967 58.15247 58.168808
000350 6d bd 68 42 d2 cd 68 42 0d de 68 42 1d ee 68 42
       58.184986 58.200996 58.216846 58.232533
000360 02 fe 68 42 bb 0d 69 42 4a 1d 69 42 ad 2c 69 42
       58.248055 58.26341 58.278603 58.29363
000370 e4 3b 69 42 ef 4a 69 42 cd 59 69 42 7f 68 69 42
       58.308487 58.323177 58.337696 58.352047
000380 26 82 67 42 19 96 67 42 db a9 67 42 6b bd 67 42
       57.877098 57.89658 57.915874 57.93498
000390 cb d0 67 42 fc e3 67 42 fd f6 67 42 cf 09 68 42
       57.9539 57.97264 57.9912 58.00958
0003a0 74 1c 68 42 eb 2e 68 42 34 41 68 42 51 53 68 42
       58.027786 58.04582 58.063675 58.081364
0003b0 41 65 68 42 06 77 68 42 9e 88 68 42 0a 9a 68 42
       58.09888 58.116234 58.133415 58.15043
0003c0 4c ab 68 42 62 bc 68 42 4c cd 68 42 0c de 68 42
       58.167282 58.183968 58.200485 58.216843
0003d0 a1 ee 68 42 0b ff 68 42 4a 0f 69 42 5f 1f 69 42
       58.233036 58.249065 58.26493 58.280636
0003e0 48 2f 69 42 06 3f 69 42 98 4e 69 42 ff 5d 69 42
       58.296173 58.311546 58.32675 58.341793
0003f0 3b 6d 69 42 4a 7c 69 42 2d 8b 69 42 e2 99 69 42
       58.35667 58.371376 58.385914 58.400276

lon f4 [32, 32]
000000 c9 19 0e c3 68 fc 0d c3 f2 de 0d c3 68 c1 0d c3
       -142.10072 -141.98596 -141.87088 -141.7555
000010 c7 a3 0d c3 0e 86 0d c3 3b 68 0d c3 4e 4a 0d c3
       -141.63976 -141.52365 -141.40715 -141.29025
000020 44 2c 0d c3 1d 0e 0d c3 d6 ef 0c c3 6f d1 0c c3
       -141.17291 -141.05513 -140.93686 -140.8181
000030 e5 b2 0c c3 37 94 0c c3 63 75 0c c3 68 56 0c c3
       -140.6988 -140.57896 -140.45854 -140.33752
000040 45 37 0c c3 f6 17 0c c3 7b f8 0b c3 d2 d8 0b c3
       -140.2159 -140.0936 -139.97063 -139.84695
000050 f8 b8 0b c3 ed 98 0b c3 ae 78 0b c3 3a 58 0b c3
       -139.72253 -139.59737 -139.4714 -139.34464
000060 8d 37 0b c3 a7 16 0b c3 85 f5 0a c3 25 d4 0a c3
       -139.217 -139.08849 -138.95906 -138.82869
000070 84 b2 0a c3 a2 90 0a c3 7a 6e 0a c3 0b 4c 0a c3
       -138.69733 -138.56497 -138.43155 -138.29704
000080 26 21 0e c3 bb 03 0e c3 3d e6 0d c3 a9 c8 0d c3
       -142.12949 -142.01457 -141.89937 -141.78383
000090 fe aa 0d c3 3c 8d 0d c3 60 6f 0d c3 69 51 0d c3
       -141.66794 -141.5517 -141.43506 -141.31801
0000a0 56 33 0d c3 25 15 0d c3 d5 f6 0c c3 64 d8 0c c3
       -141.20053 -141.0826 -140.96419 -140.84528
0000b0 d0 b9 0c c3 18 9b 0c c3 3a 7c 0c c3 35 5d 0c c3
       -140.72583 -140.60583 -140.48526 -140.36409
0000c0 07 3e 0c c3 ae 1e 0c c3 29 ff 0b c3 75 df 0b c3
       -140.2423 -140.11984 -139.99672 -139.87288
0000d0 92 bf 0b c3 7c 9f 0b c3 32 7f 0b c3 b3 5e 0b c3
       -139.74832 -139.62299 -139.49686 -139.36992
0000e0 fb 3d 0b c3 0a 1d 0b c3 dd fb 0a c3 72 da 0a c3
       -139.24211 -139.11343 -138.98384 -138.8533
0000f0 c6 b8 0a c3 d8 96 0a c3 a5 74 0a c3 2b 52 0a c3
       -138.72177 -138.58923 -138.45564 -138.32097
000100 86 28 0e c3 12 0b 0e c3 8a ed 0d c3 ec cf 0d c3
       -142.1583 -142.04324 -141.92789 -141.8122
000110 39 b2 0d c3 6d 94 0d c3 87 76 0d c3 87 58 0d c3
       -141.69618 -141.57979 -141.463 -141.34581
000120 6a 3a 0d c3 30 1c 0d c3 d6 fd 0c c3 5b df 0c c3
       -141.22818 -141.1101 -140.99155 -140.87248
000130 bd c0 0c c3 fb a1 0c c3 13 83 0c c3 04 64 0c c3
       -140.75288 -140.63274 -140.51201 -140.39069
000140 cc 44 0c c3 69 25 0c c3 d9 05 0c c3 1b e6 0b c3
       -140.26874 -140.14613 -140.02284 -139.89885
000150 2d c6 0b c3 0d a6 0b c3 b8 85 0b c3 2e 65 0b c3
       -139.77412 -139.64864 -139.52234 -139.39523
000160 6c 44 0b c3 6f 23 0b c3 37 02 0b c3 c1 e0 0a c3
       -139.26727 -139.13841 -139.00865 -138.87794
000170 0a bf 0a c3 10 9d 0a c3 d1 7a 0a c3 4b 58 0a c3
       -138.74625 -138.61353 -138.47975 -138.3449
000180 ea 2f 0e c3 6d 12 0e c3 dc f4 0d c3 35 d7 0d c3
       -142.18716 -142.07198 -141.95648 -141.84065
000190 78 b9 0d c3 a3 9b 0d c3 b4 7d 0d c3 aa 5f 0d c3
       -141.72449 -141.60796 -141.49103 -141.37369
0001a0 83 41 0d c3 3f 23 0d c3 db 04 0d c3 56 e6 0c c3
       -141.2559 -141.13768 -141.01897 -140.89975
0001b0 af c7 0c c3 e3 a8 0c c3 f1 89 0c c3 d8 6a 0c c3
       -140.78001 -140.65971 -140.53883 -140.41736
0001c0 95 4b 0c c3 28 2c 0c c3 8e 0c 0c c3 c5 ec 0b c3
       -140.29524 -140.17249 -140.04904 -139.92488
0001d0 cc cc 0b c3 a1 ac 0b c3 42 8c 0b c3 ad 6b 0b c3
       -139.79999 -139.67433 -139.54788 -139.42061
0001e0 e0 4a 0b c3 d9 29 0b c3 95 08 0b c3 14 e7 0a c3
       -139.29248 -139.16347 -139.03352 -138.90265
0001f0 51 c5 0a c3 4c a3 0a c3 02 81 0a c3 70 5e 0a c3
       -138.77077 -138.63788 -138.50394 -138.3689
000200 54 37 0e c3 cd 19 0e c3 33 fc 0d c3 83 de 0d c3
       -142.21613 -142.10078 -141.98515 -141.86919
000210 bc c0 0d c3 dd a2 0d c3 e5 84 0d c3 d1 66 0d c3
       -141.75287 -141.63618 -141.51912 -141.40163
000220 a1 48 0d c3 53 2a 0d c3 e5 0b 0d c3 57 ed 0c c3
       -141.2837 -141.16533 -141.04646 -140.92711
000230 a5 ce 0c c3 cf af 0c c3 d3 90 0c c3 b0 71 0c c3
       -140.8072 -140.68675 -140.56572 -140.44409
000240 63 52 0c c3 eb 32 0c c3 47 13 0c c3 74 f3 0b c3
       -140.32182 -140.1989 -140.0753 -139.95099
000250 70 d3 0b c3 3b b3 0b c3 d1 92 0b c3 31 72 0b c3
       -139.82593 -139.70012 -139.5735 -139.44606
000260 59 51 0b c3 46 30 0b c3 f8 0e 0b c3 6b ed 0a c3
       -139.31776 -139.18857 -139.05847 -138.92741
000270 9d cb 0a c3 8d a9 0a c3 37 87 0a c3 99 64 0a c3
       -138.79536 -138.66231 -138.52818 -138.39296
000280 c2 3e 0e c3 32 21 0e c3 8e 03 0e c3 d5 e5 0d c3
       -142.24515 -142.12967 -142.01389 -141.89778
000290 05 c8 0d c3 1d aa 0d c3 1b 8c 0d c3 fd 6d 0d c3
       -141.78133 -141.6645 -141.54729 -141.42964
0002a0 c4 4f 0d c3 6c 31 0d c3 f4 12 0d c3 5b f4 0c c3
       -141.31158 -141.19305 -141.07404 -140.95451
0002b0 a0 d5 0c c3 c0 b6 0c c3 ba 97 0c c3 8c 78 0c c3
       -140.83447 -140.71387 -140.59268 -140.47089
0002c0 36 59 0c c3 b3 39 0c c3 05 1a 0c c3 27 fa 0b c3
       -140.34848 -140.22539 -140.10164 -139.97716
0002d0 19 da 0b c3 d9 b9 0b c3 64 99 0b c3 b9 78 0b c3
       -139.85194 -139.72597 -139.59918 -139.47157
0002e0 d6 57 0b c3 b8 36 0b c3 5f 15 0b c3 c6 f3 0a c3
       -139.34311 -139.21375 -139.08348 -138.95224
0002f0 ed d1 0a c3 d1 af 0a c3 70 8d 0a c3 c6 6a 0a c3
       -138.82002 -138.68678 -138.55249 -138.41708
000300 31 46 0e c3 98 28 0e c3 eb 0a 0e c3 28 ed 0d c3
       -142.27419 -142.15857 -142.04265 -141.92639
000310 4f cf 0d c3 5d b1 0d c3 51 93 0d c3 2a 75 0d c3
       -141.8098 -141.69283 -141.57545 -141.45767
000320 e7 56 0d c3 85 38 0d c3 04 1a 0d c3 61 fb 0c c3
       -141.33946 -141.22078 -141.10162 -140.98195
000330 9b dc 0c c3 b1 bd 0c c3 a1 9e 0c c3 6a 7f 0c c3
       -140.86174 -140.74098 -140.61964 -140.49771
000340 08 60 0c c3 7c 40 0c c3 c2 20 0c c3 da 00 0c c3
       -140.37512 -140.25189 -140.12796 -140.00333
000350 c2 e0 0b c3 76 c0 0b c3 f7 9f 0b c3 41 7f 0b c3
       -139.87796 -139.7518 -139.62486 -139.49709
000360 53 5e 0b c3 2a 3d 0b c3 c5 1b 0b c3 22 fa 0a c3
       -139.36845 -139.23892 -139.10847 -138.97708
000370 3d d8 0a c3 15 b6 0a c3 a8 93 0a c3 f3 70 0a c3
       -138.84468 -138.71126 -138.57678 -138.44121
000380 a7 4d 0e c3 05 30 0e c3 4e 12 0e c3 82 f4 0d c3
       -142.30333 -142.18758 -142.0715 -141.95511
000390 9f d6 0d c3 a3 b8 0d c3 8e 9a 0d c3 5d 7c 0d c3
       -141.83836 -141.72124 -141.60373 -141.4858
0003a0 10 5e 0d c3 a5 3f 0d c3 19 21 0d c3 6d 02 0d c3
       -141.36743 -141.24861 -141.12929 -141.00948
0003b0 9d e3 0c c3 a9 c4 0c c3 8f a5 0c c3 4d 86 0c c3
       -140.88911 -140.7682 -140.64671 -140.52461
0003c0 e1 66 0c c3 4a 47 0c c3 86 27 0c c3 93 07 0c c3
       -140.40187 -140.27847 -140.15439 -140.02959
0003d0 70 e7 0b c3 1a c7 0b c3 90 a6 0b c3 cf 85 0b c3
       -139.90405 -139.77774 -139.65063 -139.52269
0003e0 d6 64 0b c3 a2 43 0b c3 32 22 0b c3 82 00 0b c3
       -139.39389 -139.26419 -139.13358 -139.00198
0003f0 92 de 0a c3 5f bc 0a c3 e6 99 0a c3 25 77 0a c3
       -138.86942 -138.73582 -138.60117 -138.46541

qa f4 [32, 32]
000000 00 00 00 00 00 00 00 00 00 00 00 00 00 00 00 00
       0.0 0.0 0.0 0.0
000010 00 00 00 00 00 00 00 00 00 00 00 00 00 00 00 00
       0.0 0.0 0.0 0.0
000020 00 00 00 00 00 00 00 00 00 00 00 00 00 00 00 00
       0.0 0.0 0.0 0.0
000030 00 00 00 00 00 00 00 00 00 00 00 00 00 00 00 00
       0.0 0.0 0.0 0.0
000040 00 00 00 00 00 00 00 00 00 00 00 00 00 00 00 00
       0.0 0.0 0.0 0.0
000050 00 00 00 00 00 00 00 00 00 00 00 00 00 00 00 00
       0.0 0.0 0.0 0.0
000060 00 00 00 00 00 00 00 00 00 00 00 00 00 00 00 00
       0.0 0.0 0.0 0.0
000070 00 00 00 00 00 00 00 00 00 00 00 00 00 00 00 00
       0.0 0.0 0.0 0.0
000080 00 00 00 00 00 00 00 00 00 00 00 00 00 00 00 00
       0.0 0.0 0.0 0.0
000090 00 00 00 00 00 00 00 00 00 00 00 00 00 00 00 00
       0.0 0.0 0.0 0.0
0000a0 00 00 00 00 00 00 00 00 00 00 00 00 00 00 00 00
       0.0 0.0 0.0 0.0
0000b0 00 00 00 00 00 00 00 00 00 00 00 00 00 00 00 00
       0.0 0.0 0.0 0.0
0000c0 00 00 00 00 00 00 00 00 00 00 00 00 00 00 00 00
       0.0 0.0 0.0 0.0
0000d0 00 00 00 00 00 00 00 00 00 00 00 00 00 00 00 00
       0.0 0.0 0.0 0.0
0000e0 00 00 00 00 00 00 00 00 00 00 00 00 00 00 00 00
       0.0 0.0 0.0 0.0
0000f0 00 00 00 00 00 00 00 00 00 00 00 00 00 00 00 00
       0.0 0.0 0.0 0.0
000100 00 00 00 00 00 00 00 00 00 00 00 00 00 00 00 00
       0.0 0.0 0.0 0.0
000110 00 00 00 00 00 00 00 00 00 00 00 00 00 00 00 00
       0.0 0.0 0.0 0.0
000120 00 00 00 00 00 00 00 00 00 00 00 00 00 00 00 00
       0.0 0.0 0.0 0.0
000130 00 00 00 00 00 00 00 00 00 00 00 00 00 00 00 00
       0.0 0.0 0.0 0.0
000140 00 00 00 00 00 00 00 00 00 00 00 00 00 00 00 00
       0.0 0.0 0.0 0.0
000150 00 00 00 00 00 00 00 00 00 00 00 00 00 00 00 00
       0.0 0.0 0.0 0.0
000160 00 00 00 00 00 00 00 00 00 00 00 00 00 00 00 00
       0.0 0.0 0.0 0.0
000170 00 00 00 00 00 00 00 00 00 00 00 00 00 00 00 00
       0.0 0.0 0.0 0.0
000180 00 00 00 00 00 00 00 00 00 00 00 00 00 00 00 00
       0.0 0.0 0.0 0.0
000190 00 00 00 00 00 00 00 00 00 00 00 00 00 00 00 00
       0.0 0.0 0.0 0.0
0001a0 00 00 00 00 00 00 00 00 00 00 00 00 00 00 00 00
       0.0 0.0 0.0 0.0
0001b0 00 00 00 00 00 00 00 00 00 00 00 00 00 00 00 00
       0.0 0.0 0.0 0.0
0001c0 00 00 00 00 00 00 00 00 00 00 00 00 00 00 00 00
       0.0 0.0 0.0 0.0
0001d0 00 00 00 00 00 00 00 00 00 00 00 00 00 00 00 00
       0.0 0.0 0.0 0.0
0001e0 00 00 00 00 00 00 00 00 00 00 00 00 00 00 00 00
       0.0 0.0 0.0 0.0
0001f0 00 00 00 00 00 00 00 00 00 00 00 00 00 00 00 00
       0.0 0.0 0.0 0.0
000200 00 00 00 00 00 00 00 00 00 00 00 00 00 00 00 00
       0.0 0.0 0.0 0.0
000210 00 00 00 00 00 00 00 00 00 00 00 00 00 00 00 00
       0.0 0.0 0.0 0.0
000220 00 00 00 00 00 00 00 00 00 00 00 00 00 00 00 00
       0.0 0.0 0.0 0.0
000230 00 00 00 00 00 00 00 00 00 00 00 00 00 00 00 00
       0.0 0.0 0.0 0.0
000240 00 00 00 00 00 00 00 00 00 00 00 00 00 00 00 00
       0.0 0.0 0.0 0.0
000250 00 00 00 00 00 00 00 00 00 00 00 00 00 00 00 00
       0.0 0.0 0.0 0.0
000260 00 00 00 00 00 00 00 00 00 00 00 00 00 00 00 00
       0.0 0.0 0.0 0.0
000270 00 00 00 00 00 00 00 00 00 00 00 00 00 00 00 00
       0.0 0.0 0.0 0.0
000280 00 00 00 00 00 00 00 00 00 00 00 00 00 00 00 00
       0.0 0.0 0.0 0.0
000290 00 00 00 00 00 00 00 00 00 00 00 00 00 00 00 00
       0.0 0.0 0.0 0.0
0002a0 00 00 00 00 00 00 00 00 00 00 00 00 00 00 00 00
       0.0 0.0 0.0 0.0
0002b0 00 00 00 00 00 00 00 00 00 00 00 00 00 00 00 00
       0.0 0.0 0.0 0.0
0002c0 00 00 00 00 00 00 00 00 00 00 00 00 00 00 00 00
       0.0 0.0 0.0 0.0
0002d0 00 00 00 00 00 00 00 00 00 00 00 00 00 00 00 00
       0.0 0.0 0.0 0.0
0002e0 00 00 00 00 00 00 00 00 00 00 00 00 00 00 00 00
       0.0 0.0 0.0 0.0
0002f0 00 00 00 00 00 00 00 00 00 00 00 00 00 00 00 00
       0.0 0.0 0.0 0.0
000300 00 00 00 00 00 00 00 00 00 00 00 00 00 00 00 00
       0.0 0.0 0.0 0.0
000310 00 00 00 00 00 00 00 00 00 00 00 00 00 00 00 00
       0.0 0.0 0.0 0.0
000320 00 00 00 00 00 00 00 00 00 00 00 00 00 00 00 00
       0.0 0.0 0.0 0.0
000330 00 00 00 00 00 00 00 00 00 00 00 00 00 00 00 00
       0.0 0.0 0.0 0.0
000340 00 00 00 00 00 00 00 00 00 00 00 00 00 00 00 00
       0.0 0.0 0.0 0.0
000350 00 00 00 00 00 00 00 00 00 00 00 00 00 00 00 00
       0.0 0.0 0.0 0.0
000360 00 00 00 00 00 00 00 00 00 00 00 00 00 00 00 00
       0.0 0.0 0.0 0.0
000370 00 00 00 00 00 00 00 00 00 00 00 00 00 00 00 00
       0.0 0.0 0.0 0.0
000380 00 00 00 00 00 00 00 00 00 00 00 00 00 00 00 00
       0.0 0.0 0.0 0.0
000390 00 00 00 00 00 00 00 00 00 00 00 00 00 00 00 00
       0.0 0.0 0.0 0.0
0003a0 00 00 00 00 00 00 00 00 00 00 00 00 00 00 00 00
       0.0 0.0 0.0 0.0
0003b0 00 00 00 00 00 00 00 00 00 00 00 00 00 00 00 00
       0.0 0.0 0.0 0.0
0003c0 00 00 00 00 00 00 00 00 00 00 00 00 00 00 00 00
       0.0 0.0 0.0 0.0
0003d0 00 00 00 00 00 00 00 00 00 00 00 00 00 00 00 00
       0.0 0.0 0.0 0.0
0003e0 00 00 00 00 00 00 00 00 00 00 00 00 00 00 00 00
       0.0 0.0 0.0 0.0
0003f0 00 00 00 00 00 00 00 00 00 00 00 00 00 00 00 00
       0.0 0.0 0.0 0.0
