data/dataset/negative/2337fa33-78b3-463d-b6f2-f6396054df8b.npz (npz, 23743 bytes, 4 tensors)

methane f8 [32, 32]
9.969209968386869e+36 9.969209968386869e+36 9.969209968386869e+36 9.969209968386869e+36 9.969209968386869e+36 9.969209968386869e+36 9.969209968386869e+36 9.969209968386869e+36
9.969209968386869e+36 9.969209968386869e+36 9.969209968386869e+36 9.969209968386869e+36 9.969209968386869e+36 9.969209968386869e+36 9.969209968386869e+36 9.969209968386869e+36
9.969209968386869e+36 9.969209968386869e+36 9.969209968386869e+36 9.969209968386869e+36 9.969209968386869e+36 9.969209968386869e+36 9.969209968386869e+36 9.969209968386869e+36
9.969209968386869e+36 9.969209968386869e+36 9.969209968386869e+36 9.969209968386869e+36 9.969209968386869e+36 9.969209968386869e+36 9.969209968386869e+36 9.969209968386869e+36
9.969209968386869e+36 9.969209968386869e+36 9.969209968386869e+36 9.969209968386869e+36 9.969209968386869e+36 9.969209968386869e+36 9.969209968386869e+36 9.969209968386869e+36
9.969209968386869e+36 9.969209968386869e+36 9.969209968386869e+36 9.969209968386869e+36 9.969209968386869e+36 9.969209968386869e+36 9.969209968386869e+36 9.969209968386869e+36
9.969209968386869e+36 9.969209968386869e+36 9.969209968386869e+36 9.969209968386869e+36 9.969209968386869e+36 9.969209968386869e+36 9.969209968386869e+36 9.969209968386869e+36
9.969209968386869e+36 9.969209968386869e+36 9.969209968386869e+36 9.969209968386869e+36 9.969209968386869e+36 9.969209968386869e+36 9.969209968386869e+36 9.969209968386869e+36
9.969209968386869e+36 9.969209968386869e+36 9.969209968386869e+36 9.969209968386869e+36 9.969209968386869e+36 9.969209968386869e+36 9.969209968386869e+36 9.969209968386869e+36
9.969209968386869e+36 9.969209968386869e+36 9.969209968386869e+36 9.969209968386869e+36 9.969209968386869e+36 9.969209968386869e+36 9.969209968386869e+36 9.969209968386869e+36
9.969209968386869e+36 9.969209968386869e+36 9.969209968386869e+36 9.969209968386869e+36 9.969209968386869e+36 9.969209968386869e+36 9.969209968386869e+36 9.969209968386869e+36
9.969209968386869e+36 9.969209968386869e+36 9.969209968386869e+36 9.969209968386869e+36 9.969209968386869e+36 9.969209968386869e+36 9.969209968386869e+36 9.969209968386869e+36
9.969209968386869e+36 9.969209968386869e+36 9.969209968386869e+36 9.969209968386869e+36 9.969209968386869e+36 9.969209968386869e+36 9.969209968386869e+36 9.969209968386869e+36
9.969209968386869e+36 9.969209968386869e+36 9.969209968386869e+36 9.969209968386869e+36 9.969209968386869e+36 9.969209968386869e+36 9.969209968386869e+36 9.969209968386869e+36
9.969209968386869e+36 9.969209968386869e+36 9.969209968386869e+36 9.969209968386869e+36 9.969209968386869e+36 9.969209968386869e+36 9.969209968386869e+36 9.969209968386869e+36
9.969209968386869e+36 9.969209968386869e+36 9.969209968386869e+36 9.969209968386869e+36 9.969209968386869e+36 9.969209968386869e+36 9.969209968386869e+36 9.969209968386869e+36
9.969209968386869e+36 9.969209968386869e+36 9.969209968386869e+36 9.969209968386869e+36 9.969209968386869e+36 9.969209968386869e+36 9.969209968386869e+36 9.969209968386869e+36
9.969209968386869e+36 9.969209968386869e+36 9.969209968386869e+36 9.969209968386869e+36 9.969209968386869e+36 9.969209968386869e+36 9.969209968386869e+36 9.969209968386869e+36
9.969209968386869e+36 9.969209968386869e+36 9.969209968386869e+36 9.969209968386869e+36 9.969209968386869e+36 9.969209968386869e+36 9.969209968386869e+36 9.969209968386869e+36
9.969209968386869e+36 9.969209968386869e+36 9.969209968386869e+36 9.969209968386869e+36 9.969209968386869e+36 9.969209968386869e+36 9.969209968386869e+36 9.969209968386869e+36
9.969209968386869e+36 9.969209968386869e+36 9.969209968386869e+36 9.969209968386869e+36 9.969209968386869e+36 9.969209968386869e+36 9.969209968386869e+36 9.969209968386869e+36
9.969209968386869e+36 9.969209968386869e+36 9.969209968386869e+36 9.969209968386869e+36 9.969209968386869e+36 9.969209968386869e+36 9.969209968386869e+36 9.969209968386869e+36
9.969209968386869e+36 9.969209968386869e+36 9.969209968386869e+36 9.969209968386869e+36 9.969209968386869e+36 9.969209968386869e+36 9.969209968386869e+36 9.969209968386869e+36
9.969209968386869e+36 9.969209968386869e+36 9.969209968386869e+36 9.969209968386869e+36 9.969209968386869e+36 9.969209968386869e+36 9.969209968386869e+36 9.969209968386869e+36
9.969209968386869e+36 9.969209968386869e+36 9.969209968386869e+36 9.969209968386869e+36 9.969209968386869e+36 9.969209968386869e+36 9.969209968386869e+36 9.969209968386869e+36
9.969209968386869e+36 9.969209968386869e+36 9.969209968386869e+36 9.969209968386869e+36 9.969209968386869e+36 9.969209968386869e+36 9.969209968386869e+36 9.969209968386869e+36
9.969209968386869e+36 9.969209968386869e+36 9.969209968386869e+36 9.969209968386869e+36 9.969209968386869e+36 9.969209968386869e+36 9.969209968386869e+36 9.969209968386869e+36
9.969209968386869e+36 9.969209968386869e+36 9.969209968386869e+36 9.969209968386869e+36 9.969209968386869e+36 9.969209968386869e+36 9.969209968386869e+36 9.969209968386869e+36
9.969209968386869e+36 9.969209968386869e+36 9.969209968386869e+36 9.969209968386869e+36 9.969209968386869e+36 9.969209968386869e+36 9.969209968386869e+36 9.969209968386869e+36
9.969209968386869e+36 9.969209968386869e+36 9.969209968386869e+36 9.969209968386869e+36 9.969209968386869e+36 9.969209968386869e+36 9.969209968386869e+36 9.969209968386869e+36
9.969209968386869e+36 9.969209968386869e+36 9.969209968386869e+36 9.969209968386869e+36 9.969209968386869e+36 9.969209968386869e+36 9.969209968386869e+36 9.969209968386869e+36
9.969209968386869e+36 9.969209968386869e+36 9.969209968386869e+36 9.969209968386869e+36 9.969209968386869e+36 9.969209968386869e+36 9.969209968386869e+36 9.969209968386869e+36
00000000: 0000 0000 0000 9e47 0000 0000 0000 9e47
00000010: 0000 0000 0000 9e47 0000 0000 0000 9e47
00000020: 0000 0000 0000 9e47 0000 0000 0000 9e47
00000030: 0000 0000 0000 9e47 0000 0000 0000 9e47
00000040: 0000 0000 0000 9e47 0000 0000 0000 9e47
00000050: 0000 0000 0000 9e47 0000 0000 0000 9e47
00000060: 0000 0000 0000 9e47 0000 0000 0000 9e47
00000070: 0000 0000 0000 9e47 0000 0000 0000 9e47
00000080: 0000 0000 0000 9e47 0000 0000 0000 9e47
00000090: 0000 0000 0000 9e47 0000 0000 0000 9e47
000000a0: 0000 0000 0000 9e47 0000 0000 0000 9e47
000000b0: 0000 0000 0000 9e47 0000 0000 0000 9e47
000000c0: 0000 0000 0000 9e47 0000 0000 0000 9e47
000000d0: 0000 0000 0000 9e47 0000 0000 0000 9e47
000000e0: 0000 0000 0000 9e47 0000 0000 0000 9e47
000000f0: 0000 0000 0000 9e47 0000 0000 0000 9e47
00000100: 0000 0000 0000 9e47 0000 0000 0000 9e47
00000110: 0000 0000 0000 9e47 0000 0000 0000 9e47
00000120: 0000 0000 0000 9e47 0000 0000 0000 9e47
00000130: 0000 0000 0000 9e47 0000 0000 0000 9e47
00000140: 0000 0000 0000 9e47 0000 0000 0000 9e47
00000150: 0000 0000 0000 9e47 0000 0000 0000 9e47
00000160: 0000 0000 0000 9e47 0000 0000 0000 9e47
00000170: 0000 0000 0000 9e47 0000 0000 0000 9e47
00000180: 0000 0000 0000 9e47 0000 0000 0000 9e47
00000190: 0000 0000 0000 9e47 0000 0000 0000 9e47
000001a0: 0000 0000 0000 9e47 0000 0000 0000 9e47
000001b0: 0000 0000 0000 9e47 0000 0000 0000 9e47
000001c0: 0000 0000 0000 9e47 0000 0000 0000 9e47
000001d0: 0000 0000 0000 9e47 0000 0000 0000 9e47
000001e0: 0000 0000 0000 9e47 0000 0000 0000 9e47
000001f0: 0000 0000 0000 9e47 0000 0000 0000 9e47
00000200: 0000 0000 0000 9e47 0000 0000 0000 9e47
00000210: 0000 0000 0000 9e47 0000 0000 0000 9e47
00000220: 0000 0000 0000 9e47 0000 0000 0000 9e47
00000230: 0000 0000 0000 9e47 0000 0000 0000 9e47
00000240: 0000 0000 0000 9e47 0000 0000 0000 9e47
00000250: 0000 0000 0000 9e47 0000 0000 0000 9e47
00000260: 0000 0000 0000 9e47 0000 0000 0000 9e47
00000270: 0000 0000 0000 9e47 0000 0000 0000 9e47
00000280: 0000 0000 0000 9e47 0000 0000 0000 9e47
00000290: 0000 0000 0000 9e47 0000 0000 0000 9e47
000002a0: 0000 0000 0000 9e47 0000 0000 0000 9e47
000002b0: 0000 0000 0000 9e47 0000 0000 0000 9e47
000002c0: 0000 0000 0000 9e47 0000 0000 0000 9e47
000002d0: 0000 0000 0000 9e47 0000 0000 0000 9e47
000002e0: 0000 0000 0000 9e47 0000 0000 0000 9e47
000002f0: 0000 0000 0000 9e47 0000 0000 0000 9e47
00000300: 0000 0000 0000 9e47 0000 0000 0000 9e47
00000310: 0000 0000 0000 9e47 0000 0000 0000 9e47
00000320: 0000 0000 0000 9e47 0000 0000 0000 9e47
00000330: 0000 0000 0000 9e47 0000 0000 0000 9e47
00000340: 0000 0000 0000 9e47 0000 0000 0000 9e47
00000350: 0000 0000 0000 9e47 0000 0000 0000 9e47
00000360: 0000 0000 0000 9e47 0000 0000 0000 9e47
00000370: 0000 0000 0000 9e47 0000 0000 0000 9e47
00000380: 0000 0000 0000 9e47 0000 0000 0000 9e47
00000390: 0000 0000 0000 9e47 0000 0000 0000 9e47
000003a0: 0000 0000 0000 9e47 0000 0000 0000 9e47
000003b0: 0000 0000 0000 9e47 0000 0000 0000 9e47
000003c0: 0000 0000 0000 9e47 0000 0000 0000 9e47
000003d0: 0000 0000 0000 9e47 0000 0000 0000 9e47
000003e0: 0000 0000 0000 9e47 0000 0000 0000 9e47
000003f0: 0000 0000 0000 9e47 0000 0000 0000 9e47
00000400: 0000 0000 0000 9e47 0000 0000 0000 9e47
00000410: 0000 0000 0000 9e47 0000 0000 0000 9e47
00000420: 0000 0000 0000 9e47 0000 0000 0000 9e47
00000430: 0000 0000 0000 9e47 0000 0000 0000 9e47
00000440: 0000 0000 0000 9e47 0000 0000 0000 9e47
00000450: 0000 0000 0000 9e47 0000 0000 0000 9e47
00000460: 0000 0000 0000 9e47 0000 0000 0000 9e47
00000470: 0000 0000 0000 9e47 0000 0000 0000 9e47
00000480: 0000 0000 0000 9e47 0000 0000 0000 9e47
00000490: 0000 0000 0000 9e47 0000 0000 0000 9e47
000004a0: 0000 0000 0000 9e47 0000 0000 0000 9e47
000004b0: 0000 0000 0000 9e47 0000 0000 0000 9e47
000004c0: 0000 0000 0000 9e47 0000 0000 0000 9e47
000004d0: 0000 0000 0000 9e47 0000 0000 0000 9e47
000004e0: 0000 0000 0000 9e47 0000 0000 0000 9e47
000004f0: 0000 0000 0000 9e47 0000 0000 0000 9e47
00000500: 0000 0000 0000 9e47 0000 0000 0000 9e47
00000510: 0000 0000 0000 9e47 0000 0000 0000 9e47
00000520: 0000 0000 0000 9e47 0000 0000 0000 9e47
00000530: 0000 0000 0000 9e47 0000 0000 0000 9e47
00000540: 0000 0000 0000 9e47 0000 0000 0000 9e47
00000550: 0000 0000 0000 9e47 0000 0000 0000 9e47
00000560: 0000 0000 0000 9e47 0000 0000 0000 9e47
00000570: 0000 0000 0000 9e47 0000 0000 0000 9e47
00000580: 0000 0000 0000 9e47 0000 0000 0000 9e47
00000590: 0000 0000 0000 9e47 0000 0000 0000 9e47
000005a0: 0000 0000 0000 9e47 0000 0000 0000 9e47
000005b0: 0000 0000 0000 9e47 0000 0000 0000 9e47
000005c0: 0000 0000 0000 9e47 0000 0000 0000 9e47
000005d0: 0000 0000 0000 9e47 0000 0000 0000 9e47
000005e0: 0000 0000 0000 9e47 0000 0000 0000 9e47
000005f0: 0000 0000 0000 9e47 0000 0000 0000 9e47
00000600: 0000 0000 0000 9e47 0000 0000 0000 9e47
00000610: 0000 0000 0000 9e47 0000 0000 0000 9e47
00000620: 0000 0000 0000 9e47 0000 0000 0000 9e47
00000630: 0000 0000 0000 9e47 0000 0000 0000 9e47
00000640: 0000 0000 0000 9e47 0000 0000 0000 9e47
00000650: 0000 0000 0000 9e47 0000 0000 0000 9e47
00000660: 0000 0000 0000 9e47 0000 0000 0000 9e47
00000670: 0000 0000 0000 9e47 0000 0000 0000 9e47
00000680: 0000 0000 0000 9e47 0000 0000 0000 9e47
00000690: 0000 0000 0000 9e47 0000 0000 0000 9e47
000006a0: 0000 0000 0000 9e47 0000 0000 0000 9e47
000006b0: 0000 0000 0000 9e47 0000 0000 0000 9e47
000006c0: 0000 0000 0000 9e47 0000 0000 0000 9e47
000006d0: 0000 0000 0000 9e47 0000 0000 0000 9e47
000006e0: 0000 0000 0000 9e47 0000 0000 0000 9e47
000006f0: 0000 0000 0000 9e47 0000 0000 0000 9e47
00000700: 0000 0000 0000 9e47 0000 0000 0000 9e47
00000710: 0000 0000 0000 9e47 0000 0000 0000 9e47
00000720: 0000 0000 0000 9e47 0000 0000 0000 9e47
00000730: 0000 0000 0000 9e47 0000 0000 0000 9e47
00000740: 0000 0000 0000 9e47 0000 0000 0000 9e47
00000750: 0000 0000 0000 9e47 0000 0000 0000 9e47
00000760: 0000 0000 0000 9e47 0000 0000 0000 9e47
00000770: 0000 0000 0000 9e47 0000 0000 0000 9e47
00000780: 0000 0000 0000 9e47 0000 0000 0000 9e47
00000790: 0000 0000 0000 9e47 0000 0000 0000 9e47
000007a0: 0000 0000 0000 9e47 0000 0000 0000 9e47
000007b0: 0000 0000 0000 9e47 0000 0000 0000 9e47
000007c0: 0000 0000 0000 9e47 0000 0000 0000 9e47
000007d0: 0000 0000 0000 9e47 0000 0000 0000 9e47
000007e0: 0000 0000 0000 9e47 0000 0000 0000 9e47
000007f0: 0000 0000 0000 9e47 0000 0000 0000 9e47

lat f4 [32, 32]
72.29398 72.350296 72.40586 72.46069 72.51482 72.56826 72.621025 72.67314
72.724625 72.77549 72.82576 72.87544 72.92456 72.97312 73.02114 73.06864
73.11563 73.162125 73.20813 73.25366 73.29873 73.34335 73.387535 73.43129
73.47463 73.51756 73.5601 73.60224 73.64401 73.68541 73.72645 73.76713
72.331245 72.38766 72.44331 72.498245 72.55247 72.605995 72.65886 72.71107
72.76264 72.8136 72.86396 72.913734 72.96294 73.0116 73.05971 73.1073
73.15437 73.20096 73.24705 73.29267 73.33783 73.382545 73.42681 73.47066
73.514084 73.557106 73.59973 73.64196 73.68382 73.7253 73.76643 73.807205
72.36841 72.42491 72.48067 72.53569 72.590004 72.64363 72.69659 72.748886
72.80056 72.85161 72.90206 72.95193 73.00123 73.04997 73.098175 73.14586
73.19302 73.23969 73.28588 73.33159 73.37685 73.421646 73.466 73.50994
73.55345 73.596565 73.639275 73.681595 73.72354 73.76512 73.80633 73.84719
72.40549 72.46209 72.51794 72.57306 72.627464 72.68118 72.73423 72.78663
72.838394 72.889534 72.94008 72.99004 73.03943 73.088264 73.136566 73.18433
73.2316 73.27836 73.32463 73.37044 73.41578 73.46067 73.50512 73.54914
73.59275 73.63595 73.67875 73.72116 73.76319 73.804855 73.84616 73.88711
72.442505 72.49921 72.55515 72.61037 72.66487 72.71868 72.77183 72.82432
72.876175 72.927414 72.97805 73.0281 73.07758 73.12651 73.174904 73.22276
73.27012 73.31697 73.363335 73.409225 73.45466 73.49964 73.54418 73.588295
73.63199 73.67528 73.71817 73.76067 73.802795 73.84455 73.88594 73.92698
72.479485 72.53628 72.592316 72.64763 72.702225 72.756134 72.80937 72.86196
72.91391 72.96524 73.01597 73.06612 73.11569 73.16471 73.213196 73.26115
73.30859 73.35554 73.40199 73.447975 73.4935 73.53857 73.5832 73.6274
73.67119 73.71457 73.75755 73.80014 73.842354 73.88419 73.925674 73.966805
72.5164 72.573296 72.62943 72.68484 72.73953 72.79353 72.84687 72.89954
72.95159 73.00301 73.05384 73.10408 73.15375 73.20286 73.251434 73.29948
73.347015 73.39405 73.4406 73.48667 73.53229 73.577446 73.62217 73.666466
73.71034 73.75381 73.79688 73.83956 73.88187 73.9238 73.96537 74.006584
72.55325 72.61024 72.66647 72.72198 72.776764 72.830864 72.88429 72.937065
72.989204 73.040726 73.09164 73.14197 73.191734 73.24094 73.289604 73.337746
73.38537 73.4325 73.47914 73.52531 73.57101 73.616264 73.66108 73.70546
73.74943 73.792984 73.83615 73.87892 73.92131 73.96333 74.005 74.0463
00000000: 8596 9042 5ab3 9042 cdcf 9042 e0eb 9042
00000010: 9607 9142 f322 9142 f73d 9142 a658 9142
00000020: 0273 9142 0d8d 9142 caa6 9142 3ac0 9142
00000030: 60d9 9142 3df2 9142 d30a 9242 2523 9242
00000040: 343b 9242 0253 9242 906a 9242 e081 9242
00000050: f398 9242 ccaf 9242 6bc6 9242 d2dc 9242
00000060: 03f3 9242 fe08 9342 c51e 9342 5934 9342
00000070: bc49 9342 ee5e 9342 f173 9342 c588 9342
00000080: 99a9 9042 7bc6 9042 fae2 9042 1aff 9042
00000090: dd1a 9142 4536 9142 5651 9142 116c 9142
000000a0: 7986 9142 90a0 9142 59ba 9142 d5d3 9142
000000b0: 06ed 9142 f005 9242 921e 9242 f036 9242
000000c0: 0a4f 9242 e466 9242 7d7e 9242 d995 9242
000000d0: f8ac 9242 ddc3 9242 87da 9242 faf0 9242
000000e0: 3607 9342 3d1d 9342 1033 9342 af48 9342
000000f0: 1e5e 9342 5b73 9342 6a88 9342 4a9d 9342
00000100: a0bc 9042 8ed9 9042 1af6 9042 4612 9142
00000110: 152e 9142 8a49 9142 a764 9142 6e7f 9142
00000120: e399 9142 06b4 9142 dbcd 9142 63e7 9142
00000130: a100 9242 9619 9242 4432 9242 ae4a 9242
00000140: d462 9242 b97a 9242 5f92 9242 c6a9 9242
00000150: f2c0 9242 e2d7 9242 98ee 9242 1705 9342
00000160: 5e1b 9342 7131 9342 4f47 9342 fa5c 9342
00000170: 7472 9342 be87 9342 d79c 9342 c3b1 9342
00000180: 9ccf 9042 97ec 9042 2f09 9142 6825 9142
00000190: 4341 9142 c45c 9142 ed77 9142 c192 9142
000001a0: 42ad 9142 71c7 9142 52e1 9142 e7fa 9142
000001b0: 3014 9242 312d 9242 ec45 9242 615e 9242
000001c0: 9476 9242 858e 9242 36a6 9242 aabd 9242
000001d0: e1d4 9242 ddeb 9242 9f02 9342 2919 9342
000001e0: 7d2f 9342 9b45 9342 855b 9342 3c71 9342
000001f0: c186 9342 169c 9342 3cb1 9342 33c6 9342
00000200: 90e2 9042 98ff 9042 3d1c 9142 8238 9142
00000210: 6a54 9142 f76f 9142 2d8b 9142 0da6 9142
00000220: 9ac0 9142 d6da 9142 c3f4 9142 630e 9242
00000230: b927 9242 c640 9242 8d59 9242 0e72 9242
00000240: 4d8a 9242 4aa2 9242 07ba 9242 86d1 9242
00000250: c9e8 9242 d1ff 9242 9f16 9342 352d 9342
00000260: 9443 9342 be59 9342 b46f 9342 7785 9342
00000270: 089b 9342 69b0 9342 9ac5 9342 9dda 9342
00000280: 7ff5 9042 9312 9142 442f 9142 964b 9142
00000290: 8a67 9142 2483 9142 669e 9142 53b9 9142
000002a0: ecd3 9142 34ee 9142 2d08 9242 da21 9242
000002b0: 3c3b 9242 5554 9242 286d 9242 b585 9242
000002c0: 009e 9242 09b6 9242 d2cd 9242 5de5 9242
000002d0: acfc 9242 bf13 9342 992a 9342 3b41 9342
000002e0: a657 9342 dc6d 9342 de83 9342 ac99 9342
000002f0: 49af 9342 b5c4 9342 f2d9 9342 01ef 9342
00000300: 6608 9142 8725 9142 4542 9142 a35e 9142
00000310: a47a 9142 4a96 9142 99b1 9142 91cc 9142
00000320: 37e7 9142 8b01 9242 911b 9242 4a35 9242
00000330: b84e 9242 dd67 9242 bc80 9242 5599 9242
00000340: acb1 9242 c1c9 9242 96e1 9242 2df9 9242
00000350: 8810 9342 a727 9342 8d3e 9342 3b55 9342
00000360: b26b 9342 f381 9342 0198 9342 dbad 9342
00000370: 84c3 9342 fcd8 9342 45ee 9342 5f03 9442
00000380: 441b 9142 7138 9142 3c55 9142 a771 9142
00000390: b48d 9142 67a9 9142 c2c4 9142 c7df 9142
000003a0: 79fa 9142 da14 9242 eb2e 9242 b048 9242
000003b0: 2b62 9242 5c7b 9242 4794 9242 edac 9242
000003c0: 4fc5 9242 71dd 9242 52f5 9242 f50c 9342
000003d0: 5b24 9342 873b 9342 7952 9342 3269 9342
000003e0: b57f 9342 0296 9342 1cac 9342 02c2 9342
000003f0: b6d7 9342 3aed 9342 8f02 9442 b517 9442

lon f4 [32, 32]
-43.84997 -43.673656 -43.497482 -43.321423 -43.145447 -42.96953 -42.79364 -42.61775
-42.441833 -42.265865 -42.089817 -41.91366 -41.737366 -41.560913 -41.38427 -41.20741
-41.030308 -40.852936 -40.675266 -40.497276 -40.31893 -40.140205 -39.961075 -39.781513
-39.601486 -39.420967 -39.23993 -39.058346 -38.876186 -38.693417 -38.510017 -38.325947
-43.961296 -43.78495 -43.60874 -43.43264 -43.25662 -43.080647 -42.904697 -42.728745
-42.55276 -42.37672 -42.200592 -42.02435 -41.84797 -41.671417 -41.494675 -41.31771
-41.1405 -40.96301 -40.785217 -40.607098 -40.428623 -40.24976 -40.070488 -39.890774
-39.71059 -39.529915 -39.348713 -39.166954 -38.98462 -38.801666 -38.618076 -38.433815
-44.073208 -43.89683 -43.72059 -43.54445 -43.36838 -43.192364 -43.016357 -42.840347
-42.664295 -42.488182 -42.311977 -42.135654 -41.959187 -41.782543 -41.6057 -41.428635
-41.251312 -41.073708 -40.895798 -40.717556 -40.538948 -40.35995 -40.180534 -40.000675
-39.82034 -39.639503 -39.458138 -39.276215 -39.0937 -38.91057 -38.72679 -38.542336
-44.185577 -44.009182 -43.832905 -43.65673 -43.48062 -43.30455 -43.128494 -42.952423
-42.77631 -42.60013 -42.423847 -42.247444 -42.07089 -41.894157 -41.71722 -41.54005
-41.36262 -41.184906 -41.006878 -40.82851 -40.649776 -40.470642 -40.29109 -40.111084
-39.9306 -39.749607 -39.56808 -39.385986 -39.2033 -39.01999 -38.83603 -38.651382
-44.29842 -44.121998 -43.945694 -43.76948 -43.593334 -43.41722 -43.24111 -43.064983
-42.88881 -42.71256 -42.53621 -42.359726 -42.183086 -42.006268 -41.829235 -41.651966
-41.47443 -41.296608 -41.11846 -40.939972 -40.761112 -40.58185 -40.402153 -40.222004
-40.04137 -39.860226 -39.678535 -39.496277 -39.31342 -39.129932 -38.945786 -38.760952
-44.41176 -44.235313 -44.058983 -43.88274 -43.706554 -43.530396 -43.35424 -43.17806
-43.001823 -42.82551 -42.649086 -42.472527 -42.295807 -42.1189 -41.941776 -41.76441
-41.58677 -41.408836 -41.23058 -41.05197 -40.872982 -40.69359 -40.51376 -40.33347
-40.152687 -39.971386 -39.78954 -39.607117 -39.424088 -39.24042 -39.056095 -38.87107
-44.52542 -44.34896 -44.172607 -43.996334 -43.82011 -43.643913 -43.46771 -43.291477
-43.115185 -42.938805 -42.762314 -42.585682 -42.408882 -42.23189 -42.054676 -41.877213
-41.699474 -41.521435 -41.343067 -41.164337 -40.985226 -40.805702 -40.62574 -40.44531
-40.26438 -40.08293 -39.900925 -39.718338 -39.53514 -39.351303 -39.166794 -38.981583
-44.639515 -44.463036 -44.286663 -44.110363 -43.93411 -43.757874 -43.581627 -43.405346
-43.228996 -43.05256 -42.876003 -42.6993 -42.522427 -42.34535 -42.16805 -41.990494
-41.812656 -41.63451 -41.45603 -41.27719 -41.097958 -40.91831 -40.738213 -40.557644
-40.37657 -40.19497 -40.01281 -39.830063 -39.646698 -39.46269 -39.278 -39.0926
00000000: 5f66 2fc2 d3b1 2ec2 6cfd 2dc2 2349 2dc2
00000010: f094 2cc2 cce0 2bc2 b02c 2bc2 9378 2ac2
00000020: 70c4 29c2 3f10 29c2 f95b 28c2 96a7 27c2
00000030: 10f3 26c2 603e 26c2 7e89 25c2 63d4 24c2
00000040: 091f 24c2 6869 23c2 79b3 22c2 36fd 21c2
00000050: 9646 21c2 928f 20c2 24d8 1fc2 4520 1fc2
00000060: ec67 1ec2 12af 1dc2 b0f5 1cc2 bf3b 1cc2
00000070: 3781 1bc2 0fc6 1ac2 420a 1ac2 c54d 19c2
00000080: 5ed8 2fc2 ca23 2fc2 5a6f 2ec2 06bb 2dc2
00000090: c706 2dc2 9552 2cc2 699e 2bc2 3cea 2ac2
000000a0: 0736 2ac2 c381 29c2 68cd 28c2 ef18 28c2
000000b0: 5264 27c2 88af 26c2 8cfa 25c2 5645 25c2
000000c0: df8f 24c2 1fda 23c2 1024 23c2 ab6d 22c2
000000d0: e9b6 21c2 c1ff 20c2 2e48 20c2 2790 1fc2
000000e0: a5d7 1ec2 a21e 1ec2 1565 1dc2 f6aa 1cc2
000000f0: 40f0 1bc2 e834 1bc2 e978 1ac2 3abc 19c2
00000100: f74a 30c2 5b96 2fc2 e2e1 2ec2 842d 2ec2
00000110: 3979 2dc2 fbc4 2cc2 c010 2cc2 845c 2bc2
00000120: 3da8 2ac2 e6f3 29c2 773f 29c2 e98a 28c2
00000130: 35d6 27c2 5321 27c2 3d6c 26c2 ecb6 25c2
00000140: 5801 25c2 7a4b 24c2 4c95 23c2 c7de 22c2
00000150: e227 22c2 9770 21c2 deb8 20c2 b100 20c2
00000160: 0748 1fc2 da8e 1ec2 22d5 1dc2 d81a 1dc2
00000170: f35f 1cc2 6ca4 1bc2 3ce8 1ac2 5a2b 1ac2
00000180: 08be 30c2 6709 30c2 e554 2fc2 7ea0 2ec2
00000190: 28ec 2dc2 dc37 2dc2 9483 2cc2 48cf 2bc2
000001a0: f11a 2bc2 8866 2ac2 05b2 29c2 62fd 28c2
000001b0: 9748 28c2 9e93 27c2 6fde 26c2 0329 26c2
000001c0: 5373 25c2 58bd 24c2 0b07 24c2 6550 23c2
000001d0: 5f99 22c2 f0e1 21c2 132a 21c2 c071 20c2
000001e0: efb8 1fc2 99ff 1ec2 b745 1ec2 408b 1dc2
000001f0: 2ed0 1cc2 7814 1cc2 1858 1bc2 049b 1ac2
00000200: 9531 31c2 ed7c 30c2 64c8 2fc2 f313 2fc2
00000210: 935f 2ec2 3cab 2dc2 e6f6 2cc2 8b42 2cc2
00000220: 248e 2bc2 a9d9 2ac2 1425 2ac2 5c70 29c2
00000230: 7bbb 28c2 6b06 28c2 2351 27c2 9d9b 26c2
00000240: d1e5 25c2 ba2f 25c2 4e79 24c2 88c2 23c2
00000250: 610b 23c2 d053 22c2 ce9b 21c2 55e3 20c2
00000260: 5d2a 20c2 df70 1fc2 d2b6 1ec2 30fc 1dc2
00000270: f140 1dc2 0d85 1cc2 7cc8 1bc2 370b 1bc2
00000280: a4a5 31c2 f6f0 30c2 663c 30c2 ed87 2fc2
00000290: 83d3 2ec2 201f 2ec2 be6a 2dc2 55b6 2cc2
000002a0: de01 2cc2 524d 2bc2 aa98 2ac2 dee3 29c2
000002b0: e82e 29c2 c179 28c2 61c4 27c2 c10e 27c2
000002c0: da58 26c2 a6a2 25c2 1dec 24c2 3835 24c2
000002d0: ef7d 23c2 3cc6 22c2 170e 22c2 7955 21c2
000002e0: 5a9c 20c2 b3e2 1fc2 7d28 1fc2 b06d 1ec2
000002f0: 44b2 1dc2 31f6 1cc2 7139 1cc2 fa7b 1bc2
00000300: 081a 32c2 5665 31c2 c0b0 30c2 3ffc 2fc2
00000310: cb47 2fc2 5e93 2ec2 efde 2dc2 792a 2dc2
00000320: f375 2cc2 56c1 2bc2 9c0c 2bc2 bd57 2ac2
00000330: b2a2 29c2 75ed 28c2 fd37 28c2 4482 27c2
00000340: 43cc 26c2 f315 26c2 4d5f 25c2 48a8 24c2
00000350: dff0 23c2 0a39 23c2 c280 22c2 ffc7 21c2
00000360: ba0e 21c2 ec54 20c2 8c9a 1fc2 94df 1ec2
00000370: fc23 1ec2 bc67 1dc2 ccaa 1cc2 24ed 1bc2
00000380: dd8e 32c2 26da 31c2 8b25 31c2 0371 30c2
00000390: 87bc 2fc2 1008 2fc2 9653 2ec2 139f 2dc2
000003a0: 7eea 2cc2 d235 2cc2 0781 2bc2 15cc 2ac2
000003b0: f716 2ac2 a361 29c2 15ac 28c2 44f6 27c2
000003c0: 2940 27c2 bd89 26c2 fad2 25c2 d81b 25c2
000003d0: 4f64 24c2 59ac 23c2 eef3 22c2 073b 22c2
000003e0: 9c81 21c2 a6c7 20c2 1e0d 20c2 fc51 1fc2
000003f0: 3896 1ec2 cbd9 1dc2 ac1c 1dc2 d35e 1cc2

qa f4 [32, 32]
0.0 0.0 0.0 0.0 0.0 0.0 0.0 0.0
0.0 0.0 0.0 0.0 0.0 0.0 0.0 0.0
0.0 0.0 0.0 0.0 0.0 0.0 0.0 0.0
0.0 0.0 0.0 0.0 0.0 0.0 0.0 0.0
0.0 0.0 0.0 0.0 0.0 0.0 0.0 0.0
0.0 0.0 0.0 0.0 0.0 0.0 0.0 0.0
0.0 0.0 0.0 0.0 0.0 0.0 0.0 0.0
0.0 0.0 0.0 0.0 0.0 0.0 0.0 0.0
0.0 0.0 0.0 0.0 0.0 0.0 0.0 0.0
0.0 0.0 0.0 0.0 0.0 0.0 0.0 0.0
0.0 0.0 0.0 0.0 0.0 0.0 0.0 0.0
0.0 0.0 0.0 0.0 0.0 0.0 0.0 0.0
0.0 0.0 0.0 0.0 0.0 0.0 0.0 0.0
0.0 0.0 0.0 0.0 0.0 0.0 0.0 0.0
0.0 0.0 0.0 0.0 0.0 0.0 0.0 0.0
0.0 0.0 0.0 0.0 0.0 0.0 0.0 0.0
0.0 0.0 0.0 0.0 0.0 0.0 0.0 0.0
0.0 0.0 0.0 0.0 0.0 0.0 0.0 0.0
0.0 0.0 0.0 0.0 0.0 0.0 0.0 0.0
0.0 0.0 0.0 0.0 0.0 0.0 0.0 0.0
0.0 0.0 0.0 0.0 0.0 0.0 0.0 0.0
0.0 0.0 0.0 0.0 0.0 0.0 0.0 0.0
0.0 0.0 0.0 0.0 0.0 0.0 0.0 0.0
0.0 0.0 0.0 0.0 0.0 0.0 0.0 0.0
0.0 0.0 0.0 0.0 0.0 0.0 0.0 0.0
0.0 0.0 0.0 0.0 0.0 0.0 0.0 0.0
0.0 0.0 0.0 0.0 0.0 0.0 0.0 0.0
0.0 0.0 0.0 0.0 0.0 0.0 0.0 0.0
0.0 0.0 0.0 0.0 0.0 0.0 0.0 0.0
0.0 0.0 0.0 0.0 0.0 0.0 0.0 0.0
0.0 0.0 0.0 0.0 0.0 0.0 0.0 0.0
0.0 0.0 0.0 0.0 0.0 0.0 0.0 0.0
00000000: 0000 0000 0000 0000 0000 0000 0000 0000
00000010: 0000 0000 0000 0000 0000 0000 0000 0000
00000020: 0000 0000 0000 0000 0000 0000 0000 0000
00000030: 0000 0000 0000 0000 0000 0000 0000 0000
00000040: 0000 0000 0000 0000 0000 0000 0000 0000
00000050: 0000 0000 0000 0000 0000 0000 0000 0000
00000060: 0000 0000 0000 0000 0000 0000 0000 0000
00000070: 0000 0000 0000 0000 0000 0000 0000 0000
00000080: 0000 0000 0000 0000 0000 0000 0000 0000
00000090: 0000 0000 0000 0000 0000 0000 0000 0000
000000a0: 0000 0000 0000 0000 0000 0000 0000 0000
000000b0: 0000 0000 0000 0000 0000 0000 0000 0000
000000c0: 0000 0000 0000 0000 0000 0000 0000 0000
000000d0: 0000 0000 0000 0000 0000 0000 0000 0000
000000e0: 0000 0000 0000 0000 0000 0000 0000 0000
000000f0: 0000 0000 0000 0000 0000 0000 0000 0000
00000100: 0000 0000 0000 0000 0000 0000 0000 0000
00000110: 0000 0000 0000 0000 0000 0000 0000 0000
00000120: 0000 0000 0000 0000 0000 0000 0000 0000
00000130: 0000 0000 0000 0000 0000 0000 0000 0000
00000140: 0000 0000 0000 0000 0000 0000 0000 0000
00000150: 0000 0000 0000 0000 0000 0000 0000 0000
00000160: 0000 0000 0000 0000 0000 0000 0000 0000
00000170: 0000 0000 0000 0000 0000 0000 0000 0000
00000180: 0000 0000 0000 0000 0000 0000 0000 0000
00000190: 0000 0000 0000 0000 0000 0000 0000 0000
000001a0: 0000 0000 0000 0000 0000 0000 0000 0000
000001b0: 0000 0000 0000 0000 0000 0000 0000 0000
000001c0: 0000 0000 0000 0000 0000 0000 0000 0000
000001d0: 0000 0000 0000 0000 0000 0000 0000 0000
000001e0: 0000 0000 0000 0000 0000 0000 0000 0000
000001f0: 0000 0000 0000 0000 0000 0000 0000 0000
00000200: 0000 0000 0000 0000 0000 0000 0000 0000
00000210: 0000 0000 0000 0000 0000 0000 0000 0000
00000220: 0000 0000 0000 0000 0000 0000 0000 0000
00000230: 0000 0000 0000 0000 0000 0000 0000 0000
00000240: 0000 0000 0000 0000 0000 0000 0000 0000
00000250: 0000 0000 0000 0000 0000 0000 0000 0000
00000260: 0000 0000 0000 0000 0000 0000 0000 0000
00000270: 0000 0000 0000 0000 0000 0000 0000 0000
00000280: 0000 0000 0000 0000 0000 0000 0000 0000
00000290: 0000 0000 0000 0000 0000 0000 0000 0000
000002a0: 0000 0000 0000 0000 0000 0000 0000 0000
000002b0: 0000 0000 0000 0000 0000 0000 0000 0000
000002c0: 0000 0000 0000 0000 0000 0000 0000 0000
000002d0: 0000 0000 0000 0000 0000 0000 0000 0000
000002e0: 0000 0000 0000 0000 0000 0000 0000 0000
000002f0: 0000 0000 0000 0000 0000 0000 0000 0000
00000300: 0000 0000 0000 0000 0000 0000 0000 0000
00000310: 0000 0000 0000 0000 0000 0000 0000 0000
00000320: 0000 0000 0000 0000 0000 0000 0000 0000
00000330: 0000 0000 0000 0000 0000 0000 0000 0000
00000340: 0000 0000 0000 0000 0000 0000 0000 0000
00000350: 0000 0000 0000 0000 0000 0000 0000 0000
00000360: 0000 0000 0000 0000 0000 0000 0000 0000
00000370: 0000 0000 0000 0000 0000 0000 0000 0000
00000380: 0000 0000 0000 0000 0000 0000 0000 0000
00000390: 0000 0000 0000 0000 0000 0000 0000 0000
000003a0: 0000 0000 0000 0000 0000 0000 0000 0000
000003b0: 0000 0000 0000 0000 0000 0000 0000 0000
000003c0: 0000 0000 0000 0000 0000 0000 0000 0000
000003d0: 0000 0000 0000 0000 0000 0000 0000 0000
000003e0: 0000 0000 0000 0000 0000 0000 0000 0000
000003f0: 0000 0000 0000 0000 0000 0000 0000 0000
