data/dataset/negative/35ed94d9-9d7a-4359-b468-5f0ea7fb76ac.npz (npz, 23743 bytes, 4 tensors)

methane f8 [32, 32]
00000000: 0000 0000 700f 30c0 0000 0000 50ad 2f40
00000010: 0000 0000 f052 27c0 0000 0000 0048 ac3f
00000020: 0000 0000 c082 10c0 0000 0000 801d 13c0
00000030: 0000 0000 0000 9e47 0000 0000 0000 9e47
00000040: 0000 0000 0000 9e47 0000 0000 0000 9e47
00000050: 0000 0000 80ce 0ec0 0000 0000 0000 9e47
00000060: 0000 0000 0030 cf3f 0000 0000 e0cb 1cc0
00000070: 0000 0000 d0aa 3bc0 0000 0000 0000 9e47
00000080: 0000 0000 0000 9e47 0000 0000 0000 9e47
00000090: 0000 0000 0000 9e47 0000 0000 0000 9e47
000000a0: 0000 0000 0000 9e47 0000 0000 0000 9e47
000000b0: 0000 0000 0000 9e47 0000 0000 0000 9e47
000000c0: 0000 0000 0000 9e47 0000 0000 0000 9e47
000000d0: 0000 0000 0000 9e47 0000 0000 0000 9e47
000000e0: 0000 0000 0000 9e47 0000 0000 0000 9e47
000000f0: 0000 0000 0000 9e47 0000 0000 0000 9e47
00000100: 0000 0000 408f 0140 0000 0000 00e8 e83f
00000110: 0000 0000 c0dc 05c0 0000 0000 fcfc 30c0
00000120: 0000 0000 4044 1bc0 0000 0000 8012 03c0
00000130: 0000 0000 f85d 34c0 0000 0000 0000 9e47
00000140: 0000 0000 0000 9e47 0000 0000 0000 9e47
00000150: 0000 0000 0000 9e47 0000 0000 a0df 2cc0
00000160: 0000 0000 8066 3440 0000 0000 001d 1540
00000170: 0000 0000 004c f63f 0000 0000 f093 13c0
00000180: 0000 0000 0000 9e47 0000 0000 0000 9e47
00000190: 0000 0000 0000 9e47 0000 0000 0000 9e47
000001a0: 0000 0000 0000 9e47 0000 0000 0000 9e47
000001b0: 0000 0000 0000 9e47 0000 0000 0000 9e47
000001c0: 0000 0000 0000 9e47 0000 0000 0000 9e47
000001d0: 0000 0000 0000 9e47 0000 0000 0000 9e47
000001e0: 0000 0000 0000 9e47 0000 0000 0000 9e47
000001f0: 0000 0000 0000 9e47 0000 0000 0000 9e47
00000200: 0000 0000 0048 d0bf 0000 0000 0094 04c0
00000210: 0000 0000 004d e63f 0000 0000 802a ebbf
00000220: 0000 0000 7084 28c0 0000 0000 c06f 1ac0
00000230: 0000 0000 50f2 32c0 0000 0000 0000 9e47
00000240: 0000 0000 0000 9e47 0000 0000 0000 9e47
00000250: 0000 0000 0000 9e47 0000 0000 0000 9e47
00000260: 0000 0000 c01b 3dc0 0000 0000 80a6 1d40
00000270: 0000 0000 00e6 fa3f 0000 0000 e838 2640
00000280: 0000 0000 34f8 30c0 0000 0000 0000 9e47
00000290: 0000 0000 0000 9e47 0000 0000 0000 9e47
000002a0: 0000 0000 0000 9e47 0000 0000 0000 9e47
000002b0: 0000 0000 0000 9e47 0000 0000 0000 9e47
000002c0: 0000 0000 0000 9e47 0000 0000 0000 9e47
000002d0: 0000 0000 0000 9e47 0000 0000 0000 9e47
000002e0: 0000 0000 0000 9e47 0000 0000 0000 9e47
000002f0: 0000 0000 0000 9e47 0000 0000 0000 9e47
00000300: 0000 0000 00fa 03c0 0000 0000 003e 1e40
00000310: 0000 0000 0000 873f 0000 0000 f89a 2bc0
00000320: 0000 0000 68fe 31c0 0000 0000 00b1 e2bf
00000330: 0000 0000 7039 24c0 0000 0000 0000 9e47
00000340: 0000 0000 0000 9e47 0000 0000 0000 9e47
00000350: 0000 0000 0000 9e47 0000 0000 0000 9e47
00000360: 0000 0000 0000 9e47 0000 0000 6069 26c0
00000370: 0000 0000 003c 0740 0000 0000 003e 3140
00000380: 0000 0000 e0de 0ac0 0000 0000 883f 2dc0
00000390: 0000 0000 0000 9e47 0000 0000 0000 9e47
000003a0: 0000 0000 0000 9e47 0000 0000 0000 9e47
000003b0: 0000 0000 0000 9e47 0000 0000 0000 9e47
000003c0: 0000 0000 0000 9e47 0000 0000 0000 9e47
000003d0: 0000 0000 0000 9e47 0000 0000 0000 9e47
000003e0: 0000 0000 0000 9e47 0000 0000 0000 9e47
000003f0: 0000 0000 0000 9e47 0000 0000 0000 9e47
00000400: 0000 0000 e01d 1f40 0000 0000 0032 df3f
00000410: 0000 0000 e092 1440 0000 0000 48ba 23c0
00000420: 0000 0000 20a5 15c0 0000 0000 8029 f13f
00000430: 0000 0000 0068 b6bf 0000 0000 e04b 2dc0
00000440: 0000 0000 c091 18c0 0000 0000 0000 9e47
00000450: 0000 0000 0000 9e47 0000 0000 0000 9e47
00000460: 0000 0000 0000 9e47 0000 0000 f008 25c0
00000470: 0000 0000 8072 f23f 0000 0000 a88e 3240
00000480: 0000 0000 40d3 f83f 0000 0000 000e fd3f
00000490: 0000 0000 0000 9e47 0000 0000 0000 9e47
000004a0: 0000 0000 0000 9e47 0000 0000 0000 9e47
000004b0: 0000 0000 0000 9e47 0000 0000 0000 9e47
000004c0: 0000 0000 0000 9e47 0000 0000 0000 9e47
000004d0: 0000 0000 0000 9e47 0000 0000 0000 9e47
000004e0: 0000 0000 0000 9e47 0000 0000 0000 9e47
000004f0: 0000 0000 0000 9e47 0000 0000 0000 9e47
00000500: 0000 0000 c089 1640 0000 0000 0032 df3f
00000510: 0000 0000 60af 1840 0000 0000 e0e2 03c0
00000520: 0000 0000 a0e8 1040 0000 0000 005c d53f
00000530: 0000 0000 8098 0cc0 0000 0000 2036 18c0
00000540: 0000 0000 a056 18c0 0000 0000 c09c febf
00000550: 0000 0000 0000 9e47 0000 0000 0000 9e47
00000560: 0000 0000 0000 9e47 0000 0000 0000 9e47
00000570: 0000 0000 0000 9e47 0000 0000 50fb 2040
00000580: 0000 0000 206b 0e40 0000 0000 806d fd3f
00000590: 0000 0000 d03c 14c0 0000 0000 0000 9e47
000005a0: 0000 0000 0000 9e47 0000 0000 0000 9e47
000005b0: 0000 0000 0000 9e47 0000 0000 0000 9e47
000005c0: 0000 0000 0000 9e47 0000 0000 0000 9e47
000005d0: 0000 0000 0000 9e47 0000 0000 0000 9e47
000005e0: 0000 0000 0000 9e47 0000 0000 0000 9e47
000005f0: 0000 0000 0000 9e47 0000 0000 0000 9e47
00000600: 0000 0000 6063 2140 0000 0000 c003 0cc0
00000610: 0000 0000 c026 07c0 0000 0000 a0fb 0c40
00000620: 0000 0000 80e4 2740 0000 0000 e096 2240
00000630: 0000 0000 c091 16c0 0000 0000 5099 22c0
00000640: 0000 0000 c030 0d40 0000 0000 48ee 2840
00000650: 0000 0000 8059 12c0 0000 0000 0000 0000
00000660: 0000 0000 0000 9e47 0000 0000 0000 9e47
00000670: 0000 0000 0000 9e47 0000 0000 e0a2 1ac0
00000680: 0000 0000 0000 9e47 0000 0000 4023 1d40
00000690: 0000 0000 c0a3 2040 0000 0000 0000 9e47
000006a0: 0000 0000 0000 9e47 0000 0000 0000 9e47
000006b0: 0000 0000 0000 9e47 0000 0000 0000 9e47
000006c0: 0000 0000 0000 9e47 0000 0000 0000 9e47
000006d0: 0000 0000 0000 9e47 0000 0000 0000 9e47
000006e0: 0000 0000 0000 9e47 0000 0000 0000 9e47
000006f0: 0000 0000 0000 9e47 0000 0000 0000 9e47
00000700: 0000 0000 c051 1e40 0000 0000 807f 23c0
00000710: 0000 0000 00c4 e53f 0000 0000 80ea e1bf
00000720: 0000 0000 000c e83f 0000 0000 e063 12c0
00000730: 0000 0000 60c0 1c40 0000 0000 30b1 2dc0
00000740: 0000 0000 c09f 00c0 0000 0000 5004 1440
00000750: 0000 0000 002d f8bf 0000 0000 4045 f13f
00000760: 0000 0000 00b7 09c0 0000 0000 0000 9e47
00000770: 0000 0000 0000 9e47 0000 0000 0000 9e47
00000780: 0000 0000 0000 9e47 0000 0000 8035 05c0
00000790: 0000 0000 e095 10c0 0000 0000 0000 9e47
000007a0: 0000 0000 0000 9e47 0000 0000 0000 9e47
000007b0: 0000 0000 0000 9e47 0000 0000 0000 9e47
000007c0: 0000 0000 0000 9e47 0000 0000 0000 9e47
000007d0: 0000 0000 0000 9e47 0000 0000 0000 9e47
000007e0: 0000 0000 0000 9e47 0000 0000 0000 9e47
000007f0: 0000 0000 0000 9e47 0000 0000 0000 9e47
-16.060302734375 15.8385009765625 -11.6619873046875 0.05523681640625 -4.127685546875 -4.77880859375 9.969209968386869e+36 9.969209968386869e+36
9.969209968386869e+36 9.969209968386869e+36 -3.850830078125 9.969209968386869e+36 0.24365234375 -7.1990966796875 -27.667236328125 9.969209968386869e+36
9.969209968386869e+36 9.969209968386869e+36 9.969209968386869e+36 9.969209968386869e+36 9.969209968386869e+36 9.969209968386869e+36 9.969209968386869e+36 9.969209968386869e+36
9.969209968386869e+36 9.969209968386869e+36 9.969209968386869e+36 9.969209968386869e+36 9.969209968386869e+36 9.969209968386869e+36 9.969209968386869e+36 9.969209968386869e+36
2.1949462890625 0.7783203125 -2.7327880859375 -16.98822021484375 -6.816650390625 -2.384033203125 -20.3670654296875 9.969209968386869e+36
9.969209968386869e+36 9.969209968386869e+36 9.969209968386869e+36 -14.436767578125 20.400390625 5.2783203125 1.3935546875 -4.89447021484375
9.969209968386869e+36 9.969209968386869e+36 9.969209968386869e+36 9.969209968386869e+36 9.969209968386869e+36 9.969209968386869e+36 9.969209968386869e+36 9.969209968386869e+36
9.969209968386869e+36 9.969209968386869e+36 9.969209968386869e+36 9.969209968386869e+36 9.969209968386869e+36 9.969209968386869e+36 9.969209968386869e+36 9.969209968386869e+36
-0.25439453125 -2.572265625 0.6968994140625 -0.84893798828125 -12.2586669921875 -6.609130859375 -18.946533203125 9.969209968386869e+36
9.969209968386869e+36 9.969209968386869e+36 9.969209968386869e+36 9.969209968386869e+36 -29.1083984375 7.41259765625 1.68115234375 11.11114501953125
-16.96954345703125 9.969209968386869e+36 9.969209968386869e+36 9.969209968386869e+36 9.969209968386869e+36 9.969209968386869e+36 9.969209968386869e+36 9.969209968386869e+36
9.969209968386869e+36 9.969209968386869e+36 9.969209968386869e+36 9.969209968386869e+36 9.969209968386869e+36 9.969209968386869e+36 9.969209968386869e+36 9.969209968386869e+36
-2.4970703125 7.560546875 0.01123046875 -13.80267333984375 -17.9937744140625 -0.5841064453125 -10.1121826171875 9.969209968386869e+36
9.969209968386869e+36 9.969209968386869e+36 9.969209968386869e+36 9.969209968386869e+36 9.969209968386869e+36 -11.205810546875 2.904296875 17.2421875
-3.35882568359375 -14.62408447265625 9.969209968386869e+36 9.969209968386869e+36 9.969209968386869e+36 9.969209968386869e+36 9.969209968386869e+36 9.969209968386869e+36
9.969209968386869e+36 9.969209968386869e+36 9.969209968386869e+36 9.969209968386869e+36 9.969209968386869e+36 9.969209968386869e+36 9.969209968386869e+36 9.969209968386869e+36
7.7791748046875 0.4874267578125 5.1434326171875 -9.86383056640625 -5.4112548828125 1.0726318359375 -0.0875244140625 -14.648193359375
-6.142333984375 9.969209968386869e+36 9.969209968386869e+36 9.969209968386869e+36 9.969209968386869e+36 -10.5174560546875 1.1529541015625 18.5572509765625
1.55157470703125 1.81591796875 9.969209968386869e+36 9.969209968386869e+36 9.969209968386869e+36 9.969209968386869e+36 9.969209968386869e+36 9.969209968386869e+36
9.969209968386869e+36 9.969209968386869e+36 9.969209968386869e+36 9.969209968386869e+36 9.969209968386869e+36 9.969209968386869e+36 9.969209968386869e+36 9.969209968386869e+36
5.634521484375 0.4874267578125 6.1712646484375 -2.48577880859375 4.2271728515625 0.333740234375 -3.574462890625 -6.0528564453125
-6.0845947265625 -1.91326904296875 9.969209968386869e+36 9.969209968386869e+36 9.969209968386869e+36 9.969209968386869e+36 9.969209968386869e+36 8.4908447265625
3.80230712890625 1.8392333984375 -5.05938720703125 9.969209968386869e+36 9.969209968386869e+36 9.969209968386869e+36 9.969209968386869e+36 9.969209968386869e+36
9.969209968386869e+36 9.969209968386869e+36 9.969209968386869e+36 9.969209968386869e+36 9.969209968386869e+36 9.969209968386869e+36 9.969209968386869e+36 9.969209968386869e+36
8.694091796875 -3.5018310546875 -2.8939208984375 3.62286376953125 11.9462890625 9.294677734375 -5.642333984375 -9.2994384765625
3.6488037109375 12.46539306640625 -4.58740234375 0.0 9.969209968386869e+36 9.969209968386869e+36 9.969209968386869e+36 -6.6590576171875
9.969209968386869e+36 7.284423828125 8.31982421875 9.969209968386869e+36 9.969209968386869e+36 9.969209968386869e+36 9.969209968386869e+36 9.969209968386869e+36
9.969209968386869e+36 9.969209968386869e+36 9.969209968386869e+36 9.969209968386869e+36 9.969209968386869e+36 9.969209968386869e+36 9.969209968386869e+36 9.969209968386869e+36
7.579833984375 -9.7490234375 0.68017578125 -0.55987548828125 0.75146484375 -4.5975341796875 7.1878662109375 -14.8460693359375
-2.0780029296875 5.00421142578125 -1.510986328125 1.07940673828125 -3.21435546875 9.969209968386869e+36 9.969209968386869e+36 9.969209968386869e+36
9.969209968386869e+36 -2.651123046875 -4.1463623046875 9.969209968386869e+36 9.969209968386869e+36 9.969209968386869e+36 9.969209968386869e+36 9.969209968386869e+36
9.969209968386869e+36 9.969209968386869e+36 9.969209968386869e+36 9.969209968386869e+36 9.969209968386869e+36 9.969209968386869e+36 9.969209968386869e+36 9.969209968386869e+36

lat f4 [32, 32]
00000000: 9778 9dc2 9659 9dc2 6f3a 9dc2 201b 9dc2
00000010: a8fb 9cc2 04dc 9cc2 33bc 9cc2 339c 9cc2
00000020: 027c 9cc2 9d5b 9cc2 033b 9cc2 321a 9cc2
00000030: 28f9 9bc2 e2d7 9bc2 5eb6 9bc2 9994 9bc2
00000040: 9272 9bc2 4550 9bc2 b12d 9bc2 d20a 9bc2
00000050: a7e7 9ac2 2bc4 9ac2 5ca0 9ac2 377c 9ac2
00000060: b957 9ac2 e032 9ac2 a60d 9ac2 09e8 99c2
00000070: 06c2 99c2 999b 99c2 bd74 99c2 6f4d 99c2
00000080: 3d6d 9dc2 4d4e 9dc2 362f 9dc2 f80f 9dc2
00000090: 90f0 9cc2 fcd0 9cc2 3bb1 9cc2 4b91 9cc2
000000a0: 2a71 9cc2 d650 9cc2 4d30 9cc2 8c0f 9cc2
000000b0: 92ee 9bc2 5ccd 9bc2 e8ab 9bc2 348a 9bc2
000000c0: 3d68 9bc2 0146 9bc2 7d23 9bc2 ae00 9bc2
000000d0: 93dd 9ac2 28ba 9ac2 6996 9ac2 5572 9ac2
000000e0: e84d 9ac2 1f29 9ac2 f603 9ac2 6bde 99c2
000000f0: 78b8 99c2 1c92 99c2 516b 99c2 1544 99c2
00000100: c461 9dc2 e442 9dc2 dd23 9dc2 af04 9dc2
00000110: 57e5 9cc2 d4c5 9cc2 24a6 9cc2 4486 9cc2
00000120: 3366 9cc2 ef45 9cc2 7625 9cc2 c504 9cc2
00000130: dbe3 9bc2 b6c2 9bc2 52a1 9bc2 ae7f 9bc2
00000140: c85d 9bc2 9c3b 9bc2 2819 9bc2 6af6 9ac2
00000150: 60d3 9ac2 05b0 9ac2 578c 9ac2 5368 9ac2
00000160: f743 9ac2 3e1f 9ac2 26fa 99c2 abd4 99c2
00000170: caae 99c2 7f88 99c2 c561 99c2 993a 99c2
00000180: 3656 9dc2 6637 9dc2 7118 9dc2 53f9 9cc2
00000190: 0bda 9cc2 98ba 9cc2 f89a 9cc2 297b 9cc2
000001a0: 285b 9cc2 f53a 9cc2 8c1a 9cc2 ebf9 9bc2
000001b0: 12d9 9bc2 fcb7 9bc2 a996 9bc2 1675 9bc2
000001c0: 3f53 9bc2 2431 9bc2 c10e 9bc2 14ec 9ac2
000001d0: 19c9 9ac2 cfa5 9ac2 3282 9ac2 3f5e 9ac2
000001e0: f339 9ac2 4b15 9ac2 44f0 99c2 daca 99c2
000001f0: 09a5 99c2 cf7e 99c2 2658 99c2 0c31 99c2
00000200: 924a 9dc2 d32b 9dc2 ee0c 9dc2 e0ed 9cc2
00000210: a9ce 9cc2 47af 9cc2 b78f 9cc2 f86f 9cc2
00000220: 0850 9cc2 e42f 9cc2 8c0f 9cc2 fcee 9bc2
00000230: 32ce 9bc2 2dad 9bc2 eb8b 9bc2 676a 9bc2
00000240: a248 9bc2 9726 9bc2 4404 9bc2 a7e1 9ac2
00000250: bdbe 9ac2 849b 9ac2 f777 9ac2 1554 9ac2
00000260: da2f 9ac2 430b 9ac2 4de6 99c2 f4c0 99c2
00000270: 349b 99c2 0b75 99c2 734e 99c2 6a27 99c2
00000280: dd3e 9dc2 2e20 9dc2 5901 9dc2 5ce2 9cc2
00000290: 36c3 9cc2 e4a3 9cc2 6484 9cc2 b664 9cc2
000002a0: d644 9cc2 c324 9cc2 7b04 9cc2 fbe3 9bc2
000002b0: 42c3 9bc2 4ea2 9bc2 1b81 9bc2 a95f 9bc2
000002c0: f33d 9bc2 f91b 9bc2 b7f9 9ac2 2bd7 9ac2
000002d0: 52b4 9ac2 2891 9ac2 ad6d 9ac2 db49 9ac2
000002e0: b125 9ac2 2b01 9ac2 46dc 99c2 feb6 99c2
000002f0: 4f91 99c2 376b 99c2 b144 99c2 b91d 99c2
00000300: 1233 9dc2 7414 9dc2 b0f5 9cc2 c3d6 9cc2
00000310: adb7 9cc2 6c98 9cc2 fd78 9cc2 5e59 9cc2
00000320: 8f39 9cc2 8c19 9cc2 55f9 9bc2 e6d8 9bc2
00000330: 3db8 9bc2 5997 9bc2 3776 9bc2 d554 9bc2
00000340: 3133 9bc2 4711 9bc2 15ef 9ac2 9acc 9ac2
00000350: d1a9 9ac2 b986 9ac2 4e63 9ac2 8e3f 9ac2
00000360: 741b 9ac2 fff6 99c2 2bd2 99c2 f4ac 99c2
00000370: 5787 99c2 5061 99c2 db3a 99c2 f413 99c2
00000380: 2d27 9dc2 9f08 9dc2 ebe9 9cc2 10cb 9cc2
00000390: 0aac 9cc2 d98c 9cc2 7a6d 9cc2 ed4d 9cc2
000003a0: 2e2e 9cc2 3c0e 9cc2 15ee 9bc2 b6cd 9bc2
000003b0: 1ead 9bc2 4b8c 9bc2 396b 9bc2 e849 9bc2
000003c0: 5428 9bc2 7b06 9bc2 5ae4 9ac2 efc1 9ac2
000003d0: 379f 9ac2 307c 9ac2 d558 9ac2 2635 9ac2
000003e0: 1d11 9ac2 b9ec 99c2 f6c7 99c2 d0a2 99c2
000003f0: 447d 99c2 4e57 99c2 eb30 99c2 160a 99c2
-78.73553 -78.67497 -78.61413 -78.55298 -78.491516 -78.42972 -78.36758 -78.30508
-78.2422 -78.17893 -78.11526 -78.05116 -77.98663 -77.921646 -77.856186 -77.79023
-77.72377 -77.65678 -77.58924 -77.52113 -77.452446 -77.38314 -77.3132 -77.24261
-77.17133 -77.099365 -77.02666 -76.95319 -76.87895 -76.8039 -76.728004 -76.65124
-78.713356 -78.65293 -78.59221 -78.53119 -78.46985 -78.40817 -78.34615 -78.283775
-78.22102 -78.15788 -78.09434 -78.030365 -77.96596 -77.90109 -77.835754 -77.76993
-77.70359 -77.63673 -77.56931 -77.50133 -77.43276 -77.36359 -77.29377 -77.223305
-77.15216 -77.080315 -77.00774 -76.93441 -76.86029 -76.78537 -76.7096 -76.63297
-78.69095 -78.630646 -78.570045 -78.50915 -78.44793 -78.38638 -78.32449 -78.26224
-78.19961 -78.13659 -78.073166 -78.009315 -77.94503 -77.880295 -77.81508 -77.749374
-77.68317 -77.616425 -77.54913 -77.48128 -77.41284 -77.34379 -77.2741 -77.20376
-77.132744 -77.06102 -76.98857 -76.91537 -76.841385 -76.766594 -76.690956 -76.61445
-78.66838 -78.6082 -78.54774 -78.48696 -78.425865 -78.36444 -78.30267 -78.24055
-78.17804 -78.11515 -78.05185 -77.98812 -77.923965 -77.859344 -77.79426 -77.72868
-77.66259 -77.59598 -77.52882 -77.46109 -77.39277 -77.323845 -77.25429 -77.184074
-77.11318 -77.04159 -76.96927 -76.896194 -76.822334 -76.74767 -76.672165 -76.595795
-78.645645 -78.585594 -78.52525 -78.4646 -78.40363 -78.34234 -78.28069 -78.21869
-78.15631 -78.09354 -78.030365 -77.96677 -77.902725 -77.838234 -77.77328 -77.70782
-77.64186 -77.57537 -77.50833 -77.44073 -77.372536 -77.30374 -77.23431 -77.16422
-77.09346 -77.021996 -76.94981 -76.87686 -76.80313 -76.7286 -76.65322 -76.57698
-78.62278 -78.56285 -78.50263 -78.44211 -78.38127 -78.3201 -78.258575 -78.1967
-78.134445 -78.0718 -78.00875 -77.945274 -77.88136 -77.817 -77.75216 -77.68684
-77.620995 -77.554634 -77.487724 -77.42025 -77.35219 -77.28351 -77.21421 -77.14425
-77.073616 -77.00228 -76.93022 -76.85741 -76.783806 -76.709404 -76.63416 -76.55805
-78.59975 -78.53995 -78.47986 -78.41946 -78.35874 -78.2977 -78.236305 -78.174545
-78.11242 -78.0499 -77.98698 -77.92363 -77.85984 -77.7956 -77.73089 -77.66569
-77.59998 -77.533745 -77.46696 -77.39961 -77.33167 -77.26313 -77.193954 -77.12413
-77.05362 -76.982414 -76.910484 -76.8378 -76.764336 -76.69006 -76.61495 -76.53897
-78.576515 -78.51684 -78.45687 -78.39661 -78.33601 -78.27509 -78.21382 -78.1522
-78.090195 -78.0278 -77.965004 -77.90178 -77.83812 -77.77401 -77.70942 -77.64435
-77.578766 -77.51266 -77.446 -77.37878 -77.31097 -77.24255 -77.1735 -77.103806
-77.033424 -76.96235 -76.89055 -76.81799 -76.74466 -76.67052 -76.59554 -76.5197

lon f4 [32, 32]
00000000: 6491 08c3 e966 08c3 8f3c 08c3 5412 08c3
00000010: 37e8 07c3 33be 07c3 4894 07c3 726a 07c3
00000020: af40 07c3 fd16 07c3 59ed 06c3 c0c3 06c3
00000030: 319a 06c3 a870 06c3 2447 06c3 a21d 06c3
00000040: 20f4 05c3 9bca 05c3 12a1 05c3 8077 05c3
00000050: e64d 05c3 3f24 05c3 89fa 04c3 c3d0 04c3
00000060: e9a6 04c3 fa7c 04c3 f352 04c3 d128 04c3
00000070: 92fe 03c3 33d4 03c3 b3a9 03c3 0e7f 03c3
00000080: f7cb 08c3 43a1 08c3 b176 08c3 3f4c 08c3
00000090: e921 08c3 aef7 07c3 8bcd 07c3 7da3 07c3
000000a0: 8379 07c3 984f 07c3 bc25 07c3 ecfb 06c3
000000b0: 24d2 06c3 64a8 06c3 a77e 06c3 ed54 06c3
000000c0: 332b 06c3 7601 06c3 b4d7 05c3 eaad 05c3
000000d0: 1784 05c3 375a 05c3 4830 05c3 4906 05c3
000000e0: 36dc 04c3 0eb2 04c3 cd87 04c3 715d 04c3
000000f0: f832 04c3 5f08 04c3 a4dd 03c3 c4b2 03c3
00000100: 4b06 09c3 60db 08c3 97b0 08c3 ee85 08c3
00000110: 615b 08c3 ef30 08c3 9506 08c3 50dc 07c3
00000120: 1fb2 07c3 fd87 07c3 ea5d 07c3 e233 07c3
00000130: e409 07c3 ecdf 06c3 f8b5 06c3 078c 06c3
00000140: 1562 06c3 2038 06c3 260e 06c3 24e4 05c3
00000150: 19ba 05c3 0190 05c3 db65 05c3 a33b 05c3
00000160: 5711 05c3 f6e6 04c3 7cbc 04c3 e791 04c3
00000170: 3567 04c3 623c 04c3 6d11 04c3 53e6 03c3
00000180: 6140 09c3 4015 09c3 41ea 08c3 61bf 08c3
00000190: 9f94 08c3 f669 08c3 663f 08c3 eb14 08c3
000001a0: 83ea 07c3 2bc0 07c3 e295 07c3 a46b 07c3
000001b0: 6f41 07c3 4017 07c3 16ed 06c3 eec2 06c3
000001c0: c598 06c3 9a6e 06c3 6944 06c3 301a 06c3
000001d0: edef 05c3 9ec5 05c3 409b 05c3 d070 05c3
000001e0: 4d46 05c3 b31b 05c3 01f1 04c3 34c6 04c3
000001f0: 489b 04c3 3d70 04c3 0f45 04c3 bc19 04c3
00000200: 447a 09c3 ed4e 09c3 b923 09c3 a4f8 08c3
00000210: accd 08c3 cea2 08c3 0978 08c3 584d 08c3
00000220: bb22 08c3 2df8 07c3 aecd 07c3 3aa3 07c3
00000230: cf78 07c3 6b4e 07c3 0b24 07c3 adf9 06c3
00000240: 4ecf 06c3 eca4 06c3 857a 06c3 1650 06c3
00000250: 9c25 06c3 16fb 05c3 81d0 05c3 daa5 05c3
00000260: 207b 05c3 4f50 05c3 6525 05c3 5ffa 04c3
00000270: 3ccf 04c3 f8a3 04c3 9278 04c3 064d 04c3
00000280: eab3 09c3 5f88 09c3 f75c 09c3 ad31 09c3
00000290: 8106 09c3 6fdb 08c3 74b0 08c3 8f85 08c3
000002a0: bd5a 08c3 fb2f 08c3 4705 08c3 9eda 07c3
000002b0: feaf 07c3 6585 07c3 d05a 07c3 3c30 07c3
000002c0: a805 07c3 11db 06c3 74b0 06c3 cf85 06c3
000002d0: 205b 06c3 6330 06c3 9805 06c3 bbda 05c3
000002e0: caaf 05c3 c284 05c3 a159 05c3 652e 05c3
000002f0: 0a03 05c3 8fd7 04c3 f0ab 04c3 2c80 04c3
00000300: 55ed 09c3 96c1 09c3 fa95 09c3 7d6a 09c3
00000310: 1c3f 09c3 d613 09c3 a8e8 08c3 8fbd 08c3
00000320: 8992 08c3 9367 08c3 ab3c 08c3 ce11 08c3
00000330: fae6 07c3 2cbc 07c3 6391 07c3 9a66 07c3
00000340: d23b 07c3 0511 07c3 33e6 06c3 59bb 06c3
00000350: 7590 06c3 8365 06c3 823a 06c3 700f 06c3
00000360: 48e4 05c3 0ab9 05c3 b38d 05c3 4062 05c3
00000370: af36 05c3 fc0a 05c3 26df 04c3 2ab3 04c3
00000380: 8726 0ac3 96fa 09c3 c6ce 09c3 16a3 09c3
00000390: 8377 09c3 0a4c 09c3 a920 09c3 5cf5 08c3
000003a0: 23ca 08c3 fa9e 08c3 de73 08c3 ce48 08c3
000003b0: c61d 08c3 c5f2 07c3 c7c7 07c3 cb9c 07c3
000003c0: ce71 07c3 ce46 07c3 c81b 07c3 b9f0 06c3
000003d0: a0c5 06c3 7a9a 06c3 446f 06c3 fc43 06c3
000003e0: 9f18 06c3 2ced 05c3 9fc1 05c3 f695 05c3
000003f0: 2e6a 05c3 453e 05c3 3812 05c3 05e6 04c3
-136.56793 -136.402 -136.23656 -136.0716 -135.90709 -135.74297 -135.57922 -135.4158
-135.25267 -135.0898 -134.92714 -134.76465 -134.60231 -134.44006 -134.2779 -134.11575
-133.95361 -133.79143 -133.62918 -133.4668 -133.30429 -133.14159 -132.97865 -132.81548
-132.652 -132.48819 -132.32402 -132.15944 -131.99442 -131.8289 -131.66289 -131.4963
-136.79674 -136.62993 -136.46364 -136.29784 -136.13246 -135.9675 -135.8029 -135.63863
-135.47466 -135.31091 -135.1474 -134.98407 -134.82086 -134.65778 -134.49474 -134.33174
-134.16875 -134.0057 -133.84259 -133.67935 -133.51598 -133.3524 -133.1886 -133.02455
-132.8602 -132.69553 -132.53047 -132.365 -132.1991 -132.0327 -131.86578 -131.6983
-137.02458 -136.85693 -136.6898 -136.52316 -136.35695 -136.19115 -136.02571 -135.8606
-135.69579 -135.5312 -135.36685 -135.20267 -135.03864 -134.8747 -134.71082 -134.54698
-134.38313 -134.21924 -134.05527 -133.89117 -133.72694 -133.56252 -133.39787 -133.23296
-133.06773 -132.90219 -132.73627 -132.56993 -132.40315 -132.23587 -132.06807 -131.8997
-137.25148 -137.08301 -136.91505 -136.74757 -136.58055 -136.41391 -136.24765 -136.08171
-135.91606 -135.75066 -135.58548 -135.42047 -135.2556 -135.09082 -134.92612 -134.76144
-134.59676 -134.43204 -134.26723 -134.1023 -133.93721 -133.77194 -133.60645 -133.44067
-133.27461 -133.1082 -132.94142 -132.77423 -132.60657 -132.43843 -132.26976 -132.10052
-137.4776 -137.3083 -137.13954 -136.97125 -136.8034 -136.63596 -136.46889 -136.30212
-136.13567 -135.96944 -135.80344 -135.6376 -135.47191 -135.30632 -135.1408 -134.9753
-134.80978 -134.64423 -134.47859 -134.31284 -134.14691 -133.9808 -133.81447 -133.64786
-133.48096 -133.3137 -133.14607 -132.97801 -132.80951 -132.6405 -132.47098 -132.30087
-137.70279 -137.5327 -137.36314 -137.19405 -137.0254 -136.85716 -136.68927 -136.52171
-136.35445 -136.18742 -136.02061 -135.85397 -135.68747 -135.52107 -135.35474 -135.18842
-135.0221 -134.85573 -134.68927 -134.52269 -134.35596 -134.18901 -134.02185 -133.85442
-133.68668 -133.51859 -133.35011 -133.18123 -133.01187 -132.84203 -132.67163 -132.50067
-137.92708 -137.7562 -137.58585 -137.41597 -137.24652 -137.07748 -136.90881 -136.74046
-136.5724 -136.40459 -136.23698 -136.06955 -135.90225 -135.73505 -135.56792 -135.40079
-135.23367 -135.06648 -134.89922 -134.73183 -134.56429 -134.39653 -134.22855 -134.0603
-133.89172 -133.72281 -133.55351 -133.38379 -133.21361 -133.04291 -132.87167 -132.69986
-138.1505 -137.97885 -137.80771 -137.63705 -137.46684 -137.29703 -137.12758 -136.95844
-136.7896 -136.621 -136.4526 -136.2844 -136.1163 -135.94832 -135.78038 -135.61247
-135.44455 -135.27658 -135.10852 -134.94032 -134.77197 -134.60342 -134.43463 -134.26556
-134.09618 -133.92645 -133.75633 -133.58578 -133.41476 -133.24324 -133.07117 -132.89851

qa f4 [32, 32]
00000000: cccc cc3e cccc cc3e cccc cc3e cccc cc3e
00000010: cccc cc3e cccc cc3e 0000 0000 0000 0000
00000020: 0000 0000 0000 0000 cccc cc3e 0000 0000
00000030: cccc cc3e cccc cc3e cccc cc3e 0000 0000
00000040: 0000 0000 0000 0000 0000 0000 0000 0000
00000050: 0000 0000 0000 0000 0000 0000 0000 0000
00000060: 0000 0000 0000 0000 0000 0000 0000 0000
00000070: 0000 0000 0000 0000 0000 0000 0000 0000
00000080: cccc cc3e cccc cc3e cccc cc3e cccc cc3e
00000090: cccc cc3e cccc cc3e cccc cc3e 0000 0000
000000a0: 0000 0000 0000 0000 0000 0000 cccc cc3e
000000b0: cccc cc3e cccc cc3e cccc cc3e cccc cc3e
000000c0: 0000 0000 0000 0000 0000 0000 0000 0000
000000d0: 0000 0000 0000 0000 0000 0000 0000 0000
000000e0: 0000 0000 0000 0000 0000 0000 0000 0000
000000f0: 0000 0000 0000 0000 0000 0000 0000 0000
00000100: cccc cc3e cccc cc3e cccc cc3e cccc cc3e
00000110: cccc cc3e cccc cc3e cccc cc3e 0000 0000
00000120: 0000 0000 0000 0000 0000 0000 0000 0000
00000130: cccc cc3e cccc cc3e cccc cc3e cccc cc3e
00000140: cccc cc3e 0000 0000 0000 0000 0000 0000
00000150: 0000 0000 0000 0000 0000 0000 0000 0000
00000160: 0000 0000 0000 0000 0000 0000 0000 0000
00000170: 0000 0000 0000 0000 0000 0000 0000 0000
00000180: cccc cc3e cccc cc3e cccc cc3e cccc cc3e
00000190: cccc cc3e cccc cc3e cccc cc3e 0000 0000
000001a0: 0000 0000 0000 0000 0000 0000 0000 0000
000001b0: 0000 0000 cccc cc3e cccc cc3e cccc cc3e
000001c0: cccc cc3e cccc cc3e 0000 0000 0000 0000
000001d0: 0000 0000 0000 0000 0000 0000 0000 0000
000001e0: 0000 0000 0000 0000 0000 0000 0000 0000
000001f0: 0000 0000 0000 0000 0000 0000 0000 0000
00000200: cccc cc3e cccc cc3e cccc cc3e cccc cc3e
00000210: cccc cc3e cccc cc3e cccc cc3e cccc cc3e
00000220: cccc cc3e 0000 0000 0000 0000 0000 0000
00000230: 0000 0000 cccc cc3e cccc cc3e cccc cc3e
00000240: cccc cc3e cccc cc3e 0000 0000 0000 0000
00000250: 0000 0000 0000 0000 0000 0000 0000 0000
00000260: 0000 0000 0000 0000 0000 0000 0000 0000
00000270: 0000 0000 0000 0000 0000 0000 0000 0000
00000280: cccc cc3e cccc cc3e cccc cc3e cccc cc3e
00000290: cccc cc3e cccc cc3e cccc cc3e cccc cc3e
000002a0: cccc cc3e cccc cc3e 0000 0000 0000 0000
000002b0: 0000 0000 0000 0000 0000 0000 cccc cc3e
000002c0: cccc cc3e cccc cc3e cccc cc3e 0000 0000
000002d0: 0000 0000 0000 0000 0000 0000 0000 0000
000002e0: 0000 0000 0000 0000 0000 0000 0000 0000
000002f0: 0000 0000 0000 0000 0000 0000 0000 0000
00000300: cccc cc3e cccc cc3e cccc cc3e cccc cc3e
00000310: cccc cc3e cccc cc3e cccc cc3e cccc cc3e
00000320: cccc cc3e cccc cc3e cccc cc3e cccc cc3e
00000330: 0000 0000 0000 0000 0000 0000 cccc cc3e
00000340: 0000 0000 cccc cc3e cccc cc3e 0000 0000
00000350: 0000 0000 0000 0000 0000 0000 0000 0000
00000360: 0000 0000 0000 0000 0000 0000 0000 0000
00000370: 0000 0000 0000 0000 0000 0000 0000 0000
00000380: cccc cc3e cccc cc3e cccc cc3e cccc cc3e
00000390: cccc cc3e cccc cc3e cccc cc3e cccc cc3e
000003a0: cccc cc3e cccc cc3e cccc cc3e cccc cc3e
000003b0: cccc cc3e 0000 0000 0000 0000 0000 0000
000003c0: 0000 0000 cccc cc3e cccc cc3e 0000 0000
000003d0: 0000 0000 0000 0000 0000 0000 0000 0000
000003e0: 0000 0000 0000 0000 0000 0000 0000 0000
000003f0: 0000 0000 0000 0000 0000 0000 0000 0000
0.39999998 0.39999998 0.39999998 0.39999998 0.39999998 0.39999998 0.0 0.0
0.0 0.0 0.39999998 0.0 0.39999998 0.39999998 0.39999998 0.0
0.0 0.0 0.0 0.0 0.0 0.0 0.0 0.0
0.0 0.0 0.0 0.0 0.0 0.0 0.0 0.0
0.39999998 0.39999998 0.39999998 0.39999998 0.39999998 0.39999998 0.39999998 0.0
0.0 0.0 0.0 0.39999998 0.39999998 0.39999998 0.39999998 0.39999998
0.0 0.0 0.0 0.0 0.0 0.0 0.0 0.0
0.0 0.0 0.0 0.0 0.0 0.0 0.0 0.0
0.39999998 0.39999998 0.39999998 0.39999998 0.39999998 0.39999998 0.39999998 0.0
0.0 0.0 0.0 0.0 0.39999998 0.39999998 0.39999998 0.39999998
0.39999998 0.0 0.0 0.0 0.0 0.0 0.0 0.0
0.0 0.0 0.0 0.0 0.0 0.0 0.0 0.0
0.39999998 0.39999998 0.39999998 0.39999998 0.39999998 0.39999998 0.39999998 0.0
0.0 0.0 0.0 0.0 0.0 0.39999998 0.39999998 0.39999998
0.39999998 0.39999998 0.0 0.0 0.0 0.0 0.0 0.0
0.0 0.0 0.0 0.0 0.0 0.0 0.0 0.0
0.39999998 0.39999998 0.39999998 0.39999998 0.39999998 0.39999998 0.39999998 0.39999998
0.39999998 0.0 0.0 0.0 0.0 0.39999998 0.39999998 0.39999998
0.39999998 0.39999998 0.0 0.0 0.0 0.0 0.0 0.0
0.0 0.0 0.0 0.0 0.0 0.0 0.0 0.0
0.39999998 0.39999998 0.39999998 0.39999998 0.39999998 0.39999998 0.39999998 0.39999998
0.39999998 0.39999998 0.0 0.0 0.0 0.0 0.0 0.39999998
0.39999998 0.39999998 0.39999998 0.0 0.0 0.0 0.0 0.0
0.0 0.0 0.0 0.0 0.0 0.0 0.0 0.0
0.39999998 0.39999998 0.39999998 0.39999998 0.39999998 0.39999998 0.39999998 0.39999998
0.39999998 0.39999998 0.39999998 0.39999998 0.0 0.0 0.0 0.39999998
0.0 0.39999998 0.39999998 0.0 0.0 0.0 0.0 0.0
0.0 0.0 0.0 0.0 0.0 0.0 0.0 0.0
0.39999998 0.39999998 0.39999998 0.39999998 0.39999998 0.39999998 0.39999998 0.39999998
0.39999998 0.39999998 0.39999998 0.39999998 0.39999998 0.0 0.0 0.0
0.0 0.39999998 0.39999998 0.0 0.0 0.0 0.0 0.0
0.0 0.0 0.0 0.0 0.0 0.0 0.0 0.0
