data/dataset/negative/37f8aa09-b8fc-4966-97dd-7f29a87e99f2.npz (npz, 23743 bytes, 4 tensors)

methane f8 [32, 32]
00000000: 0000 0000 0000 9e47 0000 0000 0000 9e47
00000010: 0000 0000 0072 f73f 0000 0000 0000 9e47
00000020: 0000 0000 501b 1e40 0000 0000 707b 1340
00000030: 0000 0000 808b 0240 0000 0000 dc8f 3ec0
00000040: 0000 0000 90fa 28c0 0000 0000 000a d1bf
00000050: 0000 0000 0079 0340 0000 0000 0078 cd3f
00000060: 0000 0000 00f0 efbf 0000 0000 0040 b2bf
00000070: 0000 0000 405f f1bf 0000 0000 00ec b8bf
00000080: 0000 0000 00c7 ebbf 0000 0000 8033 0940
00000090: 0000 0000 6086 0840 0000 0000 80dd 0d40
000000a0: 0000 0000 0000 9e47 0000 0000 c0ae 06c0
000000b0: 0000 0000 0007 06c0 0000 0000 0005 f03f
000000c0: 0000 0000 8024 ffbf 0000 0000 20a6 26c0
000000d0: 0000 0000 80fc 3cc0 0000 0000 daa2 46c0
000000e0: 0000 0000 904b 23c0 0000 0000 80f4 0540
000000f0: 0000 0000 2032 1d40 0000 0000 8064 1e40
00000100: 0000 0000 0000 9e47 0000 0000 0000 9e47
00000110: 0000 0000 4046 0a40 0000 0000 0000 9e47
00000120: 0000 0000 80a6 0440 0000 0000 902f 2140
00000130: 0000 0000 a066 1240 0000 0000 cc1f 45c0
00000140: 0000 0000 c0f1 16c0 0000 0000 9057 10c0
00000150: 0000 0000 4053 0040 0000 0000 0094 c9bf
00000160: 0000 0000 4015 0340 0000 0000 80af f2bf
00000170: 0000 0000 009c be3f 0000 0000 0068 0940
00000180: 0000 0000 c03d fa3f 0000 0000 00f2 dbbf
00000190: 0000 0000 004c f8bf 0000 0000 40c2 fbbf
000001a0: 0000 0000 0000 9e47 0000 0000 008e dcbf
000001b0: 0000 0000 00e5 05c0 0000 0000 40c8 f53f
000001c0: 0000 0000 006e d83f 0000 0000 1836 34c0
000001d0: 0000 0000 9422 3ac0 0000 0000 84ac 39c0
000001e0: 0000 0000 e075 14c0 0000 0000 e0a0 2340
000001f0: 0000 0000 e0a3 2c40 0000 0000 408c 1340
00000200: 0000 0000 0000 9e47 0000 0000 0000 9e47
00000210: 0000 0000 20f9 00c0 0000 0000 002a 0f40
00000220: 0000 0000 00bb 0640 0000 0000 40a4 1a40
00000230: 0000 0000 00c8 dcbf 0000 0000 f01a 3dc0
00000240: 0000 0000 4074 21c0 0000 0000 0043 d1bf
00000250: 0000 0000 007c e1bf 0000 0000 004c c53f
00000260: 0000 0000 40c9 17c0 0000 0000 60be 1140
00000270: 0000 0000 50d6 1c40 0000 0000 2063 0340
00000280: 0000 0000 0003 fa3f 0000 0000 607a 1640
00000290: 0000 0000 400a f93f 0000 0000 8064 fbbf
000002a0: 0000 0000 0000 9e47 0000 0000 e0f1 0040
000002b0: 0000 0000 e0e3 22c0 0000 0000 a097 08c0
000002c0: 0000 0000 d0f8 20c0 0000 0000 982a 31c0
000002d0: 0000 0000 48d7 3fc0 0000 0000 002f 31c0
000002e0: 0000 0000 0026 d9bf 0000 0000 d011 2240
000002f0: 0000 0000 40c0 2640 0000 0000 0035 0e40
00000300: 0000 0000 0000 9e47 0000 0000 0000 9e47
00000310: 0000 0000 401f 0a40 0000 0000 00ea fc3f
00000320: 0000 0000 0024 0a40 0000 0000 3067 1140
00000330: 0000 0000 808f 0ac0 0000 0000 c0ed 31c0
00000340: 0000 0000 0010 c53f 0000 0000 2044 0040
00000350: 0000 0000 a00d 04c0 0000 0000 8081 f63f
00000360: 0000 0000 8043 fd3f 0000 0000 8074 ee3f
00000370: 0000 0000 008f de3f 0000 0000 8015 f5bf
00000380: 0000 0000 c0f3 fc3f 0000 0000 00ef f03f
00000390: 0000 0000 009d 0ec0 0000 0000 0000 9e47
000003a0: 0000 0000 009c 1140 0000 0000 0048 b5bf
000003b0: 0000 0000 e0d1 13c0 0000 0000 e0e8 0840
000003c0: 0000 0000 20f2 18c0 0000 0000 40cb 0ac0
000003d0: 0000 0000 0c34 31c0 0000 0000 8089 14c0
000003e0: 0000 0000 402f 0040 0000 0000 20ad 1a40
000003f0: 0000 0000 90ce 2340 0000 0000 202d 1840
00000400: 0000 0000 0000 9e47 0000 0000 0000 9e47
00000410: 0000 0000 401f 1440 0000 0000 5016 2440
00000420: 0000 0000 80a9 0b40 0000 0000 00ea f53f
00000430: 0000 0000 007f f7bf 0000 0000 6087 13c0
00000440: 0000 0000 80e6 f03f 0000 0000 a0a4 07c0
00000450: 0000 0000 8007 f4bf 0000 0000 e0ed 13c0
00000460: 0000 0000 806e 06c0 0000 0000 007c b6bf
00000470: 0000 0000 8004 e6bf 0000 0000 60c3 01c0
00000480: 0000 0000 4010 0340 0000 0000 c04c 1340
00000490: 0000 0000 c0a0 0cc0 0000 0000 0000 9e47
000004a0: 0000 0000 40b9 f0bf 0000 0000 c083 27c0
000004b0: 0000 0000 8058 f53f 0000 0000 207f 1340
000004c0: 0000 0000 00d2 fa3f 0000 0000 c053 2ec0
000004d0: 0000 0000 d078 19c0 0000 0000 0034 d93f
000004e0: 0000 0000 00f8 b7bf 0000 0000 7034 2040
000004f0: 0000 0000 40b4 1d40 0000 0000 809a 1440
00000500: 0000 0000 0000 9e47 0000 0000 0000 9e47
00000510: 0000 0000 1059 1440 0000 0000 9077 1a40
00000520: 0000 0000 e0c7 0a40 0000 0000 8025 0c40
00000530: 0000 0000 00a3 efbf 0000 0000 80d4 f9bf
00000540: 0000 0000 00f6 e63f 0000 0000 4083 febf
00000550: 0000 0000 c010 16c0 0000 0000 0086 fabf
00000560: 0000 0000 804d 13c0 0000 0000 80ea 1dc0
00000570: 0000 0000 8030 f73f 0000 0000 00cc ef3f
00000580: 0000 0000 e066 0940 0000 0000 009a 00c0
00000590: 0000 0000 801c 0ac0 0000 0000 0000 9e47
000005a0: 0000 0000 8005 0c40 0000 0000 e0ed 24c0
000005b0: 0000 0000 0059 ed3f 0000 0000 8041 f8bf
000005c0: 0000 0000 70b9 12c0 0000 0000 500e 31c0
000005d0: 0000 0000 00a0 a4bf 0000 0000 8015 1240
000005e0: 0000 0000 0010 b73f 0000 0000 100c 1b40
000005f0: 0000 0000 a0d2 1740 0000 0000 40a9 0840
00000600: 0000 0000 0000 9e47 0000 0000 0000 9e47
00000610: 0000 0000 00c0 0740 0000 0000 c0ba 0a40
00000620: 0000 0000 1037 1140 0000 0000 80b9 1340
00000630: 0000 0000 c076 0dc0 0000 0000 107c 1dc0
00000640: 0000 0000 4064 07c0 0000 0000 002f e8bf
00000650: 0000 0000 0040 92bf 0000 0000 c024 0240
00000660: 0000 0000 0076 e13f 0000 0000 0039 f33f
00000670: 0000 0000 3036 1440 0000 0000 405d f0bf
00000680: 0000 0000 004f 09c0 0000 0000 40a4 07c0
00000690: 0000 0000 a0d6 0b40 0000 0000 0000 9e47
000006a0: 0000 0000 0000 9e47 0000 0000 60f3 05c0
000006b0: 0000 0000 8061 e0bf 0000 0000 0000 81bf
000006c0: 0000 0000 4013 07c0 0000 0000 5087 23c0
000006d0: 0000 0000 1085 1f40 0000 0000 a0dc 1d40
000006e0: 0000 0000 e032 1640 0000 0000 0000 0000
000006f0: 0000 0000 e0a0 0140 0000 0000 8028 ff3f
00000700: 0000 0000 0000 9e47 0000 0000 0000 9e47
00000710: 0000 0000 d063 1040 0000 0000 4075 1040
00000720: 0000 0000 0053 0940 0000 0000 0000 9e47
00000730: 0000 0000 8016 f33f 0000 0000 0000 0000
00000740: 0000 0000 0006 16c0 0000 0000 8027 f83f
00000750: 0000 0000 20a4 0ac0 0000 0000 0030 f63f
00000760: 0000 0000 80f9 fc3f 0000 0000 8070 1540
00000770: 0000 0000 00e5 eabf 0000 0000 0064 e23f
00000780: 0000 0000 0035 df3f 0000 0000 8080 0b40
00000790: 0000 0000 00cf f53f 0000 0000 0000 9e47
000007a0: 0000 0000 0000 9e47 0000 0000 4077 01c0
000007b0: 0000 0000 40bb 0240 0000 0000 0018 f63f
000007c0: 0000 0000 e0b5 0bc0 0000 0000 0032 febf
000007d0: 0000 0000 0053 2340 0000 0000 a0dc 1d40
000007e0: 0000 0000 0091 fd3f 0000 0000 104a 1040
000007f0: 0000 0000 c0ec 1340 0000 0000 10ce 22c0
9.969209968386869e+36 9.969209968386869e+36 1.46533203125 9.969209968386869e+36 7.52667236328125 4.87054443359375 2.318115234375 -30.56195068359375
-12.4893798828125 -0.2662353515625 2.43408203125 0.230224609375 -0.998046875 -0.0712890625 -1.08575439453125 -0.09735107421875
-0.8680419921875 3.150146484375 3.06561279296875 3.733154296875 9.969209968386869e+36 -2.8353271484375 -2.75341796875 1.001220703125
-1.9464111328125 -11.324462890625 -28.986328125 -45.27227783203125 -9.6475830078125 2.744384765625 7.2989501953125 7.59814453125
9.969209968386869e+36 9.969209968386869e+36 3.2843017578125 9.969209968386869e+36 2.581298828125 8.5928955078125 4.6002197265625 -42.2484130859375
-5.736083984375 -4.08551025390625 2.0406494140625 -0.1998291015625 2.3853759765625 -1.1678466796875 0.11956787109375 3.17578125
1.64007568359375 -0.4366455078125 -1.5185546875 -1.73492431640625 9.969209968386869e+36 -0.4461669921875 -2.73681640625 1.36138916015625
0.3817138671875 -20.2113037109375 -26.13507080078125 -25.67388916015625 -5.1151123046875 9.814208984375 14.320068359375 4.886962890625
9.969209968386869e+36 9.969209968386869e+36 -2.12164306640625 3.8955078125 2.84130859375 6.660400390625 -0.44970703125 -29.105224609375
-8.72705078125 -0.26971435546875 -0.54638671875 0.1663818359375 -5.946533203125 4.4359130859375 7.20928955078125 2.42340087890625
1.625732421875 5.6195068359375 1.56500244140625 -1.7120361328125 9.969209968386869e+36 2.11810302734375 -9.445068359375 -3.07403564453125
-8.4859619140625 -17.1663818359375 -31.8409423828125 -17.18359375 -0.3929443359375 9.0347900390625 11.37548828125 3.77587890625
9.969209968386869e+36 9.969209968386869e+36 3.2652587890625 1.80712890625 3.267578125 4.35076904296875 -3.320068359375 -17.9287109375
0.16455078125 2.03326416015625 -2.50665283203125 1.4066162109375 1.8289794921875 0.95172119140625 0.47747802734375 -1.3177490234375
1.80950927734375 1.058349609375 -3.82666015625 9.969209968386869e+36 4.40234375 -0.0831298828125 -4.9549560546875 3.11370849609375
-6.2364501953125 -3.3492431640625 -17.20330810546875 -5.13427734375 2.0230712890625 6.6690673828125 9.9034423828125 6.0440673828125
9.969209968386869e+36 9.969209968386869e+36 5.030517578125 10.0435791015625 3.457763671875 1.36962890625 -1.468505859375 -4.8822021484375
1.0562744140625 -2.95538330078125 -1.2518310546875 -4.9822998046875 -2.803955078125 -0.08782958984375 -0.68804931640625 -2.22039794921875
2.3829345703125 4.824951171875 -3.5784912109375 9.969209968386869e+36 -1.04522705078125 -11.75732421875 1.3341064453125 4.8741455078125
1.67626953125 -15.16357421875 -6.36798095703125 0.393798828125 -0.0936279296875 8.1024169921875 7.426025390625 5.15087890625
9.969209968386869e+36 9.969209968386869e+36 5.08697509765625 6.61676025390625 3.34759521484375 3.518310546875 -0.9886474609375 -1.6143798828125
0.717529296875 -1.90704345703125 -5.516357421875 -1.65771484375 -4.82568359375 -7.47900390625 1.4493408203125 0.99365234375
3.17523193359375 -2.0751953125 -3.263916015625 9.969209968386869e+36 3.502685546875 -10.464599609375 0.9171142578125 -1.5159912109375
-4.68109130859375 -17.055908203125 -0.040283203125 4.52099609375 0.090087890625 6.76177978515625 5.9556884765625 3.0826416015625
9.969209968386869e+36 9.969209968386869e+36 2.96875 3.3411865234375 4.30377197265625 4.93115234375 -3.6829833984375 -7.37115478515625
-2.9239501953125 -0.7557373046875 -0.017822265625 2.2679443359375 0.545654296875 1.201416015625 5.05291748046875 -1.02276611328125
-3.16357421875 -2.9552001953125 3.47979736328125 9.969209968386869e+36 9.969209968386869e+36 -2.74383544921875 -0.51190185546875 -0.00830078125
-2.8843994140625 -9.7642822265625 7.87994384765625 7.4654541015625 5.5496826171875 0.0 2.20355224609375 1.9473876953125
9.969209968386869e+36 9.969209968386869e+36 4.09747314453125 4.114501953125 3.16552734375 9.969209968386869e+36 1.1929931640625 0.0
-5.505859375 1.5096435546875 -3.33013916015625 1.38671875 1.8109130859375 5.35986328125 -0.8404541015625 0.57470703125
0.48760986328125 3.437744140625 1.363037109375 9.969209968386869e+36 9.969209968386869e+36 -2.1832275390625 2.3414306640625 1.380859375
-3.46380615234375 -1.88720703125 9.662109375 7.4654541015625 1.847900390625 4.07232666015625 4.981201171875 -9.4024658203125

lat f4 [32, 32]
00000000: 7b98 9dc2 4880 9dc2 1568 9dc2 e54f 9dc2
00000010: bd37 9dc2 9f1f 9dc2 8d07 9dc2 8aef 9cc2
00000020: 98d7 9cc2 b9bf 9cc2 eda7 9cc2 3890 9cc2
00000030: 9878 9cc2 0f61 9cc2 9f49 9cc2 4732 9cc2
00000040: 071b 9cc2 e103 9cc2 d5ec 9bc2 e1d5 9bc2
00000050: 08bf 9bc2 47a8 9bc2 a091 9bc2 127b 9bc2
00000060: 9d64 9bc2 404e 9bc2 fc37 9bc2 cf21 9bc2
00000070: b90b 9bc2 bbf5 9ac2 d2df 9ac2 00ca 9ac2
00000080: 4b80 9dc2 2568 9dc2 ff4f 9dc2 dd37 9dc2
00000090: c21f 9dc2 b207 9dc2 aeef 9cc2 bad7 9cc2
000000a0: d6bf 9cc2 05a8 9cc2 4990 9cc2 a178 9cc2
000000b0: 1061 9cc2 9749 9cc2 3532 9cc2 eb1a 9cc2
000000c0: bb03 9cc2 a4ec 9bc2 a6d5 9bc2 c1be 9bc2
000000d0: f6a7 9bc2 4491 9bc2 ac7a 9bc2 2d64 9bc2
000000e0: c64d 9bc2 7837 9bc2 4221 9bc2 240b 9bc2
000000f0: 1df5 9ac2 2ddf 9ac2 53c9 9ac2 8fb3 9ac2
00000100: 1968 9dc2 0050 9dc2 e737 9dc2 d31f 9dc2
00000110: c607 9dc2 c3ef 9cc2 ced7 9cc2 e7bf 9cc2
00000120: 12a8 9cc2 5090 9cc2 a278 9cc2 0961 9cc2
00000130: 8749 9cc2 1b32 9cc2 c81a 9cc2 8e03 9cc2
00000140: 6cec 9bc2 63d5 9bc2 74be 9bc2 9ea7 9bc2
00000150: e290 9bc2 3f7a 9bc2 b563 9bc2 444d 9bc2
00000160: ec36 9bc2 ac20 9bc2 850a 9bc2 75f4 9ac2
00000170: 7dde 9ac2 9bc8 9ac2 cfb2 9ac2 199d 9ac2
00000180: e44f 9dc2 d837 9dc2 cd1f 9dc2 c607 9dc2
00000190: c7ef 9cc2 d2d7 9cc2 ebbf 9cc2 12a8 9cc2
000001a0: 4b90 9cc2 9778 9cc2 f860 9cc2 6d49 9cc2
000001b0: f931 9cc2 9d1a 9cc2 5803 9cc2 2cec 9bc2
000001c0: 19d5 9bc2 1fbe 9bc2 3ea7 9bc2 7790 9bc2
000001d0: c979 9bc2 3563 9bc2 b94c 9bc2 5736 9bc2
000001e0: 0e20 9bc2 dc09 9bc2 c3f3 9ac2 c2dd 9ac2
000001f0: d8c7 9ac2 04b2 9ac2 479c 9ac2 9f86 9ac2
00000200: b037 9dc2 b01f 9dc2 b207 9dc2 b9ef 9cc2
00000210: c7d7 9cc2 e0bf 9cc2 06a8 9cc2 3c90 9cc2
00000220: 8378 9cc2 de60 9cc2 4c49 9cc2 d031 9cc2
00000230: 6b1a 9cc2 1c03 9cc2 e6eb 9bc2 c9d4 9bc2
00000240: c4bd 9bc2 d8a6 9bc2 0690 9bc2 4e79 9bc2
00000250: ae62 9bc2 284c 9bc2 bb35 9bc2 671f 9bc2
00000260: 2c09 9bc2 0af3 9ac2 ffdc 9ac2 0cc7 9ac2
00000270: 30b1 9ac2 6a9b 9ac2 bb85 9ac2 2270 9ac2
00000280: 721f 9dc2 8007 9dc2 8eef 9cc2 a2d7 9cc2
00000290: bebf 9cc2 e4a7 9cc2 1890 9cc2 5c78 9cc2
000002a0: b160 9cc2 1949 9cc2 9631 9cc2 281a 9cc2
000002b0: d102 9cc2 91eb 9bc2 69d4 9bc2 5abd 9bc2
000002c0: 64a6 9bc2 868f 9bc2 c378 9bc2 1862 9bc2
000002d0: 874b 9bc2 0f35 9bc2 b11e 9bc2 6b08 9bc2
000002e0: 3ef2 9ac2 2adc 9ac2 2dc6 9ac2 48b0 9ac2
000002f0: 7a9a 9ac2 c384 9ac2 226f 9ac2 9759 9ac2
00000300: 4007 9dc2 5aef 9cc2 75d7 9cc2 96bf 9cc2
00000310: bfa7 9cc2 f38f 9cc2 3578 9cc2 8660 9cc2
00000320: e948 9cc2 5f31 9cc2 ea19 9cc2 8a02 9cc2
00000330: 41eb 9bc2 0fd4 9bc2 f5bc 9bc2 f4a5 9bc2
00000340: 0c8f 9bc2 3d78 9bc2 8761 9bc2 eb4a 9bc2
00000350: 6834 9bc2 ff1d 9bc2 ae07 9bc2 77f1 9ac2
00000360: 58db 9ac2 52c5 9ac2 63af 9ac2 8c99 9ac2
00000370: cc83 9ac2 236e 9ac2 9058 9ac2 1343 9ac2
00000380: 09ef 9cc2 30d7 9cc2 58bf 9cc2 85a7 9cc2
00000390: bc8f 9cc2 fd77 9cc2 4c60 9cc2 ab48 9cc2
000003a0: 1c31 9cc2 a019 9cc2 3802 9cc2 e6ea 9bc2
000003b0: abd3 9bc2 88bc 9bc2 7ca5 9bc2 898e 9bc2
000003c0: af77 9bc2 ee60 9bc2 474a 9bc2 b933 9bc2
000003d0: 441d 9bc2 e906 9bc2 a6f0 9ac2 7dda 9ac2
000003e0: 6cc4 9ac2 74ae 9ac2 9398 9ac2 ca82 9ac2
000003f0: 186d 9ac2 7d57 9ac2 f841 9ac2 882c 9ac2
-78.79781 -78.75055 -78.703285 -78.656044 -78.608864 -78.56176 -78.51475 -78.46785
-78.42108 -78.37446 -78.32798 -78.28168 -78.235535 -78.18957 -78.14379 -78.0982
-78.05279 -78.007576 -77.96256 -77.91773 -77.87311 -77.82867 -77.784424 -77.74037
-77.69651 -77.65283 -77.609344 -77.56603 -77.522896 -77.47994 -77.43715 -77.39453
-78.75057 -78.70341 -78.65624 -78.60911 -78.56203 -78.51503 -78.468124 -78.42134
-78.37468 -78.32816 -78.28181 -78.2356 -78.189575 -78.14373 -78.09806 -78.052574
-78.007286 -77.96219 -77.91728 -77.87257 -77.82805 -77.78372 -77.73959 -77.695656
-77.6519 -77.60834 -77.56496 -77.52176 -77.47874 -77.43589 -77.39321 -77.3507
-78.703316 -78.65625 -78.609184 -78.56216 -78.51518 -78.468285 -78.42149 -78.37481
-78.32826 -78.28186 -78.23561 -78.18952 -78.14361 -78.09786 -78.05231 -78.00694
-77.96176 -77.91677 -77.87198 -77.82738 -77.782974 -77.73876 -77.69474 -77.65091
-77.60727 -77.56381 -77.520546 -77.477455 -77.43455 -77.39181 -77.349236 -77.30683
-78.65604 -78.60907 -78.56211 -78.51518 -78.468315 -78.421524 -78.37484 -78.32826
-78.28182 -78.23553 -78.18939 -78.14341 -78.0976 -78.05198 -78.00653 -77.96127
-77.91621 -77.87133 -77.826645 -77.78216 -77.73786 -77.69376 -77.64985 -77.60613
-77.56261 -77.51926 -77.4761 -77.43312 -77.39032 -77.34769 -77.30523 -77.26293
-78.608765 -78.56189 -78.51503 -78.46821 -78.42144 -78.374756 -78.32817 -78.28171
-78.235374 -78.18919 -78.14316 -78.09729 -78.0516 -78.00607 -77.96074 -77.915596
-77.870636 -77.82587 -77.781296 -77.73692 -77.69273 -77.64874 -77.60494 -77.56133
-77.517914 -77.474686 -77.43163 -77.38876 -77.34607 -77.30354 -77.26119 -77.21901
-78.56142 -78.51465 -78.46788 -78.42116 -78.3745 -78.32791 -78.28143 -78.23508
-78.18885 -78.14277 -78.09685 -78.05109 -78.0055 -77.96009 -77.91486 -77.86983
-77.82498 -77.78032 -77.73586 -77.69159 -77.647514 -77.60363 -77.559944 -77.51644
-77.47313 -77.43001 -77.38706 -77.3443 -77.30171 -77.2593 -77.21706 -77.17498
-78.51416 -78.46748 -78.420815 -78.37419 -78.32763 -78.28115 -78.23478 -78.18852
-78.1424 -78.09643 -78.05061 -78.00496 -77.95948 -77.91418 -77.86906 -77.82413
-77.77939 -77.73484 -77.69048 -77.646324 -77.602356 -77.558586 -77.515 -77.47161
-77.428406 -77.38539 -77.34255 -77.2999 -77.257416 -77.21511 -77.17297 -77.131004
-78.466866 -78.42029 -78.37372 -78.32719 -78.28073 -78.23435 -78.18808 -78.14193
-78.09592 -78.05005 -78.00433 -77.958786 -77.913414 -77.868225 -77.82321 -77.77839
-77.73376 -77.689316 -77.64507 -77.60102 -77.55716 -77.5135 -77.47002 -77.426735
-77.38364 -77.34073 -77.298 -77.25545 -77.21307 -77.170876 -77.128845 -77.086975

lon f4 [32, 32]
00000000: b4e6 3542 a73c 3842 a582 3a42 66b9 3c42
00000010: 9ae1 3e42 e5fb 4042 e308 4342 2809 4542
00000020: 40fd 4642 afe5 4842 f3c2 4a42 8395 4c42
00000030: d05d 4e42 451c 5042 49d1 5142 3d7d 5342
00000040: 7b20 5542 5dbb 5642 364e 5842 55d9 5942
00000050: 065d 5b42 91d9 5c42 3c4f 5e42 48be 5f42
00000060: f326 6142 7b89 6242 19e6 6342 033d 6542
00000070: 6e8e 6642 8dda 6742 8f21 6942 a363 6a42
00000080: aba6 3542 5cfa 3742 2e3e 3a42 da72 3c42
00000090: 0d99 3e42 6bb1 4042 8fbc 4242 0cbb 4442
000000a0: 6dad 4642 3694 4842 e36f 4a42 eb40 4c42
000000b0: be07 4e42 c7c4 4f42 6b78 5142 0b23 5342
000000c0: 02c5 5442 a85e 5642 4ff0 5742 467a 5942
000000d0: d9fc 5a42 5178 5c42 f0ec 5d42 f95a 5f42
000000e0: abc2 6042 4024 6242 f37f 6342 f9d5 6442
000000f0: 8826 6642 d071 6742 03b8 6842 4ef9 6942
00000100: 1e67 3542 8fb8 3742 3afa 3942 d42c 3c42
00000110: 0a51 3e42 7e67 4042 cc70 4242 846d 4442
00000120: 315e 4642 5543 4842 6e1d 4a42 f0ec 4b42
00000130: 4bb2 4d42 ea6d 4f42 3020 5142 7ec9 5242
00000140: 306a 5442 9a02 5642 1193 5742 e31b 5942
00000150: 5a9d 5a42 be17 5c42 538b 5d42 5bf8 5e42
00000160: 135f 6042 b7bf 6142 7f1a 6342 a36f 6442
00000170: 55bf 6542 c909 6742 2c4f 6842 ae8f 6942
00000180: f527 3542 2d77 3742 b4b6 3942 40e7 3b42
00000190: 7c09 3e42 0a1e 4042 8425 4242 7a20 4442
000001a0: 760f 4642 f9f2 4742 80cb 4942 7e99 4b42
000001b0: 645d 4d42 9a17 4f42 85c8 5042 8470 5242
000001c0: f10f 5442 22a7 5542 6a36 5742 17be 5842
000001d0: 733e 5a42 c6b7 5b42 522a 5d42 5996 5e42
000001e0: 19fc 5f42 cc5b 6142 abb5 6242 ed09 6442
000001f0: c458 6542 63a2 6642 f8e6 6742 b226 6942
00000200: 32e9 3442 3436 3742 9c73 3942 1ea2 3b42
00000210: 64c2 3d42 10d5 3f42 bada 4142 f1d3 4342
00000220: 3fc1 4542 24a3 4742 1b7a 4942 9946 4b42
00000230: 0b09 4d42 dbc1 4e42 6c71 5042 1d18 5242
00000240: 48b6 5342 424c 5542 5dda 5642 e760 5842
00000250: 29e0 5942 6b58 5b42 efc9 5c42 f734 5e42
00000260: bf99 5f42 83f8 6042 7a51 6242 daa4 6342
00000270: d7f2 6442 a23b 6642 6a7f 6742 5cbe 6842
00000280: 1eab 3442 ecf5 3642 3631 3942 af5d 3b42
00000290: 007c 3d42 ca8c 3f42 a490 4142 1d88 4342
000002a0: bd73 4542 0454 4742 6c29 4942 69f4 4a42
000002b0: 68b5 4c42 d26c 4e42 091b 5042 6cc0 5142
000002c0: 545d 5342 17f2 5442 047f 5642 6b04 5842
000002d0: 9382 5942 c4f9 5a42 416a 5c42 48d4 5d42
000002e0: 1938 5f42 ec95 6042 faed 6142 7940 6342
000002f0: 9a8d 6442 91d5 6542 8a18 6742 b456 6842
00000300: 696d 3442 09b6 3642 3aef 3842 b019 3b42
00000310: 1236 3d42 ff44 3f42 0e47 4142 ce3c 4342
00000320: c426 4542 7105 4742 4ed9 4842 cda2 4a42
00000330: 5d62 4c42 6418 4e42 45c5 4f42 5d69 5142
00000340: 0505 5342 9298 5442 5524 5642 9aa8 5742
00000350: ab25 5942 cd9b 5a42 430b 5c42 4d74 5d42
00000360: 28d7 5e42 0c34 6042 338b 6142 d1dc 6242
00000370: 1929 6442 3c70 6542 69b2 6642 ccef 6742
00000380: dd2f 3442 5476 3642 73ad 3842 ead5 3a42
00000390: 60f0 3c42 75fd 3e42 bdfd 4042 c6f1 4242
000003a0: 16da 4442 2cb7 4642 8189 4842 8751 4a42
000003b0: a90f 4c42 50c4 4d42 dd6f 4f42 ac12 5142
000003c0: 17ad 5242 713f 5442 0bca 5542 314d 5742
000003d0: 2cc9 5842 413e 5a42 b3ac 5b42 c014 5d42
000003e0: a676 5e42 9dd2 5f42 de28 6142 9d79 6242
000003f0: 0dc5 6342 5d0b 6542 be4c 6642 5b89 6742
45.475296 46.05923 46.627583 47.181053 47.720314 48.24599 48.75868 49.25894
49.747314 50.2243 50.69038 51.146008 51.591614 52.027607 52.45438 52.872303
53.28172 53.682972 54.076378 54.46224 54.840843 55.212467 55.577377 55.93582
56.288036 56.63426 56.974705 57.30958 57.63909 57.96343 58.282772 58.5973
45.41276 45.99449 46.560722 47.11216 47.649464 48.17326 48.68414 49.182663
49.66936 50.144737 50.609264 51.063396 51.50756 51.942165 52.367596 52.78422
53.19239 53.592438 53.984676 54.369408 54.74692 55.117496 55.481384 55.83884
56.190105 56.5354 56.87495 57.208958 57.53763 57.861145 58.1797 58.49346
45.3507 45.930233 46.49436 47.043777 47.57914 48.101067 48.610153 49.10695
49.591984 50.065754 50.52874 50.981384 51.424114 51.857338 52.281433 52.69677
53.1037 53.50254 53.89362 54.277233 54.653664 55.023186 55.38606 55.742535
56.092846 56.43722 56.775875 57.10902 57.436848 57.759556 58.077316 58.390312
45.28902 45.866383 46.42842 46.97583 47.509262 48.029335 48.536636 49.031715
49.5151 49.987278 50.44873 50.899895 51.3412 51.77305 52.19582 52.60988
53.015568 53.413216 53.80314 54.185635 54.560986 54.929466 55.29133 55.646824
55.99619 56.339645 56.67741 57.009693 57.336685 57.65858 57.975555 58.28779
45.22773 45.802933 46.3629 46.908318 47.439835 47.95807 48.4636 48.956974
49.438717 49.909317 50.369244 50.818943 51.25883 51.689312 52.110764 52.52355
52.92801 53.32447 53.713245 54.09463 54.468906 54.836346 55.1972 55.551723
55.900143 56.242687 56.579567 56.910988 57.23715 57.558235 57.874428 58.185898
45.167107 45.740158 46.298058 46.841488 47.371094 47.88749 48.39125 48.882923
49.363026 49.832047 50.29045 50.73868 51.177155 51.60627 52.0264 52.437912
52.84114 53.236416 53.62404 54.004314 54.377514 54.74391 55.103764 55.457306
55.804783 56.146408 56.4824 56.81296 57.138283 57.45856 57.773964 58.08467
45.106846 45.67777 46.23362 46.775085 47.302803 47.81738 48.31939 48.80938
49.287857 49.755314 50.21221 50.658985 51.096058 51.52382 51.942646 52.352894
52.7549 53.148994 53.53548 53.91465 54.286785 54.65215 55.010998 55.363575
55.710114 56.050827 56.385937 56.71564 57.040134 57.359604 57.67423 57.984177
45.04674 45.615555 46.169384 46.7089 47.23474 47.747517 48.24779 48.736107
49.212975 49.67888 50.13428 50.579617 51.015293 51.44171 51.85924 52.268234
52.669033 53.061954 53.447308 53.825382 54.196457 54.560795 54.91865 55.270264
55.615868 55.955677 56.28991 56.618763 56.942432 57.261097 57.574944 57.884136

qa f4 [32, 32]
00000000: 0000 0000 0000 0000 cccc cc3e 0000 0000
00000010: cccc cc3e 0000 803f 0000 803f 0000 803f
00000020: 0000 803f 0000 803f 0000 803f 0000 803f
00000030: 0000 803f 0000 803f 0000 803f 0000 803f
00000040: 0000 803f 0000 803f 0000 803f cccc cc3e
00000050: 0000 0000 cccc cc3e 0000 803f 0000 803f
00000060: 0000 803f 0000 803f 0000 803f cccc cc3e
00000070: cccc cc3e 0000 803f 0000 803f 0000 803f
00000080: 0000 0000 0000 0000 cccc cc3e 0000 0000
00000090: cccc cc3e 0000 803f 0000 803f cccc cc3e
000000a0: cccc cc3e 0000 803f 0000 803f 0000 803f
000000b0: 0000 803f 0000 803f 0000 803f 0000 803f
000000c0: 0000 803f 0000 803f 0000 803f cccc cc3e
000000d0: 0000 0000 cccc cc3e 0000 803f 0000 803f
000000e0: 0000 803f 0000 803f 0000 803f 0000 803f
000000f0: 0000 803f 0000 803f 0000 803f 0000 803f
00000100: 0000 0000 0000 0000 cccc cc3e cccc cc3e
00000110: cccc cc3e 0000 803f 0000 803f cccc cc3e
00000120: cccc cc3e 0000 803f 0000 803f 0000 803f
00000130: 0000 803f 0000 803f 0000 803f 0000 803f
00000140: 0000 803f 0000 803f cccc cc3e cccc cc3e
00000150: 0000 0000 cccc cc3e 0000 803f 0000 803f
00000160: 0000 803f 0000 803f 0000 803f 0000 803f
00000170: 0000 803f 0000 803f 0000 803f 0000 803f
00000180: 0000 0000 0000 0000 cccc cc3e 0000 803f
00000190: 0000 803f 0000 803f 0000 803f cccc cc3e
000001a0: cccc cc3e 0000 803f 0000 803f 0000 803f
000001b0: 0000 803f 0000 803f 0000 803f 0000 803f
000001c0: 0000 803f 0000 803f cccc cc3e 0000 0000
000001d0: cccc cc3e 0000 803f 0000 803f 0000 803f
000001e0: 0000 803f 0000 803f 0000 803f 0000 803f
000001f0: 0000 803f 0000 803f 0000 803f 0000 803f
00000200: 0000 0000 0000 0000 cccc cc3e 0000 803f
00000210: 0000 803f 0000 803f 0000 803f cccc cc3e
00000220: cccc cc3e 0000 803f 0000 803f 0000 803f
00000230: 0000 803f 0000 803f 0000 803f 0000 803f
00000240: 0000 803f 0000 803f cccc cc3e 0000 0000
00000250: cccc cc3e 0000 803f 0000 803f 0000 803f
00000260: 0000 803f 0000 803f 0000 803f 0000 803f
00000270: 0000 803f 0000 803f 0000 803f 0000 803f
00000280: 0000 0000 0000 0000 cccc cc3e 0000 803f
00000290: 0000 803f 0000 803f 0000 803f 0000 803f
000002a0: 0000 803f 0000 803f 0000 803f 0000 803f
000002b0: 0000 803f 0000 803f 0000 803f 0000 803f
000002c0: 0000 803f 0000 803f cccc cc3e 0000 0000
000002d0: cccc cc3e 0000 803f 0000 803f 0000 803f
000002e0: 0000 803f 0000 803f 0000 803f 0000 803f
000002f0: 0000 803f 0000 803f 0000 803f 0000 803f
00000300: 0000 0000 0000 0000 cccc cc3e 0000 803f
00000310: 0000 803f cccc cc3e cccc cc3e 0000 803f
00000320: 0000 803f 0000 803f 0000 803f 0000 803f
00000330: 0000 803f 0000 803f 0000 803f 0000 803f
00000340: 0000 803f 0000 803f cccc cc3e 0000 0000
00000350: 0000 0000 0000 803f 0000 803f 0000 803f
00000360: 0000 803f 0000 803f 0000 803f 0000 803f
00000370: 0000 803f 0000 803f 0000 803f 0000 803f
00000380: 0000 0000 0000 0000 0000 803f cccc cc3e
00000390: cccc cc3e 0000 0000 cccc cc3e 0000 803f
000003a0: 0000 803f 0000 803f 0000 803f 0000 803f
000003b0: 0000 803f 0000 803f 0000 803f 0000 803f
000003c0: 0000 803f 0000 803f cccc cc3e 0000 0000
000003d0: 0000 0000 0000 803f 0000 803f 0000 803f
000003e0: 0000 803f 0000 803f 0000 803f 0000 803f
000003f0: 0000 803f 0000 803f 0000 803f 0000 803f
0.0 0.0 0.39999998 0.0 0.39999998 1.0 1.0 1.0
1.0 1.0 1.0 1.0 1.0 1.0 1.0 1.0
1.0 1.0 1.0 0.39999998 0.0 0.39999998 1.0 1.0
1.0 1.0 1.0 0.39999998 0.39999998 1.0 1.0 1.0
0.0 0.0 0.39999998 0.0 0.39999998 1.0 1.0 0.39999998
0.39999998 1.0 1.0 1.0 1.0 1.0 1.0 1.0
1.0 1.0 1.0 0.39999998 0.0 0.39999998 1.0 1.0
1.0 1.0 1.0 1.0 1.0 1.0 1.0 1.0
0.0 0.0 0.39999998 0.39999998 0.39999998 1.0 1.0 0.39999998
0.39999998 1.0 1.0 1.0 1.0 1.0 1.0 1.0
1.0 1.0 0.39999998 0.39999998 0.0 0.39999998 1.0 1.0
1.0 1.0 1.0 1.0 1.0 1.0 1.0 1.0
0.0 0.0 0.39999998 1.0 1.0 1.0 1.0 0.39999998
0.39999998 1.0 1.0 1.0 1.0 1.0 1.0 1.0
1.0 1.0 0.39999998 0.0 0.39999998 1.0 1.0 1.0
1.0 1.0 1.0 1.0 1.0 1.0 1.0 1.0
0.0 0.0 0.39999998 1.0 1.0 1.0 1.0 0.39999998
0.39999998 1.0 1.0 1.0 1.0 1.0 1.0 1.0
1.0 1.0 0.39999998 0.0 0.39999998 1.0 1.0 1.0
1.0 1.0 1.0 1.0 1.0 1.0 1.0 1.0
0.0 0.0 0.39999998 1.0 1.0 1.0 1.0 1.0
1.0 1.0 1.0 1.0 1.0 1.0 1.0 1.0
1.0 1.0 0.39999998 0.0 0.39999998 1.0 1.0 1.0
1.0 1.0 1.0 1.0 1.0 1.0 1.0 1.0
0.0 0.0 0.39999998 1.0 1.0 0.39999998 0.39999998 1.0
1.0 1.0 1.0 1.0 1.0 1.0 1.0 1.0
1.0 1.0 0.39999998 0.0 0.0 1.0 1.0 1.0
1.0 1.0 1.0 1.0 1.0 1.0 1.0 1.0
0.0 0.0 1.0 0.39999998 0.39999998 0.0 0.39999998 1.0
1.0 1.0 1.0 1.0 1.0 1.0 1.0 1.0
1.0 1.0 0.39999998 0.0 0.0 1.0 1.0 1.0
1.0 1.0 1.0 1.0 1.0 1.0 1.0 1.0
