data/dataset/negative/3965f5a3-1632-4336-b2db-791f6f7c483a.npz (npz, 22479 bytes, 4 tensors)

methane f8 [32, 32]
0	0x479e000000000000	9.969209968386869e+36
1	0x479e000000000000	9.969209968386869e+36
2	0x479e000000000000	9.969209968386869e+36
3	0x479e000000000000	9.969209968386869e+36
4	0x479e000000000000	9.969209968386869e+36
5	0x479e000000000000	9.969209968386869e+36
6	0x479e000000000000	9.969209968386869e+36
7	0x479e000000000000	9.969209968386869e+36
8	0x479e000000000000	9.969209968386869e+36
9	0x479e000000000000	9.969209968386869e+36
10	0x479e000000000000	9.969209968386869e+36
11	0x479e000000000000	9.969209968386869e+36
12	0x479e000000000000	9.969209968386869e+36
13	0x479e000000000000	9.969209968386869e+36
14	0x479e000000000000	9.969209968386869e+36
15	0x479e000000000000	9.969209968386869e+36
16	0x479e000000000000	9.969209968386869e+36
17	0x479e000000000000	9.969209968386869e+36
18	0x479e000000000000	9.969209968386869e+36
19	0x479e000000000000	9.969209968386869e+36
20	0x479e000000000000	9.969209968386869e+36
21	0x479e000000000000	9.969209968386869e+36
22	0x479e000000000000	9.969209968386869e+36
23	0x479e000000000000	9.969209968386869e+36
24	0x479e000000000000	9.969209968386869e+36
25	0x479e000000000000	9.969209968386869e+36
26	0x479e000000000000	9.969209968386869e+36
27	0x479e000000000000	9.969209968386869e+36
28	0x479e000000000000	9.969209968386869e+36
29	0x479e000000000000	9.969209968386869e+36
30	0x479e000000000000	9.969209968386869e+36
31	0x479e000000000000	9.969209968386869e+36
32	0x479e000000000000	9.969209968386869e+36
33	0x479e000000000000	9.969209968386869e+36
34	0x479e000000000000	9.969209968386869e+36
35	0x479e000000000000	9.969209968386869e+36
36	0x479e000000000000	9.969209968386869e+36
37	0x479e000000000000	9.969209968386869e+36
38	0x479e000000000000	9.969209968386869e+36
39	0x479e000000000000	9.969209968386869e+36
40	0x479e000000000000	9.969209968386869e+36
41	0x479e000000000000	9.969209968386869e+36
42	0x479e000000000000	9.969209968386869e+36
43	0x479e000000000000	9.969209968386869e+36
44	0x479e000000000000	9.969209968386869e+36
45	0x479e000000000000	9.969209968386869e+36
46	0x479e000000000000	9.969209968386869e+36
47	0x479e000000000000	9.969209968386869e+36
48	0x479e000000000000	9.969209968386869e+36
49	0x479e000000000000	9.969209968386869e+36
50	0x479e000000000000	9.969209968386869e+36
51	0x479e000000000000	9.969209968386869e+36
52	0x479e000000000000	9.969209968386869e+36
53	0x479e000000000000	9.969209968386869e+36
54	0x479e000000000000	9.969209968386869e+36
55	0x479e000000000000	9.969209968386869e+36
56	0x479e000000000000	9.969209968386869e+36
57	0x479e000000000000	9.969209968386869e+36
58	0x479e000000000000	9.969209968386869e+36
59	0x479e000000000000	9.969209968386869e+36
60	0x479e000000000000	9.969209968386869e+36
61	0x479e000000000000	9.969209968386869e+36
62	0x479e000000000000	9.969209968386869e+36
63	0x479e000000000000	9.969209968386869e+36
64	0x479e000000000000	9.969209968386869e+36
65	0x479e000000000000	9.969209968386869e+36
66	0x479e000000000000	9.969209968386869e+36
67	0x479e000000000000	9.969209968386869e+36
68	0x479e000000000000	9.969209968386869e+36
69	0x479e000000000000	9.969209968386869e+36
70	0x479e000000000000	9.969209968386869e+36
71	0x479e000000000000	9.969209968386869e+36
72	0x479e000000000000	9.969209968386869e+36
73	0x479e000000000000	9.969209968386869e+36
74	0x479e000000000000	9.969209968386869e+36
75	0x479e000000000000	9.969209968386869e+36
76	0x479e000000000000	9.969209968386869e+36
77	0x479e000000000000	9.969209968386869e+36
78	0x479e000000000000	9.969209968386869e+36
79	0x479e000000000000	9.969209968386869e+36
80	0x479e000000000000	9.969209968386869e+36
81	0x479e000000000000	9.969209968386869e+36
82	0x479e000000000000	9.969209968386869e+36
83	0x479e000000000000	9.969209968386869e+36
84	0x479e000000000000	9.969209968386869e+36
85	0x479e000000000000	9.969209968386869e+36
86	0x479e000000000000	9.969209968386869e+36
87	0x479e000000000000	9.969209968386869e+36
88	0x479e000000000000	9.969209968386869e+36
89	0x479e000000000000	9.969209968386869e+36
90	0x479e000000000000	9.969209968386869e+36
91	0x479e000000000000	9.969209968386869e+36
92	0x479e000000000000	9.969209968386869e+36
93	0x479e000000000000	9.969209968386869e+36
94	0x479e000000000000	9.969209968386869e+36
95	0x479e000000000000	9.969209968386869e+36
96	0x479e000000000000	9.969209968386869e+36
97	0x479e000000000000	9.969209968386869e+36
98	0x479e000000000000	9.969209968386869e+36
99	0x479e000000000000	9.969209968386869e+36
100	0x479e000000000000	9.969209968386869e+36
101	0x479e000000000000	9.969209968386869e+36
102	0x479e000000000000	9.969209968386869e+36
103	0x479e000000000000	9.969209968386869e+36
104	0x479e000000000000	9.969209968386869e+36
105	0x479e000000000000	9.969209968386869e+36
106	0x479e000000000000	9.969209968386869e+36
107	0x479e000000000000	9.969209968386869e+36
108	0x479e000000000000	9.969209968386869e+36
109	0x479e000000000000	9.969209968386869e+36
110	0x479e000000000000	9.969209968386869e+36
111	0x479e000000000000	9.969209968386869e+36
112	0x479e000000000000	9.969209968386869e+36
113	0x479e000000000000	9.969209968386869e+36
114	0x479e000000000000	9.969209968386869e+36
115	0x479e000000000000	9.969209968386869e+36
116	0x479e000000000000	9.969209968386869e+36
117	0x479e000000000000	9.969209968386869e+36
118	0x479e000000000000	9.969209968386869e+36
119	0x479e000000000000	9.969209968386869e+36
120	0x479e000000000000	9.969209968386869e+36
121	0x479e000000000000	9.969209968386869e+36
122	0x479e000000000000	9.969209968386869e+36
123	0x479e000000000000	9.969209968386869e+36
124	0x479e000000000000	9.969209968386869e+36
125	0x479e000000000000	9.969209968386869e+36
126	0x479e000000000000	9.969209968386869e+36
127	0x479e000000000000	9.969209968386869e+36
128	0x479e000000000000	9.969209968386869e+36
129	0x479e000000000000	9.969209968386869e+36
130	0x479e000000000000	9.969209968386869e+36
131	0x479e000000000000	9.969209968386869e+36
132	0x479e000000000000	9.969209968386869e+36
133	0x479e000000000000	9.969209968386869e+36
134	0x479e000000000000	9.969209968386869e+36
135	0x479e000000000000	9.969209968386869e+36
136	0x479e000000000000	9.969209968386869e+36
137	0x479e000000000000	9.969209968386869e+36
138	0x479e000000000000	9.969209968386869e+36
139	0x479e000000000000	9.969209968386869e+36
140	0x479e000000000000	9.969209968386869e+36
141	0x479e000000000000	9.969209968386869e+36
142	0x479e000000000000	9.969209968386869e+36
143	0x479e000000000000	9.969209968386869e+36
144	0x479e000000000000	9.969209968386869e+36
145	0x479e000000000000	9.969209968386869e+36
146	0x479e000000000000	9.969209968386869e+36
147	0x479e000000000000	9.969209968386869e+36
148	0x479e000000000000	9.969209968386869e+36
149	0x479e000000000000	9.969209968386869e+36
150	0x479e000000000000	9.969209968386869e+36
151	0x479e000000000000	9.969209968386869e+36
152	0x479e000000000000	9.969209968386869e+36
153	0x479e000000000000	9.969209968386869e+36
154	0x479e000000000000	9.969209968386869e+36
155	0x479e000000000000	9.969209968386869e+36
156	0x479e000000000000	9.969209968386869e+36
157	0x479e000000000000	9.969209968386869e+36
158	0x479e000000000000	9.969209968386869e+36
159	0x479e000000000000	9.969209968386869e+36
160	0x479e000000000000	9.969209968386869e+36
161	0x479e000000000000	9.969209968386869e+36
162	0x479e000000000000	9.969209968386869e+36
163	0x479e000000000000	9.969209968386869e+36
164	0x479e000000000000	9.969209968386869e+36
165	0x479e000000000000	9.969209968386869e+36
166	0x479e000000000000	9.969209968386869e+36
167	0x479e000000000000	9.969209968386869e+36
168	0x479e000000000000	9.969209968386869e+36
169	0x479e000000000000	9.969209968386869e+36
170	0x479e000000000000	9.969209968386869e+36
171	0x479e000000000000	9.969209968386869e+36
172	0x479e000000000000	9.969209968386869e+36
173	0x479e000000000000	9.969209968386869e+36
174	0x479e000000000000	9.969209968386869e+36
175	0x479e000000000000	9.969209968386869e+36
176	0x479e000000000000	9.969209968386869e+36
177	0x479e000000000000	9.969209968386869e+36
178	0x479e000000000000	9.969209968386869e+36
179	0x479e000000000000	9.969209968386869e+36
180	0x479e000000000000	9.969209968386869e+36
181	0x479e000000000000	9.969209968386869e+36
182	0x479e000000000000	9.969209968386869e+36
183	0x479e000000000000	9.969209968386869e+36
184	0x479e000000000000	9.969209968386869e+36
185	0x479e000000000000	9.969209968386869e+36
186	0x479e000000000000	9.969209968386869e+36
187	0x479e000000000000	9.969209968386869e+36
188	0x479e000000000000	9.969209968386869e+36
189	0x479e000000000000	9.969209968386869e+36
190	0x479e000000000000	9.969209968386869e+36
191	0x479e000000000000	9.969209968386869e+36
192	0x479e000000000000	9.969209968386869e+36
193	0x479e000000000000	9.969209968386869e+36
194	0x479e000000000000	9.969209968386869e+36
195	0x479e000000000000	9.969209968386869e+36
196	0x479e000000000000	9.969209968386869e+36
197	0x479e000000000000	9.969209968386869e+36
198	0x479e000000000000	9.969209968386869e+36
199	0x479e000000000000	9.969209968386869e+36
200	0x479e000000000000	9.969209968386869e+36
201	0x479e000000000000	9.969209968386869e+36
202	0x479e000000000000	9.969209968386869e+36
203	0x479e000000000000	9.969209968386869e+36
204	0x479e000000000000	9.969209968386869e+36
205	0x479e000000000000	9.969209968386869e+36
206	0x479e000000000000	9.969209968386869e+36
207	0x479e000000000000	9.969209968386869e+36
208	0x479e000000000000	9.969209968386869e+36
209	0x479e000000000000	9.969209968386869e+36
210	0x479e000000000000	9.969209968386869e+36
211	0x479e000000000000	9.969209968386869e+36
212	0x479e000000000000	9.969209968386869e+36
213	0x479e000000000000	9.969209968386869e+36
214	0x479e000000000000	9.969209968386869e+36
215	0x479e000000000000	9.969209968386869e+36
216	0x479e000000000000	9.969209968386869e+36
217	0x479e000000000000	9.969209968386869e+36
218	0x479e000000000000	9.969209968386869e+36
219	0x479e000000000000	9.969209968386869e+36
220	0x479e000000000000	9.969209968386869e+36
221	0x479e000000000000	9.969209968386869e+36
222	0x479e000000000000	9.969209968386869e+36
223	0x479e000000000000	9.969209968386869e+36
224	0x479e000000000000	9.969209968386869e+36
225	0x479e000000000000	9.969209968386869e+36
226	0x479e000000000000	9.969209968386869e+36
227	0x479e000000000000	9.969209968386869e+36
228	0x479e000000000000	9.969209968386869e+36
229	0x479e000000000000	9.969209968386869e+36
230	0x479e000000000000	9.969209968386869e+36
231	0x479e000000000000	9.969209968386869e+36
232	0x479e000000000000	9.969209968386869e+36
233	0x479e000000000000	9.969209968386869e+36
234	0x479e000000000000	9.969209968386869e+36
235	0x479e000000000000	9.969209968386869e+36
236	0x479e000000000000	9.969209968386869e+36
237	0x479e000000000000	9.969209968386869e+36
238	0x479e000000000000	9.969209968386869e+36
239	0x479e000000000000	9.969209968386869e+36
240	0x479e000000000000	9.969209968386869e+36
241	0x479e000000000000	9.969209968386869e+36
242	0x479e000000000000	9.969209968386869e+36
243	0x479e000000000000	9.969209968386869e+36
244	0x479e000000000000	9.969209968386869e+36
245	0x479e000000000000	9.969209968386869e+36
246	0x479e000000000000	9.969209968386869e+36
247	0x479e000000000000	9.969209968386869e+36
248	0x479e000000000000	9.969209968386869e+36
249	0x479e000000000000	9.969209968386869e+36
250	0x479e000000000000	9.969209968386869e+36
251	0x479e000000000000	9.969209968386869e+36
252	0x479e000000000000	9.969209968386869e+36
253	0x479e000000000000	9.969209968386869e+36
254	0x479e000000000000	9.969209968386869e+36
255	0x479e000000000000	9.969209968386869e+36

lat f4 [32, 32]
0	0xc29ca5b3	-78.32363
1	0xc29cf505	-78.47855
2	0xc29d3c25	-78.61747
3	0xc29d7bf1	-78.74207
4	0xc29db52a	-78.853836
5	0xc29de874	-78.95401
6	0xc29e1660	-79.0437
7	0xc29e3f6e	-79.123886
8	0xc29e640d	-79.19541
9	0xc29e84a1	-79.25904
10	0xc29ea182	-79.315445
11	0xc29ebb00	-79.365234
12	0xc29ed161	-79.40894
13	0xc29ee4e6	-79.44707
14	0xc29ef5c9	-79.48005
15	0xc29f043d	-79.50828
16	0xc29f1072	-79.53212
17	0xc29f1a94	-79.55191
18	0xc29f22ca	-79.56795
19	0xc29f2939	-79.58051
20	0xc29f2e00	-79.58984
21	0xc29f313e	-79.596176
22	0xc29f330f	-79.599724
23	0xc29f338d	-79.600685
24	0xc29f32ce	-79.59923
25	0xc29f30e9	-79.59553
26	0xc29f2df0	-79.58972
27	0xc29f29f7	-79.58196
28	0xc29f250f	-79.57238
29	0xc29f1f47	-79.56109
30	0xc29f18ae	-79.5482
31	0xc29f1151	-79.53382
32	0xc29cbcbb	-78.368614
33	0xc29d0c48	-78.52399
34	0xc29d539d	-78.66331
35	0xc29d939a	-78.788284
36	0xc29dccfd	-78.90037
37	0xc29e006d	-79.00083
38	0xc29e2e7a	-79.090775
39	0xc29e57a5	-79.17118
40	0xc29e7c5e	-79.242905
41	0xc29e9d08	-79.3067
42	0xc29eb9fb	-79.36324
43	0xc29ed388	-79.41315
44	0xc29ee9f5	-79.45695
45	0xc29efd84	-79.49515
46	0xc29f0e6d	-79.528175
47	0xc29f1ce6	-79.55644
48	0xc29f291e	-79.58031
49	0xc29f3340	-79.6001
50	0xc29f3b75	-79.61613
51	0xc29f41e0	-79.62866
52	0xc29f46a3	-79.63796
53	0xc29f49db	-79.64425
54	0xc29f4ba5	-79.64774
55	0xc29f4c1a	-79.648636
56	0xc29f4b51	-79.6471
57	0xc29f4961	-79.64332
58	0xc29f465c	-79.63742
59	0xc29f4257	-79.62957
60	0xc29f3d61	-79.61988
61	0xc29f378b	-79.60848
62	0xc29f30e3	-79.59548
63	0xc29f2976	-79.58098
64	0xc29cd3b9	-78.41352
65	0xc29d2382	-78.56935
66	0xc29d6b0d	-78.70908
67	0xc29dab3a	-78.83443
68	0xc29de4c8	-78.94684
69	0xc29e185f	-79.0476
70	0xc29e468e	-79.1378
71	0xc29e6fd7	-79.21844
72	0xc29e94a9	-79.29035
73	0xc29eb569	-79.35432
74	0xc29ed26f	-79.411
75	0xc29eec0b	-79.46102
76	0xc29f0285	-79.50492
77	0xc29f161d	-79.54319
78	0xc29f270e	-79.57628
79	0xc29f358b	-79.604576
80	0xc29f41c6	-79.62846
81	0xc29f4be9	-79.64826
82	0xc29f541d	-79.66428
83	0xc29f5a85	-79.676796
84	0xc29f5f42	-79.68605
85	0xc29f6275	-79.6923
86	0xc29f6437	-79.69573
87	0xc29f64a3	-79.696556
88	0xc29f63d0	-79.69495
89	0xc29f61d5	-79.69108
90	0xc29f5ec5	-79.6851
91	0xc29f5ab3	-79.67715
92	0xc29f55af	-79.66735
93	0xc29f4fcb	-79.655846
94	0xc29f4913	-79.64272
95	0xc29f4197	-79.628105
96	0xc29ceab1	-78.45838
97	0xc29d3ab7	-78.61468
98	0xc29d8278	-78.75482
99	0xc29dc2d6	-78.88054
100	0xc29dfc90	-78.993286
101	0xc29e304d	-79.09434
102	0xc29e5ea0	-79.184814
103	0xc29e8806	-79.26567
104	0xc29eacf3	-79.33779
105	0xc29ecdc9	-79.401924
106	0xc29eeae2	-79.458755
107	0xc29f048e	-79.508896
108	0xc29f1b15	-79.552895
109	0xc29f2eb7	-79.59124
110	0xc29f3fae	-79.624374
111	0xc29f4e31	-79.65272
112	0xc29f5a6e	-79.67662
113	0xc29f6492	-79.69643
114	0xc29f6cc4	-79.71243
115	0xc29f7329	-79.72492
116	0xc29f77e3	-79.73415
117	0xc29f7b0e	-79.74034
118	0xc29f7cc9	-79.74372
119	0xc29f7d2c	-79.74448
120	0xc29f7c50	-79.7428
121	0xc29f7a4a	-79.738846
122	0xc29f772d	-79.732765
123	0xc29f730e	-79.72472
124	0xc29f6dfd	-79.71482
125	0xc29f680a	-79.7032
126	0xc29f6144	-79.68997
127	0xc29f59b8	-79.67523
128	0xc29d01ae	-78.50328
129	0xc29d51f1	-78.66004
130	0xc29d99e9	-78.800606
131	0xc29dda78	-78.9267
132	0xc29e145d	-79.03977
133	0xc29e4842	-79.14113
134	0xc29e76b6	-79.23186
135	0xc29ea03b	-79.31295
136	0xc29ec541	-79.38526
137	0xc29ee62e	-79.44957
138	0xc29f0359	-79.50654
139	0xc29f1d15	-79.5568
140	0xc29f33a8	-79.60089
141	0xc29f4754	-79.63931
142	0xc29f5853	-79.67251
143	0xc29f66db	-79.70089
144	0xc29f731b	-79.724815
145	0xc29f7d3f	-79.74462
146	0xc29f8570	-79.76062
147	0xc29f8bd1	-79.77308
148	0xc29f9086	-79.78227
149	0xc29f93ab	-79.788414
150	0xc29f955e	-79.79173
151	0xc29f95b9	-79.79243
152	0xc29f94d2	-79.790665
153	0xc29f92c0	-79.78662
154	0xc29f8f98	-79.78046
155	0xc29f8b6c	-79.77231
156	0xc29f864d	-79.76231
157	0xc29f804b	-79.75057
158	0xc29f7975	-79.73722
159	0xc29f71d9	-79.72236
160	0xc29d18ae	-78.5482
161	0xc29d692d	-78.70542
162	0xc29db15c	-78.846405
163	0xc29df21c	-78.97287
164	0xc29e2c2d	-79.08628
165	0xc29e6038	-79.18793
166	0xc29e8ecf	-79.27892
167	0xc29eb872	-79.360245
168	0xc29edd92	-79.432755
169	0xc29efe95	-79.49723
170	0xc29f1bd3	-79.554344
171	0xc29f359e	-79.60472
172	0xc29f4c3e	-79.64891
173	0xc29f5ff4	-79.68741
174	0xc29f70fa	-79.72066
175	0xc29f7f86	-79.74907
176	0xc29f8bc8	-79.77301
177	0xc29f95ed	-79.79282
178	0xc29f9e1c	-79.80881
179	0xc29fa47a	-79.82124
180	0xc29fa92a	-79.8304
181	0xc29fac49	-79.836494
182	0xc29fadf4	-79.83975
183	0xc29fae45	-79.84037
184	0xc29fad54	-79.83853
185	0xc29fab37	-79.834404
186	0xc29fa802	-79.82814
187	0xc29fa3c8	-79.819885
188	0xc29f9e9b	-79.80978
189	0xc29f988a	-79.79793
190	0xc29f91a5	-79.78446
191	0xc29f89f9	-79.76948
192	0xc29d2fb5	-78.59318
193	0xc29d8070	-78.750854
194	0xc29dc8d5	-78.89225
195	0xc29e09c5	-79.01908
196	0xc29e4402	-79.13283
197	0xc29e7834	-79.23477
198	0xc29ea6ec	-79.32602
199	0xc29ed0ad	-79.40757
200	0xc29ef5e7	-79.48028
201	0xc29f1700	-79.54492
202	0xc29f3451	-79.60218
203	0xc29f4e2b	-79.65267
204	0xc29f64d8	-79.69696
205	0xc29f7897	-79.73553
206	0xc29f89a4	-79.76883
207	0xc29f9834	-79.79727
208	0xc29fa479	-79.821236
209	0xc29fae9d	-79.84104
210	0xc29fb6cb	-79.85702
211	0xc29fbd25	-79.86942
212	0xc29fc1d0	-79.87854
213	0xc29fc4e8	-79.88458
214	0xc29fc68b	-79.88778
215	0xc29fc6d2	-79.88832
216	0xc29fc5d7	-79.886406
217	0xc29fc3ae	-79.88219
218	0xc29fc06c	-79.875824
219	0xc29fbc25	-79.86747
220	0xc29fb6ea	-79.857254
221	0xc29fb0ca	-79.84529
222	0xc29fa9d5	-79.8317
223	0xc29fa218	-79.81659
224	0xc29d46b3	-78.638084
225	0xc29d97aa	-78.79622
226	0xc29de046	-78.938034
227	0xc29e2167	-79.06524
228	0xc29e5bcf	-79.17931
229	0xc29e9028	-79.281555
230	0xc29ebf02	-79.37306
231	0xc29ee8e1	-79.45484
232	0xc29f0e35	-79.52775
233	0xc29f2f64	-79.59256
234	0xc29f4cc8	-79.64996
235	0xc29f66b1	-79.70057
236	0xc29f7d6a	-79.74495
237	0xc29f9133	-79.78359
238	0xc29fa246	-79.81694
239	0xc29fb0db	-79.84542
240	0xc29fbd22	-79.8694
241	0xc29fc747	-79.88921
242	0xc29fcf72	-79.90517
243	0xc29fd5ca	-79.91756
244	0xc29fda6e	-79.92662
245	0xc29fdd80	-79.93262
246	0xc29fdf1a	-79.935745
247	0xc29fdf59	-79.936226
248	0xc29fde52	-79.93422
249	0xc29fdc1e	-79.92992
250	0xc29fd8cf	-79.923454
251	0xc29fd47b	-79.915
252	0xc29fcf30	-79.90466
253	0xc29fc901	-79.892586
254	0xc29fc1fc	-79.878876
255	0xc29fba2f	-79.86364

lon f4 [32, 32]
0	0x4329be7d	169.7441
1	0x43283399	168.20155
2	0x4326b418	166.70349
3	0x43253f79	165.24794
4	0x4323d54a	163.83316
5	0x43227525	162.4576
6	0x43211eae	161.11984
7	0x431fd18d	159.81856
8	0x431e8d73	158.55254
9	0x431d5213	157.3206
10	0x431c1f27	156.12169
11	0x431af468	154.95471
12	0x4319d196	153.8187
13	0x4318b671	152.71266
14	0x4317a2bc	151.63568
15	0x4316963b	150.58684
16	0x431590b5	149.56526
17	0x431491f2	148.5701
18	0x431399bd	147.60054
19	0x4312a7e0	146.65576
20	0x4311bc28	145.73499
21	0x4310d664	144.83746
22	0x430ff665	143.96248
23	0x430f1bfa	143.10928
24	0x430e46f6	142.27719
25	0x430d772f	141.46556
26	0x430cac78	140.6737
27	0x430be6a9	139.90102
28	0x430b2599	139.14687
29	0x430a6922	138.41068
30	0x4309b11e	137.69186
31	0x4308fd68	136.98987
32	0x4329d046	169.81357
33	0x43284425	168.26619
34	0x4326c35e	166.76315
35	0x43254d72	165.30252
36	0x4323e1f3	163.88261
37	0x4322807a	162.50186
38	0x432128ae	161.1589
39	0x431fda37	159.8524
40	0x431e94c9	158.58119
41	0x431d5817	157.3441
42	0x431c23da	156.14005
43	0x431af7d0	154.96802
44	0x4319d3b6	153.827
45	0x4318b74e	152.71603
46	0x4317a25b	151.6342
47	0x431694a3	150.58061
48	0x43158deb	149.55437
49	0x43148dfe	148.55466
50	0x431394a4	147.58063
51	0x4312a1a9	146.63148
52	0x4311b4db	145.70647
53	0x4310ce09	144.80482
54	0x430fed01	143.9258
55	0x430f1195	143.06868
56	0x430e3b98	142.23279
57	0x430d6add	141.41743
58	0x430c9f3b	140.622
59	0x430bd887	139.84581
60	0x430b169a	139.08829
61	0x430a594c	138.34882
62	0x4309a077	137.62682
63	0x4308ebf7	136.92174
64	0x4329e244	169.88385
65	0x432854e2	168.33157
66	0x4326d2d3	166.82353
67	0x43255b99	165.3578
68	0x4323eec7	163.93272
69	0x43228bf8	162.54675
70	0x432132d3	161.19853
71	0x431fe305	159.8868
72	0x431e9c3e	158.61032
73	0x431d5e37	157.36803
74	0x431c28a8	156.15881
75	0x431afb4e	154.98166
76	0x4319d5e9	153.83559
77	0x4318b83c	152.71967
78	0x4317a208	151.63293
79	0x43169315	150.57454
80	0x43158b29	149.5436
81	0x43148a0e	148.53928
82	0x43138f8d	147.56075
83	0x43129b72	146.60721
84	0x4311ad8b	145.6779
85	0x4310c5a6	144.77206
86	0x430fe394	143.88898
87	0x430f0724	143.0279
88	0x430e302b	142.18816
89	0x430d5e7c	141.36908
90	0x430c91ec	140.57
91	0x430bca51	139.7903
92	0x430b0784	139.02936
93	0x430a495d	138.28658
94	0x43098fb6	137.56137
95	0x4308da6b	136.8532
96	0x4329f487	169.95518
97	0x432865e3	168.398
98	0x4326e289	166.8849
99	0x432569fe	165.41403
100	0x4323fbd5	163.98372
101	0x432297ad	162.59248
102	0x43213d2d	161.23897
103	0x431fec02	159.9219
104	0x431ea3e1	158.64015
105	0x431d6480	157.39258
106	0x431c2d9b	156.17815
107	0x431afeee	154.99582
108	0x4319d83b	153.84465
109	0x4318b944	152.7237
110	0x4317a1cc	151.63202
111	0x4316919b	150.56877
112	0x43158877	149.53307
113	0x4314862b	148.5241
114	0x43138a7f	147.541
115	0x43129541	146.58302
116	0x4311a63e	145.64938
117	0x4310bd45	144.73933
118	0x430fda24	143.85211
119	0x430efcaf	142.98705
120	0x430e24b7	142.14342
121	0x430d5210	141.32056
122	0x430c8490	140.51782
123	0x430bbc0c	139.73456
124	0x430af85c	138.97015
125	0x430a395a	138.22403
126	0x43097edf	137.49559
127	0x4308c8c6	136.78427
128	0x432a06db	170.02678
129	0x432876f4	168.46466
130	0x4326f24e	166.9465
131	0x4325786f	165.47044
132	0x432408ee	164.03488
133	0x4322a36a	162.63834
134	0x4321478d	161.2795
135	0x431ff504	159.95709
136	0x431eab86	158.67001
137	0x431d6ac9	157.41713
138	0x431c328b	156.19743
139	0x431b0289	155.0099
140	0x4319da85	153.85359
141	0x4318ba41	152.72755
142	0x4317a183	151.6309
143	0x43169011	150.56276
144	0x431585b3	149.52226
145	0x43148232	148.50858
146	0x4313855a	147.5209
147	0x43128ef6	146.55844
148	0x43119ed4	145.62042
149	0x4310b4c3	144.7061
150	0x430fd093	143.81474
151	0x430ef215	142.94563
152	0x430e191c	142.09808
153	0x430d457c	141.27142
154	0x430c7709	140.46498
155	0x430bad9a	139.67813
156	0x430ae907	138.91026
157	0x430a2928	138.16077
158	0x43096dd7	137.42906
159	0x4308b6ee	136.71457
160	0x432a1942	170.09866
161	0x43288817	168.5316
162	0x43270223	167.00835
163	0x432586f0	165.5271
164	0x43241615	164.08626
165	0x4322af33	162.68437
166	0x432151f6	161.32016
167	0x431ffe0d	159.99239
168	0x431eb32f	158.69994
169	0x431d7114	157.44171
170	0x431c377a	156.2167
171	0x431b0620	155.02393
172	0x4319dcc8	153.86243
173	0x4318bb35	152.73128
174	0x4317a12e	151.62961
175	0x43168e78	150.55652
176	0x431582dd	149.51118
177	0x43147e26	148.49277
178	0x4313801e	147.50046
179	0x43128892	146.53348
180	0x4311974f	145.59105
181	0x4310ac25	144.67244
182	0x430fc6e2	143.77689
183	0x430ee75a	142.90372
184	0x430e0d5e	142.05222
185	0x430d38c2	141.22171
186	0x430c695b	140.41154
187	0x430b9eff	139.62108
188	0x430ad986	138.8497
189	0x430a18c8	138.0968
190	0x43095c9f	137.3618
191	0x4308a4e6	136.64413
192	0x432a2bb4	170.17072
193	0x43289944	168.5987
194	0x43271201	167.07033
195	0x43259578	165.58386
196	0x43242341	164.13771
197	0x4322bb00	162.73047
198	0x43215c61	161.36086
199	0x43200715	160.02766
200	0x431ebad5	158.72981
201	0x431d7759	157.4662
202	0x431c3c61	156.23586
203	0x431b09ac	155.03778
204	0x4319defe	153.87106
205	0x4318bc1a	152.73477
206	0x4317a0c6	151.62802
207	0x43168cca	150.54996
208	0x43157ff0	149.49976
209	0x43147a00	148.47656
210	0x43137ac6	147.47958
211	0x4312820f	146.50804
212	0x43118fa9	145.56117
213	0x4310a362	144.63821
214	0x430fbd0c	143.73846
215	0x430edc77	142.86119
216	0x430e0175	142.00569
217	0x430d2bdb	141.17131
218	0x430c5b7e	140.35739
219	0x430b9034	139.5633
220	0x430ac9d3	138.78838
221	0x430a0835	138.03206
222	0x43094b33	137.29375
223	0x430892a8	136.57288
224	0x432a3e34	170.24298
225	0x4328aa7e	168.66599
226	0x432721ec	167.1325
227	0x4325a40b	165.6408
228	0x43243077	164.18932
229	0x4322c6d5	162.77669
230	0x432166d2	161.40164
231	0x43201022	160.06302
232	0x431ec27d	158.75972
233	0x431d7d9f	157.4907
234	0x431c4146	156.25497
235	0x431b0d35	155.05159
236	0x4319e12d	153.8796
237	0x4318bcf5	152.73811
238	0x4317a053	151.62627
239	0x43168b0f	150.5432
240	0x43157cf2	149.48807
241	0x431475c7	148.46007
242	0x43137559	147.45839
243	0x43127b75	146.48225
244	0x431187e9	145.5309
245	0x43109a85	144.60359
246	0x430fb318	143.69958
247	0x430ed174	142.81818
248	0x430df56b	141.95866
249	0x430d1ed2	141.12039
250	0x430c4d7d	140.30269
251	0x430b8142	139.50491
252	0x430ab9f8	138.72644
253	0x4309f778	137.96667
254	0x4309399b	137.22502
255	0x4308803d	136.50093

qa f4 [32, 32]
0	0x00000000	0.0
1	0x00000000	0.0
2	0x00000000	0.0
3	0x00000000	0.0
4	0x00000000	0.0
5	0x00000000	0.0
6	0x00000000	0.0
7	0x00000000	0.0
8	0x00000000	0.0
9	0x00000000	0.0
10	0x00000000	0.0
11	0x00000000	0.0
12	0x00000000	0.0
13	0x00000000	0.0
14	0x00000000	0.0
15	0x00000000	0.0
16	0x00000000	0.0
17	0x00000000	0.0
18	0x00000000	0.0
19	0x00000000	0.0
20	0x00000000	0.0
21	0x00000000	0.0
22	0x00000000	0.0
23	0x00000000	0.0
24	0x00000000	0.0
25	0x00000000	0.0
26	0x00000000	0.0
27	0x00000000	0.0
28	0x00000000	0.0
29	0x00000000	0.0
30	0x00000000	0.0
31	0x00000000	0.0
32	0x00000000	0.0
33	0x00000000	0.0
34	0x00000000	0.0
35	0x00000000	0.0
36	0x00000000	0.0
37	0x00000000	0.0
38	0x00000000	0.0
39	0x00000000	0.0
40	0x00000000	0.0
41	0x00000000	0.0
42	0x00000000	0.0
43	0x00000000	0.0
44	0x00000000	0.0
45	0x00000000	0.0
46	0x00000000	0.0
47	0x00000000	0.0
48	0x00000000	0.0
49	0x00000000	0.0
50	0x00000000	0.0
51	0x00000000	0.0
52	0x00000000	0.0
53	0x00000000	0.0
54	0x00000000	0.0
55	0x00000000	0.0
56	0x00000000	0.0
57	0x00000000	0.0
58	0x00000000	0.0
59	0x00000000	0.0
60	0x00000000	0.0
61	0x00000000	0.0
62	0x00000000	0.0
63	0x00000000	0.0
64	0x00000000	0.0
65	0x00000000	0.0
66	0x00000000	0.0
67	0x00000000	0.0
68	0x00000000	0.0
69	0x00000000	0.0
70	0x00000000	0.0
71	0x00000000	0.0
72	0x00000000	0.0
73	0x00000000	0.0
74	0x00000000	0.0
75	0x00000000	0.0
76	0x00000000	0.0
77	0x00000000	0.0
78	0x00000000	0.0
79	0x00000000	0.0
80	0x00000000	0.0
81	0x00000000	0.0
82	0x00000000	0.0
83	0x00000000	0.0
84	0x00000000	0.0
85	0x00000000	0.0
86	0x00000000	0.0
87	0x00000000	0.0
88	0x00000000	0.0
89	0x00000000	0.0
90	0x00000000	0.0
91	0x00000000	0.0
92	0x00000000	0.0
93	0x00000000	0.0
94	0x00000000	0.0
95	0x00000000	0.0
96	0x00000000	0.0
97	0x00000000	0.0
98	0x00000000	0.0
99	0x00000000	0.0
100	0x00000000	0.0
101	0x00000000	0.0
102	0x00000000	0.0
103	0x00000000	0.0
104	0x00000000	0.0
105	0x00000000	0.0
106	0x00000000	0.0
107	0x00000000	0.0
108	0x00000000	0.0
109	0x00000000	0.0
110	0x00000000	0.0
111	0x00000000	0.0
112	0x00000000	0.0
113	0x00000000	0.0
114	0x00000000	0.0
115	0x00000000	0.0
116	0x00000000	0.0
117	0x00000000	0.0
118	0x00000000	0.0
119	0x00000000	0.0
120	0x00000000	0.0
121	0x00000000	0.0
122	0x00000000	0.0
123	0x00000000	0.0
124	0x00000000	0.0
125	0x00000000	0.0
126	0x00000000	0.0
127	0x00000000	0.0
128	0x00000000	0.0
129	0x00000000	0.0
130	0x00000000	0.0
131	0x00000000	0.0
132	0x00000000	0.0
133	0x00000000	0.0
134	0x00000000	0.0
135	0x00000000	0.0
136	0x00000000	0.0
137	0x00000000	0.0
138	0x00000000	0.0
139	0x00000000	0.0
140	0x00000000	0.0
141	0x00000000	0.0
142	0x00000000	0.0
143	0x00000000	0.0
144	0x00000000	0.0
145	0x00000000	0.0
146	0x00000000	0.0
147	0x00000000	0.0
148	0x00000000	0.0
149	0x00000000	0.0
150	0x00000000	0.0
151	0x00000000	0.0
152	0x00000000	0.0
153	0x00000000	0.0
154	0x00000000	0.0
155	0x00000000	0.0
156	0x00000000	0.0
157	0x00000000	0.0
158	0x00000000	0.0
159	0x00000000	0.0
160	0x00000000	0.0
161	0x00000000	0.0
162	0x00000000	0.0
163	0x00000000	0.0
164	0x00000000	0.0
165	0x00000000	0.0
166	0x00000000	0.0
167	0x00000000	0.0
168	0x00000000	0.0
169	0x00000000	0.0
170	0x00000000	0.0
171	0x00000000	0.0
172	0x00000000	0.0
173	0x00000000	0.0
174	0x00000000	0.0
175	0x00000000	0.0
176	0x00000000	0.0
177	0x00000000	0.0
178	0x00000000	0.0
179	0x00000000	0.0
180	0x00000000	0.0
181	0x00000000	0.0
182	0x00000000	0.0
183	0x00000000	0.0
184	0x00000000	0.0
185	0x00000000	0.0
186	0x00000000	0.0
187	0x00000000	0.0
188	0x00000000	0.0
189	0x00000000	0.0
190	0x00000000	0.0
191	0x00000000	0.0
192	0x00000000	0.0
193	0x00000000	0.0
194	0x00000000	0.0
195	0x00000000	0.0
196	0x00000000	0.0
197	0x00000000	0.0
198	0x00000000	0.0
199	0x00000000	0.0
200	0x00000000	0.0
201	0x00000000	0.0
202	0x00000000	0.0
203	0x00000000	0.0
204	0x00000000	0.0
205	0x00000000	0.0
206	0x00000000	0.0
207	0x00000000	0.0
208	0x00000000	0.0
209	0x00000000	0.0
210	0x00000000	0.0
211	0x00000000	0.0
212	0x00000000	0.0
213	0x00000000	0.0
214	0x00000000	0.0
215	0x00000000	0.0
216	0x00000000	0.0
217	0x00000000	0.0
218	0x00000000	0.0
219	0x00000000	0.0
220	0x00000000	0.0
221	0x00000000	0.0
222	0x00000000	0.0
223	0x00000000	0.0
224	0x00000000	0.0
225	0x00000000	0.0
226	0x00000000	0.0
227	0x00000000	0.0
228	0x00000000	0.0
229	0x00000000	0.0
230	0x00000000	0.0
231	0x00000000	0.0
232	0x00000000	0.0
233	0x00000000	0.0
234	0x00000000	0.0
235	0x00000000	0.0
236	0x00000000	0.0
237	0x00000000	0.0
238	0x00000000	0.0
239	0x00000000	0.0
240	0x00000000	0.0
241	0x00000000	0.0
242	0x00000000	0.0
243	0x00000000	0.0
244	0x00000000	0.0
245	0x00000000	0.0
246	0x00000000	0.0
247	0x00000000	0.0
248	0x00000000	0.0
249	0x00000000	0.0
250	0x00000000	0.0
251	0x00000000	0.0
252	0x00000000	0.0
253	0x00000000	0.0
254	0x00000000	0.0
255	0x00000000	0.0
