data/dataset/negative/4a246e93-7782-4e25-b72a-f6fad1cc21c3.npz (npz, 22479 bytes, 4 tensors)

methane f8 [32, 32]
9.969209968386869e+36 9.969209968386869e+36 9.969209968386869e+36 9.969209968386869e+36 9.969209968386869e+36 9.969209968386869e+36 9.969209968386869e+36 9.969209968386869e+36
9.969209968386869e+36 9.969209968386869e+36 9.969209968386869e+36 9.969209968386869e+36 9.969209968386869e+36 9.969209968386869e+36 9.969209968386869e+36 9.969209968386869e+36
9.969209968386869e+36 9.969209968386869e+36 9.969209968386869e+36 9.969209968386869e+36 9.969209968386869e+36 9.969209968386869e+36 9.969209968386869e+36 9.969209968386869e+36
9.969209968386869e+36 9.969209968386869e+36 9.969209968386869e+36 9.969209968386869e+36 9.969209968386869e+36 9.969209968386869e+36 9.969209968386869e+36 9.969209968386869e+36
9.969209968386869e+36 9.969209968386869e+36 9.969209968386869e+36 9.969209968386869e+36 9.969209968386869e+36 9.969209968386869e+36 9.969209968386869e+36 9.969209968386869e+36
9.969209968386869e+36 9.969209968386869e+36 9.969209968386869e+36 9.969209968386869e+36 9.969209968386869e+36 9.969209968386869e+36 9.969209968386869e+36 9.969209968386869e+36
9.969209968386869e+36 9.969209968386869e+36 9.969209968386869e+36 9.969209968386869e+36 9.969209968386869e+36 9.969209968386869e+36 9.969209968386869e+36 9.969209968386869e+36
9.969209968386869e+36 9.969209968386869e+36 9.969209968386869e+36 9.969209968386869e+36 9.969209968386869e+36 9.969209968386869e+36 9.969209968386869e+36 9.969209968386869e+36
9.969209968386869e+36 9.969209968386869e+36 9.969209968386869e+36 9.969209968386869e+36 9.969209968386869e+36 9.969209968386869e+36 9.969209968386869e+36 9.969209968386869e+36
9.969209968386869e+36 9.969209968386869e+36 9.969209968386869e+36 9.969209968386869e+36 9.969209968386869e+36 9.969209968386869e+36 9.969209968386869e+36 9.969209968386869e+36
9.969209968386869e+36 9.969209968386869e+36 9.969209968386869e+36 9.969209968386869e+36 9.969209968386869e+36 9.969209968386869e+36 9.969209968386869e+36 9.969209968386869e+36
9.969209968386869e+36 9.969209968386869e+36 9.969209968386869e+36 9.969209968386869e+36 9.969209968386869e+36 9.969209968386869e+36 9.969209968386869e+36 9.969209968386869e+36
9.969209968386869e+36 9.969209968386869e+36 9.969209968386869e+36 9.969209968386869e+36 9.969209968386869e+36 9.969209968386869e+36 9.969209968386869e+36 9.969209968386869e+36
9.969209968386869e+36 9.969209968386869e+36 9.969209968386869e+36 9.969209968386869e+36 9.969209968386869e+36 9.969209968386869e+36 9.969209968386869e+36 9.969209968386869e+36
9.969209968386869e+36 9.969209968386869e+36 9.969209968386869e+36 9.969209968386869e+36 9.969209968386869e+36 9.969209968386869e+36 9.969209968386869e+36 9.969209968386869e+36
9.969209968386869e+36 9.969209968386869e+36 9.969209968386869e+36 9.969209968386869e+36 9.969209968386869e+36 9.969209968386869e+36 9.969209968386869e+36 9.969209968386869e+36
9.969209968386869e+36 9.969209968386869e+36 9.969209968386869e+36 9.969209968386869e+36 9.969209968386869e+36 9.969209968386869e+36 9.969209968386869e+36 9.969209968386869e+36
9.969209968386869e+36 9.969209968386869e+36 9.969209968386869e+36 9.969209968386869e+36 9.969209968386869e+36 9.969209968386869e+36 9.969209968386869e+36 9.969209968386869e+36
9.969209968386869e+36 9.969209968386869e+36 9.969209968386869e+36 9.969209968386869e+36 9.969209968386869e+36 9.969209968386869e+36 9.969209968386869e+36 9.969209968386869e+36
9.969209968386869e+36 9.969209968386869e+36 9.969209968386869e+36 9.969209968386869e+36 9.969209968386869e+36 9.969209968386869e+36 9.969209968386869e+36 9.969209968386869e+36
9.969209968386869e+36 9.969209968386869e+36 9.969209968386869e+36 9.969209968386869e+36 9.969209968386869e+36 9.969209968386869e+36 9.969209968386869e+36 9.969209968386869e+36
9.969209968386869e+36 9.969209968386869e+36 9.969209968386869e+36 9.969209968386869e+36 9.969209968386869e+36 9.969209968386869e+36 9.969209968386869e+36 9.969209968386869e+36
9.969209968386869e+36 9.969209968386869e+36 9.969209968386869e+36 9.969209968386869e+36 9.969209968386869e+36 9.969209968386869e+36 9.969209968386869e+36 9.969209968386869e+36
9.969209968386869e+36 9.969209968386869e+36 9.969209968386869e+36 9.969209968386869e+36 9.969209968386869e+36 9.969209968386869e+36 9.969209968386869e+36 9.969209968386869e+36
9.969209968386869e+36 9.969209968386869e+36 9.969209968386869e+36 9.969209968386869e+36 9.969209968386869e+36 9.969209968386869e+36 9.969209968386869e+36 9.969209968386869e+36
9.969209968386869e+36 9.969209968386869e+36 9.969209968386869e+36 9.969209968386869e+36 9.969209968386869e+36 9.969209968386869e+36 9.969209968386869e+36 9.969209968386869e+36
9.969209968386869e+36 9.969209968386869e+36 9.969209968386869e+36 9.969209968386869e+36 9.969209968386869e+36 9.969209968386869e+36 9.969209968386869e+36 9.969209968386869e+36
9.969209968386869e+36 9.969209968386869e+36 9.969209968386869e+36 9.969209968386869e+36 9.969209968386869e+36 9.969209968386869e+36 9.969209968386869e+36 9.969209968386869e+36
9.969209968386869e+36 9.969209968386869e+36 9.969209968386869e+36 9.969209968386869e+36 9.969209968386869e+36 9.969209968386869e+36 9.969209968386869e+36 9.969209968386869e+36
9.969209968386869e+36 9.969209968386869e+36 9.969209968386869e+36 9.969209968386869e+36 9.969209968386869e+36 9.969209968386869e+36 9.969209968386869e+36 9.969209968386869e+36
9.969209968386869e+36 9.969209968386869e+36 9.969209968386869e+36 9.969209968386869e+36 9.969209968386869e+36 9.969209968386869e+36 9.969209968386869e+36 9.969209968386869e+36
9.969209968386869e+36 9.969209968386869e+36 9.969209968386869e+36 9.969209968386869e+36 9.969209968386869e+36 9.969209968386869e+36 9.969209968386869e+36 9.969209968386869e+36
00000000: 0000 0000 0000 9e47 0000 0000 0000 9e47
00000010: 0000 0000 0000 9e47 0000 0000 0000 9e47
00000020: 0000 0000 0000 9e47 0000 0000 0000 9e47
00000030: 0000 0000 0000 9e47 0000 0000 0000 9e47
00000040: 0000 0000 0000 9e47 0000 0000 0000 9e47
00000050: 0000 0000 0000 9e47 0000 0000 0000 9e47
00000060: 0000 0000 0000 9e47 0000 0000 0000 9e47
00000070: 0000 0000 0000 9e47 0000 0000 0000 9e47
00000080: 0000 0000 0000 9e47 0000 0000 0000 9e47
00000090: 0000 0000 0000 9e47 0000 0000 0000 9e47
000000a0: 0000 0000 0000 9e47 0000 0000 0000 9e47
000000b0: 0000 0000 0000 9e47 0000 0000 0000 9e47
000000c0: 0000 0000 0000 9e47 0000 0000 0000 9e47
000000d0: 0000 0000 0000 9e47 0000 0000 0000 9e47
000000e0: 0000 0000 0000 9e47 0000 0000 0000 9e47
000000f0: 0000 0000 0000 9e47 0000 0000 0000 9e47
00000100: 0000 0000 0000 9e47 0000 0000 0000 9e47
00000110: 0000 0000 0000 9e47 0000 0000 0000 9e47
00000120: 0000 0000 0000 9e47 0000 0000 0000 9e47
00000130: 0000 0000 0000 9e47 0000 0000 0000 9e47
00000140: 0000 0000 0000 9e47 0000 0000 0000 9e47
00000150: 0000 0000 0000 9e47 0000 0000 0000 9e47
00000160: 0000 0000 0000 9e47 0000 0000 0000 9e47
00000170: 0000 0000 0000 9e47 0000 0000 0000 9e47
00000180: 0000 0000 0000 9e47 0000 0000 0000 9e47
00000190: 0000 0000 0000 9e47 0000 0000 0000 9e47
000001a0: 0000 0000 0000 9e47 0000 0000 0000 9e47
000001b0: 0000 0000 0000 9e47 0000 0000 0000 9e47
000001c0: 0000 0000 0000 9e47 0000 0000 0000 9e47
000001d0: 0000 0000 0000 9e47 0000 0000 0000 9e47
000001e0: 0000 0000 0000 9e47 0000 0000 0000 9e47
000001f0: 0000 0000 0000 9e47 0000 0000 0000 9e47
00000200: 0000 0000 0000 9e47 0000 0000 0000 9e47
00000210: 0000 0000 0000 9e47 0000 0000 0000 9e47
00000220: 0000 0000 0000 9e47 0000 0000 0000 9e47
00000230: 0000 0000 0000 9e47 0000 0000 0000 9e47
00000240: 0000 0000 0000 9e47 0000 0000 0000 9e47
00000250: 0000 0000 0000 9e47 0000 0000 0000 9e47
00000260: 0000 0000 0000 9e47 0000 0000 0000 9e47
00000270: 0000 0000 0000 9e47 0000 0000 0000 9e47
00000280: 0000 0000 0000 9e47 0000 0000 0000 9e47
00000290: 0000 0000 0000 9e47 0000 0000 0000 9e47
000002a0: 0000 0000 0000 9e47 0000 0000 0000 9e47
000002b0: 0000 0000 0000 9e47 0000 0000 0000 9e47
000002c0: 0000 0000 0000 9e47 0000 0000 0000 9e47
000002d0: 0000 0000 0000 9e47 0000 0000 0000 9e47
000002e0: 0000 0000 0000 9e47 0000 0000 0000 9e47
000002f0: 0000 0000 0000 9e47 0000 0000 0000 9e47
00000300: 0000 0000 0000 9e47 0000 0000 0000 9e47
00000310: 0000 0000 0000 9e47 0000 0000 0000 9e47
00000320: 0000 0000 0000 9e47 0000 0000 0000 9e47
00000330: 0000 0000 0000 9e47 0000 0000 0000 9e47
00000340: 0000 0000 0000 9e47 0000 0000 0000 9e47
00000350: 0000 0000 0000 9e47 0000 0000 0000 9e47
00000360: 0000 0000 0000 9e47 0000 0000 0000 9e47
00000370: 0000 0000 0000 9e47 0000 0000 0000 9e47
00000380: 0000 0000 0000 9e47 0000 0000 0000 9e47
00000390: 0000 0000 0000 9e47 0000 0000 0000 9e47
000003a0: 0000 0000 0000 9e47 0000 0000 0000 9e47
000003b0: 0000 0000 0000 9e47 0000 0000 0000 9e47
000003c0: 0000 0000 0000 9e47 0000 0000 0000 9e47
000003d0: 0000 0000 0000 9e47 0000 0000 0000 9e47
000003e0: 0000 0000 0000 9e47 0000 0000 0000 9e47
000003f0: 0000 0000 0000 9e47 0000 0000 0000 9e47
00000400: 0000 0000 0000 9e47 0000 0000 0000 9e47
00000410: 0000 0000 0000 9e47 0000 0000 0000 9e47
00000420: 0000 0000 0000 9e47 0000 0000 0000 9e47
00000430: 0000 0000 0000 9e47 0000 0000 0000 9e47
00000440: 0000 0000 0000 9e47 0000 0000 0000 9e47
00000450: 0000 0000 0000 9e47 0000 0000 0000 9e47
00000460: 0000 0000 0000 9e47 0000 0000 0000 9e47
00000470: 0000 0000 0000 9e47 0000 0000 0000 9e47
00000480: 0000 0000 0000 9e47 0000 0000 0000 9e47
00000490: 0000 0000 0000 9e47 0000 0000 0000 9e47
000004a0: 0000 0000 0000 9e47 0000 0000 0000 9e47
000004b0: 0000 0000 0000 9e47 0000 0000 0000 9e47
000004c0: 0000 0000 0000 9e47 0000 0000 0000 9e47
000004d0: 0000 0000 0000 9e47 0000 0000 0000 9e47
000004e0: 0000 0000 0000 9e47 0000 0000 0000 9e47
000004f0: 0000 0000 0000 9e47 0000 0000 0000 9e47
00000500: 0000 0000 0000 9e47 0000 0000 0000 9e47
00000510: 0000 0000 0000 9e47 0000 0000 0000 9e47
00000520: 0000 0000 0000 9e47 0000 0000 0000 9e47
00000530: 0000 0000 0000 9e47 0000 0000 0000 9e47
00000540: 0000 0000 0000 9e47 0000 0000 0000 9e47
00000550: 0000 0000 0000 9e47 0000 0000 0000 9e47
00000560: 0000 0000 0000 9e47 0000 0000 0000 9e47
00000570: 0000 0000 0000 9e47 0000 0000 0000 9e47
00000580: 0000 0000 0000 9e47 0000 0000 0000 9e47
00000590: 0000 0000 0000 9e47 0000 0000 0000 9e47
000005a0: 0000 0000 0000 9e47 0000 0000 0000 9e47
000005b0: 0000 0000 0000 9e47 0000 0000 0000 9e47
000005c0: 0000 0000 0000 9e47 0000 0000 0000 9e47
000005d0: 0000 0000 0000 9e47 0000 0000 0000 9e47
000005e0: 0000 0000 0000 9e47 0000 0000 0000 9e47
000005f0: 0000 0000 0000 9e47 0000 0000 0000 9e47
00000600: 0000 0000 0000 9e47 0000 0000 0000 9e47
00000610: 0000 0000 0000 9e47 0000 0000 0000 9e47
00000620: 0000 0000 0000 9e47 0000 0000 0000 9e47
00000630: 0000 0000 0000 9e47 0000 0000 0000 9e47
00000640: 0000 0000 0000 9e47 0000 0000 0000 9e47
00000650: 0000 0000 0000 9e47 0000 0000 0000 9e47
00000660: 0000 0000 0000 9e47 0000 0000 0000 9e47
00000670: 0000 0000 0000 9e47 0000 0000 0000 9e47
00000680: 0000 0000 0000 9e47 0000 0000 0000 9e47
00000690: 0000 0000 0000 9e47 0000 0000 0000 9e47
000006a0: 0000 0000 0000 9e47 0000 0000 0000 9e47
000006b0: 0000 0000 0000 9e47 0000 0000 0000 9e47
000006c0: 0000 0000 0000 9e47 0000 0000 0000 9e47
000006d0: 0000 0000 0000 9e47 0000 0000 0000 9e47
000006e0: 0000 0000 0000 9e47 0000 0000 0000 9e47
000006f0: 0000 0000 0000 9e47 0000 0000 0000 9e47
00000700: 0000 0000 0000 9e47 0000 0000 0000 9e47
00000710: 0000 0000 0000 9e47 0000 0000 0000 9e47
00000720: 0000 0000 0000 9e47 0000 0000 0000 9e47
00000730: 0000 0000 0000 9e47 0000 0000 0000 9e47
00000740: 0000 0000 0000 9e47 0000 0000 0000 9e47
00000750: 0000 0000 0000 9e47 0000 0000 0000 9e47
00000760: 0000 0000 0000 9e47 0000 0000 0000 9e47
00000770: 0000 0000 0000 9e47 0000 0000 0000 9e47
00000780: 0000 0000 0000 9e47 0000 0000 0000 9e47
00000790: 0000 0000 0000 9e47 0000 0000 0000 9e47
000007a0: 0000 0000 0000 9e47 0000 0000 0000 9e47
000007b0: 0000 0000 0000 9e47 0000 0000 0000 9e47
000007c0: 0000 0000 0000 9e47 0000 0000 0000 9e47
000007d0: 0000 0000 0000 9e47 0000 0000 0000 9e47
000007e0: 0000 0000 0000 9e47 0000 0000 0000 9e47
000007f0: 0000 0000 0000 9e47 0000 0000 0000 9e47

lat f4 [32, 32]
77.87285 77.94906 78.02455 78.09935 78.17348 78.246956 78.31981 78.39205
78.46371 78.5348 78.60535 78.67536 78.74487 78.813896 78.88244 78.95053
79.01818 79.0854 79.15222 79.21864 79.28469 79.35037 79.41571 79.480705
79.54539 79.60976 79.67383 79.737625 79.80115 79.86442 79.92744 79.99023
77.886314 77.962585 78.03814 78.113 78.18719 78.26073 78.33364 78.405945
78.47767 78.54882 78.61944 78.68952 78.7591 78.828186 78.896805 78.96496
79.032684 79.099976 79.16687 79.23337 79.29949 79.36525 79.43066 79.495735
79.56049 79.62495 79.6891 79.752975 79.81658 79.87994 79.94305 80.00592
77.8996 77.97593 78.05154 78.12646 78.20071 78.2743 78.347275 78.41965
78.49143 78.56265 78.63333 78.70348 78.773125 78.84228 78.910965 78.979195
79.04698 79.11435 79.18131 79.24789 79.31408 79.37991 79.445404 79.51055
79.57539 79.63992 79.704155 79.76811 79.8318 79.89524 79.958435 80.0214
77.91266 77.98905 78.06472 78.139694 78.214005 78.28766 78.360695 78.43313
78.504974 78.576256 78.646996 78.71722 78.78693 78.85615 78.9249 78.993195
79.06105 79.128494 79.195526 79.26217 79.32844 79.39434 79.45991 79.52514
79.59005 79.654655 79.71897 79.78301 79.84679 79.9103 79.97358 80.03663
77.92551 78.001945 78.077675 78.15271 78.22707 78.3008 78.373886 78.44638
78.51829 78.58963 78.66044 78.73072 78.80049 78.86978 78.9386 79.00696
79.07489 79.142395 79.2095 79.276215 79.34255 79.40854 79.474174 79.53948
79.60447 79.66915 79.73355 79.79767 79.86152 79.925125 79.98849 80.05162
77.938225 78.014725 78.09051 78.165596 78.24002 78.3138 78.38695 78.459496
78.53146 78.602875 78.67374 78.74408 78.81392 78.88327 78.95215 79.020584
79.08858 79.15615 79.22333 79.29011 79.35652 79.42258 79.48828 79.553665
79.61873 79.68349 79.74796 79.81216 79.87609 79.93977 80.00322 80.06644
77.95073 78.02728 78.10312 78.17826 78.25274 78.32658 78.39978 78.47239
78.54442 78.61588 78.68681 78.75722 78.82712 78.89653 78.96548 79.03397
79.102036 79.16968 79.236916 79.30377 79.370255 79.43638 79.50216 79.56761
79.63275 79.697586 79.76213 79.82641 79.89042 79.95418 80.01771 80.081
77.963036 78.03964 78.11553 78.190735 78.26527 78.33916 78.41242 78.485085
78.557175 78.6287 78.699684 78.77015 78.84011 78.909584 78.97859 79.04716
79.11528 79.18299 79.2503 79.317215 79.383766 79.44996 79.515816 79.58134
79.646545 79.71146 79.776085 79.84043 79.904526 79.96836 80.03197 80.095345
00000000: e6be 9b42 ebe5 9b42 920c 9c42 de32 9c42
00000010: d258 9c42 717e 9c42 bea3 9c42 bbc8 9c42
00000020: 6bed 9c42 d111 9d42 f035 9d42 c959 9d42
00000030: 607d 9d42 b7a0 9d42 cfc3 9d42 ace6 9d42
00000040: 4f09 9e42 ba2b 9e42 f04d 9e42 f26f 9e42
00000050: c391 9e42 64b3 9e42 d8d4 9e42 1ff6 9e42
00000060: 3d17 9f42 3238 9f42 0059 9f42 aa79 9f42
00000070: 309a 9f42 95ba 9f42 d9da 9f42 fffa 9f42
00000080: cbc5 9b42 d8ec 9b42 8713 9c42 db39 9c42
00000090: d75f 9c42 7e85 9c42 d3aa 9c42 d8cf 9c42
000000a0: 91f4 9c42 ff18 9d42 273d 9d42 0961 9d42
000000b0: a984 9d42 08a8 9d42 2acb 9d42 0fee 9d42
000000c0: bc10 9e42 3033 9e42 7055 9e42 7c77 9e42
000000d0: 5799 9e42 02bb 9e42 7fdc 9e42 d1fd 9e42
000000e0: f91e 9f42 f93f 9f42 d260 9f42 8681 9f42
000000f0: 17a2 9f42 87c2 9f42 d7e2 9f42 0803 a042
00000100: 98cc 9b42 adf3 9b42 631a 9c42 bf40 9c42
00000110: c366 9c42 718c 9c42 ceb1 9c42 dcd6 9c42
00000120: 9dfb 9c42 1420 9d42 4444 9d42 2f68 9d42
00000130: d78b 9d42 3faf 9d42 6ad2 9d42 59f5 9d42
00000140: 0e18 9e42 8c3a 9e42 d55c 9e42 eb7e 9e42
00000150: cfa0 9e42 84c2 9e42 0ce4 9e42 6705 9f42
00000160: 9a26 9f42 a447 9f42 8768 9f42 4689 9f42
00000170: e2a9 9f42 5dca 9f42 b8ea 9f42 f50a a042
00000180: 48d3 9b42 65fa 9b42 2321 9c42 8647 9c42
00000190: 926d 9c42 4893 9c42 adb8 9c42 c3dd 9c42
000001a0: 8c02 9d42 0b27 9d42 434b 9d42 376f 9d42
000001b0: e892 9d42 59b6 9d42 8cd9 9d42 84fc 9d42
000001c0: 421f 9e42 ca41 9e42 1c64 9e42 3b86 9e42
000001d0: 29a8 9e42 e7c9 9e42 79eb 9e42 df0c 9f42
000001e0: 1b2e 9f42 2f4f 9f42 1d70 9f42 e790 9f42
000001f0: 8eb1 9f42 13d2 9f42 79f2 9f42 c112 a042
00000200: dcd9 9b42 ff00 9c42 c527 9c42 304e 9c42
00000210: 4374 9c42 029a 9c42 6ebf 9c42 8ce4 9c42
00000220: 5d09 9d42 e42d 9d42 2552 9d42 2176 9d42
00000230: da99 9d42 54bd 9d42 90e0 9d42 9003 9e42
00000240: 5826 9e42 e848 9e42 446b 9e42 6c8d 9e42
00000250: 63af 9e42 2cd1 9e42 c7f2 9e42 3714 9f42
00000260: 7d35 9f42 9b56 9f42 9477 9f42 6898 9f42
00000270: 19b9 9f42 aad9 9f42 1bfa 9f42 6e1a a042
00000280: 5fe0 9b42 8a07 9c42 572e 9c42 c954 9c42
00000290: e47a 9c42 aaa0 9c42 1ec6 9c42 43eb 9c42
000002a0: 1c10 9d42 ac34 9d42 f458 9d42 f87c 9d42
000002b0: baa0 9d42 3cc4 9d42 80e7 9d42 8a0a 9e42
000002c0: 5a2d 9e42 f34f 9e42 5872 9e42 8994 9e42
000002d0: 8ab6 9e42 5cd8 9e42 00fa 9e42 7a1b 9f42
000002e0: ca3c 9f42 f25d 9f42 f57e 9f42 d39f 9f42
000002f0: 8fc0 9f42 2ae1 9f42 a601 a042 0422 a042
00000300: c6e6 9b42 f80d 9c42 cc34 9c42 455b 9c42
00000310: 6781 9c42 35a7 9c42 b0cc 9c42 ddf1 9c42
00000320: be16 9d42 553b 9d42 a65f 9d42 b283 9d42
00000330: 7ca7 9d42 06cb 9d42 53ee 9d42 6511 9e42
00000340: 3e34 9e42 e056 9e42 4d79 9e42 889b 9e42
00000350: 92bd 9e42 6ddf 9e42 1b01 9f42 9e22 9f42
00000360: f843 9f42 2a65 9f42 3686 9f42 1fa7 9f42
00000370: e5c7 9f42 8ae8 9f42 1109 a042 7929 a042
00000380: 13ed 9b42 4c14 9c42 273b 9c42 a861 9c42
00000390: d187 9c42 a6ad 9c42 29d3 9c42 5df8 9c42
000003a0: 461d 9d42 e541 9d42 3d66 9d42 518a 9d42
000003b0: 23ae 9d42 b5d1 9d42 0af5 9d42 2518 9e42
000003c0: 063b 9e42 b15d 9e42 2780 9e42 6aa2 9e42
000003d0: 7dc4 9e42 61e6 9e42 1908 9f42 a529 9f42
000003e0: 084b 9f42 446c 9f42 5b8d 9f42 4dae 9f42
000003f0: 1ecf 9f42 cdef 9f42 5e10 a042 d130 a042

lon f4 [32, 32]
-92.17317 -92.09995 -92.02581 -91.95073 -91.87469 -91.79767 -91.71966 -91.64064
-91.5606 -91.47951 -91.39735 -91.31411 -91.22976 -91.14428 -91.057655 -90.96986
-90.88086 -90.79064 -90.69917 -90.60644 -90.51239 -90.41702 -90.32029 -90.222176
-90.12263 -90.02164 -89.91915 -89.81514 -89.70957 -89.6024 -89.4936 -89.38311
-92.40392 -92.33204 -92.25923 -92.18548 -92.11078 -92.035095 -91.958435 -91.88076
-91.80206 -91.72232 -91.64152 -91.55963 -91.47665 -91.39254 -91.30728 -91.22086
-91.13325 -91.04441 -90.95434 -90.86299 -90.770355 -90.6764 -90.58108 -90.48438
-90.38627 -90.28671 -90.18567 -90.083115 -89.979004 -89.8733 -89.76597 -89.65697
-92.63523 -92.56469 -92.493225 -92.420815 -92.34746 -92.273125 -92.19781 -92.12149
-92.04415 -91.96577 -91.88633 -91.80582 -91.724205 -91.64147 -91.557594 -91.47256
-91.38633 -91.2989 -91.21023 -91.12029 -91.02907 -90.93652 -90.842636 -90.747375
-90.6507 -90.55259 -90.453 -90.35191 -90.249275 -90.14505 -90.039215 -89.93171
-92.867134 -92.79794 -92.72782 -92.65677 -92.58476 -92.51179 -92.437836 -92.36288
-92.2869 -92.20989 -92.13183 -92.05269 -91.97246 -91.89111 -91.80863 -91.72499
-91.64017 -91.55414 -91.46688 -91.378365 -91.288574 -91.197464 -91.10502 -91.0112
-90.91598 -90.81933 -90.721214 -90.6216 -90.52045 -90.417725 -90.313385 -90.2074
-93.099495 -93.031654 -92.9629 -92.8932 -92.82256 -92.75095 -92.67837 -92.60478
-92.53019 -92.45456 -92.37788 -92.30013 -92.22129 -92.14134 -92.060265 -91.978035
-91.89462 -91.81001 -91.72418 -91.6371 -91.548744 -91.45908 -91.36809 -91.27573
-91.18198 -91.08681 -90.99017 -90.89205 -90.7924 -90.691185 -90.58836 -90.4839
-93.33226 -93.265785 -93.19839 -93.130066 -93.06079 -92.990555 -92.91935 -92.847145
-92.77393 -92.69969 -92.624405 -92.54805 -92.47061 -92.39207 -92.3124 -92.23158
-92.1496 -92.06642 -91.982025 -91.896385 -91.80947 -91.72126 -91.63173 -91.54084
-91.44857 -91.35488 -91.25974 -91.163124 -91.06499 -90.96529 -90.864 -90.76108
-93.56551 -93.50041 -93.43439 -93.36744 -93.29955 -93.230705 -93.16088 -93.090065
-93.01825 -92.945404 -92.87152 -92.79658 -92.72055 -92.64343 -92.565186 -92.4858
-92.40525 -92.32351 -92.24056 -92.15637 -92.07092 -91.984184 -91.896126 -91.806725
-91.71594 -91.62376 -91.53013 -91.43503 -91.33842 -91.24026 -91.14052 -91.039154
-93.799164 -93.73544 -93.6708 -93.60524 -93.538734 -93.471275 -93.40285 -93.333435
-93.263016 -93.19158 -93.1191 -93.04558 -92.97097 -92.89527 -92.81846 -92.74051
-92.6614 -92.581116 -92.49962 -92.41689 -92.33292 -92.24766 -92.16109 -92.07317
-91.983894 -91.89322 -91.80111 -91.707535 -91.612465 -91.515854 -91.41767 -91.31788
00000000: aa58 b8c2 2d33 b8c2 370d b8c2 c6e6 b7c2
00000010: d7bf b7c2 6898 b7c2 7770 b7c2 0248 b7c2
00000020: 071f b7c2 82f5 b6c2 71cb b6c2 d3a0 b6c2
00000030: a375 b6c2 df49 b6c2 851d b6c2 91f0 b5c2
00000040: 00c3 b5c2 cf94 b5c2 fa65 b5c2 7f36 b5c2
00000050: 5806 b5c2 84d5 b4c2 fda3 b4c2 c171 b4c2
00000060: c93e b4c2 140b b4c2 9bd6 b3c2 5aa1 b3c2
00000070: 4d6b b3c2 6e34 b3c2 b9fc b2c2 27c4 b2c2
00000080: cfce b8c2 01aa b8c2 ba84 b8c2 f75e b8c2
00000090: b838 b8c2 f811 b8c2 b8ea b7c2 f3c2 b7c2
000000a0: a89a b7c2 d471 b7c2 7548 b7c2 881e b7c2
000000b0: 0bf4 b6c2 fbc8 b6c2 549d b6c2 1571 b6c2
000000c0: 3944 b6c2 bd16 b6c2 9fe8 b5c2 dab9 b5c2
000000d0: 6c8a b5c2 515a b5c2 8329 b5c2 01f8 b4c2
000000e0: c5c5 b4c2 cc92 b4c2 105f b4c2 8e2a b4c2
000000f0: 40f5 b3c2 21bf b3c2 2d88 b3c2 5e50 b3c2
00000100: 3d45 b9c2 1f21 b9c2 88fc b8c2 75d7 b8c2
00000110: e6b1 b8c2 d78b b8c2 4765 b8c2 343e b8c2
00000120: 9b16 b8c2 79ee b7c2 cdc5 b7c2 949c b7c2
00000130: cb72 b7c2 6f48 b7c2 7d1d b7c2 f3f1 b6c2
00000140: cdc5 b6c2 0999 b6c2 a36b b6c2 973d b6c2
00000150: e20e b6c2 80df b5c2 6eaf b5c2 a87e b5c2
00000160: 294d b5c2 ed1a b5c2 f0e7 b4c2 2eb4 b4c2
00000170: a17f b4c2 444a b4c2 1414 b4c2 09dd b3c2
00000180: f9bb b9c2 8c98 b9c2 a574 b9c2 4450 b9c2
00000190: 662b b9c2 0906 b9c2 2ce0 b8c2 cbb9 b8c2
000001a0: e592 b8c2 776b b8c2 7f43 b8c2 fa1a b8c2
000001b0: e6f1 b7c2 40c8 b7c2 059e b7c2 3273 b7c2
000001c0: c447 b7c2 b81b b7c2 0bef b6c2 b9c1 b6c2
000001d0: c093 b6c2 1a65 b6c2 c535 b6c2 bc05 b6c2
000001e0: fbd4 b5c2 7fa3 b5c2 4371 b5c2 423e b5c2
000001f0: 780a b5c2 e0d5 b4c2 74a0 b4c2 306a b4c2
00000200: f132 bac2 3510 bac2 01ed b9c2 52c9 b9c2
00000210: 27a5 b9c2 7d80 b9c2 535b b9c2 a635 b9c2
00000220: 750f b9c2 bce8 b8c2 79c1 b8c2 ab99 b8c2
00000230: 4d71 b8c2 5e48 b8c2 db1e b8c2 c1f4 b7c2
00000240: 0cca b7c2 ba9e b7c2 c872 b7c2 3246 b7c2
00000250: f518 b7c2 0deb b6c2 76bc b6c2 2c8d b6c2
00000260: 2c5d b6c2 722c b6c2 f8fa b5c2 bbc8 b5c2
00000270: b595 b5c2 e361 b5c2 3e2d b5c2 c2f7 b4c2
00000280: 1eaa bac2 1588 bac2 9365 bac2 9842 bac2
00000290: 201f bac2 2afb b9c2 b5d6 b9c2 bdb1 b9c2
000002a0: 418c b9c2 3e66 b9c2 b23f b9c2 9a18 b9c2
000002b0: f4f0 b8c2 bdc8 b8c2 f39f b8c2 9276 b8c2
000002c0: 984c b8c2 0222 b8c2 ccf6 b7c2 f3ca b7c2
000002d0: 739e b7c2 4971 b7c2 7243 b7c2 e914 b7c2
000002e0: abe5 b6c2 b3b5 b6c2 fd84 b6c2 8553 b6c2
000002f0: 4621 b6c2 3aee b5c2 5eba b5c2 ac85 b5c2
00000300: 8b21 bbc2 3600 bbc2 68de bac2 21bc bac2
00000310: 5f99 bac2 1f76 bac2 5f52 bac2 1d2e bac2
00000320: 5809 bac2 0ce4 b9c2 38be b9c2 d997 b9c2
00000330: ec70 b9c2 7049 b9c2 6021 b9c2 bbf8 b8c2
00000340: 7dcf b8c2 a3a5 b8c2 2b7b b8c2 1050 b8c2
00000350: 5024 b8c2 e7f7 b7c2 d1ca b7c2 0b9d b7c2
00000360: 906e b7c2 5d3f b7c2 6d0f b7c2 bcde b6c2
00000370: 45ad b6c2 037b b6c2 f247 b6c2 0c14 b6c2
00000380: 2c99 bbc2 8c78 bbc2 7357 bbc2 e235 bbc2
00000390: d513 bbc2 4bf1 bac2 42ce bac2 b8aa bac2
000003a0: aa86 bac2 1762 bac2 fb3c bac2 5617 bac2
000003b0: 23f1 b9c2 61ca b9c2 0da3 b9c2 247b b9c2
000003c0: a352 b9c2 8829 b9c2 ceff b8c2 73d5 b8c2
000003d0: 74aa b8c2 cd7e b8c2 7a52 b8c2 7725 b8c2
000003e0: c1f7 b7c2 54c9 b7c2 2b9a b7c2 426a b7c2
000003f0: 9539 b7c2 1e08 b7c2 d9d5 b6c2 c1a2 b6c2

qa f4 [32, 32]
0.0 0.0 0.0 0.0 0.0 0.0 0.0 0.0
0.0 0.0 0.0 0.0 0.0 0.0 0.0 0.0
0.0 0.0 0.0 0.0 0.0 0.0 0.0 0.0
0.0 0.0 0.0 0.0 0.0 0.0 0.0 0.0
0.0 0.0 0.0 0.0 0.0 0.0 0.0 0.0
0.0 0.0 0.0 0.0 0.0 0.0 0.0 0.0
0.0 0.0 0.0 0.0 0.0 0.0 0.0 0.0
0.0 0.0 0.0 0.0 0.0 0.0 0.0 0.0
0.0 0.0 0.0 0.0 0.0 0.0 0.0 0.0
0.0 0.0 0.0 0.0 0.0 0.0 0.0 0.0
0.0 0.0 0.0 0.0 0.0 0.0 0.0 0.0
0.0 0.0 0.0 0.0 0.0 0.0 0.0 0.0
0.0 0.0 0.0 0.0 0.0 0.0 0.0 0.0
0.0 0.0 0.0 0.0 0.0 0.0 0.0 0.0
0.0 0.0 0.0 0.0 0.0 0.0 0.0 0.0
0.0 0.0 0.0 0.0 0.0 0.0 0.0 0.0
0.0 0.0 0.0 0.0 0.0 0.0 0.0 0.0
0.0 0.0 0.0 0.0 0.0 0.0 0.0 0.0
0.0 0.0 0.0 0.0 0.0 0.0 0.0 0.0
0.0 0.0 0.0 0.0 0.0 0.0 0.0 0.0
0.0 0.0 0.0 0.0 0.0 0.0 0.0 0.0
0.0 0.0 0.0 0.0 0.0 0.0 0.0 0.0
0.0 0.0 0.0 0.0 0.0 0.0 0.0 0.0
0.0 0.0 0.0 0.0 0.0 0.0 0.0 0.0
0.0 0.0 0.0 0.0 0.0 0.0 0.0 0.0
0.0 0.0 0.0 0.0 0.0 0.0 0.0 0.0
0.0 0.0 0.0 0.0 0.0 0.0 0.0 0.0
0.0 0.0 0.0 0.0 0.0 0.0 0.0 0.0
0.0 0.0 0.0 0.0 0.0 0.0 0.0 0.0
0.0 0.0 0.0 0.0 0.0 0.0 0.0 0.0
0.0 0.0 0.0 0.0 0.0 0.0 0.0 0.0
0.0 0.0 0.0 0.0 0.0 0.0 0.0 0.0
00000000: 0000 0000 0000 0000 0000 0000 0000 0000
00000010: 0000 0000 0000 0000 0000 0000 0000 0000
00000020: 0000 0000 0000 0000 0000 0000 0000 0000
00000030: 0000 0000 0000 0000 0000 0000 0000 0000
00000040: 0000 0000 0000 0000 0000 0000 0000 0000
00000050: 0000 0000 0000 0000 0000 0000 0000 0000
00000060: 0000 0000 0000 0000 0000 0000 0000 0000
00000070: 0000 0000 0000 0000 0000 0000 0000 0000
00000080: 0000 0000 0000 0000 0000 0000 0000 0000
00000090: 0000 0000 0000 0000 0000 0000 0000 0000
000000a0: 0000 0000 0000 0000 0000 0000 0000 0000
000000b0: 0000 0000 0000 0000 0000 0000 0000 0000
000000c0: 0000 0000 0000 0000 0000 0000 0000 0000
000000d0: 0000 0000 0000 0000 0000 0000 0000 0000
000000e0: 0000 0000 0000 0000 0000 0000 0000 0000
000000f0: 0000 0000 0000 0000 0000 0000 0000 0000
00000100: 0000 0000 0000 0000 0000 0000 0000 0000
00000110: 0000 0000 0000 0000 0000 0000 0000 0000
00000120: 0000 0000 0000 0000 0000 0000 0000 0000
00000130: 0000 0000 0000 0000 0000 0000 0000 0000
00000140: 0000 0000 0000 0000 0000 0000 0000 0000
00000150: 0000 0000 0000 0000 0000 0000 0000 0000
00000160: 0000 0000 0000 0000 0000 0000 0000 0000
00000170: 0000 0000 0000 0000 0000 0000 0000 0000
00000180: 0000 0000 0000 0000 0000 0000 0000 0000
00000190: 0000 0000 0000 0000 0000 0000 0000 0000
000001a0: 0000 0000 0000 0000 0000 0000 0000 0000
000001b0: 0000 0000 0000 0000 0000 0000 0000 0000
000001c0: 0000 0000 0000 0000 0000 0000 0000 0000
000001d0: 0000 0000 0000 0000 0000 0000 0000 0000
000001e0: 0000 0000 0000 0000 0000 0000 0000 0000
000001f0: 0000 0000 0000 0000 0000 0000 0000 0000
00000200: 0000 0000 0000 0000 0000 0000 0000 0000
00000210: 0000 0000 0000 0000 0000 0000 0000 0000
00000220: 0000 0000 0000 0000 0000 0000 0000 0000
00000230: 0000 0000 0000 0000 0000 0000 0000 0000
00000240: 0000 0000 0000 0000 0000 0000 0000 0000
00000250: 0000 0000 0000 0000 0000 0000 0000 0000
00000260: 0000 0000 0000 0000 0000 0000 0000 0000
00000270: 0000 0000 0000 0000 0000 0000 0000 0000
00000280: 0000 0000 0000 0000 0000 0000 0000 0000
00000290: 0000 0000 0000 0000 0000 0000 0000 0000
000002a0: 0000 0000 0000 0000 0000 0000 0000 0000
000002b0: 0000 0000 0000 0000 0000 0000 0000 0000
000002c0: 0000 0000 0000 0000 0000 0000 0000 0000
000002d0: 0000 0000 0000 0000 0000 0000 0000 0000
000002e0: 0000 0000 0000 0000 0000 0000 0000 0000
000002f0: 0000 0000 0000 0000 0000 0000 0000 0000
00000300: 0000 0000 0000 0000 0000 0000 0000 0000
00000310: 0000 0000 0000 0000 0000 0000 0000 0000
00000320: 0000 0000 0000 0000 0000 0000 0000 0000
00000330: 0000 0000 0000 0000 0000 0000 0000 0000
00000340: 0000 0000 0000 0000 0000 0000 0000 0000
00000350: 0000 0000 0000 0000 0000 0000 0000 0000
00000360: 0000 0000 0000 0000 0000 0000 0000 0000
00000370: 0000 0000 0000 0000 0000 0000 0000 0000
00000380: 0000 0000 0000 0000 0000 0000 0000 0000
00000390: 0000 0000 0000 0000 0000 0000 0000 0000
000003a0: 0000 0000 0000 0000 0000 0000 0000 0000
000003b0: 0000 0000 0000 0000 0000 0000 0000 0000
000003c0: 0000 0000 0000 0000 0000 0000 0000 0000
000003d0: 0000 0000 0000 0000 0000 0000 0000 0000
000003e0: 0000 0000 0000 0000 0000 0000 0000 0000
000003f0: 0000 0000 0000 0000 0000 0000 0000 0000
