data/dataset/negative/4bffdd54-2018-4b0f-b6c8-e2ed769f8dd4.npz (npz, 23743 bytes, 4 tensors)

methane f8 [32, 32]
00000000: 0000 0000 0000 9e47 0000 0000 0000 9e47
00000010: 0000 0000 0000 9e47 0000 0000 0000 9e47
00000020: 0000 0000 0000 9e47 0000 0000 0000 9e47
00000030: 0000 0000 0000 9e47 0000 0000 0000 9e47
00000040: 0000 0000 0000 9e47 0000 0000 0000 9e47
00000050: 0000 0000 0000 9e47 0000 0000 0000 9e47
00000060: 0000 0000 0000 9e47 0000 0000 0000 9e47
00000070: 0000 0000 0000 9e47 0000 0000 0000 9e47
00000080: 0000 0000 0000 9e47 0000 0000 0000 9e47
00000090: 0000 0000 0000 9e47 0000 0000 0000 9e47
000000a0: 0000 0000 0000 9e47 0000 0000 0000 9e47
000000b0: 0000 0000 0000 9e47 0000 0000 0000 9e47
000000c0: 0000 0000 0000 9e47 0000 0000 0000 9e47
000000d0: 0000 0000 0000 9e47 0000 0000 0000 9e47
000000e0: 0000 0000 0000 9e47 0000 0000 0000 9e47
000000f0: 0000 0000 0000 9e47 0000 0000 0000 9e47
00000100: 0000 0000 0000 9e47 0000 0000 0000 9e47
00000110: 0000 0000 0000 9e47 0000 0000 0000 9e47
00000120: 0000 0000 0000 9e47 0000 0000 0000 9e47
00000130: 0000 0000 0000 9e47 0000 0000 0000 9e47
00000140: 0000 0000 0000 9e47 0000 0000 0000 9e47
00000150: 0000 0000 0000 9e47 0000 0000 0000 9e47
00000160: 0000 0000 0000 9e47 0000 0000 0000 9e47
00000170: 0000 0000 0000 9e47 0000 0000 0000 9e47
00000180: 0000 0000 0000 9e47 0000 0000 0000 9e47
00000190: 0000 0000 0000 9e47 0000 0000 0000 9e47
000001a0: 0000 0000 0000 9e47 0000 0000 0000 9e47
000001b0: 0000 0000 0000 9e47 0000 0000 0000 9e47
000001c0: 0000 0000 0000 9e47 0000 0000 0000 9e47
000001d0: 0000 0000 0000 9e47 0000 0000 0000 9e47
000001e0: 0000 0000 0000 9e47 0000 0000 0000 9e47
000001f0: 0000 0000 0000 9e47 0000 0000 0000 9e47
00000200: 0000 0000 0000 9e47 0000 0000 0000 9e47
00000210: 0000 0000 0000 9e47 0000 0000 0000 9e47
00000220: 0000 0000 0000 9e47 0000 0000 0000 9e47
00000230: 0000 0000 0000 9e47 0000 0000 0000 9e47
00000240: 0000 0000 0000 9e47 0000 0000 0000 9e47
00000250: 0000 0000 0000 9e47 0000 0000 0000 9e47
00000260: 0000 0000 0000 9e47 0000 0000 0000 9e47
00000270: 0000 0000 0000 9e47 0000 0000 0000 9e47
00000280: 0000 0000 0000 9e47 0000 0000 0000 9e47
00000290: 0000 0000 0000 9e47 0000 0000 0000 9e47
000002a0: 0000 0000 0000 9e47 0000 0000 0000 9e47
000002b0: 0000 0000 0000 9e47 0000 0000 0000 9e47
000002c0: 0000 0000 0000 9e47 0000 0000 0000 9e47
000002d0: 0000 0000 0000 9e47 0000 0000 0000 9e47
000002e0: 0000 0000 0000 9e47 0000 0000 0000 9e47
000002f0: 0000 0000 0000 9e47 0000 0000 0000 9e47
00000300: 0000 0000 0000 9e47 0000 0000 0000 9e47
00000310: 0000 0000 0000 9e47 0000 0000 0000 9e47
00000320: 0000 0000 0000 9e47 0000 0000 0000 9e47
00000330: 0000 0000 0000 9e47 0000 0000 0000 9e47
00000340: 0000 0000 0000 9e47 0000 0000 0000 9e47
00000350: 0000 0000 0000 9e47 0000 0000 0000 9e47
00000360: 0000 0000 0000 9e47 0000 0000 0000 9e47
00000370: 0000 0000 0000 9e47 0000 0000 0000 9e47
00000380: 0000 0000 0000 9e47 0000 0000 0000 9e47
00000390: 0000 0000 0000 9e47 0000 0000 0000 9e47
000003a0: 0000 0000 0000 9e47 0000 0000 0000 9e47
000003b0: 0000 0000 0000 9e47 0000 0000 0000 9e47
000003c0: 0000 0000 0000 9e47 0000 0000 0000 9e47
000003d0: 0000 0000 0000 9e47 0000 0000 0000 9e47
000003e0: 0000 0000 0000 9e47 0000 0000 0000 9e47
000003f0: 0000 0000 0000 9e47 0000 0000 0000 9e47
00000400: 0000 0000 0000 9e47 0000 0000 0000 9e47
00000410: 0000 0000 0000 9e47 0000 0000 0000 9e47
00000420: 0000 0000 0000 9e47 0000 0000 0000 9e47
00000430: 0000 0000 0000 9e47 0000 0000 0000 9e47
00000440: 0000 0000 0000 9e47 0000 0000 0000 9e47
00000450: 0000 0000 0000 9e47 0000 0000 0000 9e47
00000460: 0000 0000 0000 9e47 0000 0000 0000 9e47
00000470: 0000 0000 0000 9e47 0000 0000 0000 9e47
00000480: 0000 0000 0000 9e47 0000 0000 0000 9e47
00000490: 0000 0000 0000 9e47 0000 0000 0000 9e47
000004a0: 0000 0000 0000 9e47 0000 0000 0000 9e47
000004b0: 0000 0000 0000 9e47 0000 0000 0000 9e47
000004c0: 0000 0000 0000 9e47 0000 0000 0000 9e47
000004d0: 0000 0000 0000 9e47 0000 0000 0000 9e47
000004e0: 0000 0000 0000 9e47 0000 0000 0000 9e47
000004f0: 0000 0000 0000 9e47 0000 0000 0000 9e47
00000500: 0000 0000 0000 9e47 0000 0000 0000 9e47
00000510: 0000 0000 0000 9e47 0000 0000 0000 9e47
00000520: 0000 0000 0000 9e47 0000 0000 0000 9e47
00000530: 0000 0000 0000 9e47 0000 0000 0000 9e47
00000540: 0000 0000 0000 9e47 0000 0000 0000 9e47
00000550: 0000 0000 0000 9e47 0000 0000 0000 9e47
00000560: 0000 0000 0000 9e47 0000 0000 0000 9e47
00000570: 0000 0000 0000 9e47 0000 0000 0000 9e47
00000580: 0000 0000 0000 9e47 0000 0000 0000 9e47
00000590: 0000 0000 0000 9e47 0000 0000 0000 9e47
000005a0: 0000 0000 0000 9e47 0000 0000 0000 9e47
000005b0: 0000 0000 0000 9e47 0000 0000 0000 9e47
000005c0: 0000 0000 0000 9e47 0000 0000 0000 9e47
000005d0: 0000 0000 0000 9e47 0000 0000 0000 9e47
000005e0: 0000 0000 0000 9e47 0000 0000 0000 9e47
000005f0: 0000 0000 0000 9e47 0000 0000 0000 9e47
00000600: 0000 0000 0000 9e47 0000 0000 0000 9e47
00000610: 0000 0000 0000 9e47 0000 0000 0000 9e47
00000620: 0000 0000 0000 9e47 0000 0000 0000 9e47
00000630: 0000 0000 0000 9e47 0000 0000 0000 9e47
00000640: 0000 0000 0000 9e47 0000 0000 0000 9e47
00000650: 0000 0000 0000 9e47 0000 0000 0000 9e47
00000660: 0000 0000 0000 9e47 0000 0000 0000 9e47
00000670: 0000 0000 0000 9e47 0000 0000 0000 9e47
00000680: 0000 0000 0000 9e47 0000 0000 0000 9e47
00000690: 0000 0000 0000 9e47 0000 0000 0000 9e47
000006a0: 0000 0000 0000 9e47 0000 0000 0000 9e47
000006b0: 0000 0000 0000 9e47 0000 0000 0000 9e47
000006c0: 0000 0000 0000 9e47 0000 0000 0000 9e47
000006d0: 0000 0000 0000 9e47 0000 0000 0000 9e47
000006e0: 0000 0000 0000 9e47 0000 0000 0000 9e47
000006f0: 0000 0000 0000 9e47 0000 0000 0000 9e47
00000700: 0000 0000 0000 9e47 0000 0000 0000 9e47
00000710: 0000 0000 0000 9e47 0000 0000 0000 9e47
00000720: 0000 0000 0000 9e47 0000 0000 0000 9e47
00000730: 0000 0000 0000 9e47 0000 0000 0000 9e47
00000740: 0000 0000 0000 9e47 0000 0000 0000 9e47
00000750: 0000 0000 0000 9e47 0000 0000 0000 9e47
00000760: 0000 0000 0000 9e47 0000 0000 0000 9e47
00000770: 0000 0000 0000 9e47 0000 0000 0000 9e47
00000780: 0000 0000 0000 9e47 0000 0000 0000 9e47
00000790: 0000 0000 0000 9e47 0000 0000 0000 9e47
000007a0: 0000 0000 0000 9e47 0000 0000 0000 9e47
000007b0: 0000 0000 0000 9e47 0000 0000 0000 9e47
000007c0: 0000 0000 0000 9e47 0000 0000 0000 9e47
000007d0: 0000 0000 0000 9e47 0000 0000 0000 9e47
000007e0: 0000 0000 0000 9e47 0000 0000 0000 9e47
000007f0: 0000 0000 0000 9e47 0000 0000 0000 9e47
9.969209968386869e+36 9.969209968386869e+36 9.969209968386869e+36 9.969209968386869e+36 9.969209968386869e+36 9.969209968386869e+36 9.969209968386869e+36 9.969209968386869e+36
9.969209968386869e+36 9.969209968386869e+36 9.969209968386869e+36 9.969209968386869e+36 9.969209968386869e+36 9.969209968386869e+36 9.969209968386869e+36 9.969209968386869e+36
9.969209968386869e+36 9.969209968386869e+36 9.969209968386869e+36 9.969209968386869e+36 9.969209968386869e+36 9.969209968386869e+36 9.969209968386869e+36 9.969209968386869e+36
9.969209968386869e+36 9.969209968386869e+36 9.969209968386869e+36 9.969209968386869e+36 9.969209968386869e+36 9.969209968386869e+36 9.969209968386869e+36 9.969209968386869e+36
9.969209968386869e+36 9.969209968386869e+36 9.969209968386869e+36 9.969209968386869e+36 9.969209968386869e+36 9.969209968386869e+36 9.969209968386869e+36 9.969209968386869e+36
9.969209968386869e+36 9.969209968386869e+36 9.969209968386869e+36 9.969209968386869e+36 9.969209968386869e+36 9.969209968386869e+36 9.969209968386869e+36 9.969209968386869e+36
9.969209968386869e+36 9.969209968386869e+36 9.969209968386869e+36 9.969209968386869e+36 9.969209968386869e+36 9.969209968386869e+36 9.969209968386869e+36 9.969209968386869e+36
9.969209968386869e+36 9.969209968386869e+36 9.969209968386869e+36 9.969209968386869e+36 9.969209968386869e+36 9.969209968386869e+36 9.969209968386869e+36 9.969209968386869e+36
9.969209968386869e+36 9.969209968386869e+36 9.969209968386869e+36 9.969209968386869e+36 9.969209968386869e+36 9.969209968386869e+36 9.969209968386869e+36 9.969209968386869e+36
9.969209968386869e+36 9.969209968386869e+36 9.969209968386869e+36 9.969209968386869e+36 9.969209968386869e+36 9.969209968386869e+36 9.969209968386869e+36 9.969209968386869e+36
9.969209968386869e+36 9.969209968386869e+36 9.969209968386869e+36 9.969209968386869e+36 9.969209968386869e+36 9.969209968386869e+36 9.969209968386869e+36 9.969209968386869e+36
9.969209968386869e+36 9.969209968386869e+36 9.969209968386869e+36 9.969209968386869e+36 9.969209968386869e+36 9.969209968386869e+36 9.969209968386869e+36 9.969209968386869e+36
9.969209968386869e+36 9.969209968386869e+36 9.969209968386869e+36 9.969209968386869e+36 9.969209968386869e+36 9.969209968386869e+36 9.969209968386869e+36 9.969209968386869e+36
9.969209968386869e+36 9.969209968386869e+36 9.969209968386869e+36 9.969209968386869e+36 9.969209968386869e+36 9.969209968386869e+36 9.969209968386869e+36 9.969209968386869e+36
9.969209968386869e+36 9.969209968386869e+36 9.969209968386869e+36 9.969209968386869e+36 9.969209968386869e+36 9.969209968386869e+36 9.969209968386869e+36 9.969209968386869e+36
9.969209968386869e+36 9.969209968386869e+36 9.969209968386869e+36 9.969209968386869e+36 9.969209968386869e+36 9.969209968386869e+36 9.969209968386869e+36 9.969209968386869e+36
9.969209968386869e+36 9.969209968386869e+36 9.969209968386869e+36 9.969209968386869e+36 9.969209968386869e+36 9.969209968386869e+36 9.969209968386869e+36 9.969209968386869e+36
9.969209968386869e+36 9.969209968386869e+36 9.969209968386869e+36 9.969209968386869e+36 9.969209968386869e+36 9.969209968386869e+36 9.969209968386869e+36 9.969209968386869e+36
9.969209968386869e+36 9.969209968386869e+36 9.969209968386869e+36 9.969209968386869e+36 9.969209968386869e+36 9.969209968386869e+36 9.969209968386869e+36 9.969209968386869e+36
9.969209968386869e+36 9.969209968386869e+36 9.969209968386869e+36 9.969209968386869e+36 9.969209968386869e+36 9.969209968386869e+36 9.969209968386869e+36 9.969209968386869e+36
9.969209968386869e+36 9.969209968386869e+36 9.969209968386869e+36 9.969209968386869e+36 9.969209968386869e+36 9.969209968386869e+36 9.969209968386869e+36 9.969209968386869e+36
9.969209968386869e+36 9.969209968386869e+36 9.969209968386869e+36 9.969209968386869e+36 9.969209968386869e+36 9.969209968386869e+36 9.969209968386869e+36 9.969209968386869e+36
9.969209968386869e+36 9.969209968386869e+36 9.969209968386869e+36 9.969209968386869e+36 9.969209968386869e+36 9.969209968386869e+36 9.969209968386869e+36 9.969209968386869e+36
9.969209968386869e+36 9.969209968386869e+36 9.969209968386869e+36 9.969209968386869e+36 9.969209968386869e+36 9.969209968386869e+36 9.969209968386869e+36 9.969209968386869e+36
9.969209968386869e+36 9.969209968386869e+36 9.969209968386869e+36 9.969209968386869e+36 9.969209968386869e+36 9.969209968386869e+36 9.969209968386869e+36 9.969209968386869e+36
9.969209968386869e+36 9.969209968386869e+36 9.969209968386869e+36 9.969209968386869e+36 9.969209968386869e+36 9.969209968386869e+36 9.969209968386869e+36 9.969209968386869e+36
9.969209968386869e+36 9.969209968386869e+36 9.969209968386869e+36 9.969209968386869e+36 9.969209968386869e+36 9.969209968386869e+36 9.969209968386869e+36 9.969209968386869e+36
9.969209968386869e+36 9.969209968386869e+36 9.969209968386869e+36 9.969209968386869e+36 9.969209968386869e+36 9.969209968386869e+36 9.969209968386869e+36 9.969209968386869e+36
9.969209968386869e+36 9.969209968386869e+36 9.969209968386869e+36 9.969209968386869e+36 9.969209968386869e+36 9.969209968386869e+36 9.969209968386869e+36 9.969209968386869e+36
9.969209968386869e+36 9.969209968386869e+36 9.969209968386869e+36 9.969209968386869e+36 9.969209968386869e+36 9.969209968386869e+36 9.969209968386869e+36 9.969209968386869e+36
9.969209968386869e+36 9.969209968386869e+36 9.969209968386869e+36 9.969209968386869e+36 9.969209968386869e+36 9.969209968386869e+36 9.969209968386869e+36 9.969209968386869e+36
9.969209968386869e+36 9.969209968386869e+36 9.969209968386869e+36 9.969209968386869e+36 9.969209968386869e+36 9.969209968386869e+36 9.969209968386869e+36 9.969209968386869e+36

lat f4 [32, 32]
00000000: fa34 33c2 a523 33c2 5512 33c2 0901 33c2
00000010: c1ef 32c2 7cde 32c2 38cd 32c2 f6bb 32c2
00000020: b3aa 32c2 7099 32c2 2c88 32c2 e676 32c2
00000030: 9d65 32c2 4f54 32c2 fe42 32c2 a631 32c2
00000040: 4820 32c2 e40e 32c2 76fd 31c2 00ec 31c2
00000050: 81da 31c2 f6c8 31c2 60b7 31c2 bca5 31c2
00000060: 0c94 31c2 4d82 31c2 7e70 31c2 9e5e 31c2
00000070: ad4c 31c2 a93a 31c2 9128 31c2 6416 31c2
00000080: 6b03 33c2 18f2 32c2 cbe0 32c2 82cf 32c2
00000090: 3cbe 32c2 f9ac 32c2 b99b 32c2 798a 32c2
000000a0: 3979 32c2 f967 32c2 b856 32c2 7545 32c2
000000b0: 2e34 32c2 e422 32c2 9511 32c2 4100 32c2
000000c0: e6ee 31c2 85dd 31c2 1bcc 31c2 a8ba 31c2
000000d0: 2ba9 31c2 a497 31c2 1186 31c2 7274 31c2
000000e0: c462 31c2 0951 31c2 3d3f 31c2 622d 31c2
000000f0: 741b 31c2 7409 31c2 60f7 30c2 37e5 30c2
00000100: ddd1 32c2 8dc0 32c2 42af 32c2 fc9d 32c2
00000110: b98c 32c2 797b 32c2 3a6a 32c2 fd58 32c2
00000120: c147 32c2 8436 32c2 4525 32c2 0514 32c2
00000130: c102 32c2 7af1 31c2 2ee0 31c2 ddce 31c2
00000140: 86bd 31c2 27ac 31c2 c19a 31c2 5189 31c2
00000150: d877 31c2 5466 31c2 c554 31c2 2943 31c2
00000160: 7f31 31c2 c71f 31c2 ff0d 31c2 27fc 30c2
00000170: 3dea 30c2 41d8 30c2 31c6 30c2 0cb4 30c2
00000180: 4da0 32c2 ff8e 32c2 b77d 32c2 736c 32c2
00000190: 335b 32c2 f649 32c2 ba38 32c2 8027 32c2
000001a0: 4616 32c2 0c05 32c2 d0f3 31c2 93e2 31c2
000001b0: 52d1 31c2 0ec0 31c2 c5ae 31c2 779d 31c2
000001c0: 238c 31c2 c87a 31c2 6469 31c2 f857 31c2
000001d0: 8246 31c2 0235 31c2 7623 31c2 dd11 31c2
000001e0: 3700 31c2 82ee 30c2 bedc 30c2 eaca 30c2
000001f0: 04b9 30c2 0ca7 30c2 ff94 30c2 de82 30c2
00000200: bd6e 32c2 725d 32c2 2c4c 32c2 eb3a 32c2
00000210: ad29 32c2 7218 32c2 3a07 32c2 02f6 31c2
00000220: cbe4 31c2 93d3 31c2 5bc2 31c2 20b1 31c2
00000230: e29f 31c2 a18e 31c2 5c7d 31c2 106c 31c2
00000240: bf5a 31c2 6749 31c2 0738 31c2 9e26 31c2
00000250: 2b15 31c2 ae03 31c2 25f2 30c2 90e0 30c2
00000260: edce 30c2 3cbd 30c2 7cab 30c2 ab99 30c2
00000270: c987 30c2 d475 30c2 cb63 30c2 ae51 30c2
00000280: 2d3d 32c2 e52b 32c2 a11a 32c2 6309 32c2
00000290: 28f8 31c2 f0e6 31c2 bad5 31c2 85c4 31c2
000002a0: 50b3 31c2 1ca2 31c2 e690 31c2 ae7f 31c2
000002b0: 736e 31c2 355d 31c2 f24b 31c2 aa3a 31c2
000002c0: 5c29 31c2 0718 31c2 aa06 31c2 44f5 30c2
000002d0: d5e3 30c2 5bd2 30c2 d5c0 30c2 44af 30c2
000002e0: a59d 30c2 f78b 30c2 3a7a 30c2 6d68 30c2
000002f0: 8e56 30c2 9d44 30c2 9932 30c2 7f20 30c2
00000300: 990b 32c2 53fa 31c2 13e9 31c2 d7d7 31c2
00000310: 9ec6 31c2 69b5 31c2 35a4 31c2 0393 31c2
00000320: d281 31c2 a070 31c2 6d5f 31c2 384e 31c2
00000330: 003d 31c2 c52b 31c2 851a 31c2 4009 31c2
00000340: f5f7 30c2 a3e6 30c2 49d5 30c2 e7c3 30c2
00000350: 7bb2 30c2 04a1 30c2 828f 30c2 f47d 30c2
00000360: 586c 30c2 ae5a 30c2 f548 30c2 2c37 30c2
00000370: 5125 30c2 6313 30c2 6301 30c2 4def 2fc2
00000380: 08da 31c2 c4c8 31c2 86b7 31c2 4da6 31c2
00000390: 1795 31c2 e483 31c2 b472 31c2 8461 31c2
000003a0: 5550 31c2 263f 31c2 f62d 31c2 c41c 31c2
000003b0: 8f0b 31c2 57fa 30c2 1ae9 30c2 d8d7 30c2
000003c0: 90c6 30c2 41b5 30c2 eba3 30c2 8c92 30c2
000003d0: 2381 30c2 af6f 30c2 315e 30c2 a64c 30c2
000003e0: 0e3b 30c2 6729 30c2 b217 30c2 ec05 30c2
000003f0: 15f4 2fc2 2be2 2fc2 2ed0 2fc2 1dbe 2fc2
-44.801735 -44.78481 -44.767902 -44.75101 -44.734135 -44.71727 -44.70041 -44.683556
-44.6667 -44.64984 -44.63298 -44.61611 -44.59923 -44.582333 -44.565422 -44.548485
-44.531525 -44.51454 -44.49752 -44.48047 -44.463383 -44.44625 -44.429077 -44.41185
-44.394577 -44.377247 -44.359856 -44.3424 -44.32488 -44.307285 -44.289616 -44.271866
-44.753338 -44.73642 -44.719524 -44.702644 -44.685776 -44.66892 -44.652073 -44.635227
-44.61838 -44.601536 -44.584686 -44.56783 -44.550957 -44.534073 -44.51717 -44.500248
-44.4833 -44.466328 -44.44932 -44.43228 -44.415203 -44.398087 -44.380924 -44.363716
-44.34645 -44.329136 -44.311756 -44.29432 -44.27681 -44.25923 -44.241577 -44.223843
-44.704945 -44.688038 -44.67115 -44.65428 -44.637424 -44.62058 -44.603737 -44.586903
-44.570072 -44.553238 -44.536396 -44.51955 -44.50269 -44.485817 -44.468925 -44.452015
-44.43508 -44.418118 -44.401127 -44.384098 -44.367035 -44.34993 -44.332783 -44.315586
-44.298336 -44.281033 -44.263668 -44.246243 -44.22875 -44.211185 -44.193546 -44.175827
-44.656544 -44.639645 -44.62277 -44.605907 -44.58906 -44.572227 -44.555397 -44.538574
-44.52175 -44.50493 -44.4881 -44.471264 -44.454414 -44.437553 -44.420673 -44.403774
-44.386852 -44.369904 -44.35292 -44.335907 -44.318855 -44.301765 -44.28463 -44.267445
-44.25021 -44.232918 -44.21557 -44.19816 -44.18068 -44.16313 -44.145504 -44.1278
-44.608143 -44.591255 -44.574387 -44.557537 -44.5407 -44.523872 -44.507057 -44.490242
-44.47343 -44.456615 -44.4398 -44.422974 -44.406136 -44.389286 -44.37242 -44.35553
-44.33862 -44.321682 -44.304714 -44.287712 -44.27067 -44.253593 -44.23647 -44.2193
-44.202076 -44.1848 -44.167465 -44.150066 -44.132603 -44.115067 -44.097454 -44.079765
-44.559742 -44.542866 -44.526005 -44.509167 -44.49234 -44.475525 -44.458717 -44.441914
-44.42511 -44.40831 -44.391502 -44.374687 -44.35786 -44.341022 -44.324165 -44.30729
-44.29039 -44.273464 -44.256508 -44.239517 -44.222492 -44.205425 -44.188313 -44.171158
-44.15395 -44.136684 -44.11936 -44.10198 -44.084526 -44.067005 -44.04941 -44.031734
-44.511326 -44.494457 -44.47761 -44.46078 -44.443962 -44.42716 -44.41036 -44.393566
-44.376778 -44.359985 -44.34319 -44.326385 -44.30957 -44.292744 -44.275898 -44.259033
-44.242146 -44.22523 -44.208286 -44.19131 -44.174297 -44.15724 -44.140144 -44.123
-44.105804 -44.088554 -44.071247 -44.05388 -44.03644 -44.018932 -44.001354 -43.983692
-44.46292 -44.44606 -44.429222 -44.412403 -44.395596 -44.3788 -44.362015 -44.34523
-44.32845 -44.31167 -44.294884 -44.27809 -44.261288 -44.244473 -44.22764 -44.210785
-44.19391 -44.177006 -44.160076 -44.143112 -44.12611 -44.109066 -44.091984 -44.074852
-44.05767 -44.040432 -44.02314 -44.005783 -43.98836 -43.970867 -43.9533 -43.935658

lon f4 [32, 32]
00000000: 30e4 3143 edfa 3143 b011 3243 7828 3243
00000010: 493f 3243 2256 3243 056d 3243 f283 3243
00000020: ec9a 3243 f4b1 3243 0ac9 3243 2fe0 3243
00000030: 66f7 3243 ae0e 3343 0a26 3343 7b3d 3343
00000040: 0255 3343 9f6c 3343 5684 3343 269c 3343
00000050: 12b4 3343 1acc 3343 40e4 3343 85fc 3343
00000060: 14eb 33c3 8bd2 33c3 deb9 33c3 0ba1 33c3
00000070: 1188 33c3 ef6e 33c3 a255 33c3 293c 33c3
00000080: 64df 3143 1df6 3143 da0c 3243 9e23 3243
00000090: 6a3a 3243 3e51 3243 1c68 3243 057f 3243
000000a0: fb95 3243 fdac 3243 0ec4 3243 2fdb 3243
000000b0: 61f2 3243 a509 3343 fc20 3343 6838 3343
000000c0: e94f 3343 8267 3343 347f 3343 ff96 3343
000000d0: e6ae 3343 e9c6 3343 0adf 3343 4bf7 3343
000000e0: 53f0 33c3 cfd7 33c3 27bf 33c3 5aa6 33c3
000000f0: 658d 33c3 4874 33c3 005b 33c3 8c41 33c3
00000100: 9ada 3143 4ef1 3143 0608 3243 c61e 3243
00000110: 8c35 3243 5c4c 3243 3563 3243 1a7a 3243
00000120: 0a91 3243 08a8 3243 14bf 3243 30d6 3243
00000130: 5ded 3243 9c04 3343 ee1b 3343 5633 3343
00000140: d24a 3343 6762 3343 137a 3343 da91 3343
00000150: bca9 3343 bac1 3343 d6d9 3343 12f2 3343
00000160: 91f5 33c3 12dd 33c3 6fc4 33c3 a7ab 33c3
00000170: b792 33c3 9f79 33c3 5c60 33c3 ed46 33c3
00000180: d2d5 3143 80ec 3143 3503 3243 ef19 3243
00000190: b130 3243 7c47 3243 505e 3243 3075 3243
000001a0: 1c8c 3243 15a3 3243 1cba 3243 34d1 3243
000001b0: 5ce8 3243 96ff 3243 e416 3343 462e 3343
000001c0: be45 3343 4d5d 3343 f574 3343 b78c 3343
000001d0: 94a4 3343 8dbc 3343 a4d4 3343 dbec 3343
000001e0: cdfa 33c3 53e2 33c3 b5c9 33c3 f1b0 33c3
000001f0: 0798 33c3 f37e 33c3 b665 33c3 4c4c 33c3
00000200: 0ed1 3143 b8e7 3143 67fe 3143 1d15 3243
00000210: db2b 3243 a142 3243 7059 3243 4b70 3243
00000220: 3287 3243 279e 3243 29b5 3243 3ccc 3243
00000230: 5fe3 3243 95fa 3243 de11 3343 3b29 3343
00000240: ae40 3343 3958 3343 dc6f 3343 9987 3343
00000250: 719f 3343 65b7 3343 78cf 3343 aae7 3343
00000260: fcff 3343 8ee7 33c3 f5ce 33c3 37b6 33c3
00000270: 519d 33c3 4384 33c3 0a6b 33c3 a551 33c3
00000280: 4acc 3143 efe2 3143 9af9 3143 4b10 3243
00000290: 0327 3243 c53d 3243 9054 3243 666b 3243
000002a0: 4882 3243 3899 3243 36b0 3243 44c7 3243
000002b0: 62de 3243 93f5 3243 d70c 3343 3024 3343
000002c0: 9e3b 3343 2453 3343 c26a 3343 7a82 3343
000002d0: 4d9a 3343 3db2 3343 4bca 3343 78e2 3343
000002e0: c6fa 3343 caec 33c3 36d4 33c3 7dbb 33c3
000002f0: 9ca2 33c3 9389 33c3 5f70 33c3 ff56 33c3
00000300: 85c7 3143 26de 3143 ccf4 3143 780b 3243
00000310: 2c22 3243 e938 3243 af4f 3243 8166 3243
00000320: 5e7d 3243 4994 3243 42ab 3243 4bc2 3243
00000330: 65d9 3243 91f0 3243 d007 3343 241f 3343
00000340: 8e36 3343 0f4e 3343 a865 3343 5b7d 3343
00000350: 2a95 3343 15ad 3343 1dc5 3343 46dd 3343
00000360: 8ff5 3343 06f2 33c3 77d9 33c3 c2c0 33c3
00000370: e7a7 33c3 e38e 33c3 b475 33c3 595c 33c3
00000380: c2c2 3143 5ed9 3143 00f0 3143 a706 3243
00000390: 561d 3243 0e34 3243 d04a 3243 9d61 3243
000003a0: 7678 3243 5c8f 3243 50a6 3243 54bd 3243
000003b0: 6ad4 3243 91eb 3243 cb02 3343 1b1a 3343
000003c0: 8031 3343 fc48 3343 9060 3343 3f78 3343
000003d0: 0890 3343 eea7 3343 f2bf 3343 15d8 3343
000003e0: 59f0 3343 40f7 33c3 b6de 33c3 07c6 33c3
000003f0: 30ad 33c3 3194 33c3 077b 33c3 b261 33c3
177.89136 177.98018 178.06909 178.15808 178.24721 178.33646 178.42586 178.51541
178.60516 178.69513 178.78531 178.87572 178.9664 179.05734 179.14859 179.24016
179.33206 179.4243 179.51694 179.60995 179.7034 179.79727 179.8916 179.9864
-179.91827 -179.82243 -179.72604 -179.62907 -179.53151 -179.43333 -179.3345 -179.235
177.87262 177.96138 178.0502 178.13913 178.22818 178.31735 178.40668 178.49617
178.58586 178.67574 178.76584 178.85619 178.9468 179.03767 179.12885 179.22034
179.31215 179.40433 179.49689 179.58983 179.6832 179.777 179.87125 179.96599
-179.93877 -179.843 -179.74669 -179.64981 -179.55232 -179.45422 -179.35547 -179.25604
177.85391 177.9426 178.03134 178.12021 178.20917 178.29828 178.38753 178.47696
178.56656 178.65637 178.7464 178.83667 178.9272 179.018 179.1091 179.20053
179.29227 179.38438 179.47685 179.56973 179.66302 179.75674 179.85092 179.94559
-179.95924 -179.86356 -179.76732 -179.67052 -179.5731 -179.47508 -179.3764 -179.27705
177.83524 177.92383 178.01253 178.1013 178.1902 178.27924 178.36841 178.45776
178.5473 178.63704 178.72699 178.8172 178.90765 178.99838 179.08942 179.18076
179.27243 179.36446 179.45686 179.54967 179.64288 179.73653 179.83063 179.92522
-179.97969 -179.88408 -179.78792 -179.69118 -179.59386 -179.4959 -179.39731 -179.29803
177.81662 177.90515 177.99376 178.08247 178.17131 178.26027 178.34937 178.43864
178.5281 178.61778 178.70766 178.79779 178.88817 178.97884 179.0698 179.16106
179.25266 179.34462 179.43695 179.52968 179.62282 179.71638 179.81042 179.90494
179.99994 -179.90451 -179.80843 -179.71178 -179.61452 -179.51665 -179.41812 -179.31892
177.798 177.88646 177.975 178.06364 178.15239 178.24129 178.33032 178.41953
178.50891 178.59851 178.68832 178.77838 178.86868 178.95927 179.05016 179.14136
179.23288 179.32477 179.41702 179.50967 179.60274 179.69624 179.7902 179.88464
179.97958 -179.92496 -179.82895 -179.73238 -179.6352 -179.5374 -179.43895 -179.33983
177.77937 177.86777 177.95624 178.0448 178.13348 178.2223 178.31126 178.4004
178.48972 178.57924 178.66898 178.75896 178.8492 178.93971 179.03052 179.12164
179.2131 179.30492 179.3971 179.48967 179.58267 179.6761 179.76997 179.86435
179.95921 -179.9454 -179.84947 -179.75296 -179.65587 -179.55815 -179.45978 -179.36073
177.76077 177.84909 177.9375 178.02599 178.1146 178.20334 178.29224 178.3813
178.47055 178.56 178.64966 178.73956 178.82974 178.92018 179.01091 179.10197
179.19336 179.2851 179.3772 179.46971 179.56262 179.65598 179.74979 179.84407
179.93886 -179.96582 -179.86996 -179.77354 -179.67651 -179.57887 -179.48058 -179.38162

qa f4 [32, 32]
00000000: 0000 0000 0000 0000 0000 0000 0000 0000
00000010: 0000 0000 0000 0000 0000 0000 0000 0000
00000020: 0000 0000 0000 0000 0000 0000 0000 0000
00000030: 0000 0000 0000 0000 0000 0000 0000 0000
00000040: 0000 0000 0000 0000 0000 0000 0000 0000
00000050: 0000 0000 0000 0000 0000 0000 0000 0000
00000060: 0000 0000 0000 0000 0000 0000 0000 0000
00000070: 0000 0000 0000 0000 0000 0000 0000 0000
00000080: 0000 0000 0000 0000 0000 0000 0000 0000
00000090: 0000 0000 0000 0000 0000 0000 0000 0000
000000a0: 0000 0000 0000 0000 0000 0000 0000 0000
000000b0: 0000 0000 0000 0000 0000 0000 0000 0000
000000c0: 0000 0000 0000 0000 0000 0000 0000 0000
000000d0: 0000 0000 0000 0000 0000 0000 0000 0000
000000e0: 0000 0000 0000 0000 0000 0000 0000 0000
000000f0: 0000 0000 0000 0000 0000 0000 0000 0000
00000100: 0000 0000 0000 0000 0000 0000 0000 0000
00000110: 0000 0000 0000 0000 0000 0000 0000 0000
00000120: 0000 0000 0000 0000 0000 0000 0000 0000
00000130: 0000 0000 0000 0000 0000 0000 0000 0000
00000140: 0000 0000 0000 0000 0000 0000 0000 0000
00000150: 0000 0000 0000 0000 0000 0000 0000 0000
00000160: 0000 0000 0000 0000 0000 0000 0000 0000
00000170: 0000 0000 0000 0000 0000 0000 0000 0000
00000180: 0000 0000 0000 0000 0000 0000 0000 0000
00000190: 0000 0000 0000 0000 0000 0000 0000 0000
000001a0: 0000 0000 0000 0000 0000 0000 0000 0000
000001b0: 0000 0000 0000 0000 0000 0000 0000 0000
000001c0: 0000 0000 0000 0000 0000 0000 0000 0000
000001d0: 0000 0000 0000 0000 0000 0000 0000 0000
000001e0: 0000 0000 0000 0000 0000 0000 0000 0000
000001f0: 0000 0000 0000 0000 0000 0000 0000 0000
00000200: 0000 0000 0000 0000 0000 0000 0000 0000
00000210: 0000 0000 0000 0000 0000 0000 0000 0000
00000220: 0000 0000 0000 0000 0000 0000 0000 0000
00000230: 0000 0000 0000 0000 0000 0000 0000 0000
00000240: 0000 0000 0000 0000 0000 0000 0000 0000
00000250: 0000 0000 0000 0000 0000 0000 0000 0000
00000260: 0000 0000 0000 0000 0000 0000 0000 0000
00000270: 0000 0000 0000 0000 0000 0000 0000 0000
00000280: 0000 0000 0000 0000 0000 0000 0000 0000
00000290: 0000 0000 0000 0000 0000 0000 0000 0000
000002a0: 0000 0000 0000 0000 0000 0000 0000 0000
000002b0: 0000 0000 0000 0000 0000 0000 0000 0000
000002c0: 0000 0000 0000 0000 0000 0000 0000 0000
000002d0: 0000 0000 0000 0000 0000 0000 0000 0000
000002e0: 0000 0000 0000 0000 0000 0000 0000 0000
000002f0: 0000 0000 0000 0000 0000 0000 0000 0000
00000300: 0000 0000 0000 0000 0000 0000 0000 0000
00000310: 0000 0000 0000 0000 0000 0000 0000 0000
00000320: 0000 0000 0000 0000 0000 0000 0000 0000
00000330: 0000 0000 0000 0000 0000 0000 0000 0000
00000340: 0000 0000 0000 0000 0000 0000 0000 0000
00000350: 0000 0000 0000 0000 0000 0000 0000 0000
00000360: 0000 0000 0000 0000 0000 0000 0000 0000
00000370: 0000 0000 0000 0000 0000 0000 0000 0000
00000380: 0000 0000 0000 0000 0000 0000 0000 0000
00000390: 0000 0000 0000 0000 0000 0000 0000 0000
000003a0: 0000 0000 0000 0000 0000 0000 0000 0000
000003b0: 0000 0000 0000 0000 0000 0000 0000 0000
000003c0: 0000 0000 0000 0000 0000 0000 0000 0000
000003d0: 0000 0000 0000 0000 0000 0000 0000 0000
000003e0: 0000 0000 0000 0000 0000 0000 0000 0000
000003f0: 0000 0000 0000 0000 0000 0000 0000 0000
0.0 0.0 0.0 0.0 0.0 0.0 0.0 0.0
0.0 0.0 0.0 0.0 0.0 0.0 0.0 0.0
0.0 0.0 0.0 0.0 0.0 0.0 0.0 0.0
0.0 0.0 0.0 0.0 0.0 0.0 0.0 0.0
0.0 0.0 0.0 0.0 0.0 0.0 0.0 0.0
0.0 0.0 0.0 0.0 0.0 0.0 0.0 0.0
0.0 0.0 0.0 0.0 0.0 0.0 0.0 0.0
0.0 0.0 0.0 0.0 0.0 0.0 0.0 0.0
0.0 0.0 0.0 0.0 0.0 0.0 0.0 0.0
0.0 0.0 0.0 0.0 0.0 0.0 0.0 0.0
0.0 0.0 0.0 0.0 0.0 0.0 0.0 0.0
0.0 0.0 0.0 0.0 0.0 0.0 0.0 0.0
0.0 0.0 0.0 0.0 0.0 0.0 0.0 0.0
0.0 0.0 0.0 0.0 0.0 0.0 0.0 0.0
0.0 0.0 0.0 0.0 0.0 0.0 0.0 0.0
0.0 0.0 0.0 0.0 0.0 0.0 0.0 0.0
0.0 0.0 0.0 0.0 0.0 0.0 0.0 0.0
0.0 0.0 0.0 0.0 0.0 0.0 0.0 0.0
0.0 0.0 0.0 0.0 0.0 0.0 0.0 0.0
0.0 0.0 0.0 0.0 0.0 0.0 0.0 0.0
0.0 0.0 0.0 0.0 0.0 0.0 0.0 0.0
0.0 0.0 0.0 0.0 0.0 0.0 0.0 0.0
0.0 0.0 0.0 0.0 0.0 0.0 0.0 0.0
0.0 0.0 0.0 0.0 0.0 0.0 0.0 0.0
0.0 0.0 0.0 0.0 0.0 0.0 0.0 0.0
0.0 0.0 0.0 0.0 0.0 0.0 0.0 0.0
0.0 0.0 0.0 0.0 0.0 0.0 0.0 0.0
0.0 0.0 0.0 0.0 0.0 0.0 0.0 0.0
0.0 0.0 0.0 0.0 0.0 0.0 0.0 0.0
0.0 0.0 0.0 0.0 0.0 0.0 0.0 0.0
0.0 0.0 0.0 0.0 0.0 0.0 0.0 0.0
0.0 0.0 0.0 0.0 0.0 0.0 0.0 0.0
