data/dataset/negative/5377d114-b169-4dad-b78c-dff677657c1c.npz (npz, 23743 bytes, 4 tensors)

methane f8 [32, 32]
000000 00 00 00 00 00 00 9e 47 00 00 00 00 00 00 9e 47
       9.969209968386869e+36 9.969209968386869e+36
000010 00 00 00 00 00 00 9e 47 00 00 00 00 00 00 9e 47
       9.969209968386869e+36 9.969209968386869e+36
000020 00 00 00 00 00 00 9e 47 00 00 00 00 00 00 9e 47
       9.969209968386869e+36 9.969209968386869e+36
000030 00 00 00 00 00 00 9e 47 00 00 00 00 00 00 9e 47
       9.969209968386869e+36 9.969209968386869e+36
000040 00 00 00 00 00 00 9e 47 00 00 00 00 00 00 9e 47
       9.969209968386869e+36 9.969209968386869e+36
000050 00 00 00 00 00 00 9e 47 00 00 00 00 00 00 9e 47
       9.969209968386869e+36 9.969209968386869e+36
000060 00 00 00 00 00 00 9e 47 00 00 00 00 00 00 9e 47
       9.969209968386869e+36 9.969209968386869e+36
000070 00 00 00 00 00 00 9e 47 00 00 00 00 00 00 9e 47
       9.969209968386869e+36 9.969209968386869e+36
000080 00 00 00 00 00 00 9e 47 00 00 00 00 00 00 9e 47
       9.969209968386869e+36 9.969209968386869e+36
000090 00 00 00 00 00 00 9e 47 00 00 00 00 00 00 9e 47
       9.969209968386869e+36 9.969209968386869e+36
0000a0 00 00 00 00 00 00 9e 47 00 00 00 00 00 00 9e 47
       9.969209968386869e+36 9.969209968386869e+36
0000b0 00 00 00 00 00 00 9e 47 00 00 00 00 00 00 9e 47
       9.969209968386869e+36 9.969209968386869e+36
0000c0 00 00 00 00 00 00 9e 47 00 00 00 00 00 00 9e 47
       9.969209968386869e+36 9.969209968386869e+36
0000d0 00 00 00 00 00 00 9e 47 00 00 00 00 00 00 9e 47
       9.969209968386869e+36 9.969209968386869e+36
0000e0 00 00 00 00 00 00 9e 47 00 00 00 00 00 00 9e 47
       9.969209968386869e+36 9.969209968386869e+36
0000f0 00 00 00 00 00 00 9e 47 00 00 00 00 00 00 9e 47
       9.969209968386869e+36 9.969209968386869e+36
000100 00 00 00 00 00 00 9e 47 00 00 00 00 00 00 9e 47
       9.969209968386869e+36 9.969209968386869e+36
000110 00 00 00 00 00 00 9e 47 00 00 00 00 00 00 9e 47
       9.969209968386869e+36 9.969209968386869e+36
000120 00 00 00 00 00 00 9e 47 00 00 00 00 00 00 9e 47
       9.969209968386869e+36 9.969209968386869e+36
000130 00 00 00 00 00 00 9e 47 00 00 00 00 00 00 9e 47
       9.969209968386869e+36 9.969209968386869e+36
000140 00 00 00 00 00 00 9e 47 00 00 00 00 00 00 9e 47
       9.969209968386869e+36 9.969209968386869e+36
000150 00 00 00 00 00 00 9e 47 00 00 00 00 00 00 9e 47
       9.969209968386869e+36 9.969209968386869e+36
000160 00 00 00 00 00 00 9e 47 00 00 00 00 00 00 9e 47
       9.969209968386869e+36 9.969209968386869e+36
000170 00 00 00 00 00 00 9e 47 00 00 00 00 00 00 9e 47
       9.969209968386869e+36 9.969209968386869e+36
000180 00 00 00 00 00 00 9e 47 00 00 00 00 00 00 9e 47
       9.969209968386869e+36 9.969209968386869e+36
000190 00 00 00 00 00 00 9e 47 00 00 00 00 00 00 9e 47
       9.969209968386869e+36 9.969209968386869e+36
0001a0 00 00 00 00 00 00 9e 47 00 00 00 00 00 00 9e 47
       9.969209968386869e+36 9.969209968386869e+36
0001b0 00 00 00 00 00 00 9e 47 00 00 00 00 00 00 9e 47
       9.969209968386869e+36 9.969209968386869e+36
0001c0 00 00 00 00 00 00 9e 47 00 00 00 00 00 00 9e 47
       9.969209968386869e+36 9.969209968386869e+36
0001d0 00 00 00 00 00 00 9e 47 00 00 00 00 00 00 9e 47
       9.969209968386869e+36 9.969209968386869e+36
0001e0 00 00 00 00 00 00 9e 47 00 00 00 00 00 00 9e 47
       9.969209968386869e+36 9.969209968386869e+36
0001f0 00 00 00 00 00 00 9e 47 00 00 00 00 00 00 9e 47
       9.969209968386869e+36 9.969209968386869e+36
000200 00 00 00 00 00 00 9e 47 00 00 00 00 00 00 9e 47
       9.969209968386869e+36 9.969209968386869e+36
000210 00 00 00 00 00 00 9e 47 00 00 00 00 00 00 9e 47
       9.969209968386869e+36 9.969209968386869e+36
000220 00 00 00 00 00 00 9e 47 00 00 00 00 00 00 9e 47
       9.969209968386869e+36 9.969209968386869e+36
000230 00 00 00 00 00 00 9e 47 00 00 00 00 00 00 9e 47
       9.969209968386869e+36 9.969209968386869e+36
000240 00 00 00 00 00 00 9e 47 00 00 00 00 00 00 9e 47
       9.969209968386869e+36 9.969209968386869e+36
000250 00 00 00 00 00 00 9e 47 00 00 00 00 00 00 9e 47
       9.969209968386869e+36 9.969209968386869e+36
000260 00 00 00 00 00 00 9e 47 00 00 00 00 00 00 9e 47
       9.969209968386869e+36 9.969209968386869e+36
000270 00 00 00 00 00 00 9e 47 00 00 00 00 00 00 9e 47
       9.969209968386869e+36 9.969209968386869e+36
000280 00 00 00 00 00 00 9e 47 00 00 00 00 00 00 9e 47
       9.969209968386869e+36 9.969209968386869e+36
000290 00 00 00 00 00 00 9e 47 00 00 00 00 00 00 9e 47
       9.969209968386869e+36 9.969209968386869e+36
0002a0 00 00 00 00 00 00 9e 47 00 00 00 00 00 00 9e 47
       9.969209968386869e+36 9.969209968386869e+36
0002b0 00 00 00 00 00 00 9e 47 00 00 00 00 00 00 9e 47
       9.969209968386869e+36 9.969209968386869e+36
0002c0 00 00 00 00 00 00 9e 47 00 00 00 00 00 00 9e 47
       9.969209968386869e+36 9.969209968386869e+36
0002d0 00 00 00 00 00 00 9e 47 00 00 00 00 00 00 9e 47
       9.969209968386869e+36 9.969209968386869e+36
0002e0 00 00 00 00 00 00 9e 47 00 00 00 00 00 00 9e 47
       9.969209968386869e+36 9.969209968386869e+36
0002f0 00 00 00 00 00 00 9e 47 00 00 00 00 00 00 9e 47
       9.969209968386869e+36 9.969209968386869e+36
000300 00 00 00 00 00 00 9e 47 00 00 00 00 00 00 9e 47
       9.969209968386869e+36 9.969209968386869e+36
000310 00 00 00 00 00 00 9e 47 00 00 00 00 00 00 9e 47
       9.969209968386869e+36 9.969209968386869e+36
000320 00 00 00 00 00 00 9e 47 00 00 00 00 00 00 9e 47
       9.969209968386869e+36 9.969209968386869e+36
000330 00 00 00 00 00 00 9e 47 00 00 00 00 00 00 9e 47
       9.969209968386869e+36 9.969209968386869e+36
000340 00 00 00 00 00 00 9e 47 00 00 00 00 00 00 9e 47
       9.969209968386869e+36 9.969209968386869e+36
000350 00 00 00 00 00 00 9e 47 00 00 00 00 00 00 9e 47
       9.969209968386869e+36 9.969209968386869e+36
000360 00 00 00 00 00 00 9e 47 00 00 00 00 00 00 9e 47
       9.969209968386869e+36 9.969209968386869e+36
000370 00 00 00 00 00 00 9e 47 00 00 00 00 00 00 9e 47
       9.969209968386869e+36 9.969209968386869e+36
000380 00 00 00 00 00 00 9e 47 00 00 00 00 00 00 9e 47
       9.969209968386869e+36 9.969209968386869e+36
000390 00 00 00 00 00 00 9e 47 00 00 00 00 00 00 9e 47
       9.969209968386869e+36 9.969209968386869e+36
0003a0 00 00 00 00 00 00 9e 47 00 00 00 00 00 00 9e 47
       9.969209968386869e+36 9.969209968386869e+36
0003b0 00 00 00 00 00 00 9e 47 00 00 00 00 00 00 9e 47
       9.969209968386869e+36 9.969209968386869e+36
0003c0 00 00 00 00 00 00 9e 47 00 00 00 00 00 00 9e 47
       9.969209968386869e+36 9.969209968386869e+36
0003d0 00 00 00 00 00 00 9e 47 00 00 00 00 00 00 9e 47
       9.969209968386869e+36 9.969209968386869e+36
0003e0 00 00 00 00 00 00 9e 47 00 00 00 00 00 00 9e 47
       9.969209968386869e+36 9.969209968386869e+36
0003f0 00 00 00 00 00 00 9e 47 00 00 00 00 00 00 9e 47
       9.969209968386869e+36 9.969209968386869e+36
000400 00 00 00 00 00 00 9e 47 00 00 00 00 00 00 9e 47
       9.969209968386869e+36 9.969209968386869e+36
000410 00 00 00 00 00 00 9e 47 00 00 00 00 00 00 9e 47
       9.969209968386869e+36 9.969209968386869e+36
000420 00 00 00 00 00 00 9e 47 00 00 00 00 00 00 9e 47
       9.969209968386869e+36 9.969209968386869e+36
000430 00 00 00 00 00 00 9e 47 00 00 00 00 00 00 9e 47
       9.969209968386869e+36 9.969209968386869e+36
000440 00 00 00 00 00 00 9e 47 00 00 00 00 00 00 9e 47
       9.969209968386869e+36 9.969209968386869e+36
000450 00 00 00 00 00 00 9e 47 00 00 00 00 00 00 9e 47
       9.969209968386869e+36 9.969209968386869e+36
000460 00 00 00 00 00 00 9e 47 00 00 00 00 00 00 9e 47
       9.969209968386869e+36 9.969209968386869e+36
000470 00 00 00 00 00 00 9e 47 00 00 00 00 00 00 9e 47
       9.969209968386869e+36 9.969209968386869e+36
000480 00 00 00 00 00 00 9e 47 00 00 00 00 00 00 9e 47
       9.969209968386869e+36 9.969209968386869e+36
000490 00 00 00 00 00 00 9e 47 00 00 00 00 00 00 9e 47
       9.969209968386869e+36 9.969209968386869e+36
0004a0 00 00 00 00 00 00 9e 47 00 00 00 00 00 00 9e 47
       9.969209968386869e+36 9.969209968386869e+36
0004b0 00 00 00 00 00 00 9e 47 00 00 00 00 00 00 9e 47
       9.969209968386869e+36 9.969209968386869e+36
0004c0 00 00 00 00 00 00 9e 47 00 00 00 00 00 00 9e 47
       9.969209968386869e+36 9.969209968386869e+36
0004d0 00 00 00 00 00 00 9e 47 00 00 00 00 00 00 9e 47
       9.969209968386869e+36 9.969209968386869e+36
0004e0 00 00 00 00 00 00 9e 47 00 00 00 00 00 00 9e 47
       9.969209968386869e+36 9.969209968386869e+36
0004f0 00 00 00 00 00 00 9e 47 00 00 00 00 00 00 9e 47
       9.969209968386869e+36 9.969209968386869e+36
000500 00 00 00 00 00 00 9e 47 00 00 00 00 00 00 9e 47
       9.969209968386869e+36 9.969209968386869e+36
000510 00 00 00 00 00 00 9e 47 00 00 00 00 00 00 9e 47
       9.969209968386869e+36 9.969209968386869e+36
000520 00 00 00 00 00 00 9e 47 00 00 00 00 00 00 9e 47
       9.969209968386869e+36 9.969209968386869e+36
000530 00 00 00 00 00 00 9e 47 00 00 00 00 00 00 9e 47
       9.969209968386869e+36 9.969209968386869e+36
000540 00 00 00 00 00 00 9e 47 00 00 00 00 00 00 9e 47
       9.969209968386869e+36 9.969209968386869e+36
000550 00 00 00 00 00 00 9e 47 00 00 00 00 00 00 9e 47
       9.969209968386869e+36 9.969209968386869e+36
000560 00 00 00 00 00 00 9e 47 00 00 00 00 00 00 9e 47
       9.969209968386869e+36 9.969209968386869e+36
000570 00 00 00 00 00 00 9e 47 00 00 00 00 00 00 9e 47
       9.969209968386869e+36 9.969209968386869e+36
000580 00 00 00 00 00 00 9e 47 00 00 00 00 00 00 9e 47
       9.969209968386869e+36 9.969209968386869e+36
000590 00 00 00 00 00 00 9e 47 00 00 00 00 00 00 9e 47
       9.969209968386869e+36 9.969209968386869e+36
0005a0 00 00 00 00 00 00 9e 47 00 00 00 00 00 00 9e 47
       9.969209968386869e+36 9.969209968386869e+36
0005b0 00 00 00 00 00 00 9e 47 00 00 00 00 00 00 9e 47
       9.969209968386869e+36 9.969209968386869e+36
0005c0 00 00 00 00 00 00 9e 47 00 00 00 00 00 00 9e 47
       9.969209968386869e+36 9.969209968386869e+36
0005d0 00 00 00 00 00 00 9e 47 00 00 00 00 00 00 9e 47
       9.969209968386869e+36 9.969209968386869e+36
0005e0 00 00 00 00 00 00 9e 47 00 00 00 00 00 00 9e 47
       9.969209968386869e+36 9.969209968386869e+36
0005f0 00 00 00 00 00 00 9e 47 00 00 00 00 00 00 9e 47
       9.969209968386869e+36 9.969209968386869e+36
000600 00 00 00 00 00 00 9e 47 00 00 00 00 00 00 9e 47
       9.969209968386869e+36 9.969209968386869e+36
000610 00 00 00 00 00 00 9e 47 00 00 00 00 00 00 9e 47
       9.969209968386869e+36 9.969209968386869e+36
000620 00 00 00 00 00 00 9e 47 00 00 00 00 00 00 9e 47
       9.969209968386869e+36 9.969209968386869e+36
000630 00 00 00 00 00 00 9e 47 00 00 00 00 00 00 9e 47
       9.969209968386869e+36 9.969209968386869e+36
000640 00 00 00 00 00 00 9e 47 00 00 00 00 00 00 9e 47
       9.969209968386869e+36 9.969209968386869e+36
000650 00 00 00 00 00 00 9e 47 00 00 00 00 00 00 9e 47
       9.969209968386869e+36 9.969209968386869e+36
000660 00 00 00 00 00 00 9e 47 00 00 00 00 00 00 9e 47
       9.969209968386869e+36 9.969209968386869e+36
000670 00 00 00 00 00 00 9e 47 00 00 00 00 00 00 9e 47
       9.969209968386869e+36 9.969209968386869e+36
000680 00 00 00 00 00 00 9e 47 00 00 00 00 00 00 9e 47
       9.969209968386869e+36 9.969209968386869e+36
000690 00 00 00 00 00 00 9e 47 00 00 00 00 00 00 9e 47
       9.969209968386869e+36 9.969209968386869e+36
0006a0 00 00 00 00 00 00 9e 47 00 00 00 00 00 00 9e 47
       9.969209968386869e+36 9.969209968386869e+36
0006b0 00 00 00 00 00 00 9e 47 00 00 00 00 00 00 9e 47
       9.969209968386869e+36 9.969209968386869e+36
0006c0 00 00 00 00 00 00 9e 47 00 00 00 00 00 00 9e 47
       9.969209968386869e+36 9.969209968386869e+36
0006d0 00 00 00 00 00 00 9e 47 00 00 00 00 00 00 9e 47
       9.969209968386869e+36 9.969209968386869e+36
0006e0 00 00 00 00 00 00 9e 47 00 00 00 00 00 00 9e 47
       9.969209968386869e+36 9.969209968386869e+36
0006f0 00 00 00 00 00 00 9e 47 00 00 00 00 00 00 9e 47
       9.969209968386869e+36 9.969209968386869e+36
000700 00 00 00 00 00 00 9e 47 00 00 00 00 00 00 9e 47
       9.969209968386869e+36 9.969209968386869e+36
000710 00 00 00 00 00 00 9e 47 00 00 00 00 00 00 9e 47
       9.969209968386869e+36 9.969209968386869e+36
000720 00 00 00 00 00 00 9e 47 00 00 00 00 00 00 9e 47
       9.969209968386869e+36 9.969209968386869e+36
000730 00 00 00 00 00 00 9e 47 00 00 00 00 00 00 9e 47
       9.969209968386869e+36 9.969209968386869e+36
000740 00 00 00 00 00 00 9e 47 00 00 00 00 00 00 9e 47
       9.969209968386869e+36 9.969209968386869e+36
000750 00 00 00 00 00 00 9e 47 00 00 00 00 00 00 9e 47
       9.969209968386869e+36 9.969209968386869e+36
000760 00 00 00 00 00 00 9e 47 00 00 00 00 00 00 9e 47
       9.969209968386869e+36 9.969209968386869e+36
000770 00 00 00 00 00 00 9e 47 00 00 00 00 00 00 9e 47
       9.969209968386869e+36 9.969209968386869e+36
000780 00 00 00 00 00 00 9e 47 00 00 00 00 00 00 9e 47
       9.969209968386869e+36 9.969209968386869e+36
000790 00 00 00 00 00 00 9e 47 00 00 00 00 00 00 9e 47
       9.969209968386869e+36 9.969209968386869e+36
0007a0 00 00 00 00 00 00 9e 47 00 00 00 00 00 00 9e 47
       9.969209968386869e+36 9.969209968386869e+36
0007b0 00 00 00 00 00 00 9e 47 00 00 00 00 00 00 9e 47
       9.969209968386869e+36 9.969209968386869e+36
0007c0 00 00 00 00 00 00 9e 47 00 00 00 00 00 00 9e 47
       9.969209968386869e+36 9.969209968386869e+36
0007d0 00 00 00 00 00 00 9e 47 00 00 00 00 00 00 9e 47
       9.969209968386869e+36 9.969209968386869e+36
0007e0 00 00 00 00 00 00 9e 47 00 00 00 00 00 00 9e 47
       9.969209968386869e+36 9.969209968386869e+36
0007f0 00 00 00 00 00 00 9e 47 00 00 00 00 00 00 9e 47
       9.969209968386869e+36 9.969209968386869e+36

lat f4 [32, 32]
000000 d2 19 1e c2 80 08 1e c2 44 f7 1d c2 1d e6 1d c2
       -39.525215 -39.5083 -39.49147 -39.47472
000010 0a d5 1d c2 0a c4 1d c2 1c b3 1d c2 40 a2 1d c2
       -39.458046 -39.441444 -39.42491 -39.408447
000020 74 91 1d c2 b9 80 1d c2 0c 70 1d c2 6d 5f 1d c2
       -39.392044 -39.375706 -39.35942 -39.34319
000030 db 4e 1d c2 56 3e 1d c2 dc 2d 1d c2 6e 1d 1d c2
       -39.327007 -39.310875 -39.294785 -39.27874
000040 09 0d 1d c2 ae fc 1c c2 5c ec 1c c2 11 dc 1c c2
       -39.26273 -39.246758 -39.23082 -39.21491
000050 ce cb 1c c2 90 bb 1c c2 59 ab 1c c2 26 9b 1c c2
       -39.199028 -39.183167 -39.16733 -39.151512
000060 f8 8a 1c c2 cd 7a 1c c2 a4 6a 1c c2 7e 5a 1c c2
       -39.13571 -39.119923 -39.10414 -39.08837
000070 59 4a 1c c2 34 3a 1c c2 0f 2a 1c c2 e9 19 1c c2
       -39.072605 -39.05684 -39.041073 -39.025303
000080 e6 e7 1d c2 96 d6 1d c2 5b c5 1d c2 36 b4 1d c2
       -39.476463 -39.459557 -39.44273 -39.425987
000090 24 a3 1d c2 26 92 1d c2 3a 81 1d c2 5f 70 1d c2
       -39.409317 -39.392723 -39.376198 -39.359737
0000a0 95 5f 1d c2 db 4e 1d c2 30 3e 1d c2 92 2d 1d c2
       -39.34334 -39.327007 -39.31073 -39.294502
0000b0 03 1d 1d c2 7f 0c 1d c2 07 fc 1c c2 9b eb 1c c2
       -39.27833 -39.262203 -39.24612 -39.230083
0000c0 38 db 1c c2 df ca 1c c2 8e ba 1c c2 46 aa 1c c2
       -39.21408 -39.198116 -39.182182 -39.166283
0000d0 04 9a 1c c2 c9 89 1c c2 93 79 1c c2 63 69 1c c2
       -39.150406 -39.134556 -39.118725 -39.102917
0000e0 36 59 1c c2 0d 49 1c c2 e7 38 1c c2 c3 28 1c c2
       -39.08712 -39.07134 -39.05557 -39.039806
0000f0 a0 18 1c c2 7d 08 1c c2 5a f8 1b c2 37 e8 1b c2
       -39.024048 -39.00829 -38.99253 -38.976772
000100 f9 b5 1d c2 aa a4 1d c2 71 93 1d c2 4d 82 1d c2
       -39.427708 -39.410805 -39.393986 -39.377247
000110 3d 71 1d c2 40 60 1d c2 55 4f 1d c2 7d 3e 1d c2
       -39.360584 -39.343994 -39.327473 -39.311024
000120 b4 2d 1d c2 fc 1c 1d c2 52 0c 1d c2 b7 fb 1c c2
       -39.294632 -39.278305 -39.26203 -39.245815
000130 28 eb 1c c2 a7 da 1c c2 31 ca 1c c2 c6 b9 1c c2
       -39.229645 -39.213528 -39.197453 -39.18142
000140 65 a9 1c c2 0e 99 1c c2 bf 88 1c c2 79 78 1c c2
       -39.165424 -39.149467 -39.13354 -39.11765
000150 39 68 1c c2 00 58 1c c2 cc 47 1c c2 9e 37 1c c2
       -39.10178 -39.085938 -39.070114 -39.054314
000160 73 27 1c c2 4d 17 1c c2 28 07 1c c2 06 f7 1b c2
       -39.038525 -39.022755 -39.00699 -38.991234
000170 e6 e6 1b c2 c5 d6 1b c2 a5 c6 1b c2 83 b6 1b c2
       -38.975487 -38.959736 -38.94399 -38.928234
000180 0f 84 1d c2 c1 72 1d c2 8a 61 1d c2 67 50 1d c2
       -39.378963 -39.362064 -39.345253 -39.328518
000190 59 3f 1d c2 5e 2e 1d c2 75 1d 1d c2 9d 0c 1d c2
       -39.311863 -39.29528 -39.278767 -39.262318
0001a0 d7 fb 1c c2 20 eb 1c c2 78 da 1c c2 de c9 1c c2
       -39.245937 -39.229614 -39.21335 -39.197136
0001b0 52 b9 1c c2 d2 a8 1c c2 5e 98 1c c2 f5 87 1c c2
       -39.180977 -39.164864 -39.148796 -39.13277
0001c0 96 77 1c c2 40 67 1c c2 f4 56 1c c2 af 46 1c c2
       -39.116783 -39.10083 -39.084915 -39.069027
0001d0 71 36 1c c2 3a 26 1c c2 09 16 1c c2 dc 05 1c c2
       -39.053165 -39.03733 -39.02152 -39.005722
0001e0 b4 f5 1b c2 8f e5 1b c2 6d d5 1b c2 4d c5 1b c2
       -38.989944 -38.97418 -38.958424 -38.942677
0001f0 2f b5 1b c2 10 a5 1b c2 f2 94 1b c2 d3 84 1b c2
       -38.926937 -38.911194 -38.895454 -38.87971
000200 22 52 1d c2 d6 40 1d c2 a0 2f 1d c2 7f 1e 1d c2
       -39.330208 -39.313316 -39.29651 -39.27978
000210 72 0d 1d c2 78 fc 1c c2 91 eb 1c c2 bb da 1c c2
       -39.26313 -39.24655 -39.230045 -39.213604
000220 f6 c9 1c c2 41 b9 1c c2 9b a8 1c c2 03 98 1c c2
       -39.197227 -39.180912 -39.164654 -39.14845
000230 78 87 1c c2 fa 76 1c c2 87 66 1c c2 20 56 1c c2
       -39.132294 -39.116188 -39.100124 -39.084106
000240 c3 45 1c c2 6f 35 1c c2 25 25 1c c2 e2 14 1c c2
       -39.068127 -39.05218 -39.036274 -39.020393
000250 a6 04 1c c2 71 f4 1b c2 41 e4 1b c2 17 d4 1b c2
       -39.00454 -38.988712 -38.972904 -38.95712
000260 f1 c3 1b c2 ce b3 1b c2 ae a3 1b c2 90 93 1b c2
       -38.94135 -38.92559 -38.909843 -38.894104
000270 74 83 1b c2 58 73 1b c2 3c 63 1b c2 1f 53 1b c2
       -38.878372 -38.86264 -38.84691 -38.831173
000280 2e 20 1d c2 e3 0e 1d c2 af fd 1c c2 8f ec 1c c2
       -39.281425 -39.264538 -39.247738 -39.231014
000290 84 db 1c c2 8b ca 1c c2 a6 b9 1c c2 d2 a8 1c c2
       -39.21437 -39.197796 -39.181297 -39.164864
0002a0 0e 98 1c c2 5a 87 1c c2 b6 76 1c c2 1f 66 1c c2
       -39.14849 -39.13218 -39.11593 -39.099728
0002b0 96 55 1c c2 1a 45 1c c2 aa 34 1c c2 44 24 1c c2
       -39.08358 -39.067482 -39.05143 -39.035416
0002c0 e9 13 1c c2 97 03 1c c2 4e f3 1b c2 0d e3 1b c2
       -39.019444 -39.003506 -38.987602 -38.97173
0002d0 d3 d2 1b c2 a0 c2 1b c2 72 b2 1b c2 4a a2 1b c2
       -38.955883 -38.940063 -38.924263 -38.908485
0002e0 26 92 1b c2 05 82 1b c2 e7 71 1b c2 cc 61 1b c2
       -38.892723 -38.876972 -38.861233 -38.845505
0002f0 b2 51 1b c2 98 41 1b c2 7e 31 1b c2 64 21 1b c2
       -38.82978 -38.814056 -38.798332 -38.782608
000300 41 ee 1c c2 f7 dc 1c c2 c4 cb 1c c2 a6 ba 1c c2
       -39.23267 -39.215786 -39.19899 -39.182274
000310 9c a9 1c c2 a6 98 1c c2 c1 87 1c c2 ef 76 1c c2
       -39.165634 -39.14907 -39.132572 -39.116146
000320 2d 66 1c c2 7b 55 1c c2 d8 44 1c c2 43 34 1c c2
       -39.09978 -39.083477 -39.06723 -39.051037
000330 bc 23 1c c2 41 13 1c c2 d2 02 1c c2 6f f2 1b c2
       -39.034897 -39.018803 -39.002754 -38.98675
000340 15 e2 1b c2 c5 d1 1b c2 7e c1 1b c2 3f b1 1b c2
       -38.970783 -38.954853 -38.938957 -38.92309
000350 07 a1 1b c2 d6 90 1b c2 aa 80 1b c2 84 70 1b c2
       -38.907253 -38.89144 -38.87565 -38.85988
000360 62 60 1b c2 43 50 1b c2 28 40 1b c2 0e 30 1b c2
       -38.844124 -38.82838 -38.812653 -38.79693
000370 f6 1f 1b c2 df 0f 1b c2 c7 ff 1a c2 af ef 1a c2
       -38.78121 -38.7655 -38.749783 -38.734066
000380 52 bc 1c c2 0a ab 1c c2 d8 99 1c c2 bb 88 1c c2
       -39.183907 -39.16703 -39.150238 -39.133526
000390 b3 77 1c c2 be 66 1c c2 db 55 1c c2 0a 45 1c c2
       -39.116894 -39.100334 -39.083843 -39.06742
0003a0 4a 34 1c c2 99 23 1c c2 f8 12 1c c2 65 02 1c c2
       -39.051064 -39.034763 -39.018524 -39.00234
0003b0 df f1 1b c2 66 e1 1b c2 f9 d0 1b c2 97 c0 1b c2
       -38.986202 -38.970116 -38.954075 -38.938076
0003c0 40 b0 1b c2 f2 9f 1b c2 ac 8f 1b c2 6f 7f 1b c2
       -38.92212 -38.906197 -38.890305 -38.874447
0003d0 39 6f 1b c2 0a 5f 1b c2 e0 4e 1b c2 bc 3e 1b c2
       -38.858616 -38.84281 -38.827026 -38.811264
0003e0 9c 2e 1b c2 7f 1e 1b c2 66 0e 1b c2 4e fe 1a c2
       -38.795517 -38.77978 -38.76406 -38.748344
0003f0 38 ee 1a c2 23 de 1a c2 0e ce 1a c2 f7 bd 1a c2
       -38.732635 -38.71693 -38.701225 -38.685513

lon f4 [32, 32]
000000 f9 e0 3e 42 49 35 3f 42 6c 89 3f 42 68 dd 3f 42
       47.7197 47.802036 47.8842 47.966217
000010 3f 31 40 42 f6 84 40 42 92 d8 40 42 16 2c 41 42
       48.04809 48.129845 48.211494 48.293053
000020 87 7f 41 42 e9 d2 41 42 40 26 42 42 90 79 42 42
       48.37454 48.455967 48.537354 48.618713
000030 dd cc 42 42 2b 20 43 42 7e 73 43 42 db c6 43 42
       48.70006 48.781414 48.862785 48.944195
000040 45 1a 44 42 c0 6d 44 42 52 c1 44 42 fd 14 45 42
       49.025654 49.107178 49.18879 49.270496
000050 c6 68 45 42 b1 bc 45 42 c2 10 46 42 fe 64 46 42
       49.352318 49.43427 49.516365 49.598625
000060 69 b9 46 42 08 0e 47 42 dd 62 47 42 ef b7 47 42
       49.681065 49.763702 49.846546 49.929623
000070 41 0d 48 42 d8 62 48 42 b9 b8 48 42 e8 0e 49 42
       50.012943 50.096527 50.180393 50.264557
000080 3f d1 3e 42 80 25 3f 42 94 79 3f 42 80 cd 3f 42
       47.70434 47.78662 47.86873 47.950684
000090 48 21 40 42 f1 74 40 42 7e c8 40 42 f3 1b 41 42
       48.0325 48.1142 48.195793 48.277294
0000a0 55 6f 41 42 a8 c2 41 42 f0 15 42 42 31 69 42 42
       48.358723 48.440094 48.521423 48.602726
0000b0 70 bc 42 42 af 0f 43 42 f3 62 43 42 41 b6 43 42
       48.68402 48.765316 48.84663 48.927982
0000c0 9d 09 44 42 0a 5d 44 42 8c b0 44 42 29 04 45 42
       49.009388 49.09086 49.17241 49.254063
0000d0 e3 57 45 42 bf ab 45 42 c2 ff 45 42 f0 53 46 42
       49.335827 49.41772 49.499763 49.58197
0000e0 4c a8 46 42 db fc 46 42 a2 51 47 42 a5 a6 47 42
       49.664352 49.74693 49.82972 49.91274
0000f0 e8 fb 47 42 71 51 48 42 42 a7 48 42 62 fd 48 42
       49.996002 50.079533 50.163338 50.247444
000100 89 c1 3e 42 bb 15 3f 42 c0 69 3f 42 9d bd 3f 42
       47.689 47.77122 47.85327 47.93517
000110 56 11 40 42 f0 64 40 42 6e b8 40 42 d4 0b 41 42
       48.01693 48.09857 48.180107 48.26155
000120 28 5f 41 42 6c b2 41 42 a5 05 42 42 d8 58 42 42
       48.342926 48.42424 48.505512 48.58676
000130 07 ac 42 42 38 ff 42 42 6e 52 43 42 ad a5 43 42
       48.667995 48.749237 48.830498 48.911793
000140 fa f8 43 42 58 4c 44 42 cc 9f 44 42 59 f3 44 42
       48.99314 49.074554 49.15605 49.237644
000150 05 47 45 42 d3 9a 45 42 c7 ee 45 42 e6 42 46 42
       49.319355 49.401196 49.48318 49.56533
000160 33 97 46 42 b4 eb 46 42 6c 40 47 42 60 95 47 42
       49.647655 49.73018 49.812912 49.895874
000170 95 ea 47 42 0e 40 48 42 d1 95 48 42 e2 eb 48 42
       49.979084 50.062553 50.146305 50.230354
000180 d4 b1 3e 42 f7 05 3f 42 ed 59 3f 42 bb ad 3f 42
       47.67366 47.755825 47.83782 47.91966
000190 66 01 40 42 f0 54 40 42 60 a8 40 42 b7 fb 40 42
       48.001366 48.082947 48.16443 48.245815
0001a0 fc 4e 41 42 32 a2 41 42 5c f5 41 42 80 48 42 42
       48.327133 48.408394 48.48961 48.5708
0001b0 a1 9b 42 42 c3 ee 42 42 ea 41 43 42 1a 95 43 42
       48.65198 48.733166 48.81437 48.895607
0001c0 59 e8 43 42 a8 3b 44 42 0e 8f 44 42 8d e2 44 42
       48.976902 49.058258 49.1397 49.22124
0001d0 2a 36 45 42 e9 89 45 42 ce dd 45 42 de 31 46 42
       49.302895 49.384678 49.466606 49.5487
0001e0 1d 86 46 42 8f da 46 42 39 2f 47 42 1e 84 47 42
       49.63097 49.713436 49.796116 49.87902
0001f0 44 d9 47 42 af 2e 48 42 63 84 48 42 65 da 48 42
       49.962173 50.04559 50.129284 50.213276
000200 22 a2 3e 42 36 f6 3e 42 1d 4a 3f 42 dc 9d 3f 42
       47.658333 47.74044 47.822376 47.90416
000210 78 f1 3f 42 f4 44 40 42 54 98 40 42 9d eb 40 42
       47.98581 48.067337 48.148758 48.23009
000220 d3 3e 41 42 fa 91 41 42 16 e5 41 42 2b 38 42 42
       48.31135 48.392555 48.473717 48.55485
000230 3d 8b 42 42 50 de 42 42 69 31 43 42 8b 84 43 42
       48.635975 48.717102 48.798252 48.879436
000240 ba d7 43 42 fc 2a 44 42 52 7e 44 42 c3 d1 44 42
       48.96067 49.041977 49.12336 49.204845
000250 51 25 45 42 02 79 45 42 d9 cc 45 42 da 20 46 42
       49.28644 49.36817 49.450047 49.53208
000260 0a 75 46 42 6e c9 46 42 09 1e 47 42 df 72 47 42
       49.614296 49.69671 49.77933 49.86218
000270 f6 c7 47 42 52 1d 48 42 f8 72 48 42 eb c8 48 42
       49.945274 50.028633 50.112274 50.19621
000280 74 92 3e 42 79 e6 3e 42 51 3a 3f 42 01 8e 3f 42
       47.64302 47.72507 47.80695 47.888676
000290 8e e1 3f 42 fb 34 40 42 4d 88 40 42 87 db 40 42
       47.97027 48.05174 48.133106 48.214382
0002a0 ae 2e 41 42 c6 81 41 42 d3 d4 41 42 da 27 42 42
       48.295586 48.37673 48.457836 48.538918
0002b0 dd 7a 42 42 e2 cd 42 42 ec 20 43 42 00 74 43 42
       48.619984 48.701057 48.78215 48.86328
0002c0 20 c7 43 42 53 1a 44 42 9b 6d 44 42 fd c0 44 42
       48.944458 49.025707 49.107037 49.188465
0002d0 7d 14 45 42 1f 68 45 42 e7 bb 45 42 da 0f 46 42
       49.270008 49.35168 49.4335 49.51548
0002e0 fc 63 46 42 50 b8 46 42 dd 0c 47 42 a5 61 47 42
       49.59764 49.679993 49.76256 49.845356
0002f0 ad b6 47 42 fa 0b 48 42 91 61 48 42 75 b7 48 42
       49.928394 50.011696 50.09528 50.179157
000300 c4 82 3e 42 b9 d6 3e 42 83 2a 3f 42 24 7e 3f 42
       47.6277 47.70969 47.791515 47.873184
000310 a2 d1 3f 42 00 25 40 42 43 78 40 42 6f cb 40 42
       47.95472 48.036133 48.117443 48.198666
000320 87 1e 41 42 91 71 41 42 8f c4 41 42 87 17 42 42
       48.27981 48.360905 48.44195 48.522976
000330 7c 6a 42 42 72 bd 42 42 6e 10 43 42 73 63 43 42
       48.60399 48.685005 48.766045 48.84712
000340 85 b6 43 42 a9 09 44 42 e3 5c 44 42 36 b0 44 42
       48.92824 49.009434 49.09071 49.17208
000350 a7 03 45 42 3b 57 45 42 f4 aa 45 42 d9 fe 45 42
       49.253567 49.335186 49.416946 49.498875
000360 ec 52 46 42 32 a7 46 42 af fb 46 42 69 50 47 42
       49.58098 49.663277 49.745785 49.828526
000370 62 a5 47 42 a1 fa 47 42 28 50 48 42 fe a5 48 42
       49.911507 49.994755 50.078278 50.1621
000380 2b 73 3e 42 12 c7 3e 42 cc 1a 3f 42 5f 6e 3f 42
       47.61247 47.694405 47.77617 47.857784
000390 ce c1 3f 42 1d 15 40 42 51 68 40 42 6e bb 40 42
       47.939262 48.02062 48.10187 48.183037
0003a0 78 0e 41 42 73 61 41 42 63 b4 41 42 4c 07 42 42
       48.26413 48.345165 48.42616 48.507126
0003b0 33 5a 42 42 1a ad 42 42 07 00 43 42 fe 52 43 42
       48.588085 48.669044 48.750027 48.831047
0003c0 01 a6 43 42 17 f9 43 42 42 4c 44 42 87 9f 44 42
       48.912113 48.99325 49.07447 49.15579
0003d0 ea f2 44 42 6f 46 45 42 1a 9a 45 42 f0 ed 45 42
       49.23722 49.318783 49.40049 49.48236
0003e0 f4 41 46 42 2c 96 46 42 9b ea 46 42 45 3f 47 42
       49.564407 49.646652 49.729107 49.811787
0003f0 30 94 47 42 60 e9 47 42 d9 3e 48 42 a0 94 48 42
       49.894714 49.977905 50.061375 50.14514

qa f4 [32, 32]
000000 00 00 00 00 00 00 00 00 00 00 00 00 00 00 00 00
       0.0 0.0 0.0 0.0
000010 00 00 00 00 00 00 00 00 00 00 00 00 00 00 00 00
       0.0 0.0 0.0 0.0
000020 00 00 00 00 00 00 00 00 00 00 00 00 00 00 00 00
       0.0 0.0 0.0 0.0
000030 00 00 00 00 00 00 00 00 00 00 00 00 00 00 00 00
       0.0 0.0 0.0 0.0
000040 00 00 00 00 00 00 00 00 00 00 00 00 00 00 00 00
       0.0 0.0 0.0 0.0
000050 00 00 00 00 00 00 00 00 00 00 00 00 00 00 00 00
       0.0 0.0 0.0 0.0
000060 00 00 00 00 00 00 00 00 00 00 00 00 00 00 00 00
       0.0 0.0 0.0 0.0
000070 00 00 00 00 00 00 00 00 00 00 00 00 00 00 00 00
       0.0 0.0 0.0 0.0
000080 00 00 00 00 00 00 00 00 00 00 00 00 00 00 00 00
       0.0 0.0 0.0 0.0
000090 00 00 00 00 00 00 00 00 00 00 00 00 00 00 00 00
       0.0 0.0 0.0 0.0
0000a0 00 00 00 00 00 00 00 00 00 00 00 00 00 00 00 00
       0.0 0.0 0.0 0.0
0000b0 00 00 00 00 00 00 00 00 00 00 00 00 00 00 00 00
       0.0 0.0 0.0 0.0
0000c0 00 00 00 00 00 00 00 00 00 00 00 00 00 00 00 00
       0.0 0.0 0.0 0.0
0000d0 00 00 00 00 00 00 00 00 00 00 00 00 00 00 00 00
       0.0 0.0 0.0 0.0
0000e0 00 00 00 00 00 00 00 00 00 00 00 00 00 00 00 00
       0.0 0.0 0.0 0.0
0000f0 00 00 00 00 00 00 00 00 00 00 00 00 00 00 00 00
       0.0 0.0 0.0 0.0
000100 00 00 00 00 00 00 00 00 00 00 00 00 00 00 00 00
       0.0 0.0 0.0 0.0
000110 00 00 00 00 00 00 00 00 00 00 00 00 00 00 00 00
       0.0 0.0 0.0 0.0
000120 00 00 00 00 00 00 00 00 00 00 00 00 00 00 00 00
       0.0 0.0 0.0 0.0
000130 00 00 00 00 00 00 00 00 00 00 00 00 00 00 00 00
       0.0 0.0 0.0 0.0
000140 00 00 00 00 00 00 00 00 00 00 00 00 00 00 00 00
       0.0 0.0 0.0 0.0
000150 00 00 00 00 00 00 00 00 00 00 00 00 00 00 00 00
       0.0 0.0 0.0 0.0
000160 00 00 00 00 00 00 00 00 00 00 00 00 00 00 00 00
       0.0 0.0 0.0 0.0
000170 00 00 00 00 00 00 00 00 00 00 00 00 00 00 00 00
       0.0 0.0 0.0 0.0
000180 00 00 00 00 00 00 00 00 00 00 00 00 00 00 00 00
       0.0 0.0 0.0 0.0
000190 00 00 00 00 00 00 00 00 00 00 00 00 00 00 00 00
       0.0 0.0 0.0 0.0
0001a0 00 00 00 00 00 00 00 00 00 00 00 00 00 00 00 00
       0.0 0.0 0.0 0.0
0001b0 00 00 00 00 00 00 00 00 00 00 00 00 00 00 00 00
       0.0 0.0 0.0 0.0
0001c0 00 00 00 00 00 00 00 00 00 00 00 00 00 00 00 00
       0.0 0.0 0.0 0.0
0001d0 00 00 00 00 00 00 00 00 00 00 00 00 00 00 00 00
       0.0 0.0 0.0 0.0
0001e0 00 00 00 00 00 00 00 00 00 00 00 00 00 00 00 00
       0.0 0.0 0.0 0.0
0001f0 00 00 00 00 00 00 00 00 00 00 00 00 00 00 00 00
       0.0 0.0 0.0 0.0
000200 00 00 00 00 00 00 00 00 00 00 00 00 00 00 00 00
       0.0 0.0 0.0 0.0
000210 00 00 00 00 00 00 00 00 00 00 00 00 00 00 00 00
       0.0 0.0 0.0 0.0
000220 00 00 00 00 00 00 00 00 00 00 00 00 00 00 00 00
       0.0 0.0 0.0 0.0
000230 00 00 00 00 00 00 00 00 00 00 00 00 00 00 00 00
       0.0 0.0 0.0 0.0
000240 00 00 00 00 00 00 00 00 00 00 00 00 00 00 00 00
       0.0 0.0 0.0 0.0
000250 00 00 00 00 00 00 00 00 00 00 00 00 00 00 00 00
       0.0 0.0 0.0 0.0
000260 00 00 00 00 00 00 00 00 00 00 00 00 00 00 00 00
       0.0 0.0 0.0 0.0
000270 00 00 00 00 00 00 00 00 00 00 00 00 00 00 00 00
       0.0 0.0 0.0 0.0
000280 00 00 00 00 00 00 00 00 00 00 00 00 00 00 00 00
       0.0 0.0 0.0 0.0
000290 00 00 00 00 00 00 00 00 00 00 00 00 00 00 00 00
       0.0 0.0 0.0 0.0
0002a0 00 00 00 00 00 00 00 00 00 00 00 00 00 00 00 00
       0.0 0.0 0.0 0.0
0002b0 00 00 00 00 00 00 00 00 00 00 00 00 00 00 00 00
       0.0 0.0 0.0 0.0
0002c0 00 00 00 00 00 00 00 00 00 00 00 00 00 00 00 00
       0.0 0.0 0.0 0.0
0002d0 00 00 00 00 00 00 00 00 00 00 00 00 00 00 00 00
       0.0 0.0 0.0 0.0
0002e0 00 00 00 00 00 00 00 00 00 00 00 00 00 00 00 00
       0.0 0.0 0.0 0.0
0002f0 00 00 00 00 00 00 00 00 00 00 00 00 00 00 00 00
       0.0 0.0 0.0 0.0
000300 00 00 00 00 00 00 00 00 00 00 00 00 00 00 00 00
       0.0 0.0 0.0 0.0
000310 00 00 00 00 00 00 00 00 00 00 00 00 00 00 00 00
       0.0 0.0 0.0 0.0
000320 00 00 00 00 00 00 00 00 00 00 00 00 00 00 00 00
       0.0 0.0 0.0 0.0
000330 00 00 00 00 00 00 00 00 00 00 00 00 00 00 00 00
       0.0 0.0 0.0 0.0
000340 00 00 00 00 00 00 00 00 00 00 00 00 00 00 00 00
       0.0 0.0 0.0 0.0
000350 00 00 00 00 00 00 00 00 00 00 00 00 00 00 00 00
       0.0 0.0 0.0 0.0
000360 00 00 00 00 00 00 00 00 00 00 00 00 00 00 00 00
       0.0 0.0 0.0 0.0
000370 00 00 00 00 00 00 00 00 00 00 00 00 00 00 00 00
       0.0 0.0 0.0 0.0
000380 00 00 00 00 00 00 00 00 00 00 00 00 00 00 00 00
       0.0 0.0 0.0 0.0
000390 00 00 00 00 00 00 00 00 00 00 00 00 00 00 00 00
       0.0 0.0 0.0 0.0
0003a0 00 00 00 00 00 00 00 00 00 00 00 00 00 00 00 00
       0.0 0.0 0.0 0.0
0003b0 00 00 00 00 00 00 00 00 00 00 00 00 00 00 00 00
       0.0 0.0 0.0 0.0
0003c0 00 00 00 00 00 00 00 00 00 00 00 00 00 00 00 00
       0.0 0.0 0.0 0.0
0003d0 00 00 00 00 00 00 00 00 00 00 00 00 00 00 00 00
       0.0 0.0 0.0 0.0
0003e0 00 00 00 00 00 00 00 00 00 00 00 00 00 00 00 00
       0.0 0.0 0.0 0.0
0003f0 00 00 00 00 00 00 00 00 00 00 00 00 00 00 00 00
       0.0 0.0 0.0 0.0
