data/dataset/negative/55e99ece-adb9-40ba-b259-fde0f8546ab3.npz (npz, 28097 bytes, 5 tensors)

methane f8 [32, 32]
5.71295166015625 -0.7021484375 -1.23974609375 0.01123046875 -0.02935791015625 -3.72235107421875 -6.79547119140625 0.23480224609375
-1.97979736328125 -4.69268798828125 0.24407958984375 -3.920166015625 -1.313720703125 -5.85595703125 -0.3544921875 -0.8436279296875
0.57427978515625 2.72955322265625 4.43231201171875 0.686279296875 -2.17498779296875 5.4842529296875 1.42413330078125 1.4058837890625
-0.54876708984375 -0.42291259765625 -3.5257568359375 1.6051025390625 2.18487548828125 -2.00177001953125 2.08636474609375 1.43975830078125
3.537353515625 -6.1246337890625 -2.0272216796875 3.882080078125 0.84454345703125 -2.80316162109375 -5.56634521484375 1.83447265625
-1.15728759765625 -0.6094970703125 -2.42291259765625 -0.56488037109375 -4.2401123046875 -1.4093017578125 -1.69464111328125 6.7655029296875
1.82171630859375 -1.55792236328125 6.9776611328125 -1.7332763671875 0.487060546875 -1.528564453125 2.74102783203125 -4.70770263671875
6.2835693359375 -1.64715576171875 -1.2783203125 0.9376220703125 -0.31488037109375 -9.38702392578125 0.48968505859375 -2.41351318359375
4.91949462890625 -0.4503173828125 -2.2762451171875 -0.064453125 -1.20196533203125 -5.31243896484375 -5.74957275390625 -0.78594970703125
-4.60906982421875 0.80419921875 4.5091552734375 0.18865966796875 -5.3887939453125 -3.181884765625 0.903076171875 -2.086181640625
-0.78106689453125 3.123779296875 3.11407470703125 2.1153564453125 -4.873291015625 0.1842041015625 2.23175048828125 5.23785400390625
0.1324462890625 2.34222412109375 -2.494873046875 0.683837890625 -1.41033935546875 -3.60345458984375 -2.71685791015625 3.81915283203125
4.2564697265625 -0.0616455078125 2.6378173828125 -3.473876953125 -0.023193359375 -8.74761962890625 -9.3931884765625 -0.50592041015625
0.98223876953125 -7.6048583984375 0.01708984375 -2.4454345703125 -1.16680908203125 -5.87322998046875 5.36065673828125 2.1888427734375
3.780029296875 2.838623046875 4.01397705078125 -0.80810546875 0.809814453125 -1.49969482421875 -0.40081787109375 -1.07373046875
1.94110107421875 2.37847900390625 -0.5572509765625 -3.8414306640625 -2.92620849609375 1.79901123046875 1.2503662109375 2.765869140625
12.94384765625 1.3375244140625 3.0684814453125 1.630859375 -0.8038330078125 -7.8203125 -6.62811279296875 -5.98687744140625
-4.72625732421875 -5.40771484375 -3.243896484375 -3.63739013671875 -1.6990966796875 0.3272705078125 0.57421875 4.770751953125
-3.620361328125 1.29132080078125 3.50250244140625 4.053466796875 1.8194580078125 1.43609619140625 -2.697265625 -0.78509521484375
-6.2825927734375 -3.67364501953125 3.0465087890625 4.94647216796875 2.16644287109375 -4.73065185546875 1.939697265625 0.951171875
8.671142578125 5.0947265625 6.2020263671875 -5.7200927734375 -3.73974609375 -6.52996826171875 -5.928955078125 -6.19403076171875
-5.3038330078125 0.9991455078125 -2.785400390625 -0.5703125 0.93304443359375 -4.35748291015625 9.10284423828125 1.5167236328125
3.95556640625 1.58929443359375 7.58135986328125 2.49468994140625 -2.9423828125 6.37554931640625 4.76171875 0.3238525390625
-0.2838134765625 -0.45343017578125 -2.5352783203125 3.69525146484375 -2.12213134765625 -3.59063720703125 7.3638916015625 2.32666015625
13.1605224609375 5.74029541015625 2.259033203125 -5.849609375 -2.40325927734375 -8.916015625 -6.135009765625 -5.28662109375
-0.46490478515625 2.135986328125 -7.5745849609375 -0.05303955078125 -3.5538330078125 -0.74853515625 3.6793212890625 7.6314697265625
4.135986328125 1.06829833984375 3.03594970703125 0.27215576171875 -0.4879150390625 -1.255615234375 -3.5999755859375 -2.575439453125
-2.64031982421875 1.75665283203125 0.5760498046875 0.55804443359375 0.125 3.61700439453125 3.341064453125 1.6947021484375
11.619384765625 4.356689453125 3.334716796875 -2.2088623046875 -0.59332275390625 -7.52978515625 -8.3046875 -6.79058837890625
-1.19451904296875 -2.77685546875 -2.0302734375 0.137451171875 -0.98095703125 1.68682861328125 -0.4033203125 2.010009765625
2.262451171875 2.15234375 0.00885009765625 -3.57501220703125 2.30810546875 1.18798828125 2.5625 -0.080810546875
-1.886962890625 -0.24029541015625 -0.2508544921875 -3.26324462890625 0.498779296875 -2.34979248046875 -1.702392578125 0.25341796875
00000000: 0000 0000 10da 1640 0000 0000 0078 e6bf
00000010: 0000 0000 00d6 f3bf 0000 0000 0000 873f
00000020: 0000 0000 0010 9ebf 0000 0000 60c7 0dc0
00000030: 0000 0000 902e 1bc0 0000 0000 000e ce3f
00000040: 0000 0000 40ad ffbf 0000 0000 50c5 12c0
00000050: 0000 0000 003e cf3f 0000 0000 805c 0fc0
00000060: 0000 0000 0005 f5bf 0000 0000 806c 17c0
00000070: 0000 0000 00b0 d6bf 0000 0000 00ff eabf
00000080: 0000 0000 8060 e23f 0000 0000 20d6 0540
00000090: 0000 0000 b0ba 1140 0000 0000 00f6 e53f
000000a0: 0000 0000 6066 01c0 0000 0000 e0ef 1540
000000b0: 0000 0000 40c9 f63f 0000 0000 807e f63f
000000c0: 0000 0000 808f e1bf 0000 0000 0011 dbbf
000000d0: 0000 0000 c034 0cc0 0000 0000 80ae f93f
000000e0: 0000 0000 a07a 0140 0000 0000 a003 00c0
000000f0: 0000 0000 e0b0 0040 0000 0000 4009 f73f
00000100: 0000 0000 804c 0c40 0000 0000 a07f 18c0
00000110: 0000 0000 c037 00c0 0000 0000 800e 0f40
00000120: 0000 0000 8006 eb3f 0000 0000 e06c 06c0
00000130: 0000 0000 f043 16c0 0000 0000 005a fd3f
00000140: 0000 0000 4084 f2bf 0000 0000 0081 e3bf
00000150: 0000 0000 2062 03c0 0000 0000 8013 e2bf
00000160: 0000 0000 e0f5 10c0 0000 0000 808c f6bf
00000170: 0000 0000 401d fbbf 0000 0000 e00f 1b40
00000180: 0000 0000 c025 fd3f 0000 0000 40ed f8bf
00000190: 0000 0000 20e9 1b40 0000 0000 80bb fbbf
000001a0: 0000 0000 002c df3f 0000 0000 0075 f8bf
000001b0: 0000 0000 a0ed 0540 0000 0000 b0d4 12c0
000001c0: 0000 0000 6022 1940 0000 0000 c05a fabf
000001d0: 0000 0000 0074 f4bf 0000 0000 0001 ee3f
000001e0: 0000 0000 0027 d4bf 0000 0000 28c6 22c0
000001f0: 0000 0000 0057 df3f 0000 0000 e04e 03c0
00000200: 0000 0000 90ad 1340 0000 0000 00d2 dcbf
00000210: 0000 0000 c035 02c0 0000 0000 0080 b0bf
00000220: 0000 0000 403b f3bf 0000 0000 f03f 15c0
00000230: 0000 0000 90ff 16c0 0000 0000 8026 e9bf
00000240: 0000 0000 b06f 12c0 0000 0000 00bc e93f
00000250: 0000 0000 6009 1240 0000 0000 0026 c83f
00000260: 0000 0000 208e 15c0 0000 0000 8074 09c0
00000270: 0000 0000 00e6 ec3f 0000 0000 80b0 00c0
00000280: 0000 0000 80fe e8bf 0000 0000 80fd 0840
00000290: 0000 0000 a0e9 0840 0000 0000 40ec 0040
000002a0: 0000 0000 407e 13c0 0000 0000 0094 c73f
000002b0: 0000 0000 a0da 0140 0000 0000 90f3 1440
000002c0: 0000 0000 00f4 c03f 0000 0000 e0bc 0240
000002d0: 0000 0000 80f5 03c0 0000 0000 00e2 e53f
000002e0: 0000 0000 c090 f6bf 0000 0000 e0d3 0cc0
000002f0: 0000 0000 20bc 05c0 0000 0000 a08d 0e40
00000300: 0000 0000 a006 1140 0000 0000 0090 afbf
00000310: 0000 0000 401a 0540 0000 0000 80ca 0bc0
00000320: 0000 0000 00c0 97bf 0000 0000 c87e 21c0
00000330: 0000 0000 50c9 22c0 0000 0000 8030 e0bf
00000340: 0000 0000 806e ef3f 0000 0000 606b 1ec0
00000350: 0000 0000 0080 913f 0000 0000 4090 03c0
00000360: 0000 0000 40ab f2bf 0000 0000 307e 17c0
00000370: 0000 0000 5071 1540 0000 0000 c082 0140
00000380: 0000 0000 803d 0e40 0000 0000 80b5 0640
00000390: 0000 0000 500e 1040 0000 0000 00dc e9bf
000003a0: 0000 0000 00ea e93f 0000 0000 c0fe f7bf
000003b0: 0000 0000 00a7 d9bf 0000 0000 002e f1bf
000003c0: 0000 0000 c00e ff3f 0000 0000 2007 0340
000003d0: 0000 0000 00d5 e1bf 0000 0000 40bb 0ec0
000003e0: 0000 0000 e068 07c0 0000 0000 c0c8 fc3f
000003f0: 0000 0000 8001 f43f 0000 0000 8020 0640
00000400: 0000 0000 40e3 2940 0000 0000 8066 f53f
00000410: 0000 0000 408c 0840 0000 0000 0018 fa3f
00000420: 0000 0000 00b9 e9bf 0000 0000 0048 1fc0
00000430: 0000 0000 3083 1ac0 0000 0000 90f2 17c0
00000440: 0000 0000 b0e7 12c0 0000 0000 80a1 15c0
00000450: 0000 0000 80f3 09c0 0000 0000 6019 0dc0
00000460: 0000 0000 802f fbbf 0000 0000 00f2 d43f
00000470: 0000 0000 0060 e23f 0000 0000 4015 1340
00000480: 0000 0000 80f6 0cc0 0000 0000 40a9 f43f
00000490: 0000 0000 2005 0c40 0000 0000 c036 1040
000004a0: 0000 0000 801c fd3f 0000 0000 40fa f63f
000004b0: 0000 0000 0094 05c0 0000 0000 801f e9bf
000004c0: 0000 0000 6021 19c0 0000 0000 a063 0dc0
000004d0: 0000 0000 405f 0840 0000 0000 30c9 1340
000004e0: 0000 0000 e054 0140 0000 0000 30ec 12c0
000004f0: 0000 0000 0009 ff3f 0000 0000 0070 ee3f
00000500: 0000 0000 a057 2140 0000 0000 0061 1440
00000510: 0000 0000 e0ce 1840 0000 0000 60e1 16c0
00000520: 0000 0000 00eb 0dc0 0000 0000 b01e 1ac0
00000530: 0000 0000 40b7 17c0 0000 0000 b0c6 18c0
00000540: 0000 0000 2037 15c0 0000 0000 00f9 ef3f
00000550: 0000 0000 8048 06c0 0000 0000 0040 e2bf
00000560: 0000 0000 80db ed3f 0000 0000 106e 11c0
00000570: 0000 0000 a834 2240 0000 0000 8044 f83f
00000580: 0000 0000 00a5 0f40 0000 0000 c06d f93f
00000590: 0000 0000 5053 1e40 0000 0000 20f5 0340
000005a0: 0000 0000 008a 07c0 0000 0000 9080 1940
000005b0: 0000 0000 000c 1340 0000 0000 00ba d43f
000005c0: 0000 0000 002a d2bf 0000 0000 0005 ddbf
000005d0: 0000 0000 4048 04c0 0000 0000 e08f 0d40
000005e0: 0000 0000 20fa 00c0 0000 0000 a0b9 0cc0
000005f0: 0000 0000 a074 1d40 0000 0000 009d 0240
00000600: 0000 0000 3052 2a40 0000 0000 10f6 1640
00000610: 0000 0000 8012 0240 0000 0000 0066 17c0
00000620: 0000 0000 e039 03c0 0000 0000 00d5 21c0
00000630: 0000 0000 408a 18c0 0000 0000 8025 15c0
00000640: 0000 0000 00c1 ddbf 0000 0000 8016 0140
00000650: 0000 0000 604c 1ec0 0000 0000 0028 abbf
00000660: 0000 0000 406e 0cc0 0000 0000 00f4 e7bf
00000670: 0000 0000 406f 0d40 0000 0000 a086 1e40
00000680: 0000 0000 408b 1040 0000 0000 c017 f13f
00000690: 0000 0000 a049 0840 0000 0000 006b d13f
000006a0: 0000 0000 003a dfbf 0000 0000 0017 f4bf
000006b0: 0000 0000 c0cc 0cc0 0000 0000 809a 04c0
000006c0: 0000 0000 601f 05c0 0000 0000 401b fc3f
000006d0: 0000 0000 006f e23f 0000 0000 80db e13f
000006e0: 0000 0000 0000 c03f 0000 0000 a0ef 0c40
000006f0: 0000 0000 80ba 0a40 0000 0000 801d fb3f
00000700: 0000 0000 203d 2740 0000 0000 406d 1140
00000710: 0000 0000 80ad 0a40 0000 0000 c0ab 01c0
00000720: 0000 0000 80fc e2bf 0000 0000 801e 1ec0
00000730: 0000 0000 009c 20c0 0000 0000 9029 1bc0
00000740: 0000 0000 c01c f3bf 0000 0000 0037 06c0
00000750: 0000 0000 003e 00c0 0000 0000 0098 c13f
00000760: 0000 0000 0064 efbf 0000 0000 40fd fa3f
00000770: 0000 0000 00d0 d9bf 0000 0000 8014 0040
00000780: 0000 0000 8019 0240 0000 0000 0038 0140
00000790: 0000 0000 0020 823f 0000 0000 a099 0cc0
000007a0: 0000 0000 0077 0240 0000 0000 0002 f33f
000007b0: 0000 0000 0080 0440 0000 0000 00b0 b4bf
000007c0: 0000 0000 0031 febf 0000 0000 00c2 cebf
000007d0: 0000 0000 000e d0bf 0000 0000 201b 0ac0
000007e0: 0000 0000 00ec df3f 0000 0000 60cc 02c0
000007f0: 0000 0000 003d fbbf 0000 0000 0038 d03f

lat f4 [32, 32]
-82.02542 -81.98728 -81.94674 -81.90409 -81.8596 -81.813484 -81.76598 -81.71726
-81.6675 -81.616844 -81.56542 -81.51335 -81.46075 -81.40769 -81.35427 -81.30057
-81.24664 -81.19256 -81.13836 -81.08411 -81.02982 -80.975555 -80.92133 -80.86718
-80.81313 -80.7592 -80.705414 -80.65178 -80.59831 -80.54503 -80.491936 -80.43903
-81.977234 -81.93911 -81.8986 -81.855995 -81.81157 -81.76555 -81.71815 -81.66954
-81.619896 -81.56937 -81.51808 -81.466156 -81.4137 -81.360794 -81.30754 -81.254
-81.20024 -81.14632 -81.09229 -81.0382 -80.98409 -80.93 -80.875946 -80.821976
-80.7681 -80.71435 -80.66073 -80.60727 -80.55397 -80.50086 -80.44794 -80.39521
-81.92905 -81.89093 -81.85045 -81.8079 -81.76354 -81.717606 -81.670296 -81.621796
-81.57227 -81.52187 -81.47072 -81.41894 -81.36662 -81.31388 -81.26078 -81.2074
-81.1538 -81.100044 -81.04619 -80.99226 -80.93833 -80.88441 -80.83053 -80.776726
-80.72302 -80.66944 -80.616 -80.562706 -80.50958 -80.45664 -80.40389 -80.35133
-81.880844 -81.84274 -81.80229 -81.759796 -81.7155 -81.66965 -81.62243 -81.574036
-81.52463 -81.47435 -81.42333 -81.37169 -81.31953 -81.26693 -81.21398 -81.16076
-81.10732 -81.053734 -81.00004 -80.94629 -80.89252 -80.83876 -80.78506 -80.73143
-80.677895 -80.62448 -80.57121 -80.51809 -80.46514 -80.41237 -80.35978 -80.307396
-81.83265 -81.79455 -81.754135 -81.711685 -81.66746 -81.62168 -81.574554 -81.52627
-81.476974 -81.42683 -81.37594 -81.32443 -81.27241 -81.21996 -81.16717 -81.1141
-81.06083 -81.0074 -80.953865 -80.90028 -80.84668 -80.79309 -80.739555 -80.68609
-80.63273 -80.57948 -80.52638 -80.47343 -80.42065 -80.36804 -80.31563 -80.263405
-81.78438 -81.746284 -81.705894 -81.6635 -81.61933 -81.57364 -81.5266 -81.478424
-81.429245 -81.37921 -81.32845 -81.277084 -81.225204 -81.172905 -81.12026 -81.06735
-81.01424 -80.96097 -80.9076 -80.85418 -80.80074 -80.74732 -80.693954 -80.640656
-80.58746 -80.534386 -80.48145 -80.42867 -80.37605 -80.323616 -80.27136 -80.219315
-81.73625 -81.698166 -81.65781 -81.615456 -81.57136 -81.52574 -81.4788 -81.43072
-81.38165 -81.33174 -81.28111 -81.22988 -81.17814 -81.125984 -81.073494 -81.02074
-80.96777 -80.914665 -80.86146 -80.8082 -80.75493 -80.70167 -80.64847 -80.59534
-80.542305 -80.489395 -80.43663 -80.38401 -80.33156 -80.27929 -80.2272 -80.17531
-81.68809 -81.65002 -81.60968 -81.567375 -81.52334 -81.477806 -81.430954 -81.38297
-81.33402 -81.284225 -81.23373 -81.182625 -81.13103 -81.07902 -81.02667 -80.97407
-80.92126 -80.86831 -80.81526 -80.76216 -80.70905 -80.65596 -80.60291 -80.54995
-80.497086 -80.44434 -80.39174 -80.33929 -80.286995 -80.234886 -80.18297 -80.13123
00000000: 040d a4c2 7df9 a3c2 bbe4 a3c2 e5ce a3c2
00000010: 1db8 a3c2 81a0 a3c2 2f88 a3c2 3d6f a3c2
00000020: c355 a3c2 d33b a3c2 7f21 a3c2 d606 a3c2
00000030: e7eb a2c2 bdd0 a2c2 63b5 a2c2 e499 a2c2
00000040: 487e a2c2 9762 a2c2 d746 a2c2 102b a2c2
00000050: 450f a2c2 7cf3 a1c2 b9d7 a1c2 ffbb a1c2
00000060: 53a0 a1c2 b684 a1c2 2c69 a1c2 b64d a1c2
00000070: 5632 a1c2 0e17 a1c2 dffb a0c2 c9e0 a0c2
00000080: 58f4 a3c2 d3e0 a3c2 15cc a3c2 45b6 a3c2
00000090: 869f a3c2 f687 a3c2 b16f a3c2 ce56 a3c2
000000a0: 633d a3c2 8423 a3c2 4209 a3c2 acee a2c2
000000b0: d0d3 a2c2 bab8 a2c2 769d a2c2 0c82 a2c2
000000c0: 8666 a2c2 ea4a a2c2 412f a2c2 8f13 a2c2
000000d0: dbf7 a1c2 29dc a1c2 7cc0 a1c2 daa4 a1c2
000000e0: 4489 a1c2 bf6d a1c2 4b52 a1c2 ec36 a1c2
000000f0: a21b a1c2 7100 a1c2 58e5 a0c2 59ca a0c2
00000100: acdb a3c2 28c8 a3c2 6eb3 a3c2 a59d a3c2
00000110: ef86 a3c2 6a6f a3c2 3157 a3c2 5c3e a3c2
00000120: 0125 a3c2 330b a3c2 02f1 a2c2 7fd6 a2c2
00000130: b6bb a2c2 b5a0 a2c2 8585 a2c2 306a a2c2
00000140: bf4e a2c2 3933 a2c2 a617 a2c2 0afc a1c2
00000150: 6de0 a1c2 d1c4 a1c2 3ba9 a1c2 af8d a1c2
00000160: 3072 a1c2 c156 a1c2 643b a1c2 1b20 a1c2
00000170: e804 a1c2 cde9 a0c2 cbce a0c2 e2b3 a0c2
00000180: fec2 a3c2 7caf a3c2 c69a a3c2 0485 a3c2
00000190: 566e a3c2 dc56 a3c2 af3e a3c2 e825 a3c2
000001a0: 9c0c a3c2 def2 a2c2 bfd8 a2c2 4ebe a2c2
000001b0: 99a3 a2c2 ab88 a2c2 8f6d a2c2 4f52 a2c2
000001c0: f336 a2c2 831b a2c2 0500 a2c2 80e4 a1c2
000001d0: f8c8 a1c2 72ad a1c2 f391 a1c2 7e76 a1c2
000001e0: 155b a1c2 bc3f a1c2 7624 a1c2 4309 a1c2
000001f0: 27ee a0c2 22d3 a0c2 35b8 a0c2 639d a0c2
00000200: 51aa a3c2 cf96 a3c2 1e82 a3c2 626c a3c2
00000210: bd55 a3c2 4d3e a3c2 2c26 a3c2 730d a3c2
00000220: 36f4 a2c2 89da a2c2 7bc0 a2c2 1ca6 a2c2
00000230: 798b a2c2 9f70 a2c2 9755 a2c2 6b3a a2c2
00000240: 251f a2c2 ca03 a2c2 61e8 a1c2 f2cc a1c2
00000250: 80b1 a1c2 1096 a1c2 a77a a1c2 475f a1c2
00000260: f543 a1c2 b228 a1c2 820d a1c2 65f2 a0c2
00000270: 5fd7 a0c2 70bc a0c2 9aa1 a0c2 dd86 a0c2
00000280: 9a91 a3c2 197e a3c2 6b69 a3c2 b653 a3c2
00000290: 193d a3c2 b425 a3c2 9f0d a3c2 f4f4 a2c2
000002a0: c6db a2c2 28c2 a2c2 2ba8 a2c2 de8d a2c2
000002b0: 4e73 a2c2 8758 a2c2 933d a2c2 7c22 a2c2
000002c0: 4a07 a2c2 04ec a1c2 b1d0 a1c2 57b5 a1c2
000002d0: fb99 a1c2 a17e a1c2 4e63 a1c2 0448 a1c2
000002e0: c82c a1c2 9b11 a1c2 81f6 a0c2 7bdb a0c2
000002f0: 8ac0 a0c2 b1a5 a0c2 f08a a0c2 4a70 a0c2
00000300: f678 a3c2 7665 a3c2 cc50 a3c2 1d3b a3c2
00000310: 8924 a3c2 2e0d a3c2 25f5 a2c2 87dc a2c2
00000320: 68c3 a2c2 daa9 a2c2 ee8f a2c2 b375 a2c2
00000330: 355b a2c2 8140 a2c2 a125 a2c2 9e0a a2c2
00000340: 80ef a1c2 4fd4 a1c2 11b9 a1c2 cc9d a1c2
00000350: 8682 a1c2 4167 a1c2 044c a1c2 d030 a1c2
00000360: a915 a1c2 92fa a0c2 8edf a0c2 9dc4 a0c2
00000370: c2a9 a0c2 ff8e a0c2 5474 a0c2 c259 a0c2
00000380: 4d60 a3c2 cf4c a3c2 2838 a3c2 7f22 a3c2
00000390: f30b a3c2 a3f4 a2c2 a6dc a2c2 15c4 a2c2
000003a0: 05ab a2c2 8691 a2c2 ab77 a2c2 815d a2c2
000003b0: 1643 a2c2 7528 a2c2 a80d a2c2 b9f2 a1c2
000003c0: afd7 a1c2 93bc a1c2 6aa1 a1c2 3a86 a1c2
000003d0: 096b a1c2 da4f a1c2 b134 a1c2 9319 a1c2
000003e0: 82fe a0c2 81e3 a0c2 92c8 a0c2 b7ad a0c2
000003f0: f192 a0c2 4378 a0c2 ae5d a0c2 3143 a0c2

lon f4 [32, 32]
95.70618 96.98382 98.21253 99.394646 100.5324 101.62795 102.683365 103.70061
104.681564 105.62803 106.5417 107.4242 108.27706 109.10174 109.899605 110.67196
111.420044 112.14501 112.84797 113.52996 114.19197 114.83492 115.45971 116.067154
116.65804 117.23312 117.793106 118.33865 118.8704 119.38895 119.89485 120.388664
95.69238 96.962425 98.18392 99.35918 100.49042 101.57978 102.629326 103.64101
104.6167 105.55817 106.46711 107.34513 108.19375 109.0144 109.80846 110.5772
111.32186 112.04359 112.74347 113.42254 114.08178 114.72211 115.34439 115.94947
116.53811 117.11105 117.66901 118.21262 118.74253 119.25933 119.76357 120.255806
95.678856 96.9414 98.155754 99.32421 100.449005 101.53225 102.57599 103.58216
104.55263 105.48915 106.39341 107.26698 108.11139 108.928055 109.71832 110.48348
111.22475 111.943245 112.64007 113.31624 113.972725 114.61044 115.23025 115.83296
116.419365 116.99018 117.546104 118.08779 118.61587 119.13092 119.63351 120.12416
95.66568 96.92079 98.128075 99.28981 100.40822 101.4854 102.523384 103.5241
104.489395 105.42101 106.32062 107.18979 108.030014 108.84272 109.629234 110.39083
111.128716 111.84401 112.537796 113.21108 113.86482 114.49994 115.11727 115.717636
116.3018 116.8705 117.4244 117.96417 118.49042 119.00373 119.504654 119.99372
95.65264 96.900406 98.10069 99.25578 100.367874 101.43906 102.47135 103.46667
104.42684 105.3536 106.2486 107.1134 107.949486 108.75826 109.54105 110.29912
111.033646 111.74576 112.43652 113.10694 113.757965 114.39049 115.00536 115.60339
116.18533 116.751915 117.30381 117.84166 118.36609 118.87766 119.37694 119.864426
95.63992 96.8804 98.07376 99.22227 100.32809 101.393326 102.41997 103.40993
104.36501 105.28696 106.177376 107.03784 107.86981 108.67468 109.45377 110.20833
110.93952 111.64847 112.33623 113.00379 113.6521 114.28204 114.89447 115.49017
116.0699 116.63437 117.18426 117.7202 118.242805 118.75264 119.25026 119.73618
95.62622 96.85957 98.046135 99.18817 100.28786 101.34725 102.36836 103.35306
104.303154 105.22036 106.10629 106.962494 107.79042 108.59145 109.3669 110.118
110.84591 111.55174 112.23654 112.90129 113.54693 114.17433 114.78434 115.37775
115.955284 116.51768 117.065575 117.59963 118.12044 118.62856 119.12455 119.60891
95.61275 96.83903 98.01887 99.1545 100.2481 101.30172 102.31734 103.29682
104.241974 105.15448 106.03596 106.88793 107.711845 108.50907 109.2809 110.028564
110.75321 111.455956 112.13781 112.79977 113.44274 114.06762 114.675224 115.266335
115.8417 116.402016 116.947945 117.48012 117.99913 118.50555 118.9999 119.482704
00000000: 9069 bf42 b7f7 c142 d16c c442 0fca c642
00000010: 9710 c942 8341 cb42 e25d cd42 b666 cf42
00000020: f65c d142 8d41 d342 5a15 d542 31d9 d642
00000030: db8d d842 1734 da42 99cc db42 0b58 dd42
00000040: 10d7 de42 3f4a e042 29b2 e142 570f e342
00000050: 4a62 e442 7bab e542 5feb e642 6222 e842
00000060: eb50 e942 5c77 ea42 1296 eb42 64ad ec42
00000070: a5bd ed42 24c7 ee42 2aca ef42 ffc6 f042
00000080: 8062 bf42 c3ec c142 2b5e c442 e6b7 c642
00000090: 18fb c842 d928 cb42 3742 cd42 3248 cf42
000000a0: c03b d142 c81d d342 29ef d442 b5b0 d642
000000b0: 3363 d842 5f07 da42 ee9d db42 8727 dd42
000000c0: cba4 de42 5116 e042 a87c e142 57d8 e242
000000d0: df29 e442 b871 e542 54b0 e642 21e6 e742
000000e0: 8313 e942 dc38 ea42 8856 eb42 dd6c ec42
000000f0: 2d7c ed42 c784 ee42 f386 ef42 f982 f042
00000100: 935b bf42 ffe1 c142 bf4f c442 ffa5 c642
00000110: e4e5 c842 8310 cb42 e826 cd42 112a cf42
00000120: f21a d142 72fa d242 6dc9 d442 b288 d642
00000130: 0839 d842 2adb d942 c86f db42 8bf7 dc42
00000140: 1273 de42 f1e2 df42 b747 e142 eaa1 e242
00000150: 09f2 e342 8c38 e542 e375 e642 7aaa e742
00000160: b7d6 e842 f9fa e942 9b17 eb42 f32c ec42
00000170: 533b ed42 0843 ee42 5b44 ef42 923f f042
00000180: d454 bf42 72d7 c142 9341 c442 6294 c642
00000190: 02d1 c842 86f8 ca42 f90b cd42 570c cf42
000001a0: 92fa d042 8fd7 d242 28a4 d442 2c61 d642
000001b0: 5e0f d842 79af d942 2b42 db42 1bc8 dc42
000001c0: e741 de42 22b0 df42 5a13 e142 136c e242
000001d0: caba e342 f8ff e442 0b3c e642 6e6f e742
000001e0: 869a e842 b2bd e942 4bd9 ea42 a8ed eb42
000001f0: 18fb ec42 e901 ee42 6202 ef42 c9fc ef42
00000200: 274e bf42 02cd c142 8e33 c442 f682 c642
00000210: 5abc c842 cce0 ca42 55f1 cc42 efee ce42
00000220: 8bda d042 0bb5 d242 487f d442 103a d642
00000230: 23e6 d742 3b84 d942 0515 db42 2699 dc42
00000240: 3a11 de42 d47d df42 80df e042 c136 e242
00000250: 1484 e342 eec7 e442 bf02 e642 f034 e742
00000260: e45e e842 fb80 e942 8d9b ea42 eeae eb42
00000270: 70bb ec42 5dc1 ed42 fec0 ee42 96ba ef42
00000280: a447 bf42 c4c2 c142 c425 c442 cd71 c642
00000290: fba7 c842 62c9 ca42 06d7 cc42 e2d1 ce42
000002a0: e3ba d042 ec92 d242 d15a d442 6013 d642
000002b0: 58bd d742 7059 d942 55e8 da42 aa6a dc42
000002c0: 09e1 dd42 044c df42 26ac e042 f101 e242
000002d0: e04d e342 6890 e442 f8c9 e542 f8fa e642
000002e0: ca23 e842 cc44 e942 575e ea42 be70 eb42
000002f0: 517c ec42 5a81 ed42 2280 ee42 ed78 ef42
00000300: a040 bf42 1ab8 c142 9f17 c442 5860 c642
00000310: 6293 c842 cbb1 ca42 9abc cc42 c4b4 ce42
00000320: 379b d042 d370 d242 6c36 d442 ccec d542
00000330: b294 d742 d32e d942 dabb da42 6a3c dc42
00000340: 1bb1 dd42 7e1a df42 1c79 e042 76cd e142
00000350: 0718 e342 4259 e442 9591 e542 68c1 e642
00000360: 1be9 e742 0d09 e942 9321 ea42 0333 eb42
00000370: aa3d ec42 d341 ed42 c53f ee42 c337 ef42
00000380: ba39 bf42 95ad c142 a909 c442 1b4f c642
00000390: 077f c842 7b9a ca42 7aa2 cc42 f997 ce42
000003a0: e47b d042 184f d242 6912 d442 9fc6 d542
000003b0: 776c d742 a504 d942 d28f da42 a00e dc42
000003c0: a581 dd42 73e9 de42 8f46 e042 7b99 e142
000003d0: afe2 e242 9f22 e442 b759 e542 5d88 e642
000003e0: f3ae e742 d5cd e842 59e5 e942 d2f5 ea42
000003f0: 8eff eb42 d702 ed42 f3ff ed42 25f7 ee42

qa f4 [32, 32]
1.0 1.0 1.0 1.0 1.0 1.0 1.0 1.0
1.0 1.0 1.0 1.0 1.0 1.0 1.0 1.0
1.0 1.0 1.0 1.0 1.0 1.0 1.0 1.0
1.0 1.0 1.0 1.0 1.0 1.0 1.0 1.0
1.0 1.0 1.0 1.0 1.0 1.0 1.0 1.0
1.0 1.0 1.0 1.0 1.0 1.0 1.0 1.0
1.0 1.0 1.0 1.0 1.0 1.0 1.0 1.0
1.0 1.0 1.0 1.0 1.0 1.0 1.0 1.0
1.0 1.0 1.0 1.0 1.0 1.0 1.0 1.0
1.0 1.0 1.0 1.0 1.0 1.0 1.0 1.0
1.0 1.0 1.0 1.0 1.0 1.0 1.0 1.0
1.0 1.0 1.0 1.0 1.0 1.0 1.0 1.0
1.0 1.0 1.0 1.0 1.0 1.0 1.0 1.0
1.0 1.0 1.0 1.0 1.0 1.0 1.0 1.0
1.0 1.0 1.0 1.0 1.0 1.0 1.0 1.0
1.0 1.0 1.0 1.0 1.0 1.0 1.0 1.0
1.0 1.0 1.0 1.0 1.0 1.0 1.0 1.0
1.0 1.0 1.0 1.0 1.0 1.0 1.0 1.0
1.0 1.0 1.0 1.0 1.0 1.0 1.0 1.0
1.0 1.0 1.0 1.0 1.0 1.0 1.0 1.0
1.0 1.0 1.0 1.0 1.0 1.0 1.0 1.0
1.0 1.0 1.0 1.0 1.0 1.0 1.0 1.0
1.0 1.0 1.0 1.0 1.0 1.0 1.0 1.0
1.0 1.0 1.0 1.0 1.0 1.0 1.0 1.0
1.0 1.0 1.0 1.0 1.0 1.0 1.0 1.0
1.0 1.0 1.0 1.0 1.0 1.0 1.0 1.0
1.0 1.0 1.0 1.0 1.0 1.0 1.0 1.0
1.0 1.0 1.0 1.0 1.0 1.0 1.0 1.0
1.0 1.0 1.0 1.0 1.0 1.0 1.0 1.0
1.0 1.0 1.0 1.0 1.0 1.0 1.0 1.0
1.0 1.0 1.0 1.0 1.0 1.0 1.0 1.0
1.0 1.0 1.0 1.0 1.0 1.0 1.0 1.0
00000000: 0000 803f 0000 803f 0000 803f 0000 803f
00000010: 0000 803f 0000 803f 0000 803f 0000 803f
00000020: 0000 803f 0000 803f 0000 803f 0000 803f
00000030: 0000 803f 0000 803f 0000 803f 0000 803f
00000040: 0000 803f 0000 803f 0000 803f 0000 803f
00000050: 0000 803f 0000 803f 0000 803f 0000 803f
00000060: 0000 803f 0000 803f 0000 803f 0000 803f
00000070: 0000 803f 0000 803f 0000 803f 0000 803f
00000080: 0000 803f 0000 803f 0000 803f 0000 803f
00000090: 0000 803f 0000 803f 0000 803f 0000 803f
000000a0: 0000 803f 0000 803f 0000 803f 0000 803f
000000b0: 0000 803f 0000 803f 0000 803f 0000 803f
000000c0: 0000 803f 0000 803f 0000 803f 0000 803f
000000d0: 0000 803f 0000 803f 0000 803f 0000 803f
000000e0: 0000 803f 0000 803f 0000 803f 0000 803f
000000f0: 0000 803f 0000 803f 0000 803f 0000 803f
00000100: 0000 803f 0000 803f 0000 803f 0000 803f
00000110: 0000 803f 0000 803f 0000 803f 0000 803f
00000120: 0000 803f 0000 803f 0000 803f 0000 803f
00000130: 0000 803f 0000 803f 0000 803f 0000 803f
00000140: 0000 803f 0000 803f 0000 803f 0000 803f
00000150: 0000 803f 0000 803f 0000 803f 0000 803f
00000160: 0000 803f 0000 803f 0000 803f 0000 803f
00000170: 0000 803f 0000 803f 0000 803f 0000 803f
00000180: 0000 803f 0000 803f 0000 803f 0000 803f
00000190: 0000 803f 0000 803f 0000 803f 0000 803f
000001a0: 0000 803f 0000 803f 0000 803f 0000 803f
000001b0: 0000 803f 0000 803f 0000 803f 0000 803f
000001c0: 0000 803f 0000 803f 0000 803f 0000 803f
000001d0: 0000 803f 0000 803f 0000 803f 0000 803f
000001e0: 0000 803f 0000 803f 0000 803f 0000 803f
000001f0: 0000 803f 0000 803f 0000 803f 0000 803f
00000200: 0000 803f 0000 803f 0000 803f 0000 803f
00000210: 0000 803f 0000 803f 0000 803f 0000 803f
00000220: 0000 803f 0000 803f 0000 803f 0000 803f
00000230: 0000 803f 0000 803f 0000 803f 0000 803f
00000240: 0000 803f 0000 803f 0000 803f 0000 803f
00000250: 0000 803f 0000 803f 0000 803f 0000 803f
00000260: 0000 803f 0000 803f 0000 803f 0000 803f
00000270: 0000 803f 0000 803f 0000 803f 0000 803f
00000280: 0000 803f 0000 803f 0000 803f 0000 803f
00000290: 0000 803f 0000 803f 0000 803f 0000 803f
000002a0: 0000 803f 0000 803f 0000 803f 0000 803f
000002b0: 0000 803f 0000 803f 0000 803f 0000 803f
000002c0: 0000 803f 0000 803f 0000 803f 0000 803f
000002d0: 0000 803f 0000 803f 0000 803f 0000 803f
000002e0: 0000 803f 0000 803f 0000 803f 0000 803f
000002f0: 0000 803f 0000 803f 0000 803f 0000 803f
00000300: 0000 803f 0000 803f 0000 803f 0000 803f
00000310: 0000 803f 0000 803f 0000 803f 0000 803f
00000320: 0000 803f 0000 803f 0000 803f 0000 803f
00000330: 0000 803f 0000 803f 0000 803f 0000 803f
00000340: 0000 803f 0000 803f 0000 803f 0000 803f
00000350: 0000 803f 0000 803f 0000 803f 0000 803f
00000360: 0000 803f 0000 803f 0000 803f 0000 803f
00000370: 0000 803f 0000 803f 0000 803f 0000 803f
00000380: 0000 803f 0000 803f 0000 803f 0000 803f
00000390: 0000 803f 0000 803f 0000 803f 0000 803f
000003a0: 0000 803f 0000 803f 0000 803f 0000 803f
000003b0: 0000 803f 0000 803f 0000 803f 0000 803f
000003c0: 0000 803f 0000 803f 0000 803f 0000 803f
000003d0: 0000 803f 0000 803f 0000 803f 0000 803f
000003e0: 0000 803f 0000 803f 0000 803f 0000 803f
000003f0: 0000 803f 0000 803f 0000 803f 0000 803f

non_destriped f4 [32, 32]
1714.9121 1696.8809 1704.0575 1704.1873 1696.0304 1681.0592 1688.2218 1668.8519
1672.7441 1673.4098 1682.0778 1678.5275 1684.9922 1675.1384 1688.1718 1677.7231
1679.5951 1682.774 1685.369 1682.9764 1682.5841 1693.1888 1686.3617 1685.614
1684.5269 1687.7487 1683.8287 1689.2855 1686.919 1681.1069 1703.297 1700.9053
1713.775 1692.661 1704.4841 1706.6101 1693.5583 1679.7559 1687.1462 1668.2151
1671.4058 1677.1539 1679.6064 1681.2898 1681.4584 1679.0236 1686.1847 1683.9777
1679.4199 1677.3834 1687.1332 1680.8785 1687.71 1688.7051 1690.1893 1682.0858
1693.8816 1689.0444 1688.3105 1690.7758 1686.3846 1676.8528 1704.8314 1699.5388
1713.5647 1696.425 1701.9526 1702.8312 1693.2294 1680.0063 1692.0973 1669.1827
1671.4664 1679.324 1686.7759 1682.9972 1681.2635 1679.1389 1690.0796 1676.2902
1679.3898 1685.3448 1685.1554 1684.8961 1681.9216 1690.4929 1688.5148 1690.8539
1687.1433 1692.6029 1687.6389 1690.3247 1685.2155 1681.5775 1700.566 1701.7959
1713.2706 1696.6469 1703.7446 1697.1128 1695.7844 1675.0945 1686.5889 1670.6412
1678.2362 1673.3385 1685.5409 1683.5671 1688.7833 1678.2456 1696.7883 1682.1406
1684.2169 1684.2849 1685.1902 1681.4601 1686.0546 1686.264 1683.9327 1682.5771
1686.3494 1690.1846 1686.3162 1682.4187 1679.5531 1682.9115 1700.36 1697.8182
1722.2217 1697.6741 1705.1367 1704.2316 1695.2505 1678.0535 1691.3258 1666.108
1673.4755 1677.3064 1682.711 1682.269 1688.0897 1685.9355 1693.4066 1686.6528
1678.8337 1684.7548 1686.7172 1688.1737 1688.9598 1691.1473 1684.13 1685.3301
1680.7 1686.5265 1692.304 1693.4462 1687.8589 1679.7495 1704.5868 1699.4082
1715.7307 1700.1138 1707.0371 1695.9681 1690.3052 1677.6161 1692.9377 1666.8912
1673.4233 1681.9528 1683.4276 1685.7009 1691.0358 1681.1086 1700.6622 1682.1995
1685.8799 1684.6616 1690.3856 1686.2295 1683.6265 1695.5714 1690.922 1685.9263
1685.6041 1689.6903 1686.11 1691.6857 1684.1041 1681.2261 1708.3281 1701.0155
1720.9017 1702.302 1706.0531 1697.8972 1692.4235 1676.0056 1692.5955 1668.2675
1679.1598 1686.9916 1681.6661 1688.6449 1688.2264 1685.2389 1696.4773 1688.8337
1686.0571 1683.692 1685.3916 1683.401 1685.5173 1687.59 1681.9967 1682.4822
1682.5593 1689.4955 1687.5026 1686.8895 1683.4125 1685.5928 1703.6012 1698.3076
1718.2941 1699.5687 1706.111 1701.5824 1697.5427 1680.2421 1693.3875 1670.7329
1681.9349 1684.5109 1689.4702 1691.4951 1693.4048 1690.3015 1695.2618 1686.5562
1687.8677 1688.792 1686.0677 1682.7274 1690.9944 1691.7041 1689.485 1686.1355
1684.4012 1688.4034 1687.0044 1684.0856 1683.8488 1679.5004 1697.9316 1696.1638
00000000: 305d d644 301c d444 d701 d544 fe05 d544
00000010: f900 d444 e521 d244 1907 d344 439b d044
00000020: d017 d144 1d2d d144 7d42 d244 e1d0 d144
00000030: c09f d244 6e64 d144 7f05 d344 24b7 d144
00000040: 0bf3 d144 c558 d244 cfab d244 3f5f d244
00000050: b152 d244 0ba6 d344 93cb d244 a6b3 d244
00000060: dc90 d244 f5f7 d244 857a d244 2329 d344
00000070: 68dd d244 6c23 d244 81e9 d444 f89c d444
00000080: cd38 d644 2795 d344 7e0f d544 8653 d544
00000090: deb1 d344 30f8 d144 aee4 d244 e286 d044
000000a0: fcec d044 eda4 d144 68f3 d144 4629 d244
000000b0: ab2e d244 c1e0 d144 e9c5 d244 497f d244
000000c0: 70ed d144 45ac d144 43e4 d244 1d1c d244
000000d0: b8f6 d244 9016 d344 0f46 d344 bf42 d244
000000e0: 36bc d344 6c21 d344 f009 d344 d358 d344
000000f0: 4fcc d244 4a9b d144 9b1a d544 3e71 d444
00000100: 1232 d644 9a0d d444 7cbe d444 99da d444
00000110: 57a7 d344 3400 d244 1d83 d344 d9a5 d044
00000120: edee d044 5eea d144 d4d8 d244 e95f d244
00000130: 6f28 d244 72e4 d144 8c42 d344 4989 d144
00000140: 79ec d144 09ab d244 f9a4 d244 ad9c d244
00000150: 7e3d d244 c64f d344 7910 d344 535b d344
00000160: 96e4 d244 4b93 d344 72f4 d244 644a d344
00000170: e5a6 d244 7b32 d244 1d92 d444 78b9 d444
00000180: a928 d644 b314 d444 d4f7 d444 9c23 d444
00000190: 1af9 d344 0663 d144 d8d2 d244 85d4 d044
000001a0: 8fc7 d144 d52a d144 4fb1 d244 2672 d244
000001b0: 1119 d344 dcc7 d144 3a19 d444 8044 d244
000001c0: f186 d244 1e89 d244 16a6 d244 b92e d244
000001d0: bfc1 d244 73c8 d244 d97d d244 7852 d244
000001e0: 2ecb d244 e845 d344 1eca d244 664d d244
000001f0: b3f1 d144 2b5d d244 858b d444 2f3a d444
00000200: 1847 d744 9235 d444 6024 d544 6907 d544
00000210: 04e8 d344 b6c1 d144 6d6a d344 7543 d044
00000220: 372f d144 cea9 d144 c156 d244 9c48 d244
00000230: df02 d344 f0bd d244 03ad d344 e4d4 d244
00000240: aeda d144 2798 d244 f3d6 d244 8f05 d344
00000250: b71e d344 b764 d344 2984 d244 90aa d244
00000260: 6616 d244 d9d0 d244 ba89 d344 47ae d344
00000270: 7cfb d244 fcf7 d144 c712 d544 106d d444
00000280: 6277 d644 a483 d444 3061 d544 fbfe d344
00000290: c449 d344 b7b3 d144 029e d344 855c d044
000002a0: 8c2d d144 7d3e d244 af6d d244 6eb6 d244
000002b0: 2561 d344 7a23 d244 3195 d444 6246 d244
000002c0: 28bc d244 2c95 d244 574c d344 58c7 d244
000002d0: 0c74 d244 49f2 d344 815d d344 a4bd d244
000002e0: 55b3 d244 1736 d344 85c3 d244 f175 d344
000002f0: 5583 d244 3c27 d244 808a d544 7fa0 d444
00000300: db1c d744 aac9 d444 b341 d544 b63c d444
00000310: 8d8d d344 2e80 d144 0e93 d344 8f88 d044
00000320: 1de5 d144 bbdf d244 5135 d244 a314 d344
00000330: 3f07 d344 a5a7 d244 460f d444 ae1a d344
00000340: d4c1 d244 2576 d244 88ac d244 d56c d244
00000350: 8eb0 d244 e1f2 d244 e53f d244 6e4f d244
00000360: e651 d244 db2f d344 15f0 d244 77dc d244
00000370: 336d d244 f8b2 d244 3df3 d444 d849 d444
00000380: 69c9 d644 3372 d444 8d43 d544 a3b2 d444
00000390: 5e31 d444 bf07 d244 66ac d344 74d7 d044
000003a0: eb3d d244 5990 d244 0c2f d344 d86f d344
000003b0: f4ac d344 a649 d344 61e8 d344 ccd1 d244
000003c0: c4fb d244 5819 d344 2bc2 d244 4757 d244
000003d0: d25f d344 8876 d344 852f d344 56c4 d244
000003e0: d78c d244 e90c d344 24e0 d244 bd82 d244
000003f0: 297b d244 03f0 d144 d03d d444 3e05 d444
