data/dataset/negative/88c045ad-e5bb-45aa-b74e-f6be2b968610.npz (npz, 23743 bytes, 4 tensors)

methane f8 [32, 32]
9.969209968386869e+36 9.969209968386869e+36 9.969209968386869e+36 9.969209968386869e+36 9.969209968386869e+36 9.969209968386869e+36 9.969209968386869e+36 9.969209968386869e+36
9.969209968386869e+36 9.969209968386869e+36 9.969209968386869e+36 9.969209968386869e+36 9.969209968386869e+36 9.969209968386869e+36 9.969209968386869e+36 9.969209968386869e+36
9.969209968386869e+36 9.969209968386869e+36 9.969209968386869e+36 9.969209968386869e+36 9.969209968386869e+36 9.969209968386869e+36 9.969209968386869e+36 9.969209968386869e+36
9.969209968386869e+36 9.969209968386869e+36 9.969209968386869e+36 9.969209968386869e+36 9.969209968386869e+36 9.969209968386869e+36 9.969209968386869e+36 9.969209968386869e+36
9.969209968386869e+36 9.969209968386869e+36 9.969209968386869e+36 9.969209968386869e+36 9.969209968386869e+36 9.969209968386869e+36 9.969209968386869e+36 9.969209968386869e+36
9.969209968386869e+36 9.969209968386869e+36 9.969209968386869e+36 9.969209968386869e+36 9.969209968386869e+36 9.969209968386869e+36 9.969209968386869e+36 9.969209968386869e+36
9.969209968386869e+36 9.969209968386869e+36 9.969209968386869e+36 9.969209968386869e+36 9.969209968386869e+36 9.969209968386869e+36 9.969209968386869e+36 9.969209968386869e+36
9.969209968386869e+36 9.969209968386869e+36 9.969209968386869e+36 9.969209968386869e+36 9.969209968386869e+36 9.969209968386869e+36 9.969209968386869e+36 9.969209968386869e+36
9.969209968386869e+36 9.969209968386869e+36 9.969209968386869e+36 9.969209968386869e+36 9.969209968386869e+36 9.969209968386869e+36 9.969209968386869e+36 9.969209968386869e+36
9.969209968386869e+36 9.969209968386869e+36 9.969209968386869e+36 9.969209968386869e+36 9.969209968386869e+36 9.969209968386869e+36 9.969209968386869e+36 9.969209968386869e+36
9.969209968386869e+36 9.969209968386869e+36 9.969209968386869e+36 9.969209968386869e+36 9.969209968386869e+36 9.969209968386869e+36 9.969209968386869e+36 9.969209968386869e+36
9.969209968386869e+36 9.969209968386869e+36 9.969209968386869e+36 9.969209968386869e+36 9.969209968386869e+36 9.969209968386869e+36 9.969209968386869e+36 9.969209968386869e+36
9.969209968386869e+36 9.969209968386869e+36 9.969209968386869e+36 9.969209968386869e+36 9.969209968386869e+36 9.969209968386869e+36 9.969209968386869e+36 9.969209968386869e+36
9.969209968386869e+36 9.969209968386869e+36 9.969209968386869e+36 9.969209968386869e+36 9.969209968386869e+36 9.969209968386869e+36 9.969209968386869e+36 9.969209968386869e+36
9.969209968386869e+36 9.969209968386869e+36 9.969209968386869e+36 9.969209968386869e+36 9.969209968386869e+36 9.969209968386869e+36 9.969209968386869e+36 9.969209968386869e+36
9.969209968386869e+36 9.969209968386869e+36 9.969209968386869e+36 9.969209968386869e+36 9.969209968386869e+36 9.969209968386869e+36 9.969209968386869e+36 9.969209968386869e+36
9.969209968386869e+36 9.969209968386869e+36 9.969209968386869e+36 9.969209968386869e+36 9.969209968386869e+36 9.969209968386869e+36 9.969209968386869e+36 9.969209968386869e+36
9.969209968386869e+36 9.969209968386869e+36 9.969209968386869e+36 9.969209968386869e+36 9.969209968386869e+36 9.969209968386869e+36 9.969209968386869e+36 9.969209968386869e+36
9.969209968386869e+36 9.969209968386869e+36 9.969209968386869e+36 9.969209968386869e+36 9.969209968386869e+36 9.969209968386869e+36 9.969209968386869e+36 9.969209968386869e+36
9.969209968386869e+36 9.969209968386869e+36 9.969209968386869e+36 9.969209968386869e+36 9.969209968386869e+36 9.969209968386869e+36 9.969209968386869e+36 9.969209968386869e+36
9.969209968386869e+36 9.969209968386869e+36 9.969209968386869e+36 9.969209968386869e+36 9.969209968386869e+36 9.969209968386869e+36 9.969209968386869e+36 9.969209968386869e+36
9.969209968386869e+36 9.969209968386869e+36 9.969209968386869e+36 9.969209968386869e+36 9.969209968386869e+36 9.969209968386869e+36 9.969209968386869e+36 9.969209968386869e+36
9.969209968386869e+36 9.969209968386869e+36 9.969209968386869e+36 9.969209968386869e+36 9.969209968386869e+36 9.969209968386869e+36 9.969209968386869e+36 9.969209968386869e+36
9.969209968386869e+36 9.969209968386869e+36 9.969209968386869e+36 9.969209968386869e+36 9.969209968386869e+36 9.969209968386869e+36 9.969209968386869e+36 9.969209968386869e+36
9.969209968386869e+36 9.969209968386869e+36 9.969209968386869e+36 9.969209968386869e+36 9.969209968386869e+36 9.969209968386869e+36 9.969209968386869e+36 9.969209968386869e+36
9.969209968386869e+36 9.969209968386869e+36 9.969209968386869e+36 9.969209968386869e+36 9.969209968386869e+36 9.969209968386869e+36 9.969209968386869e+36 9.969209968386869e+36
9.969209968386869e+36 9.969209968386869e+36 9.969209968386869e+36 9.969209968386869e+36 9.969209968386869e+36 9.969209968386869e+36 9.969209968386869e+36 9.969209968386869e+36
9.969209968386869e+36 9.969209968386869e+36 9.969209968386869e+36 9.969209968386869e+36 9.969209968386869e+36 9.969209968386869e+36 9.969209968386869e+36 9.969209968386869e+36
9.969209968386869e+36 9.969209968386869e+36 9.969209968386869e+36 9.969209968386869e+36 9.969209968386869e+36 9.969209968386869e+36 9.969209968386869e+36 9.969209968386869e+36
9.969209968386869e+36 9.969209968386869e+36 9.969209968386869e+36 9.969209968386869e+36 9.969209968386869e+36 9.969209968386869e+36 9.969209968386869e+36 9.969209968386869e+36
9.969209968386869e+36 9.969209968386869e+36 9.969209968386869e+36 9.969209968386869e+36 9.969209968386869e+36 9.969209968386869e+36 9.969209968386869e+36 9.969209968386869e+36
9.969209968386869e+36 9.969209968386869e+36 9.969209968386869e+36 9.969209968386869e+36 9.969209968386869e+36 9.969209968386869e+36 9.969209968386869e+36 9.969209968386869e+36
00000000: 0000 0000 0000 9e47 0000 0000 0000 9e47
00000010: 0000 0000 0000 9e47 0000 0000 0000 9e47
00000020: 0000 0000 0000 9e47 0000 0000 0000 9e47
00000030: 0000 0000 0000 9e47 0000 0000 0000 9e47
00000040: 0000 0000 0000 9e47 0000 0000 0000 9e47
00000050: 0000 0000 0000 9e47 0000 0000 0000 9e47
00000060: 0000 0000 0000 9e47 0000 0000 0000 9e47
00000070: 0000 0000 0000 9e47 0000 0000 0000 9e47
00000080: 0000 0000 0000 9e47 0000 0000 0000 9e47
00000090: 0000 0000 0000 9e47 0000 0000 0000 9e47
000000a0: 0000 0000 0000 9e47 0000 0000 0000 9e47
000000b0: 0000 0000 0000 9e47 0000 0000 0000 9e47
000000c0: 0000 0000 0000 9e47 0000 0000 0000 9e47
000000d0: 0000 0000 0000 9e47 0000 0000 0000 9e47
000000e0: 0000 0000 0000 9e47 0000 0000 0000 9e47
000000f0: 0000 0000 0000 9e47 0000 0000 0000 9e47
00000100: 0000 0000 0000 9e47 0000 0000 0000 9e47
00000110: 0000 0000 0000 9e47 0000 0000 0000 9e47
00000120: 0000 0000 0000 9e47 0000 0000 0000 9e47
00000130: 0000 0000 0000 9e47 0000 0000 0000 9e47
00000140: 0000 0000 0000 9e47 0000 0000 0000 9e47
00000150: 0000 0000 0000 9e47 0000 0000 0000 9e47
00000160: 0000 0000 0000 9e47 0000 0000 0000 9e47
00000170: 0000 0000 0000 9e47 0000 0000 0000 9e47
00000180: 0000 0000 0000 9e47 0000 0000 0000 9e47
00000190: 0000 0000 0000 9e47 0000 0000 0000 9e47
000001a0: 0000 0000 0000 9e47 0000 0000 0000 9e47
000001b0: 0000 0000 0000 9e47 0000 0000 0000 9e47
000001c0: 0000 0000 0000 9e47 0000 0000 0000 9e47
000001d0: 0000 0000 0000 9e47 0000 0000 0000 9e47
000001e0: 0000 0000 0000 9e47 0000 0000 0000 9e47
000001f0: 0000 0000 0000 9e47 0000 0000 0000 9e47
00000200: 0000 0000 0000 9e47 0000 0000 0000 9e47
00000210: 0000 0000 0000 9e47 0000 0000 0000 9e47
00000220: 0000 0000 0000 9e47 0000 0000 0000 9e47
00000230: 0000 0000 0000 9e47 0000 0000 0000 9e47
00000240: 0000 0000 0000 9e47 0000 0000 0000 9e47
00000250: 0000 0000 0000 9e47 0000 0000 0000 9e47
00000260: 0000 0000 0000 9e47 0000 0000 0000 9e47
00000270: 0000 0000 0000 9e47 0000 0000 0000 9e47
00000280: 0000 0000 0000 9e47 0000 0000 0000 9e47
00000290: 0000 0000 0000 9e47 0000 0000 0000 9e47
000002a0: 0000 0000 0000 9e47 0000 0000 0000 9e47
000002b0: 0000 0000 0000 9e47 0000 0000 0000 9e47
000002c0: 0000 0000 0000 9e47 0000 0000 0000 9e47
000002d0: 0000 0000 0000 9e47 0000 0000 0000 9e47
000002e0: 0000 0000 0000 9e47 0000 0000 0000 9e47
000002f0: 0000 0000 0000 9e47 0000 0000 0000 9e47
00000300: 0000 0000 0000 9e47 0000 0000 0000 9e47
00000310: 0000 0000 0000 9e47 0000 0000 0000 9e47
00000320: 0000 0000 0000 9e47 0000 0000 0000 9e47
00000330: 0000 0000 0000 9e47 0000 0000 0000 9e47
00000340: 0000 0000 0000 9e47 0000 0000 0000 9e47
00000350: 0000 0000 0000 9e47 0000 0000 0000 9e47
00000360: 0000 0000 0000 9e47 0000 0000 0000 9e47
00000370: 0000 0000 0000 9e47 0000 0000 0000 9e47
00000380: 0000 0000 0000 9e47 0000 0000 0000 9e47
00000390: 0000 0000 0000 9e47 0000 0000 0000 9e47
000003a0: 0000 0000 0000 9e47 0000 0000 0000 9e47
000003b0: 0000 0000 0000 9e47 0000 0000 0000 9e47
000003c0: 0000 0000 0000 9e47 0000 0000 0000 9e47
000003d0: 0000 0000 0000 9e47 0000 0000 0000 9e47
000003e0: 0000 0000 0000 9e47 0000 0000 0000 9e47
000003f0: 0000 0000 0000 9e47 0000 0000 0000 9e47
00000400: 0000 0000 0000 9e47 0000 0000 0000 9e47
00000410: 0000 0000 0000 9e47 0000 0000 0000 9e47
00000420: 0000 0000 0000 9e47 0000 0000 0000 9e47
00000430: 0000 0000 0000 9e47 0000 0000 0000 9e47
00000440: 0000 0000 0000 9e47 0000 0000 0000 9e47
00000450: 0000 0000 0000 9e47 0000 0000 0000 9e47
00000460: 0000 0000 0000 9e47 0000 0000 0000 9e47
00000470: 0000 0000 0000 9e47 0000 0000 0000 9e47
00000480: 0000 0000 0000 9e47 0000 0000 0000 9e47
00000490: 0000 0000 0000 9e47 0000 0000 0000 9e47
000004a0: 0000 0000 0000 9e47 0000 0000 0000 9e47
000004b0: 0000 0000 0000 9e47 0000 0000 0000 9e47
000004c0: 0000 0000 0000 9e47 0000 0000 0000 9e47
000004d0: 0000 0000 0000 9e47 0000 0000 0000 9e47
000004e0: 0000 0000 0000 9e47 0000 0000 0000 9e47
000004f0: 0000 0000 0000 9e47 0000 0000 0000 9e47
00000500: 0000 0000 0000 9e47 0000 0000 0000 9e47
00000510: 0000 0000 0000 9e47 0000 0000 0000 9e47
00000520: 0000 0000 0000 9e47 0000 0000 0000 9e47
00000530: 0000 0000 0000 9e47 0000 0000 0000 9e47
00000540: 0000 0000 0000 9e47 0000 0000 0000 9e47
00000550: 0000 0000 0000 9e47 0000 0000 0000 9e47
00000560: 0000 0000 0000 9e47 0000 0000 0000 9e47
00000570: 0000 0000 0000 9e47 0000 0000 0000 9e47
00000580: 0000 0000 0000 9e47 0000 0000 0000 9e47
00000590: 0000 0000 0000 9e47 0000 0000 0000 9e47
000005a0: 0000 0000 0000 9e47 0000 0000 0000 9e47
000005b0: 0000 0000 0000 9e47 0000 0000 0000 9e47
000005c0: 0000 0000 0000 9e47 0000 0000 0000 9e47
000005d0: 0000 0000 0000 9e47 0000 0000 0000 9e47
000005e0: 0000 0000 0000 9e47 0000 0000 0000 9e47
000005f0: 0000 0000 0000 9e47 0000 0000 0000 9e47
00000600: 0000 0000 0000 9e47 0000 0000 0000 9e47
00000610: 0000 0000 0000 9e47 0000 0000 0000 9e47
00000620: 0000 0000 0000 9e47 0000 0000 0000 9e47
00000630: 0000 0000 0000 9e47 0000 0000 0000 9e47
00000640: 0000 0000 0000 9e47 0000 0000 0000 9e47
00000650: 0000 0000 0000 9e47 0000 0000 0000 9e47
00000660: 0000 0000 0000 9e47 0000 0000 0000 9e47
00000670: 0000 0000 0000 9e47 0000 0000 0000 9e47
00000680: 0000 0000 0000 9e47 0000 0000 0000 9e47
00000690: 0000 0000 0000 9e47 0000 0000 0000 9e47
000006a0: 0000 0000 0000 9e47 0000 0000 0000 9e47
000006b0: 0000 0000 0000 9e47 0000 0000 0000 9e47
000006c0: 0000 0000 0000 9e47 0000 0000 0000 9e47
000006d0: 0000 0000 0000 9e47 0000 0000 0000 9e47
000006e0: 0000 0000 0000 9e47 0000 0000 0000 9e47
000006f0: 0000 0000 0000 9e47 0000 0000 0000 9e47
00000700: 0000 0000 0000 9e47 0000 0000 0000 9e47
00000710: 0000 0000 0000 9e47 0000 0000 0000 9e47
00000720: 0000 0000 0000 9e47 0000 0000 0000 9e47
00000730: 0000 0000 0000 9e47 0000 0000 0000 9e47
00000740: 0000 0000 0000 9e47 0000 0000 0000 9e47
00000750: 0000 0000 0000 9e47 0000 0000 0000 9e47
00000760: 0000 0000 0000 9e47 0000 0000 0000 9e47
00000770: 0000 0000 0000 9e47 0000 0000 0000 9e47
00000780: 0000 0000 0000 9e47 0000 0000 0000 9e47
00000790: 0000 0000 0000 9e47 0000 0000 0000 9e47
000007a0: 0000 0000 0000 9e47 0000 0000 0000 9e47
000007b0: 0000 0000 0000 9e47 0000 0000 0000 9e47
000007c0: 0000 0000 0000 9e47 0000 0000 0000 9e47
000007d0: 0000 0000 0000 9e47 0000 0000 0000 9e47
000007e0: 0000 0000 0000 9e47 0000 0000 0000 9e47
000007f0: 0000 0000 0000 9e47 0000 0000 0000 9e47

lat f4 [32, 32]
79.107086 79.17476 79.242035 79.308914 79.37543 79.44158 79.5074 79.57288
79.638054 79.70293 79.76751 79.83182 79.89586 79.959656 80.02322 80.086555
80.14967 80.21259 80.27533 80.33788 80.40027 80.462494 80.52458 80.586525
80.64835 80.71007 80.771675 80.83319 80.89462 80.95598 81.01728 81.07852
79.120285 79.18803 79.25536 79.32231 79.38889 79.455124 79.521 79.58656
79.6518 79.71675 79.7814 79.84579 79.90991 79.973785 80.03743 80.100845
80.16405 80.22705 80.28986 80.35251 80.41498 80.477295 80.539474 80.60151
80.66343 80.72524 80.78694 80.84856 80.910095 80.97156 81.03295 81.09431
79.13327 79.201065 79.26847 79.33549 79.40214 79.46843 79.534386 79.600006
79.66532 79.73034 79.795074 79.85953 79.92373 79.98768 80.0514 80.11489
80.17818 80.241264 80.30416 80.36689 80.42944 80.49185 80.554115 80.61625
80.67826 80.74016 80.80196 80.86367 80.92531 80.98687 81.04837 81.109825
79.14598 79.213844 79.28131 79.3484 79.41511 79.48147 79.54749 79.61319
79.67857 79.74366 79.808464 79.87299 79.93727 80.0013 80.065094 80.12866
80.19203 80.255196 80.31818 80.38099 80.443634 80.50613 80.568474 80.6307
80.6928 80.75479 80.81669 80.878494 80.94022 81.00189 81.06349 81.12505
79.15849 79.226425 79.29395 79.3611 79.42788 79.4943 79.560394 79.62616
79.69161 79.75677 79.82164 79.886246 79.95059 80.014694 80.07857 80.14222
80.205666 80.268906 80.33197 80.39486 80.45759 80.52017 80.58261 80.64492
80.70711 80.769196 80.831184 80.89309 80.95491 81.01668 81.07838 81.14004
79.170845 79.23883 79.30643 79.373634 79.440475 79.506966 79.57312 79.638954
79.704475 79.7697 79.83465 79.89932 79.96374 80.027916 80.091866 80.155594
80.21911 80.28244 80.34558 80.408554 80.47136 80.53403 80.59655 80.65894
80.72123 80.7834 80.84548 80.90748 80.9694 81.03126 81.09306 81.15482
79.182976 79.25102 79.31867 79.38595 79.45285 79.51941 79.585625 79.65152
79.71711 79.7824 79.84742 79.91216 79.976654 80.0409 80.10492 80.168724
80.23232 80.29572 80.35895 80.422 80.484886 80.54764 80.610245 80.67273
80.73509 80.797356 80.85953 80.921616 80.983635 81.045586 81.10749 81.16935
79.19488 79.26298 79.330696 79.398026 79.46499 79.53161 79.59789 79.66385
79.72951 79.79487 79.85995 79.92476 79.98933 80.05364 80.11774 80.18161
80.24528 80.30876 80.372055 80.43519 80.49816 80.56099 80.62368 80.68625
80.7487 80.81105 80.873314 80.93549 80.997604 81.05965 81.12165 81.18361
00000000: d436 9e42 7a59 9e42 ec7b 9e42 2a9e 9e42
00000010: 38c0 9e42 17e2 9e42 ca03 9f42 5125 9f42
00000020: af46 9f42 e667 9f42 f788 9f42 e4a9 9f42
00000030: aeca 9f42 58eb 9f42 e30b a042 512c a042
00000040: a24c a042 d96c a042 f88c a042 ffac a042
00000050: f0cc a042 ccec a042 960c a142 4d2c a142
00000060: f54b a142 8e6b a142 198b a142 98aa a142
00000070: 0cca a142 76e9 a142 d908 a242 3428 a242
00000080: 963d 9e42 4560 9e42 bf82 9e42 06a5 9e42
00000090: 1dc7 9e42 06e9 9e42 c10a 9f42 522c 9f42
000000a0: b94d 9f42 fa6e 9f42 1490 9f42 0bb1 9f42
000000b0: e0d1 9f42 94f2 9f42 2a13 a042 a233 a042
000000c0: fe53 a042 4074 a042 6994 a042 7cb4 a042
000000d0: 78d4 a042 60f4 a042 3614 a142 f933 a142
000000e0: ad53 a142 5373 a142 ea92 a142 76b2 a142
000000f0: f8d1 a142 70f1 a142 df10 a242 4930 a242
00000100: 3c44 9e42 f266 9e42 7589 9e42 c5ab 9e42
00000110: e5cd 9e42 d6ef 9e42 9b11 9f42 3433 9f42
00000120: a554 9f42 ef75 9f42 1497 9f42 14b8 9f42
00000130: f3d8 9f42 b1f9 9f42 511a a042 d33a a042
00000140: 3a5b a042 877b a042 bb9b a042 d9bb a042
00000150: e0db a042 d4fb a042 b51b a142 853b a142
00000160: 455b a142 f67a a142 9b9a a142 33ba a142
00000170: c2d9 a142 47f9 a142 c418 a242 3b38 a242
00000180: be4a 9e42 7d6d 9e42 0890 9e42 61b2 9e42
00000190: 89d4 9e42 83f6 9e42 5118 9f42 f439 9f42
000001a0: 6e5b 9f42 c17c 9f42 ef9d 9f42 f9be 9f42
000001b0: e2df 9f42 aa00 a042 5421 a042 e041 a042
000001c0: 5262 a042 a982 a042 e8a2 a042 11c3 a042
000001d0: 24e3 a042 2303 a142 0f23 a142 eb42 a142
000001e0: b762 a142 7482 a142 25a2 a142 cac1 a142
000001f0: 65e1 a142 f800 a242 8220 a242 0740 a242
00000200: 2651 9e42 ee73 9e42 8196 9e42 e2b8 9e42
00000210: 13db 9e42 15fd 9e42 ec1e 9f42 9840 9f42
00000220: 1b62 9f42 7783 9f42 aea4 9f42 c2c5 9f42
00000230: b4e6 9f42 8607 a042 3a28 a042 d148 a042
00000240: 4d69 a042 ae89 a042 f8a9 a042 2bca a042
00000250: 49ea a042 540a a142 4c2a a142 334a a142
00000260: 0a6a a142 d489 a142 91a9 a142 43c9 a142
00000270: eae8 a142 8a08 a242 2128 a242 b347 a242
00000280: 7957 9e42 487a 9e42 e49c 9e42 4dbf 9e42
00000290: 86e1 9e42 9103 9f42 7025 9f42 2547 9f42
000002a0: b168 9f42 168a 9f42 57ab 9f42 74cc 9f42
000002b0: 6fed 9f42 4b0e a042 092f a042 aa4f a042
000002c0: 2f70 a042 9c90 a042 f0b0 a042 2ed1 a042
000002d0: 56f1 a042 6c11 a142 6f31 a142 6151 a142
000002e0: 4571 a142 1a91 a142 e3b0 a142 a1d0 a142
000002f0: 55f0 a142 0110 a242 a62f a242 454f a242
00000300: af5d 9e42 8680 9e42 29a3 9e42 9bc5 9e42
00000310: dce7 9e42 f009 9f42 d72b 9f42 944d 9f42
00000320: 296f 9f42 9790 9f42 e1b1 9f42 07d3 9f42
00000330: 0cf4 9f42 f114 a042 b835 a042 6356 a042
00000340: f376 a042 6997 a042 c8b7 a042 10d8 a042
00000350: 43f8 a042 6418 a142 7238 a142 7058 a142
00000360: 5e78 a142 3f98 a142 14b8 a142 ded7 a142
00000370: 9ff7 a142 5717 a242 0937 a242 b556 a242
00000380: c763 9e42 a586 9e42 51a9 9e42 cacb 9e42
00000390: 13ee 9e42 2f10 9f42 1f32 9f42 e453 9f42
000003a0: 8275 9f42 f996 9f42 4bb8 9f42 7ad9 9f42
000003b0: 89fa 9f42 771b a042 483c a042 fc5c a042
000003c0: 957d a042 169e a042 7ebe a042 d1de a042
000003d0: 0fff a042 3a1f a142 533f a142 5c5f a142
000003e0: 567f a142 429f a142 23bf a142 f9de a142
000003f0: c6fe a142 8a1e a242 493e a242 025e a242

lon f4 [32, 32]
-63.96029 -63.879112 -63.796722 -63.7131 -63.628216 -63.542046 -63.454563 -63.365734
-63.275536 -63.18393 -63.090885 -62.996372 -62.900352 -62.80279 -62.703648 -62.60289
-62.50047 -62.396347 -62.29048 -62.182823 -62.073322 -61.961937 -61.84861 -61.73329
-61.61592 -61.496445 -61.3748 -61.250927 -61.12476 -60.996227 -60.865257 -60.73178
-64.21679 -64.13707 -64.05614 -63.973984 -63.89058 -63.805893 -63.7199 -63.632572
-63.543877 -63.45379 -63.36227 -63.26929 -63.174816 -63.07881 -62.981236 -62.88205
-62.781216 -62.67869 -62.574436 -62.4684 -62.360535 -62.250793 -62.139126 -62.02548
-61.909798 -61.792023 -61.672092 -61.54995 -61.425526 -61.298756 -61.169563 -61.037884
-64.47379 -64.39553 -64.31608 -64.2354 -64.15348 -64.07029 -63.985798 -63.89998
-63.812805 -63.724243 -63.634262 -63.54283 -63.449913 -63.355473 -63.259476 -63.161877
-63.062645 -62.961735 -62.8591 -62.754696 -62.648483 -62.540405 -62.430412 -62.318455
-62.204475 -62.088417 -61.970222 -61.849827 -61.727165 -61.602173 -61.47478 -61.344913
-64.73137 -64.65459 -64.57661 -64.49742 -64.417 -64.33531 -64.252335 -64.16804
-64.0824 -63.995373 -63.90694 -63.81707 -63.72572 -63.632862 -63.538456 -63.442463
-63.34484 -63.245556 -63.14456 -63.04181 -62.93726 -62.830856 -62.722557 -62.612305
-62.500046 -62.385723 -62.26928 -62.15065 -62.029774 -61.90658 -61.781006 -61.652973
-64.98973 -64.91443 -64.837944 -64.76026 -64.68134 -64.60117 -64.51972 -64.43696
-64.35286 -64.267395 -64.18053 -64.092224 -64.00246 -63.911194 -63.818394 -63.72402
-63.628025 -63.530384 -63.43104 -63.329956 -63.227085 -63.12238 -63.01579 -62.90726
-62.796738 -62.68417 -62.569496 -62.452652 -62.33358 -62.212208 -62.08847 -61.96229
-65.24859 -65.17479 -65.09981 -65.023636 -64.946236 -64.86759 -64.787674 -64.70646
-64.62392 -64.54001 -64.45472 -64.368004 -64.27984 -64.19018 -64.09899 -64.00625
-63.9119 -63.81591 -63.71824 -63.618835 -63.51766 -63.41466 -63.309795 -63.203007
-63.094242 -62.983444 -62.870556 -62.755516 -62.638264 -62.51873 -62.39685 -62.27255
-65.50805 -65.435745 -65.36228 -65.28763 -65.21176 -65.13466 -65.05629 -64.97663
-64.89565 -64.813324 -64.72962 -64.6445 -64.557945 -64.4699 -64.380356 -64.28925
-64.19656 -64.10224 -64.006256 -63.908546 -63.809086 -63.707813 -63.604687 -63.499653
-63.39266 -63.28365 -63.17257 -63.059353 -62.94394 -62.826267 -62.70626 -62.58386
-65.76798 -65.6972 -65.62525 -65.55213 -65.477806 -65.402245 -65.32544 -65.247345
-65.16794 -65.087204 -65.00509 -64.921585 -64.83665 -64.75024 -64.66233 -64.57288
-64.481865 -64.38923 -64.29493 -64.19894 -64.1012 -64.00166 -63.90029 -63.797028
-63.691822 -63.584618 -63.475357 -63.36398 -63.250423 -63.134624 -63.016514 -62.896027
00000000: 56d7 7fc2 3684 7fc2 d82f 7fc2 37da 7ec2
00000010: 4b83 7ec2 0e2b 7ec2 79d1 7dc2 8376 7dc2
00000020: 261a 7dc2 58bc 7cc2 115d 7cc2 49fc 7bc2
00000030: f699 7bc2 0f36 7bc2 89d0 7ac2 5c69 7ac2
00000040: 7b00 7ac2 dc95 79c2 7429 79c2 36bb 78c2
00000050: 154b 78c2 06d9 77c2 fa64 77c2 e4ee 76c2
00000060: b476 76c2 5cfc 75c2 cc7f 75c2 f300 75c2
00000070: c17f 74c2 23fc 73c2 0676 73c2 58ed 72c2
00000080: ff6e 80c2 2e46 80c2 be1c 80c2 5ce5 7fc2
00000090: f48f 7fc2 3c39 7fc2 2de1 7ec2 c187 7ec2
000000a0: ee2c 7ec2 aed0 7dc2 f772 7dc2 c113 7dc2
000000b0: 03b3 7cc2 b450 7cc2 c9ec 7bc2 3887 7bc2
000000c0: f71f 7bc2 fbb6 7ac2 394c 7ac2 a4df 79c2
000000d0: 3071 79c2 d000 79c2 778e 78c2 171a 78c2
000000e0: a2a3 77c2 082b 77c2 39b0 76c2 2633 76c2
000000f0: bdb3 75c2 ed31 75c2 a2ad 74c2 cb26 74c2
00000100: 95f2 80c2 83ca 80c2 d5a1 80c2 8678 80c2
00000110: 954e 80c2 fd23 80c2 75f1 7fc2 9499 7fc2
00000120: 5040 7fc2 a0e5 7ec2 7c89 7ec2 dc2b 7ec2
00000130: b6cc 7dc2 016c 7dc2 b409 7dc2 c3a5 7cc2
00000140: 2640 7cc2 d1d8 7bc2 b86f 7bc2 cf04 7bc2
00000150: 0c98 7ac2 6029 7ac2 beb8 79c2 1946 79c2
00000160: 62d1 78c2 8a5a 78c2 82e1 77c2 3966 77c2
00000170: 9ee8 76c2 a068 76c2 2de6 75c2 3161 75c2
00000180: 7676 81c2 264f 81c2 3927 81c2 aefe 80c2
00000190: 81d5 80c2 aeab 80c2 3281 80c2 0956 80c2
000001a0: 302a 80c2 43fb 7fc2 b5a0 7fc2 ae44 7fc2
000001b0: 23e7 7ec2 0d88 7ec2 6127 7ec2 15c5 7dc2
000001c0: 1e61 7dc2 73fb 7cc2 0894 7cc2 d02a 7cc2
000001d0: c1bf 7bc2 cc52 7bc2 e6e3 7ac2 0073 7ac2
000001e0: 0c00 7ac2 fb8a 79c2 be13 79c2 449a 78c2
000001f0: 7d1e 78c2 57a0 77c2 c01f 77c2 a59c 76c2
00000200: befa 81c2 30d4 81c2 07ad 81c2 4185 81c2
00000210: d95c 81c2 cd33 81c2 190a 81c2 b9df 80c2
00000220: aab4 80c2 e888 80c2 6e5c 80c2 382f 80c2
00000230: 4201 80c2 10a5 7fc2 0946 7fc2 65e5 7ec2
00000240: 1983 7ec2 1d1f 7ec2 63b9 7dc2 e051 7dc2
00000250: 89e8 7cc2 517d 7cc2 2b10 7cc2 09a1 7bc2
00000260: dc2f 7bc2 97bc 7ac2 2a47 7ac2 84cf 79c2
00000270: 9655 79c2 4dd9 78c2 985a 78c2 63d9 77c2
00000280: 477f 82c2 7e59 82c2 1a33 82c2 1a0c 82c2
00000290: 79e4 81c2 35bc 81c2 4a93 81c2 b569 81c2
000002a0: 723f 81c2 7c14 81c2 d1e8 80c2 6bbc 80c2
000002b0: 478f 80c2 5f61 80c2 af32 80c2 3303 80c2
000002c0: c9a5 7fc2 7e43 7fc2 7adf 7ec2 b079 7ec2
000002d0: 1512 7ec2 9da8 7dc2 3b3d 7dc2 e1cf 7cc2
000002e0: 8160 7cc2 0cef 7bc2 737b 7bc2 a605 7bc2
000002f0: 958d 7ac2 2e13 7ac2 6096 79c2 1717 79c2
00000300: 1f04 83c2 1adf 82c2 7db9 82c2 4493 82c2
00000310: 6c6c 82c2 f244 82c2 d21c 82c2 09f4 81c2
00000320: 93ca 81c2 6ca0 81c2 9175 81c2 fc49 81c2
00000330: ab1d 81c2 97f0 80c2 bec2 80c2 1994 80c2
00000340: a464 80c2 5934 80c2 3403 80c2 5aa2 7fc2
00000350: 813c 7fc2 cdd4 7ec2 336b 7ec2 a5ff 7dc2
00000360: 1592 7dc2 7522 7dc2 b6b0 7cc2 c73c 7cc2
00000370: 98c6 7bc2 194e 7bc2 36d3 7ac2 df55 7ac2
00000380: 3589 83c2 f764 83c2 2140 83c2 b11a 83c2
00000390: a3f4 82c2 f3cd 82c2 a0a6 82c2 a47e 82c2
000003a0: fc55 82c2 a62c 82c2 9b02 82c2 dad7 81c2
000003b0: 5dac 81c2 1f80 81c2 1d53 81c2 5125 81c2
000003c0: b7f6 80c2 49c7 80c2 0197 80c2 db65 80c2
000003d0: d033 80c2 da00 80c2 e699 7fc2 2830 7fc2
000003e0: 6dc4 7ec2 a656 7ec2 c4e6 7dc2 b774 7dc2
000003f0: 6f00 7dc2 db89 7cc2 e910 7cc2 8895 7bc2

qa f4 [32, 32]
0.0 0.0 0.0 0.0 0.0 0.0 0.0 0.0
0.0 0.0 0.0 0.0 0.0 0.0 0.0 0.0
0.0 0.0 0.0 0.0 0.0 0.0 0.0 0.0
0.0 0.0 0.0 0.0 0.0 0.0 0.0 0.0
0.0 0.0 0.0 0.0 0.0 0.0 0.0 0.0
0.0 0.0 0.0 0.0 0.0 0.0 0.0 0.0
0.0 0.0 0.0 0.0 0.0 0.0 0.0 0.0
0.0 0.0 0.0 0.0 0.0 0.0 0.0 0.0
0.0 0.0 0.0 0.0 0.0 0.0 0.0 0.0
0.0 0.0 0.0 0.0 0.0 0.0 0.0 0.0
0.0 0.0 0.0 0.0 0.0 0.0 0.0 0.0
0.0 0.0 0.0 0.0 0.0 0.0 0.0 0.0
0.0 0.0 0.0 0.0 0.0 0.0 0.0 0.0
0.0 0.0 0.0 0.0 0.0 0.0 0.0 0.0
0.0 0.0 0.0 0.0 0.0 0.0 0.0 0.0
0.0 0.0 0.0 0.0 0.0 0.0 0.0 0.0
0.0 0.0 0.0 0.0 0.0 0.0 0.0 0.0
0.0 0.0 0.0 0.0 0.0 0.0 0.0 0.0
0.0 0.0 0.0 0.0 0.0 0.0 0.0 0.0
0.0 0.0 0.0 0.0 0.0 0.0 0.0 0.0
0.0 0.0 0.0 0.0 0.0 0.0 0.0 0.0
0.0 0.0 0.0 0.0 0.0 0.0 0.0 0.0
0.0 0.0 0.0 0.0 0.0 0.0 0.0 0.0
0.0 0.0 0.0 0.0 0.0 0.0 0.0 0.0
0.0 0.0 0.0 0.0 0.0 0.0 0.0 0.0
0.0 0.0 0.0 0.0 0.0 0.0 0.0 0.0
0.0 0.0 0.0 0.0 0.0 0.0 0.0 0.0
0.0 0.0 0.0 0.0 0.0 0.0 0.0 0.0
0.0 0.0 0.0 0.0 0.0 0.0 0.0 0.0
0.0 0.0 0.0 0.0 0.0 0.0 0.0 0.0
0.0 0.0 0.0 0.0 0.0 0.0 0.0 0.0
0.0 0.0 0.0 0.0 0.0 0.0 0.0 0.0
00000000: 0000 0000 0000 0000 0000 0000 0000 0000
00000010: 0000 0000 0000 0000 0000 0000 0000 0000
00000020: 0000 0000 0000 0000 0000 0000 0000 0000
00000030: 0000 0000 0000 0000 0000 0000 0000 0000
00000040: 0000 0000 0000 0000 0000 0000 0000 0000
00000050: 0000 0000 0000 0000 0000 0000 0000 0000
00000060: 0000 0000 0000 0000 0000 0000 0000 0000
00000070: 0000 0000 0000 0000 0000 0000 0000 0000
00000080: 0000 0000 0000 0000 0000 0000 0000 0000
00000090: 0000 0000 0000 0000 0000 0000 0000 0000
000000a0: 0000 0000 0000 0000 0000 0000 0000 0000
000000b0: 0000 0000 0000 0000 0000 0000 0000 0000
000000c0: 0000 0000 0000 0000 0000 0000 0000 0000
000000d0: 0000 0000 0000 0000 0000 0000 0000 0000
000000e0: 0000 0000 0000 0000 0000 0000 0000 0000
000000f0: 0000 0000 0000 0000 0000 0000 0000 0000
00000100: 0000 0000 0000 0000 0000 0000 0000 0000
00000110: 0000 0000 0000 0000 0000 0000 0000 0000
00000120: 0000 0000 0000 0000 0000 0000 0000 0000
00000130: 0000 0000 0000 0000 0000 0000 0000 0000
00000140: 0000 0000 0000 0000 0000 0000 0000 0000
00000150: 0000 0000 0000 0000 0000 0000 0000 0000
00000160: 0000 0000 0000 0000 0000 0000 0000 0000
00000170: 0000 0000 0000 0000 0000 0000 0000 0000
00000180: 0000 0000 0000 0000 0000 0000 0000 0000
00000190: 0000 0000 0000 0000 0000 0000 0000 0000
000001a0: 0000 0000 0000 0000 0000 0000 0000 0000
000001b0: 0000 0000 0000 0000 0000 0000 0000 0000
000001c0: 0000 0000 0000 0000 0000 0000 0000 0000
000001d0: 0000 0000 0000 0000 0000 0000 0000 0000
000001e0: 0000 0000 0000 0000 0000 0000 0000 0000
000001f0: 0000 0000 0000 0000 0000 0000 0000 0000
00000200: 0000 0000 0000 0000 0000 0000 0000 0000
00000210: 0000 0000 0000 0000 0000 0000 0000 0000
00000220: 0000 0000 0000 0000 0000 0000 0000 0000
00000230: 0000 0000 0000 0000 0000 0000 0000 0000
00000240: 0000 0000 0000 0000 0000 0000 0000 0000
00000250: 0000 0000 0000 0000 0000 0000 0000 0000
00000260: 0000 0000 0000 0000 0000 0000 0000 0000
00000270: 0000 0000 0000 0000 0000 0000 0000 0000
00000280: 0000 0000 0000 0000 0000 0000 0000 0000
00000290: 0000 0000 0000 0000 0000 0000 0000 0000
000002a0: 0000 0000 0000 0000 0000 0000 0000 0000
000002b0: 0000 0000 0000 0000 0000 0000 0000 0000
000002c0: 0000 0000 0000 0000 0000 0000 0000 0000
000002d0: 0000 0000 0000 0000 0000 0000 0000 0000
000002e0: 0000 0000 0000 0000 0000 0000 0000 0000
000002f0: 0000 0000 0000 0000 0000 0000 0000 0000
00000300: 0000 0000 0000 0000 0000 0000 0000 0000
00000310: 0000 0000 0000 0000 0000 0000 0000 0000
00000320: 0000 0000 0000 0000 0000 0000 0000 0000
00000330: 0000 0000 0000 0000 0000 0000 0000 0000
00000340: 0000 0000 0000 0000 0000 0000 0000 0000
00000350: 0000 0000 0000 0000 0000 0000 0000 0000
00000360: 0000 0000 0000 0000 0000 0000 0000 0000
00000370: 0000 0000 0000 0000 0000 0000 0000 0000
00000380: 0000 0000 0000 0000 0000 0000 0000 0000
00000390: 0000 0000 0000 0000 0000 0000 0000 0000
000003a0: 0000 0000 0000 0000 0000 0000 0000 0000
000003b0: 0000 0000 0000 0000 0000 0000 0000 0000
000003c0: 0000 0000 0000 0000 0000 0000 0000 0000
000003d0: 0000 0000 0000 0000 0000 0000 0000 0000
000003e0: 0000 0000 0000 0000 0000 0000 0000 0000
000003f0: 0000 0000 0000 0000 0000 0000 0000 0000
