data/dataset/negative/8bc582a7-1cb8-44dd-b9ab-255d2112804b.npz (npz, 23743 bytes, 4 tensors)

methane f8 [32, 32]
0	0x479e000000000000	9.969209968386869e+36
1	0x479e000000000000	9.969209968386869e+36
2	0x479e000000000000	9.969209968386869e+36
3	0x479e000000000000	9.969209968386869e+36
4	0x479e000000000000	9.969209968386869e+36
5	0x479e000000000000	9.969209968386869e+36
6	0x479e000000000000	9.969209968386869e+36
7	0x479e000000000000	9.969209968386869e+36
8	0x479e000000000000	9.969209968386869e+36
9	0x479e000000000000	9.969209968386869e+36
10	0x479e000000000000	9.969209968386869e+36
11	0x479e000000000000	9.969209968386869e+36
12	0x479e000000000000	9.969209968386869e+36
13	0x479e000000000000	9.969209968386869e+36
14	0x479e000000000000	9.969209968386869e+36
15	0x479e000000000000	9.969209968386869e+36
16	0x479e000000000000	9.969209968386869e+36
17	0x479e000000000000	9.969209968386869e+36
18	0x479e000000000000	9.969209968386869e+36
19	0x479e000000000000	9.969209968386869e+36
20	0x479e000000000000	9.969209968386869e+36
21	0x479e000000000000	9.969209968386869e+36
22	0x479e000000000000	9.969209968386869e+36
23	0x479e000000000000	9.969209968386869e+36
24	0x479e000000000000	9.969209968386869e+36
25	0x479e000000000000	9.969209968386869e+36
26	0x479e000000000000	9.969209968386869e+36
27	0x479e000000000000	9.969209968386869e+36
28	0x479e000000000000	9.969209968386869e+36
29	0x479e000000000000	9.969209968386869e+36
30	0x479e000000000000	9.969209968386869e+36
31	0x479e000000000000	9.969209968386869e+36
32	0x479e000000000000	9.969209968386869e+36
33	0x479e000000000000	9.969209968386869e+36
34	0x479e000000000000	9.969209968386869e+36
35	0x479e000000000000	9.969209968386869e+36
36	0x479e000000000000	9.969209968386869e+36
37	0x479e000000000000	9.969209968386869e+36
38	0x479e000000000000	9.969209968386869e+36
39	0x479e000000000000	9.969209968386869e+36
40	0x479e000000000000	9.969209968386869e+36
41	0x479e000000000000	9.969209968386869e+36
42	0x479e000000000000	9.969209968386869e+36
43	0x479e000000000000	9.969209968386869e+36
44	0x479e000000000000	9.969209968386869e+36
45	0x479e000000000000	9.969209968386869e+36
46	0x479e000000000000	9.969209968386869e+36
47	0x479e000000000000	9.969209968386869e+36
48	0x479e000000000000	9.969209968386869e+36
49	0x479e000000000000	9.969209968386869e+36
50	0x479e000000000000	9.969209968386869e+36
51	0x479e000000000000	9.969209968386869e+36
52	0x479e000000000000	9.969209968386869e+36
53	0x479e000000000000	9.969209968386869e+36
54	0x479e000000000000	9.969209968386869e+36
55	0x479e000000000000	9.969209968386869e+36
56	0x479e000000000000	9.969209968386869e+36
57	0x479e000000000000	9.969209968386869e+36
58	0x479e000000000000	9.969209968386869e+36
59	0x479e000000000000	9.969209968386869e+36
60	0x479e000000000000	9.969209968386869e+36
61	0x479e000000000000	9.969209968386869e+36
62	0x479e000000000000	9.969209968386869e+36
63	0x479e000000000000	9.969209968386869e+36
64	0x479e000000000000	9.969209968386869e+36
65	0x479e000000000000	9.969209968386869e+36
66	0x479e000000000000	9.969209968386869e+36
67	0x479e000000000000	9.969209968386869e+36
68	0x479e000000000000	9.969209968386869e+36
69	0x479e000000000000	9.969209968386869e+36
70	0x479e000000000000	9.969209968386869e+36
71	0x479e000000000000	9.969209968386869e+36
72	0x479e000000000000	9.969209968386869e+36
73	0x479e000000000000	9.969209968386869e+36
74	0x479e000000000000	9.969209968386869e+36
75	0x479e000000000000	9.969209968386869e+36
76	0x479e000000000000	9.969209968386869e+36
77	0x479e000000000000	9.969209968386869e+36
78	0x479e000000000000	9.969209968386869e+36
79	0x479e000000000000	9.969209968386869e+36
80	0x479e000000000000	9.969209968386869e+36
81	0x479e000000000000	9.969209968386869e+36
82	0x479e000000000000	9.969209968386869e+36
83	0x479e000000000000	9.969209968386869e+36
84	0x479e000000000000	9.969209968386869e+36
85	0x479e000000000000	9.969209968386869e+36
86	0x479e000000000000	9.969209968386869e+36
87	0x479e000000000000	9.969209968386869e+36
88	0x479e000000000000	9.969209968386869e+36
89	0x479e000000000000	9.969209968386869e+36
90	0x479e000000000000	9.969209968386869e+36
91	0x479e000000000000	9.969209968386869e+36
92	0x479e000000000000	9.969209968386869e+36
93	0x479e000000000000	9.969209968386869e+36
94	0x479e000000000000	9.969209968386869e+36
95	0x479e000000000000	9.969209968386869e+36
96	0x479e000000000000	9.969209968386869e+36
97	0x479e000000000000	9.969209968386869e+36
98	0x479e000000000000	9.969209968386869e+36
99	0x479e000000000000	9.969209968386869e+36
100	0x479e000000000000	9.969209968386869e+36
101	0x479e000000000000	9.969209968386869e+36
102	0x479e000000000000	9.969209968386869e+36
103	0x479e000000000000	9.969209968386869e+36
104	0x479e000000000000	9.969209968386869e+36
105	0x479e000000000000	9.969209968386869e+36
106	0x479e000000000000	9.969209968386869e+36
107	0x479e000000000000	9.969209968386869e+36
108	0x479e000000000000	9.969209968386869e+36
109	0x479e000000000000	9.969209968386869e+36
110	0x479e000000000000	9.969209968386869e+36
111	0x479e000000000000	9.969209968386869e+36
112	0x479e000000000000	9.969209968386869e+36
113	0x479e000000000000	9.969209968386869e+36
114	0x479e000000000000	9.969209968386869e+36
115	0x479e000000000000	9.969209968386869e+36
116	0x479e000000000000	9.969209968386869e+36
117	0x479e000000000000	9.969209968386869e+36
118	0x479e000000000000	9.969209968386869e+36
119	0x479e000000000000	9.969209968386869e+36
120	0x479e000000000000	9.969209968386869e+36
121	0x479e000000000000	9.969209968386869e+36
122	0x479e000000000000	9.969209968386869e+36
123	0x479e000000000000	9.969209968386869e+36
124	0x479e000000000000	9.969209968386869e+36
125	0x479e000000000000	9.969209968386869e+36
126	0x479e000000000000	9.969209968386869e+36
127	0x479e000000000000	9.969209968386869e+36
128	0x479e000000000000	9.969209968386869e+36
129	0x479e000000000000	9.969209968386869e+36
130	0x479e000000000000	9.969209968386869e+36
131	0x479e000000000000	9.969209968386869e+36
132	0x479e000000000000	9.969209968386869e+36
133	0x479e000000000000	9.969209968386869e+36
134	0x479e000000000000	9.969209968386869e+36
135	0x479e000000000000	9.969209968386869e+36
136	0x479e000000000000	9.969209968386869e+36
137	0x479e000000000000	9.969209968386869e+36
138	0x479e000000000000	9.969209968386869e+36
139	0x479e000000000000	9.969209968386869e+36
140	0x479e000000000000	9.969209968386869e+36
141	0x479e000000000000	9.969209968386869e+36
142	0x479e000000000000	9.969209968386869e+36
143	0x479e000000000000	9.969209968386869e+36
144	0x479e000000000000	9.969209968386869e+36
145	0x479e000000000000	9.969209968386869e+36
146	0x479e000000000000	9.969209968386869e+36
147	0x479e000000000000	9.969209968386869e+36
148	0x479e000000000000	9.969209968386869e+36
149	0x479e000000000000	9.969209968386869e+36
150	0x479e000000000000	9.969209968386869e+36
151	0x479e000000000000	9.969209968386869e+36
152	0x479e000000000000	9.969209968386869e+36
153	0x479e000000000000	9.969209968386869e+36
154	0x479e000000000000	9.969209968386869e+36
155	0x479e000000000000	9.969209968386869e+36
156	0x479e000000000000	9.969209968386869e+36
157	0x479e000000000000	9.969209968386869e+36
158	0x479e000000000000	9.969209968386869e+36
159	0x479e000000000000	9.969209968386869e+36
160	0x479e000000000000	9.969209968386869e+36
161	0x479e000000000000	9.969209968386869e+36
162	0x479e000000000000	9.969209968386869e+36
163	0x479e000000000000	9.969209968386869e+36
164	0x479e000000000000	9.969209968386869e+36
165	0x479e000000000000	9.969209968386869e+36
166	0x479e000000000000	9.969209968386869e+36
167	0x479e000000000000	9.969209968386869e+36
168	0x479e000000000000	9.969209968386869e+36
169	0x479e000000000000	9.969209968386869e+36
170	0x479e000000000000	9.969209968386869e+36
171	0x479e000000000000	9.969209968386869e+36
172	0x479e000000000000	9.969209968386869e+36
173	0x479e000000000000	9.969209968386869e+36
174	0x479e000000000000	9.969209968386869e+36
175	0x479e000000000000	9.969209968386869e+36
176	0x479e000000000000	9.969209968386869e+36
177	0x479e000000000000	9.969209968386869e+36
178	0x479e000000000000	9.969209968386869e+36
179	0x479e000000000000	9.969209968386869e+36
180	0x479e000000000000	9.969209968386869e+36
181	0x479e000000000000	9.969209968386869e+36
182	0x479e000000000000	9.969209968386869e+36
183	0x479e000000000000	9.969209968386869e+36
184	0x479e000000000000	9.969209968386869e+36
185	0x479e000000000000	9.969209968386869e+36
186	0x479e000000000000	9.969209968386869e+36
187	0x479e000000000000	9.969209968386869e+36
188	0x479e000000000000	9.969209968386869e+36
189	0x479e000000000000	9.969209968386869e+36
190	0x479e000000000000	9.969209968386869e+36
191	0x479e000000000000	9.969209968386869e+36
192	0x479e000000000000	9.969209968386869e+36
193	0x479e000000000000	9.969209968386869e+36
194	0x479e000000000000	9.969209968386869e+36
195	0x479e000000000000	9.969209968386869e+36
196	0x479e000000000000	9.969209968386869e+36
197	0x479e000000000000	9.969209968386869e+36
198	0x479e000000000000	9.969209968386869e+36
199	0x479e000000000000	9.969209968386869e+36
200	0x479e000000000000	9.969209968386869e+36
201	0x479e000000000000	9.969209968386869e+36
202	0x479e000000000000	9.969209968386869e+36
203	0x479e000000000000	9.969209968386869e+36
204	0x479e000000000000	9.969209968386869e+36
205	0x479e000000000000	9.969209968386869e+36
206	0x479e000000000000	9.969209968386869e+36
207	0x479e000000000000	9.969209968386869e+36
208	0x479e000000000000	9.969209968386869e+36
209	0x479e000000000000	9.969209968386869e+36
210	0x479e000000000000	9.969209968386869e+36
211	0x479e000000000000	9.969209968386869e+36
212	0x479e000000000000	9.969209968386869e+36
213	0x479e000000000000	9.969209968386869e+36
214	0x479e000000000000	9.969209968386869e+36
215	0x479e000000000000	9.969209968386869e+36
216	0x479e000000000000	9.969209968386869e+36
217	0x479e000000000000	9.969209968386869e+36
218	0x479e000000000000	9.969209968386869e+36
219	0x479e000000000000	9.969209968386869e+36
220	0x479e000000000000	9.969209968386869e+36
221	0x479e000000000000	9.969209968386869e+36
222	0x479e000000000000	9.969209968386869e+36
223	0x479e000000000000	9.969209968386869e+36
224	0x479e000000000000	9.969209968386869e+36
225	0x479e000000000000	9.969209968386869e+36
226	0x479e000000000000	9.969209968386869e+36
227	0x479e000000000000	9.969209968386869e+36
228	0x479e000000000000	9.969209968386869e+36
229	0x479e000000000000	9.969209968386869e+36
230	0x479e000000000000	9.969209968386869e+36
231	0x479e000000000000	9.969209968386869e+36
232	0x479e000000000000	9.969209968386869e+36
233	0x479e000000000000	9.969209968386869e+36
234	0x479e000000000000	9.969209968386869e+36
235	0x479e000000000000	9.969209968386869e+36
236	0x479e000000000000	9.969209968386869e+36
237	0x479e000000000000	9.969209968386869e+36
238	0x479e000000000000	9.969209968386869e+36
239	0x479e000000000000	9.969209968386869e+36
240	0x479e000000000000	9.969209968386869e+36
241	0x479e000000000000	9.969209968386869e+36
242	0x479e000000000000	9.969209968386869e+36
243	0x479e000000000000	9.969209968386869e+36
244	0x479e000000000000	9.969209968386869e+36
245	0x479e000000000000	9.969209968386869e+36
246	0x479e000000000000	9.969209968386869e+36
247	0x479e000000000000	9.969209968386869e+36
248	0x479e000000000000	9.969209968386869e+36
249	0x479e000000000000	9.969209968386869e+36
250	0x479e000000000000	9.969209968386869e+36
251	0x479e000000000000	9.969209968386869e+36
252	0x479e000000000000	9.969209968386869e+36
253	0x479e000000000000	9.969209968386869e+36
254	0x479e000000000000	9.969209968386869e+36
255	0x479e000000000000	9.969209968386869e+36

lat f4 [32, 32]
0	0xc28bcf6a	-69.905106
1	0xc28bbbf2	-69.86708
2	0xc28ba843	-69.828636
3	0xc28b945c	-69.789764
4	0xc28b803c	-69.75046
5	0xc28b6be1	-69.7107
6	0xc28b574b	-69.670494
7	0xc28b4276	-69.62981
8	0xc28b2d63	-69.588646
9	0xc28b180f	-69.54699
10	0xc28b0278	-69.50482
11	0xc28aec9d	-69.462135
12	0xc28ad67c	-69.418915
13	0xc28ac013	-69.375145
14	0xc28aa960	-69.33081
15	0xc28a9261	-69.2859
16	0xc28a7b15	-69.240395
17	0xc28a6378	-69.194275
18	0xc28a4b89	-69.14753
19	0xc28a3346	-69.10014
20	0xc28a1aac	-69.05209
21	0xc28a01b8	-69.00336
22	0xc289e868	-68.95392
23	0xc289ceb9	-68.903755
24	0xc289b4a9	-68.85285
25	0xc2899a35	-68.801186
26	0xc2897f59	-68.748726
27	0xc2896413	-68.69546
28	0xc2894860	-68.64136
29	0xc2892c3b	-68.58639
30	0xc2890fa2	-68.53053
31	0xc288f291	-68.47376
32	0xc28be535	-69.94767
33	0xc28bd1b4	-69.90958
34	0xc28bbdfc	-69.87106
35	0xc28baa0d	-69.83213
36	0xc28b95e4	-69.792755
37	0xc28b8181	-69.75294
38	0xc28b6ce1	-69.712654
39	0xc28b5804	-69.671906
40	0xc28b42e7	-69.63067
41	0xc28b2d8a	-69.58894
42	0xc28b17ea	-69.54671
43	0xc28b0206	-69.50395
44	0xc28aebdc	-69.46066
45	0xc28ad569	-69.41682
46	0xc28abead	-69.37241
47	0xc28aa7a5	-69.32743
48	0xc28a904f	-69.28185
49	0xc28a78a9	-69.235664
50	0xc28a60b0	-69.18884
51	0xc28a4863	-69.14138
52	0xc28a2fbf	-69.093254
53	0xc28a16c1	-69.04444
54	0xc289fd68	-68.994934
55	0xc289e3af	-68.944695
56	0xc289c995	-68.893715
57	0xc289af17	-68.84197
58	0xc2899431	-68.78944
59	0xc28978e1	-68.73609
60	0xc2895d23	-68.68191
61	0xc28940f3	-68.626854
62	0xc2892450	-68.57092
63	0xc2890734	-68.51407
64	0xc28bfaff	-69.99023
65	0xc28be775	-69.952065
66	0xc28bd3b4	-69.91348
67	0xc28bbfbc	-69.87448
68	0xc28bab8a	-69.83504
69	0xc28b971e	-69.79515
70	0xc28b8275	-69.7548
71	0xc28b6d8f	-69.71398
72	0xc28b5869	-69.672676
73	0xc28b4303	-69.63088
74	0xc28b2d59	-69.58857
75	0xc28b176c	-69.545746
76	0xc28b0138	-69.50238
77	0xc28aeabd	-69.45847
78	0xc28ad3f7	-69.413994
79	0xc28abce6	-69.36894
80	0xc28aa586	-69.32329
81	0xc28a8dd6	-69.27702
82	0xc28a75d4	-69.23013
83	0xc28a5d7d	-69.182594
84	0xc28a44cf	-69.13439
85	0xc28a2bc8	-69.08551
86	0xc28a1264	-69.03592
87	0xc289f8a1	-68.9856
88	0xc289de7d	-68.93455
89	0xc289c3f4	-68.88272
90	0xc289a904	-68.83011
91	0xc2898daa	-68.77669
92	0xc28971e1	-68.72242
93	0xc28955a8	-68.6673
94	0xc28938f9	-68.611275
95	0xc2891bd3	-68.554344
96	0xc28c10c2	-70.03273
97	0xc28bfd2f	-69.9945
98	0xc28be966	-69.95586
99	0xc28bd564	-69.91678
100	0xc28bc12a	-69.87727
101	0xc28bacb4	-69.83731
102	0xc28b9803	-69.7969
103	0xc28b8313	-69.756004
104	0xc28b6de5	-69.71464
105	0xc28b5875	-69.67277
106	0xc28b42c3	-69.630394
107	0xc28b2ccc	-69.587494
108	0xc28b168f	-69.54406
109	0xc28b000a	-69.50008
110	0xc28ae93b	-69.45553
111	0xc28ad220	-69.4104
112	0xc28abab6	-69.36467
113	0xc28aa2fd	-69.31834
114	0xc28a8af1	-69.27137
115	0xc28a7290	-69.223755
116	0xc28a59d9	-69.17548
117	0xc28a40c7	-69.12652
118	0xc28a2759	-69.07685
119	0xc28a0d8d	-69.02647
120	0xc289f35e	-68.97533
121	0xc289d8cb	-68.92342
122	0xc289bdd1	-68.870735
123	0xc289a26c	-68.81723
124	0xc2898699	-68.762886
125	0xc2896a54	-68.70767
126	0xc2894d9b	-68.65157
127	0xc289306a	-68.59456
128	0xc28c2683	-70.07522
129	0xc28c12e8	-70.03693
130	0xc28bff16	-69.998215
131	0xc28beb0b	-69.95907
132	0xc28bd6c8	-69.919495
133	0xc28bc249	-69.87946
134	0xc28bad8f	-69.83898
135	0xc28b9896	-69.79802
136	0xc28b835e	-69.75658
137	0xc28b6de6	-69.714645
138	0xc28b582a	-69.672195
139	0xc28b422a	-69.62923
140	0xc28b2be4	-69.585724
141	0xc28b1555	-69.541664
142	0xc28afe7d	-69.49705
143	0xc28ae758	-69.45184
144	0xc28acfe5	-69.406044
145	0xc28ab822	-69.359634
146	0xc28aa00d	-69.3126
147	0xc28a87a2	-69.26491
148	0xc28a6ee1	-69.21656
149	0xc28a55c5	-69.16752
150	0xc28a3c4e	-69.11778
151	0xc28a2277	-69.067314
152	0xc28a083e	-69.0161
153	0xc289eda1	-68.96412
154	0xc289d29c	-68.91135
155	0xc289b72d	-68.857765
156	0xc2899b4f	-68.80334
157	0xc2897f01	-68.748055
158	0xc289623d	-68.69187
159	0xc2894501	-68.63477
160	0xc28c3c41	-70.11768
161	0xc28c289d	-70.07932
162	0xc28c14c2	-70.04054
163	0xc28c00af	-70.001335
164	0xc28bec62	-69.961685
165	0xc28bd7db	-69.92159
166	0xc28bc317	-69.881035
167	0xc28bae16	-69.84001
168	0xc28b98d5	-69.7985
169	0xc28b8353	-69.75649
170	0xc28b6d8e	-69.713974
171	0xc28b5785	-69.67094
172	0xc28b4135	-69.62736
173	0xc28b2a9d	-69.58323
174	0xc28b13bb	-69.538536
175	0xc28afc8d	-69.49326
176	0xc28ae511	-69.447395
177	0xc28acd44	-69.40091
178	0xc28ab525	-69.3538
179	0xc28a9cb1	-69.30604
180	0xc28a83e5	-69.25761
181	0xc28a6ac0	-69.208496
182	0xc28a513e	-69.158676
183	0xc28a375d	-69.10813
184	0xc28a1d1a	-69.05684
185	0xc28a0273	-69.00478
186	0xc289e764	-68.951935
187	0xc289cbea	-68.89827
188	0xc289b002	-68.843765
189	0xc28993a9	-68.7884
190	0xc28976db	-68.73214
191	0xc2895994	-68.67496
192	0xc28c51fa	-70.16011
193	0xc28c3e4d	-70.12168
194	0xc28c2a69	-70.08283
195	0xc28c164d	-70.04356
196	0xc28c01f7	-70.00384
197	0xc28bed67	-69.96368
198	0xc28bd89a	-69.92305
199	0xc28bc38f	-69.88195
200	0xc28bae45	-69.84037
201	0xc28b98ba	-69.798294
202	0xc28b82ec	-69.75571
203	0xc28b6cd9	-69.71259
204	0xc28b5680	-69.668945
205	0xc28b3fdf	-69.62475
206	0xc28b28f3	-69.57998
207	0xc28b11bc	-69.53464
208	0xc28afa36	-69.48869
209	0xc28ae25f	-69.44213
210	0xc28aca36	-69.39494
211	0xc28ab1b8	-69.34711
212	0xc28a98e3	-69.29861
213	0xc28a7fb3	-69.24941
214	0xc28a6628	-69.199524
215	0xc28a4c3d	-69.1489
216	0xc28a31f0	-69.097534
217	0xc28a173e	-69.045395
218	0xc289fc25	-68.99247
219	0xc289e0a0	-68.93872
220	0xc289c4ae	-68.88414
221	0xc289a84a	-68.82869
222	0xc2898b71	-68.77235
223	0xc2896e1f	-68.71508
224	0xc28c67ac	-70.202484
225	0xc28c53f6	-70.16399
226	0xc28c4009	-70.12507
227	0xc28c2be4	-70.085724
228	0xc28c1785	-70.04594
229	0xc28c02ec	-70.00571
230	0xc28bee16	-69.96501
231	0xc28bd902	-69.92384
232	0xc28bc3af	-69.882195
233	0xc28bae1a	-69.84004
234	0xc28b9843	-69.797386
235	0xc28b8227	-69.7542
236	0xc28b6bc4	-69.71048
237	0xc28b5519	-69.66621
238	0xc28b3e24	-69.62137
239	0xc28b26e3	-69.57595
240	0xc28b0f53	-69.52993
241	0xc28af773	-69.4833
242	0xc28adf40	-69.436035
243	0xc28ac6b8	-69.38812
244	0xc28aadd9	-69.33955
245	0xc28a949f	-69.290276
246	0xc28a7b0a	-69.24031
247	0xc28a6114	-69.189606
248	0xc28a46bd	-69.13816
249	0xc28a2c01	-69.085945
250	0xc28a10de	-69.03294
251	0xc289f54f	-68.97912
252	0xc289d952	-68.92445
253	0xc289bce3	-68.86892
254	0xc2899fff	-68.81249
255	0xc28982a3	-68.75515

lon f4 [32, 32]
0	0x430a59d0	138.35083
1	0x430a2f4d	138.18477
2	0x430a04d1	138.01881
3	0x4309da5a	137.85294
4	0x4309afe6	137.6871
5	0x43098573	137.52129
6	0x43095b00	137.35547
7	0x4309308b	137.18962
8	0x43090613	137.02373
9	0x4308db95	136.85774
10	0x4308b110	136.69165
11	0x43088682	136.52542
12	0x43085bea	136.35904
13	0x43083145	136.19246
14	0x43080691	136.02565
15	0x4307dbce	135.85861
16	0x4307b0f8	135.69128
17	0x4307860f	135.52367
18	0x43075b11	135.35573
19	0x43072ffa	135.18741
20	0x430704ca	135.0187
21	0x4306d97f	134.8496
22	0x4306ae17	134.68004
23	0x4306828f	134.51
24	0x430656e5	134.33943
25	0x43062b18	134.16833
26	0x4305ff25	133.99666
27	0x4305d30a	133.82437
28	0x4305a6c5	133.65144
29	0x43057a54	133.47784
30	0x43054db4	133.30353
31	0x430520e3	133.12846
32	0x430a4649	138.27455
33	0x430a1bb8	138.10828
34	0x4309f12e	137.94211
35	0x4309c6aa	137.77603
36	0x43099c28	137.60999
37	0x430971a9	137.44398
38	0x43094729	137.27797
39	0x43091ca8	137.11194
40	0x4308f223	136.94585
41	0x4308c799	136.77968
42	0x43089d08	136.6134
43	0x4308726e	136.44699
44	0x430847ca	136.28043
45	0x43081d19	136.11366
46	0x4307f25a	135.94669
47	0x4307c78c	135.77948
48	0x43079cac	135.612
49	0x430771b8	135.44421
50	0x430746ae	135.2761
51	0x43071b8e	135.10764
52	0x4306f054	134.93878
53	0x4306c4ff	134.76952
54	0x4306998c	134.5998
55	0x43066dfb	134.42961
56	0x43064248	134.25891
57	0x43061672	134.08768
58	0x4305ea76	133.91586
59	0x4305be52	133.74344
60	0x43059205	133.57039
61	0x4305658b	133.39665
62	0x430538e3	133.22221
63	0x43050c0a	133.04703
64	0x430a32a9	138.19789
65	0x430a080b	138.03142
66	0x4309dd73	137.86504
67	0x4309b2e1	137.69875
68	0x43098853	137.53252
69	0x43095dc6	137.3663
70	0x4309333a	137.2001
71	0x430908ac	137.03387
72	0x4308de1a	136.86758
73	0x4308b384	136.70123
74	0x430888e7	136.53477
75	0x43085e41	136.36818
76	0x43083391	136.20143
77	0x430808d5	136.0345
78	0x4307de0c	135.86737
79	0x4307b332	135.69998
80	0x43078847	135.53233
81	0x43075d48	135.36438
82	0x43073235	135.19612
83	0x4307070a	135.0275
84	0x4306dbc6	134.85849
85	0x4306b067	134.68907
86	0x430684eb	134.51921
87	0x43065950	134.34888
88	0x43062d94	134.17804
89	0x430601b4	134.00665
90	0x4305d5b0	133.83472
91	0x4305a983	133.66216
92	0x43057d2d	133.48897
93	0x430550ac	133.31512
94	0x430523fb	133.14055
95	0x4304f71b	132.96526
96	0x430a1ef4	138.12091
97	0x4309f447	137.95421
98	0x4309c9a2	137.78763
99	0x43099f03	137.62114
100	0x43097467	137.4547
101	0x430949ce	137.2883
102	0x43091f34	137.12189
103	0x4308f49a	136.95547
104	0x4308c9fc	136.789
105	0x43089f5a	136.62247
106	0x430874b0	136.45581
107	0x430849ff	136.28905
108	0x43081f43	136.12212
109	0x4307f47c	135.95502
110	0x4307c9a7	135.7877
111	0x43079ec2	135.62015
112	0x430773cc	135.45233
113	0x430748c3	135.28423
114	0x43071da5	135.1158
115	0x4306f270	134.94702
116	0x4306c722	134.77786
117	0x43069bb9	134.60829
118	0x43067034	134.4383
119	0x4306448f	134.2678
120	0x430618ca	134.09683
121	0x4305ece1	133.92531
122	0x4305c0d4	133.75323
123	0x4305949f	133.58055
124	0x43056841	133.40724
125	0x43053bb7	133.23326
126	0x43050efe	133.05856
127	0x4304e216	132.88315
128	0x430a0b33	138.04375
129	0x4309e079	137.87685
130	0x4309b5c7	137.71007
131	0x43098b1a	137.54337
132	0x43096071	137.37672
133	0x430935ca	137.21011
134	0x43090b24	137.04352
135	0x4308e07d	136.8769
136	0x4308b5d3	136.71025
137	0x43088b24	136.54352
138	0x4308606f	136.3767
139	0x430835b2	136.20975
140	0x43080aeb	136.04265
141	0x4307e018	135.87537
142	0x4307b538	135.70789
143	0x43078a48	135.54016
144	0x43075f47	135.37218
145	0x43073434	135.20392
146	0x4307090b	135.03532
147	0x4306ddcc	134.8664
148	0x4306b274	134.69708
149	0x43068701	134.52736
150	0x43065b72	134.35721
151	0x43062fc4	134.18658
152	0x430603f5	134.01546
153	0x4305d804	133.84381
154	0x4305abed	133.67159
155	0x43057fb0	133.49878
156	0x43055349	133.32533
157	0x430526b7	133.15123
158	0x4304f9f7	132.97643
159	0x4304cd07	132.80089
160	0x4309f761	137.96632
161	0x4309cc9a	137.79922
162	0x4309a1d9	137.63222
163	0x4309771f	137.46532
164	0x43094c69	137.29848
165	0x430921b5	137.13167
166	0x4308f703	136.96489
167	0x4308cc4f	136.79808
168	0x4308a198	136.63123
169	0x430876dd	136.46431
170	0x43084c1c	136.2973
171	0x43082153	136.13017
172	0x4307f681	135.9629
173	0x4307cba2	135.79544
174	0x4307a0b7	135.62779
175	0x430775bc	135.4599
176	0x43074ab1	135.29176
177	0x43071f93	135.12334
178	0x4306f460	134.95459
179	0x4306c916	134.78549
180	0x43069db4	134.61603
181	0x43067238	134.44617
182	0x4306469f	134.27586
183	0x43061ae8	134.1051
184	0x4305ef10	133.93384
185	0x4305c316	133.76205
186	0x430596f7	133.5897
187	0x43056ab1	133.41676
188	0x43053e42	133.2432
189	0x430511a8	133.06897
190	0x4304e4e0	132.89404
191	0x4304b7e8	132.71838
192	0x4309e379	137.88857
193	0x4309b8a4	137.72125
194	0x43098dd6	137.55405
195	0x4309630e	137.38693
196	0x4309384b	137.2199
197	0x43090d8a	137.05289
198	0x4308e2cb	136.88591
199	0x4308b80a	136.7189
200	0x43088d48	136.55188
201	0x43086281	136.38478
202	0x430837b4	136.21759
203	0x43080cdf	136.05028
204	0x4307e201	135.88283
205	0x4307b717	135.7152
206	0x43078c21	135.54738
207	0x4307611b	135.37932
208	0x43073605	135.21101
209	0x43070adc	135.04242
210	0x4306df9f	134.87352
211	0x4306b44b	134.70427
212	0x430688df	134.53465
213	0x43065d59	134.36464
214	0x430631b7	134.1942
215	0x430605f6	134.02328
216	0x4305da16	133.8519
217	0x4305ae12	133.67996
218	0x430581eb	133.50749
219	0x4305559d	133.33443
220	0x43052925	133.16072
221	0x4304fc83	132.98637
222	0x4304cfb4	132.81134
223	0x4304a2b4	132.63556
224	0x4309cf7b	137.81047
225	0x4309a498	137.64294
226	0x430979bc	137.47552
227	0x43094ee7	137.30821
228	0x43092417	137.14098
229	0x4308f949	136.97377
230	0x4308ce7d	136.8066
231	0x4308a3b0	136.6394
232	0x430878e1	136.47218
233	0x43084e0e	136.3049
234	0x43082335	136.13753
235	0x4307f855	135.97005
236	0x4307cd6b	135.80241
237	0x4307a276	135.63461
238	0x43077774	135.46661
239	0x43074c64	135.2984
240	0x43072143	135.12993
241	0x4306f610	134.96118
242	0x4306cac8	134.79211
243	0x43069f6b	134.62273
244	0x430673f5	134.45296
245	0x43064865	134.28279
246	0x43061cb9	134.1122
247	0x4305f0ef	133.94115
248	0x4305c506	133.76962
249	0x430598fa	133.59756
250	0x43056cc9	133.42494
251	0x43054073	133.25175
252	0x430513f3	133.07793
253	0x4304e749	132.90346
254	0x4304ba72	132.7283
255	0x43048d6b	132.55241

qa f4 [32, 32]
0	0x00000000	0.0
1	0x00000000	0.0
2	0x00000000	0.0
3	0x00000000	0.0
4	0x00000000	0.0
5	0x00000000	0.0
6	0x00000000	0.0
7	0x00000000	0.0
8	0x00000000	0.0
9	0x00000000	0.0
10	0x00000000	0.0
11	0x00000000	0.0
12	0x00000000	0.0
13	0x00000000	0.0
14	0x00000000	0.0
15	0x00000000	0.0
16	0x00000000	0.0
17	0x00000000	0.0
18	0x00000000	0.0
19	0x00000000	0.0
20	0x00000000	0.0
21	0x00000000	0.0
22	0x00000000	0.0
23	0x00000000	0.0
24	0x00000000	0.0
25	0x00000000	0.0
26	0x00000000	0.0
27	0x00000000	0.0
28	0x00000000	0.0
29	0x00000000	0.0
30	0x00000000	0.0
31	0x00000000	0.0
32	0x00000000	0.0
33	0x00000000	0.0
34	0x00000000	0.0
35	0x00000000	0.0
36	0x00000000	0.0
37	0x00000000	0.0
38	0x00000000	0.0
39	0x00000000	0.0
40	0x00000000	0.0
41	0x00000000	0.0
42	0x00000000	0.0
43	0x00000000	0.0
44	0x00000000	0.0
45	0x00000000	0.0
46	0x00000000	0.0
47	0x00000000	0.0
48	0x00000000	0.0
49	0x00000000	0.0
50	0x00000000	0.0
51	0x00000000	0.0
52	0x00000000	0.0
53	0x00000000	0.0
54	0x00000000	0.0
55	0x00000000	0.0
56	0x00000000	0.0
57	0x00000000	0.0
58	0x00000000	0.0
59	0x00000000	0.0
60	0x00000000	0.0
61	0x00000000	0.0
62	0x00000000	0.0
63	0x00000000	0.0
64	0x00000000	0.0
65	0x00000000	0.0
66	0x00000000	0.0
67	0x00000000	0.0
68	0x00000000	0.0
69	0x00000000	0.0
70	0x00000000	0.0
71	0x00000000	0.0
72	0x00000000	0.0
73	0x00000000	0.0
74	0x00000000	0.0
75	0x00000000	0.0
76	0x00000000	0.0
77	0x00000000	0.0
78	0x00000000	0.0
79	0x00000000	0.0
80	0x00000000	0.0
81	0x00000000	0.0
82	0x00000000	0.0
83	0x00000000	0.0
84	0x00000000	0.0
85	0x00000000	0.0
86	0x00000000	0.0
87	0x00000000	0.0
88	0x00000000	0.0
89	0x00000000	0.0
90	0x00000000	0.0
91	0x00000000	0.0
92	0x00000000	0.0
93	0x00000000	0.0
94	0x00000000	0.0
95	0x00000000	0.0
96	0x00000000	0.0
97	0x00000000	0.0
98	0x00000000	0.0
99	0x00000000	0.0
100	0x00000000	0.0
101	0x00000000	0.0
102	0x00000000	0.0
103	0x00000000	0.0
104	0x00000000	0.0
105	0x00000000	0.0
106	0x00000000	0.0
107	0x00000000	0.0
108	0x00000000	0.0
109	0x00000000	0.0
110	0x00000000	0.0
111	0x00000000	0.0
112	0x00000000	0.0
113	0x00000000	0.0
114	0x00000000	0.0
115	0x00000000	0.0
116	0x00000000	0.0
117	0x00000000	0.0
118	0x00000000	0.0
119	0x00000000	0.0
120	0x00000000	0.0
121	0x00000000	0.0
122	0x00000000	0.0
123	0x00000000	0.0
124	0x00000000	0.0
125	0x00000000	0.0
126	0x00000000	0.0
127	0x00000000	0.0
128	0x00000000	0.0
129	0x00000000	0.0
130	0x00000000	0.0
131	0x00000000	0.0
132	0x00000000	0.0
133	0x00000000	0.0
134	0x00000000	0.0
135	0x00000000	0.0
136	0x00000000	0.0
137	0x00000000	0.0
138	0x00000000	0.0
139	0x00000000	0.0
140	0x00000000	0.0
141	0x00000000	0.0
142	0x00000000	0.0
143	0x00000000	0.0
144	0x00000000	0.0
145	0x00000000	0.0
146	0x00000000	0.0
147	0x00000000	0.0
148	0x00000000	0.0
149	0x00000000	0.0
150	0x00000000	0.0
151	0x00000000	0.0
152	0x00000000	0.0
153	0x00000000	0.0
154	0x00000000	0.0
155	0x00000000	0.0
156	0x00000000	0.0
157	0x00000000	0.0
158	0x00000000	0.0
159	0x00000000	0.0
160	0x00000000	0.0
161	0x00000000	0.0
162	0x00000000	0.0
163	0x00000000	0.0
164	0x00000000	0.0
165	0x00000000	0.0
166	0x00000000	0.0
167	0x00000000	0.0
168	0x00000000	0.0
169	0x00000000	0.0
170	0x00000000	0.0
171	0x00000000	0.0
172	0x00000000	0.0
173	0x00000000	0.0
174	0x00000000	0.0
175	0x00000000	0.0
176	0x00000000	0.0
177	0x00000000	0.0
178	0x00000000	0.0
179	0x00000000	0.0
180	0x00000000	0.0
181	0x00000000	0.0
182	0x00000000	0.0
183	0x00000000	0.0
184	0x00000000	0.0
185	0x00000000	0.0
186	0x00000000	0.0
187	0x00000000	0.0
188	0x00000000	0.0
189	0x00000000	0.0
190	0x00000000	0.0
191	0x00000000	0.0
192	0x00000000	0.0
193	0x00000000	0.0
194	0x00000000	0.0
195	0x00000000	0.0
196	0x00000000	0.0
197	0x00000000	0.0
198	0x00000000	0.0
199	0x00000000	0.0
200	0x00000000	0.0
201	0x00000000	0.0
202	0x00000000	0.0
203	0x00000000	0.0
204	0x00000000	0.0
205	0x00000000	0.0
206	0x00000000	0.0
207	0x00000000	0.0
208	0x00000000	0.0
209	0x00000000	0.0
210	0x00000000	0.0
211	0x00000000	0.0
212	0x00000000	0.0
213	0x00000000	0.0
214	0x00000000	0.0
215	0x00000000	0.0
216	0x00000000	0.0
217	0x00000000	0.0
218	0x00000000	0.0
219	0x00000000	0.0
220	0x00000000	0.0
221	0x00000000	0.0
222	0x00000000	0.0
223	0x00000000	0.0
224	0x00000000	0.0
225	0x00000000	0.0
226	0x00000000	0.0
227	0x00000000	0.0
228	0x00000000	0.0
229	0x00000000	0.0
230	0x00000000	0.0
231	0x00000000	0.0
232	0x00000000	0.0
233	0x00000000	0.0
234	0x00000000	0.0
235	0x00000000	0.0
236	0x00000000	0.0
237	0x00000000	0.0
238	0x00000000	0.0
239	0x00000000	0.0
240	0x00000000	0.0
241	0x00000000	0.0
242	0x00000000	0.0
243	0x00000000	0.0
244	0x00000000	0.0
245	0x00000000	0.0
246	0x00000000	0.0
247	0x00000000	0.0
248	0x00000000	0.0
249	0x00000000	0.0
250	0x00000000	0.0
251	0x00000000	0.0
252	0x00000000	0.0
253	0x00000000	0.0
254	0x00000000	0.0
255	0x00000000	0.0
