data/dataset/negative/8f529c9a-b63b-4d1e-b5b8-8377a831f94d.npz (npz, 28097 bytes, 5 tensors)

methane f8 [32, 32]
-6.83544921875 -4.17596435546875 2.15802001953125 2.5035400390625 -0.3724365234375 -1.3748779296875 3.0494384765625 -6.500732421875
0.22100830078125 1.64007568359375 2.2066650390625 -2.10260009765625 -0.760498046875 4.084716796875 1.875 4.90618896484375
-1.6214599609375 -7.0777587890625 -2.04412841796875 -3.7215576171875 -0.4400634765625 0.18927001953125 -0.84979248046875 -1.41778564453125
3.7962646484375 3.9857177734375 1.31591796875 -2.6864013671875 -2.4635009765625 -3.739501953125 -2.1322021484375 1.7144775390625
-6.114990234375 -4.43109130859375 -1.34869384765625 -3.93768310546875 3.390380859375 -5.68939208984375 -2.3936767578125 -1.6199951171875
-0.41448974609375 -0.98480224609375 3.010986328125 -1.57208251953125 4.541748046875 4.0615234375 3.0989990234375 3.507568359375
1.72216796875 2.428466796875 -0.41021728515625 0.0318603515625 -1.61065673828125 -4.05810546875 -0.03326416015625 -4.69818115234375
1.51654052734375 0.653564453125 5.94140625 1.5135498046875 -0.822021484375 0.4356689453125 -0.0244140625 -0.8475341796875
-1.5201416015625 -7.22515869140625 -4.46380615234375 3.38177490234375 0.7432861328125 0.14288330078125 0.82666015625 -0.72625732421875
-4.29559326171875 3.05047607421875 -1.98907470703125 2.68011474609375 -0.097412109375 1.260986328125 3.92919921875 6.40618896484375
1.86724853515625 -1.37744140625 0.92059326171875 -0.22479248046875 -0.8431396484375 -1.1416015625 -0.65777587890625 1.16363525390625
1.29437255859375 -1.902587890625 4.08123779296875 6.34149169921875 13.0799560546875 0.8092041015625 -0.81396484375 0.4912109375
-0.9146728515625 -7.02288818359375 0.63739013671875 -1.57244873046875 3.1036376953125 0.02716064453125 -0.2203369140625 1.2958984375
-3.91619873046875 -1.31396484375 3.0040283203125 0.5601806640625 8.37548828125 -5.56494140625 0.2147216796875 0.3353271484375
-0.0240478515625 -3.5322265625 -4.06964111328125 -4.37530517578125 -1.92071533203125 -2.0960693359375 1.35235595703125 5.0936279296875
3.23895263671875 4.8521728515625 3.10113525390625 -0.4761962890625 2.0504150390625 -2.07843017578125 1.17919921875 -4.7889404296875
-0.9820556640625 0.11871337890625 -3.51971435546875 -0.318603515625 -1.796630859375 2.7181396484375 4.6715087890625 -0.7581787109375
0.64166259765625 -2.11376953125 4.3515625 -1.31158447265625 3.489990234375 0.9111328125 6.6627197265625 4.3907470703125
-3.8038330078125 0.4202880859375 -4.84796142578125 -1.14483642578125 -4.64190673828125 -2.15093994140625 1.15252685546875 2.39715576171875
2.29705810546875 2.882080078125 1.65155029296875 2.8160400390625 -3.65435791015625 5.92816162109375 1.843017578125 2.6199951171875
0.064697265625 -3.0577392578125 3.75506591796875 -0.8319091796875 -1.59185791015625 4.6588134765625 9.753662109375 0.56781005859375
4.09002685546875 2.08880615234375 6.10247802734375 -3.7513427734375 -4.061767578125 -4.7933349609375 -2.4432373046875 0.9412841796875
0.78887939453125 -0.718017578125 -0.88482666015625 1.07391357421875 -0.2431640625 -4.84234619140625 4.057373046875 2.47857666015625
0.23321533203125 2.2470703125 -2.9114990234375 -3.5980224609375 -2.288818359375 6.66510009765625 1.6868896484375 3.50341796875
2.37017822265625 -3.0439453125 3.42425537109375 -4.5672607421875 1.52508544921875 4.705078125 6.685546875 -0.35015869140625
-0.82098388671875 5.64666748046875 4.4034423828125 -8.110595703125 -1.5926513671875 -7.6402587890625 -3.18505859375 -0.0653076171875
-1.60699462890625 2.546875 -0.1383056640625 -0.53472900390625 -0.0489501953125 3.36663818359375 5.337890625 6.49053955078125
-0.9044189453125 2.6337890625 2.7618408203125 2.013671875 3.17510986328125 7.36334228515625 -0.017578125 4.817626953125
0.99139404296875 3.29364013671875 2.29339599609375 -2.80926513671875 -2.02862548828125 -6.0494384765625 9.3642578125 3.750244140625
8.78375244140625 1.03802490234375 6.77947998046875 -4.9031982421875 -6.9156494140625 -5.482177734375 -4.98388671875 2.872314453125
0.288818359375 0.84814453125 -2.84124755859375 1.11822509765625 0.18402099609375 4.66192626953125 1.4420166015625 -1.019287109375
-4.62481689453125 -2.5487060546875 -1.6165771484375 -3.304443359375 -4.12042236328125 4.5799560546875 0.87744140625 -3.65008544921875
00000000: 0000 0000 8057 1bc0 0000 0000 30b4 10c0
00000010: 0000 0000 a043 0140 0000 0000 4007 0440
00000020: 0000 0000 00d6 d7bf 0000 0000 80ff f5bf
00000030: 0000 0000 4065 0840 0000 0000 c000 1ac0
00000040: 0000 0000 004a cc3f 0000 0000 c03d fa3f
00000050: 0000 0000 40a7 0140 0000 0000 20d2 00c0
00000060: 0000 0000 0056 e8bf 0000 0000 c056 1040
00000070: 0000 0000 0000 fe3f 0000 0000 f09f 1340
00000080: 0000 0000 80f1 f9bf 0000 0000 a04f 1cc0
00000090: 0000 0000 605a 00c0 0000 0000 c0c5 0dc0
000000a0: 0000 0000 002a dcbf 0000 0000 003a c83f
000000b0: 0000 0000 8031 ebbf 0000 0000 40af f6bf
000000c0: 0000 0000 c05e 0e40 0000 0000 c0e2 0f40
000000d0: 0000 0000 000e f53f 0000 0000 c07d 05c0
000000e0: 0000 0000 40b5 03c0 0000 0000 80ea 0dc0
000000f0: 0000 0000 c00e 01c0 0000 0000 806e fb3f
00000100: 0000 0000 c075 18c0 0000 0000 70b9 11c0
00000110: 0000 0000 4094 f5bf 0000 0000 6080 0fc0
00000120: 0000 0000 801f 0b40 0000 0000 f0c1 16c0
00000130: 0000 0000 4026 03c0 0000 0000 80eb f9bf
00000140: 0000 0000 0087 dabf 0000 0000 8083 efbf
00000150: 0000 0000 8016 0840 0000 0000 4027 f9bf
00000160: 0000 0000 c02a 1240 0000 0000 003f 1040
00000170: 0000 0000 c0ca 0840 0000 0000 800f 0c40
00000180: 0000 0000 008e fb3f 0000 0000 806d 0340
00000190: 0000 0000 0041 dabf 0000 0000 0050 a03f
000001a0: 0000 0000 40c5 f9bf 0000 0000 803b 10c0
000001b0: 0000 0000 0008 a1bf 0000 0000 f0ca 12c0
000001c0: 0000 0000 c043 f83f 0000 0000 00ea e43f
000001d0: 0000 0000 00c4 1740 0000 0000 8037 f83f
000001e0: 0000 0000 004e eabf 0000 0000 00e2 db3f
000001f0: 0000 0000 0000 99bf 0000 0000 001f ebbf
00000200: 0000 0000 8052 f8bf 0000 0000 90e6 1cc0
00000210: 0000 0000 f0da 11c0 0000 0000 e00d 0b40
00000220: 0000 0000 00c9 e73f 0000 0000 004a c23f
00000230: 0000 0000 0074 ea3f 0000 0000 803d e7bf
00000240: 0000 0000 b02e 11c0 0000 0000 6067 0840
00000250: 0000 0000 40d3 ffbf 0000 0000 e070 0540
00000260: 0000 0000 00f0 b8bf 0000 0000 002d f43f
00000270: 0000 0000 006f 0f40 0000 0000 f09f 1940
00000280: 0000 0000 40e0 fd3f 0000 0000 000a f6bf
00000290: 0000 0000 8075 ed3f 0000 0000 00c6 ccbf
000002a0: 0000 0000 00fb eabf 0000 0000 0044 f2bf
000002b0: 0000 0000 800c e5bf 0000 0000 409e f23f
000002c0: 0000 0000 c0b5 f43f 0000 0000 0071 febf
000002d0: 0000 0000 3053 1040 0000 0000 b05d 1940
000002e0: 0000 0000 f028 2a40 0000 0000 00e5 e93f
000002f0: 0000 0000 000c eabf 0000 0000 0070 df3f
00000300: 0000 0000 0045 edbf 0000 0000 7017 1cc0
00000310: 0000 0000 8065 e43f 0000 0000 c028 f9bf
00000320: 0000 0000 40d4 0840 0000 0000 00d0 9b3f
00000330: 0000 0000 0034 ccbf 0000 0000 00bc f43f
00000340: 0000 0000 6054 0fc0 0000 0000 0006 f5bf
00000350: 0000 0000 4008 0840 0000 0000 00ed e13f
00000360: 0000 0000 40c0 2040 0000 0000 8042 16c0
00000370: 0000 0000 007c cb3f 0000 0000 0076 d53f
00000380: 0000 0000 00a0 98bf 0000 0000 0042 0cc0
00000390: 0000 0000 5047 10c0 0000 0000 5080 11c0
000003a0: 0000 0000 40bb febf 0000 0000 c0c4 00c0
000003b0: 0000 0000 40a3 f53f 0000 0000 e05f 1440
000003c0: 0000 0000 60e9 0940 0000 0000 a068 1340
000003d0: 0000 0000 20cf 0840 0000 0000 007a debf
000003e0: 0000 0000 4067 0040 0000 0000 a0a0 00c0
000003f0: 0000 0000 00de f23f 0000 0000 e027 13c0
00000400: 0000 0000 006d efbf 0000 0000 0064 be3f
00000410: 0000 0000 6028 0cc0 0000 0000 0064 d4bf
00000420: 0000 0000 00bf fcbf 0000 0000 c0be 0540
00000430: 0000 0000 a0af 1240 0000 0000 0043 e8bf
00000440: 0000 0000 8088 e43f 0000 0000 00e9 00c0
00000450: 0000 0000 0068 1140 0000 0000 40fc f4bf
00000460: 0000 0000 80eb 0b40 0000 0000 0028 ed3f
00000470: 0000 0000 a0a6 1a40 0000 0000 2090 1140
00000480: 0000 0000 406e 0ec0 0000 0000 00e6 da3f
00000490: 0000 0000 5064 13c0 0000 0000 4051 f2bf
000004a0: 0000 0000 5091 12c0 0000 0000 2035 01c0
000004b0: 0000 0000 c070 f23f 0000 0000 602d 0340
000004c0: 0000 0000 6060 0240 0000 0000 800e 0740
000004d0: 0000 0000 c06c fa3f 0000 0000 4087 0640
000004e0: 0000 0000 203c 0dc0 0000 0000 70b6 1740
000004f0: 0000 0000 007d fd3f 0000 0000 c0f5 0440
00000500: 0000 0000 0090 b03f 0000 0000 4076 08c0
00000510: 0000 0000 600a 0e40 0000 0000 009f eabf
00000520: 0000 0000 4078 f9bf 0000 0000 a0a2 1240
00000530: 0000 0000 e081 2340 0000 0000 802b e23f
00000540: 0000 0000 305c 1040 0000 0000 e0b5 0040
00000550: 0000 0000 f068 1840 0000 0000 c002 0ec0
00000560: 0000 0000 403f 10c0 0000 0000 602c 13c0
00000570: 0000 0000 c08b 03c0 0000 0000 001f ee3f
00000580: 0000 0000 803e e93f 0000 0000 00fa e6bf
00000590: 0000 0000 8050 ecbf 0000 0000 c02e f13f
000005a0: 0000 0000 0020 cfbf 0000 0000 905e 13c0
000005b0: 0000 0000 c03a 1040 0000 0000 20d4 0340
000005c0: 0000 0000 00da cd3f 0000 0000 00fa 0140
000005d0: 0000 0000 c04a 07c0 0000 0000 c0c8 0cc0
000005e0: 0000 0000 804f 02c0 0000 0000 10a9 1a40
000005f0: 0000 0000 80fd fa3f 0000 0000 0007 0c40
00000600: 0000 0000 20f6 0240 0000 0000 005a 08c0
00000610: 0000 0000 e064 0b40 0000 0000 e044 12c0
00000620: 0000 0000 c066 f83f 0000 0000 00d2 1240
00000630: 0000 0000 00be 1a40 0000 0000 0069 d6bf
00000640: 0000 0000 8045 eabf 0000 0000 3096 1640
00000650: 0000 0000 209d 1140 0000 0000 a038 20c0
00000660: 0000 0000 807b f9bf 0000 0000 a08f 1ec0
00000670: 0000 0000 007b 09c0 0000 0000 00b8 b0bf
00000680: 0000 0000 40b6 f9bf 0000 0000 0060 0440
00000690: 0000 0000 00b4 c1bf 0000 0000 801c e1bf
000006a0: 0000 0000 0010 a9bf 0000 0000 e0ee 0a40
000006b0: 0000 0000 005a 1540 0000 0000 50f6 1940
000006c0: 0000 0000 00f1 ecbf 0000 0000 0012 0540
000006d0: 0000 0000 4018 0640 0000 0000 001c 0040
000006e0: 0000 0000 a066 0940 0000 0000 1074 1d40
000006f0: 0000 0000 0000 92bf 0000 0000 4045 1340
00000700: 0000 0000 80b9 ef3f 0000 0000 6059 0a40
00000710: 0000 0000 e058 0240 0000 0000 6079 06c0
00000720: 0000 0000 a03a 00c0 0000 0000 a032 18c0
00000730: 0000 0000 80ba 2240 0000 0000 8000 0e40
00000740: 0000 0000 4891 2140 0000 0000 c09b f03f
00000750: 0000 0000 301e 1b40 0000 0000 e09c 13c0
00000760: 0000 0000 a0a9 1bc0 0000 0000 c0ed 15c0
00000770: 0000 0000 80ef 13c0 0000 0000 80fa 0640
00000780: 0000 0000 007c d23f 0000 0000 0024 eb3f
00000790: 0000 0000 e0ba 06c0 0000 0000 40e4 f13f
000007a0: 0000 0000 008e c73f 0000 0000 d0a5 1240
000007b0: 0000 0000 8012 f73f 0000 0000 004f f0bf
000007c0: 0000 0000 d07f 12c0 0000 0000 c063 04c0
000007d0: 0000 0000 80dd f9bf 0000 0000 806f 0ac0
000007e0: 0000 0000 507b 10c0 0000 0000 e051 1240
000007f0: 0000 0000 0014 ec3f 0000 0000 6033 0dc0

lat f4 [32, 32]
-72.79115 -72.75173 -72.71253 -72.673546 -72.63478 -72.59625 -72.55795 -72.5199
-72.48208 -72.444496 -72.40716 -72.370056 -72.33319 -72.29657 -72.260185 -72.22403
-72.18811 -72.15241 -72.11694 -72.08169 -72.04665 -72.01183 -71.97723 -71.94282
-71.90861 -71.874596 -71.840775 -71.80714 -71.77368 -71.7404 -71.70729 -71.67435
-72.74316 -72.70378 -72.66461 -72.62566 -72.586945 -72.548454 -72.5102 -72.47218
-72.43441 -72.39687 -72.35958 -72.322525 -72.28571 -72.24913 -72.21279 -72.17669
-72.140816 -72.10517 -72.06975 -72.034546 -71.999565 -71.96479 -71.93023 -71.895874
-71.86172 -71.82775 -71.79398 -71.7604 -71.72699 -71.69376 -71.660706 -71.627815
-72.69514 -72.65579 -72.61666 -72.57776 -72.53908 -72.500626 -72.46242 -72.42444
-72.38671 -72.34922 -72.311966 -72.274956 -72.23819 -72.20166 -72.16537 -72.12931
-72.09348 -72.05789 -72.022514 -71.987366 -71.95243 -71.91771 -71.8832 -71.84889
-71.81479 -71.780876 -71.747154 -71.71362 -71.68027 -71.64709 -71.61408 -71.581245
-72.647095 -72.60779 -72.568695 -72.52982 -72.49119 -72.45278 -72.414604 -72.37668
-72.33899 -72.30154 -72.264336 -72.22737 -72.19065 -72.15417 -72.11793 -72.08192
-72.046135 -72.01059 -71.975266 -71.94016 -71.90527 -71.870605 -71.83614 -71.80189
-71.76783 -71.73397 -71.7003 -71.66682 -71.633514 -71.60039 -71.56744 -71.534645
-72.59907 -72.5598 -72.520744 -72.48191 -72.443306 -72.404945 -72.36681 -72.328926
-72.291275 -72.253876 -72.21671 -72.179794 -72.14312 -72.10668 -72.07049 -72.03452
-71.998795 -71.963295 -71.92802 -71.89296 -71.85812 -71.8235 -71.78909 -71.75489
-71.72088 -71.68707 -71.65345 -71.62002 -71.58677 -71.553696 -71.52079 -71.48805
-72.55103 -72.5118 -72.472786 -72.43399 -72.39543 -72.3571 -72.319016 -72.281166
-72.24356 -72.2062 -72.16909 -72.13222 -72.09558 -72.0592 -72.02304 -71.98713
-71.95144 -71.915985 -71.88076 -71.84576 -71.81097 -71.7764 -71.742035 -71.70788
-71.67392 -71.64016 -71.60659 -71.57321 -71.54001 -71.50699 -71.47414 -71.441444
-72.50299 -72.46379 -72.42481 -72.386055 -72.347534 -72.30925 -72.2712 -72.2334
-72.19583 -72.158516 -72.121445 -72.08462 -72.048035 -72.01169 -71.975586 -71.93971
-71.904076 -71.868675 -71.833496 -71.79854 -71.7638 -71.72928 -71.69496 -71.66086
-71.626945 -71.59324 -71.55972 -71.52639 -71.49324 -71.460266 -71.42746 -71.39483
-72.45496 -72.4158 -72.376854 -72.338135 -72.29965 -72.261406 -72.223404 -72.18564
-72.14812 -72.11085 -72.073814 -72.03703 -72.000496 -71.964195 -71.92814 -71.89231
-71.85673 -71.821365 -71.78623 -71.75133 -71.71664 -71.68216 -71.647896 -71.61384
-71.57998 -71.54632 -71.51285 -71.47957 -71.446465 -71.41354 -71.38079 -71.348206
00000000: 1295 91c2 e380 91c2 d16c 91c2 db58 91c2
00000010: 0245 91c2 4831 91c2 ac1d 91c2 300a 91c2
00000020: d3f6 90c2 95e3 90c2 77d0 90c2 78bd 90c2
00000030: 98aa 90c2 d897 90c2 3785 90c2 b472 90c2
00000040: 5060 90c2 094e 90c2 e03b 90c2 d329 90c2
00000050: e317 90c2 0f06 90c2 57f4 8fc2 b9e2 8fc2
00000060: 35d1 8fc2 cbbf 8fc2 7aae 8fc2 419d 8fc2
00000070: 208c 8fc2 167b 8fc2 226a 8fc2 4459 8fc2
00000080: 7f7c 91c2 5668 91c2 4854 91c2 5740 91c2
00000090: 842c 91c2 cf18 91c2 3905 91c2 c2f1 90c2
000000a0: 6bde 90c2 33cb 90c2 1bb8 90c2 22a5 90c2
000000b0: 4992 90c2 8e7f 90c2 f36c 90c2 775a 90c2
000000c0: 1948 90c2 d935 90c2 b623 90c2 b011 90c2
000000d0: c7ff 8fc2 f9ed 8fc2 47dc 8fc2 b0ca 8fc2
000000e0: 33b9 8fc2 cfa7 8fc2 8596 8fc2 5385 8fc2
000000f0: 3874 8fc2 3563 8fc2 4852 8fc2 7141 8fc2
00000100: e963 91c2 c44f 91c2 bb3b 91c2 d027 91c2
00000110: 0214 91c2 5200 91c2 c2ec 90c2 50d9 90c2
00000120: ffc5 90c2 cdb2 90c2 ba9f 90c2 c78c 90c2
00000130: f479 90c2 4067 90c2 ab54 90c2 3542 90c2
00000140: dd2f 90c2 a41d 90c2 870b 90c2 88f9 8fc2
00000150: a5e7 8fc2 ded5 8fc2 33c4 8fc2 a2b2 8fc2
00000160: 2ca1 8fc2 cf8f 8fc2 8b7e 8fc2 606d 8fc2
00000170: 4c5c 8fc2 4f4b 8fc2 693a 8fc2 9929 8fc2
00000180: 504b 91c2 3037 91c2 2c23 91c2 450f 91c2
00000190: 7dfb 90c2 d3e7 90c2 47d4 90c2 dcc0 90c2
000001a0: 90ad 90c2 639a 90c2 5787 90c2 6a74 90c2
000001b0: 9d61 90c2 ef4e 90c2 613c 90c2 f129 90c2
000001c0: 9f17 90c2 6c05 90c2 56f3 8fc2 5de1 8fc2
000001d0: 80cf 8fc2 c0bd 8fc2 1bac 8fc2 919a 8fc2
000001e0: 2189 8fc2 cb77 8fc2 8e66 8fc2 6955 8fc2
000001f0: 5c44 8fc2 6633 8fc2 8722 8fc2 bd11 8fc2
00000200: b932 91c2 9e1e 91c2 9f0a 91c2 bdf6 90c2
00000210: f9e2 90c2 55cf 90c2 cfbb 90c2 69a8 90c2
00000220: 2295 90c2 fc81 90c2 f56e 90c2 0e5c 90c2
00000230: 4749 90c2 9f36 90c2 1724 90c2 ad11 90c2
00000240: 62ff 8fc2 35ed 8fc2 25db 8fc2 32c9 8fc2
00000250: 5cb7 8fc2 a2a5 8fc2 0494 8fc2 8182 8fc2
00000260: 1771 8fc2 c85f 8fc2 914e 8fc2 733d 8fc2
00000270: 6d2c 8fc2 7e1b 8fc2 a50a 8fc2 e2f9 8ec2
00000280: 211a 91c2 0b06 91c2 11f2 90c2 34de 90c2
00000290: 76ca 90c2 d6b6 90c2 56a3 90c2 f58f 90c2
000002a0: b47c 90c2 9369 90c2 9356 90c2 b243 90c2
000002b0: f030 90c2 4f1e 90c2 cc0b 90c2 69f9 8fc2
000002c0: 23e7 8fc2 fcd4 8fc2 f3c2 8fc2 07b1 8fc2
000002d0: 379f 8fc2 848d 8fc2 ec7b 8fc2 6f6a 8fc2
000002e0: 0c59 8fc2 c347 8fc2 9336 8fc2 7c25 8fc2
000002f0: 7c14 8fc2 9403 8fc2 c2f2 8ec2 05e2 8ec2
00000300: 8801 91c2 76ed 90c2 81d9 90c2 a9c5 90c2
00000310: f0b1 90c2 569e 90c2 db8a 90c2 8077 90c2
00000320: 4464 90c2 2951 90c2 2e3e 90c2 532b 90c2
00000330: 9818 90c2 fc05 90c2 80f3 8fc2 22e1 8fc2
00000340: e3ce 8fc2 c3bc 8fc2 c0aa 8fc2 da98 8fc2
00000350: 1187 8fc2 6475 8fc2 d263 8fc2 5c52 8fc2
00000360: ff40 8fc2 bd2f 8fc2 941e 8fc2 830d 8fc2
00000370: 8afc 8ec2 a8eb 8ec2 dcda 8ec2 27ca 8ec2
00000380: f1e8 90c2 e4d4 90c2 f3c0 90c2 20ad 90c2
00000390: 6c99 90c2 d785 90c2 6272 90c2 0c5f 90c2
000003a0: d64b 90c2 c138 90c2 cb25 90c2 f612 90c2
000003b0: 4100 90c2 abed 8fc2 35db 8fc2 ddc8 8fc2
000003c0: a5b6 8fc2 8aa4 8fc2 8d92 8fc2 ae80 8fc2
000003d0: eb6e 8fc2 445d 8fc2 b94b 8fc2 493a 8fc2
000003e0: f328 8fc2 b717 8fc2 9406 8fc2 8af5 8ec2
000003f0: 97e4 8ec2 bcd3 8ec2 f7c2 8ec2 48b2 8ec2

lon f4 [32, 32]
141.5214 141.91457 142.29868 142.67413 143.04132 143.40059 143.75227 144.09668
144.43414 144.76491 145.08928 145.4075 145.7198 146.02646 146.32764 146.6236
146.9145 147.20058 147.48196 147.75888 148.03146 148.29988 148.56429 148.82481
149.08162 149.33484 149.58458 149.83098 150.07414 150.31421 150.55127 150.78543
141.49074 141.88289 142.26602 142.64052 143.00677 143.36513 143.71593 144.05948
144.3961 144.72606 145.04964 145.36708 145.67863 145.98454 146.28502 146.58026
146.87048 147.15588 147.43663 147.71289 147.98485 148.25266 148.51646 148.77641
149.03264 149.2853 149.53448 149.78033 150.02298 150.26251 150.49907 150.73273
141.46028 141.85143 142.23357 142.6071 142.97243 143.32988 143.6798 144.02249
144.35828 144.68742 145.0102 145.32687 145.63768 145.94286 146.2426 146.53716
146.8267 147.11143 147.39153 147.66714 147.93848 148.20567 148.46889 148.72824
148.9839 149.236 149.48462 149.72995 149.97206 150.21107 150.44711 150.68027
141.43008 141.8202 142.20135 142.57394 142.93834 143.29489 143.64392 143.98576
144.32071 144.64905 144.97104 145.28694 145.597 145.90144 146.20049 146.49434
146.78319 147.06726 147.3467 147.62169 147.8924 148.15898 148.42159 148.68037
148.93546 149.18698 149.43507 149.67986 149.92143 150.15994 150.39546 150.62811
141.40007 141.78918 142.16936 142.541 142.90446 143.2601 143.60828 143.94926
144.28339 144.61092 144.93211 145.24725 145.55656 145.86026 146.1586 146.45175
146.73993 147.02333 147.30212 147.57648 147.84657 148.11255 148.37456 148.63277
148.88727 149.13824 149.38579 149.63002 149.87108 150.10907 150.34409 150.57625
141.37003 141.75815 142.13734 142.50804 142.87057 143.22534 143.57263 143.91278
144.24608 144.5728 144.89322 145.2076 145.51616 145.81915 146.11678 146.40924
146.69675 146.97949 147.25763 147.53136 147.80083 148.06621 148.32764 148.58525
148.83919 149.0896 149.33661 149.5803 149.82085 150.05832 150.29283 150.52449
141.34018 141.7273 142.10551 142.47527 142.8369 143.19077 143.5372 143.87651
144.20898 144.53491 144.85455 145.16817 145.476 145.77826 146.07518 146.36696
146.6538 146.93588 147.21338 147.48648 147.75534 148.02011 148.28094 148.538
148.79137 149.04123 149.28769 149.53087 149.77087 150.00783 150.24185 150.47302
141.31032 141.69644 142.07372 142.44254 142.80327 143.15625 143.50182 143.84029
144.17195 144.49709 144.81596 145.12883 145.43591 145.73746 146.03368 146.32478
146.61095 146.89238 147.16924 147.44171 147.70996 147.97414 148.23439 148.49086
148.74368 148.99298 149.2389 149.48155 149.72104 149.95749 150.19101 150.42168
00000000: 7a85 0d43 21ea 0d43 764c 0e43 94ac 0e43
00000010: 940a 0f43 8d66 0f43 95c0 0f43 c018 1043
00000020: 246f 1043 d1c3 1043 db16 1143 5268 1143
00000030: 45b8 1143 c606 1243 e053 1243 a49f 1243
00000040: 1dea 1243 5933 1343 627b 1343 46c2 1343
00000050: 0e08 1443 c54c 1443 7590 1443 27d3 1443
00000060: e514 1543 b855 1543 a795 1543 bbd4 1543
00000070: fb12 1643 7050 1643 208d 1643 12c9 1643
00000080: a17d 0d43 05e2 0d43 1a44 0e43 f9a3 0e43
00000090: bc01 0f43 795d 0f43 47b7 0f43 3a0f 1043
000000a0: 6765 1043 dfb9 1043 b50c 1143 f95d 1143
000000b0: bbad 1143 0bfc 1143 f748 1243 8c94 1243
000000c0: d8de 1243 e827 1343 c76f 1343 80b6 1343
000000d0: 1ffc 1343 ae40 1443 3784 1443 c3c6 1443
000000e0: 5b08 1543 0949 1543 d488 1543 c4c7 1543
000000f0: e205 1643 3443 1643 c37f 1643 94bb 1643
00000100: d575 0d43 f7d9 0d43 cb3b 0e43 6b9b 0e43
00000110: f1f8 0e43 7354 0f43 07ae 0f43 c205 1043
00000120: b85b 1043 fbaf 1043 9c02 1143 ae53 1143
00000130: 3fa3 1143 5ff1 1143 1b3e 1243 8389 1243
00000140: a3d3 1243 871c 1343 3b64 1343 caaa 1343
00000150: 40f0 1343 a734 1443 0978 1443 6eba 1443
00000160: e1fb 1443 6a3c 1543 107c 1543 deba 1543
00000170: d9f8 1543 0936 1643 7672 1643 26ae 1643
00000180: 1a6e 0d43 f9d1 0d43 8c33 0e43 ee92 0e43
00000190: 37f0 0e43 7e4b 0f43 d8a4 0f43 5bfc 0f43
000001a0: 1a52 1043 28a6 1043 96f8 1043 7549 1143
000001b0: d598 1143 c5e6 1143 5333 1243 8d7e 1243
000001c0: 7fc8 1243 3811 1343 c158 1343 279f 1343
000001d0: 74e4 1343 b328 1443 ed6b 1443 2dae 1443
000001e0: 7aef 1443 de2f 1543 616f 1543 0bae 1543
000001f0: e3eb 1543 f228 1643 3d65 1643 cca0 1643
00000200: 6b66 0d43 08ca 0d43 5b2b 0e43 7f8a 0e43
00000210: 8be7 0e43 9642 0f43 b89b 0f43 03f3 0f43
00000220: 8c48 1043 659c 1043 9fee 1043 4c3f 1143
00000230: 7b8e 1143 3adc 1143 9a28 1243 a673 1243
00000240: 6cbd 1243 f905 1343 584d 1343 9493 1343
00000250: b9d8 1343 d01c 1443 e35f 1443 fda1 1443
00000260: 24e3 1443 6423 1543 c362 1543 49a1 1543
00000270: ffde 1543 ec1b 1643 1658 1643 8593 1643
00000280: ba5e 0d43 16c2 0d43 2923 0e43 0f82 0e43
00000290: dede 0e43 b039 0f43 9892 0f43 ace9 0f43
000002a0: ff3e 1043 a392 1043 aae4 1043 2535 1143
000002b0: 2384 1143 b4d1 1143 e51d 1243 c468 1243
000002c0: 5eb2 1243 c0fa 1243 f441 1343 0788 1343
000002d0: 03cd 1343 f310 1443 e053 1443 d395 1443
000002e0: d5d6 1443 f016 1543 2c56 1543 8f94 1543
000002f0: 23d2 1543 ee0e 1643 f74a 1643 4586 1643
00000300: 1657 0d43 30ba 0d43 031b 0e43 ab79 0e43
00000310: 3fd6 0e43 d630 0f43 8689 0f43 63e0 0f43
00000320: 8035 1043 f088 1043 c4da 1043 0d2b 1143
00000330: db79 1143 3cc7 1143 3f13 1243 f15d 1243
00000340: 5fa7 1243 96ef 1243 a036 1343 8a7c 1343
00000350: 5ec1 1343 2605 1443 ec47 1443 ba89 1443
00000360: 97ca 1443 8e0a 1543 a649 1543 e787 1543
00000370: 58c5 1543 0102 1643 ea3d 1643 1879 1643
00000380: 714f 0d43 4ab2 0d43 df12 0e43 4a71 0e43
00000390: a3cd 0e43 0028 0f43 7780 0f43 1dd7 0f43
000003a0: 052c 1043 417f 1043 e3d0 1043 fb20 1143
000003b0: 986f 1143 cabc 1143 9f08 1243 2553 1243
000003c0: 679c 1243 73e4 1243 532b 1343 1471 1343
000003d0: c0b5 1343 61f9 1343 013c 1443 a97d 1443
000003e0: 62be 1443 34fe 1443 293d 1543 477b 1543
000003f0: 96b8 1543 1ef5 1543 e630 1643 f36b 1643

qa f4 [32, 32]
1.0 1.0 1.0 1.0 1.0 1.0 1.0 1.0
1.0 1.0 1.0 1.0 1.0 1.0 1.0 1.0
1.0 1.0 1.0 1.0 1.0 1.0 1.0 1.0
1.0 1.0 1.0 1.0 1.0 1.0 1.0 1.0
1.0 1.0 1.0 1.0 1.0 1.0 1.0 1.0
1.0 1.0 1.0 1.0 1.0 1.0 1.0 1.0
1.0 1.0 1.0 1.0 1.0 1.0 1.0 1.0
1.0 1.0 1.0 1.0 1.0 1.0 1.0 1.0
1.0 1.0 1.0 1.0 1.0 1.0 1.0 1.0
1.0 1.0 1.0 1.0 1.0 1.0 1.0 1.0
1.0 1.0 1.0 1.0 1.0 1.0 1.0 1.0
1.0 1.0 1.0 1.0 1.0 1.0 1.0 1.0
1.0 1.0 1.0 1.0 1.0 1.0 1.0 1.0
1.0 1.0 1.0 1.0 1.0 1.0 1.0 1.0
1.0 1.0 1.0 1.0 1.0 1.0 1.0 1.0
1.0 1.0 1.0 1.0 1.0 1.0 1.0 1.0
1.0 1.0 1.0 1.0 1.0 1.0 1.0 1.0
1.0 1.0 1.0 1.0 1.0 1.0 1.0 1.0
1.0 1.0 1.0 1.0 1.0 1.0 1.0 1.0
1.0 1.0 1.0 1.0 1.0 1.0 1.0 1.0
1.0 1.0 1.0 1.0 1.0 1.0 1.0 1.0
1.0 1.0 1.0 1.0 1.0 1.0 1.0 1.0
1.0 1.0 1.0 1.0 1.0 1.0 1.0 1.0
1.0 1.0 1.0 1.0 1.0 1.0 1.0 1.0
1.0 1.0 1.0 1.0 1.0 1.0 1.0 1.0
1.0 1.0 1.0 1.0 1.0 1.0 1.0 1.0
1.0 1.0 1.0 1.0 1.0 1.0 1.0 1.0
1.0 1.0 1.0 1.0 1.0 1.0 1.0 1.0
1.0 1.0 1.0 1.0 1.0 1.0 1.0 1.0
1.0 1.0 1.0 1.0 1.0 1.0 1.0 1.0
1.0 1.0 1.0 1.0 1.0 1.0 1.0 1.0
1.0 1.0 1.0 1.0 1.0 1.0 1.0 1.0
00000000: 0000 803f 0000 803f 0000 803f 0000 803f
00000010: 0000 803f 0000 803f 0000 803f 0000 803f
00000020: 0000 803f 0000 803f 0000 803f 0000 803f
00000030: 0000 803f 0000 803f 0000 803f 0000 803f
00000040: 0000 803f 0000 803f 0000 803f 0000 803f
00000050: 0000 803f 0000 803f 0000 803f 0000 803f
00000060: 0000 803f 0000 803f 0000 803f 0000 803f
00000070: 0000 803f 0000 803f 0000 803f 0000 803f
00000080: 0000 803f 0000 803f 0000 803f 0000 803f
00000090: 0000 803f 0000 803f 0000 803f 0000 803f
000000a0: 0000 803f 0000 803f 0000 803f 0000 803f
000000b0: 0000 803f 0000 803f 0000 803f 0000 803f
000000c0: 0000 803f 0000 803f 0000 803f 0000 803f
000000d0: 0000 803f 0000 803f 0000 803f 0000 803f
000000e0: 0000 803f 0000 803f 0000 803f 0000 803f
000000f0: 0000 803f 0000 803f 0000 803f 0000 803f
00000100: 0000 803f 0000 803f 0000 803f 0000 803f
00000110: 0000 803f 0000 803f 0000 803f 0000 803f
00000120: 0000 803f 0000 803f 0000 803f 0000 803f
00000130: 0000 803f 0000 803f 0000 803f 0000 803f
00000140: 0000 803f 0000 803f 0000 803f 0000 803f
00000150: 0000 803f 0000 803f 0000 803f 0000 803f
00000160: 0000 803f 0000 803f 0000 803f 0000 803f
00000170: 0000 803f 0000 803f 0000 803f 0000 803f
00000180: 0000 803f 0000 803f 0000 803f 0000 803f
00000190: 0000 803f 0000 803f 0000 803f 0000 803f
000001a0: 0000 803f 0000 803f 0000 803f 0000 803f
000001b0: 0000 803f 0000 803f 0000 803f 0000 803f
000001c0: 0000 803f 0000 803f 0000 803f 0000 803f
000001d0: 0000 803f 0000 803f 0000 803f 0000 803f
000001e0: 0000 803f 0000 803f 0000 803f 0000 803f
000001f0: 0000 803f 0000 803f 0000 803f 0000 803f
00000200: 0000 803f 0000 803f 0000 803f 0000 803f
00000210: 0000 803f 0000 803f 0000 803f 0000 803f
00000220: 0000 803f 0000 803f 0000 803f 0000 803f
00000230: 0000 803f 0000 803f 0000 803f 0000 803f
00000240: 0000 803f 0000 803f 0000 803f 0000 803f
00000250: 0000 803f 0000 803f 0000 803f 0000 803f
00000260: 0000 803f 0000 803f 0000 803f 0000 803f
00000270: 0000 803f 0000 803f 0000 803f 0000 803f
00000280: 0000 803f 0000 803f 0000 803f 0000 803f
00000290: 0000 803f 0000 803f 0000 803f 0000 803f
000002a0: 0000 803f 0000 803f 0000 803f 0000 803f
000002b0: 0000 803f 0000 803f 0000 803f 0000 803f
000002c0: 0000 803f 0000 803f 0000 803f 0000 803f
000002d0: 0000 803f 0000 803f 0000 803f 0000 803f
000002e0: 0000 803f 0000 803f 0000 803f 0000 803f
000002f0: 0000 803f 0000 803f 0000 803f 0000 803f
00000300: 0000 803f 0000 803f 0000 803f 0000 803f
00000310: 0000 803f 0000 803f 0000 803f 0000 803f
00000320: 0000 803f 0000 803f 0000 803f 0000 803f
00000330: 0000 803f 0000 803f 0000 803f 0000 803f
00000340: 0000 803f 0000 803f 0000 803f 0000 803f
00000350: 0000 803f 0000 803f 0000 803f 0000 803f
00000360: 0000 803f 0000 803f 0000 803f 0000 803f
00000370: 0000 803f 0000 803f 0000 803f 0000 803f
00000380: 0000 803f 0000 803f 0000 803f 0000 803f
00000390: 0000 803f 0000 803f 0000 803f 0000 803f
000003a0: 0000 803f 0000 803f 0000 803f 0000 803f
000003b0: 0000 803f 0000 803f 0000 803f 0000 803f
000003c0: 0000 803f 0000 803f 0000 803f 0000 803f
000003d0: 0000 803f 0000 803f 0000 803f 0000 803f
000003e0: 0000 803f 0000 803f 0000 803f 0000 803f
000003f0: 0000 803f 0000 803f 0000 803f 0000 803f

non_destriped f4 [32, 32]
1693.6208 1689.099 1696.3516 1697.2869 1695.6548 1703.9341 1706.8445 1693.2056
1701.5184 1704.1449 1706.2072 1701.6831 1700.3528 1705.7167 1716.8478 1717.5259
1706.2178 1700.254 1717.3699 1710.5446 1709.6621 1712.0309 1719.8896 1720.289
1715.4692 1720.5093 1722.0431 1710.5565 1721.9557 1706.6844 1708.7206 1713.3906
1695.7437 1692.0162 1695.8048 1693.6669 1702.4393 1701.8531 1704.2502 1698.9734
1701.4283 1701.7921 1706.9955 1703.7969 1708.0632 1707.5262 1720.7241 1718.704
1711.5519 1710.6954 1720.8413 1715.8804 1709.1654 1708.4995 1721.2241 1718.548
1714.6985 1718.0366 1727.5281 1713.4948 1722.5902 1709.8689 1709.6218 1712.8376
1702.6515 1692.2817 1695.1006 1703.4712 1702.4022 1709.1365 1708.9408 1702.397
1700.664 1708.4998 1705.3242 1711.1465 1705.2018 1706.2567 1722.813 1723.4043
1714.2258 1709.7107 1724.419 1717.0751 1710.0352 1713.6638 1722.8474 1726.2722
1716.3387 1717.2288 1727.6008 1721.1838 1738.1765 1711.9268 1710.5828 1715.0549
1703.9869 1693.7794 1701.3148 1699.63 1705.9564 1711.1187 1710.9171 1706.2128
1702.6223 1707.5056 1713.9806 1711.3353 1715.8632 1702.4403 1721.5608 1719.5842
1713.335 1707.4788 1718.8702 1713.5844 1710.8287 1712.4349 1724.5831 1731.0133
1718.9935 1724.7256 1727.4244 1716.9176 1730.8313 1712.742 1716.1941 1711.8566
1702.5846 1699.1898 1696.3542 1700.1451 1700.1932 1713.0582 1714.169 1704.0092
1707.4053 1704.7822 1711.6545 1707.1704 1710.0663 1706.998 1725.5172 1721.1484
1707.2833 1710.7212 1720.123 1719.0194 1709.621 1714.4902 1726.4094 1731.0194
1720.7676 1725.5537 1729.3269 1721.8475 1724.7539 1720.3884 1716.0721 1718.5148
1704.0676 1697.1697 1704.796 1701.8616 1702.6691 1717.6066 1721.6024 1706.2571
1711.937 1712.137 1718.0728 1709.0006 1707.3346 1706.1312 1721.0566 1721.7942
1716.6106 1713.8522 1725.3649 1722.0133 1715.126 1712.2662 1730.3292 1732.0333
1719.6362 1725.9397 1724.9414 1715.0614 1725.7767 1721.0078 1715.6268 1719.307
1705.0024 1695.6512 1702.6401 1695.4993 1703.159 1714.238 1715.3656 1702.1216
1702.4368 1711.3612 1714.0593 1703.9978 1708.2725 1701.753 1718.1149 1719.9988
1713.3411 1715.93 1724.0808 1716.4471 1711.1758 1716.3308 1727.9288 1730.9338
1713.3262 1721.2225 1725.448 1715.0712 1725.6237 1716.2953 1708.9219 1716.2327
1701.5365 1699.8804 1699.7833 1697.7369 1700.0886 1705.0472 1718.5443 1707.2443
1713.5891 1706.4718 1713.5215 1705.2369 1702.8046 1704.0992 1717.5203 1723.1245
1714.6039 1714.1875 1721.347 1719.2748 1712.0604 1718.2103 1724.1238 1724.9987
1711.129 1717.5125 1722.4921 1710.2417 1718.417 1711.1418 1707.4653 1705.8618
00000000: deb3 d344 2b23 d344 400b d444 2e29 d444
00000010: f4f4 d344 e4fd d444 065b d544 94a6 d344
00000020: 97b0 d444 a304 d544 a146 d544 dcb5 d444
00000030: 4a8b d444 ef36 d544 219b d644 d4b0 d644
00000040: f846 d544 2188 d444 d6ab d644 6dd1 d544
00000050: 30b5 d544 fd00 d644 78fc d644 3f09 d744
00000060: 046f d644 4c10 d744 6141 d744 cfd1 d544
00000070: 953e d744 e755 d544 0f97 d544 802c d644
00000080: ccf7 d344 8580 d344 c1f9 d344 57b5 d344
00000090: 0fce d444 4dbb d444 0208 d544 265f d444
000000a0: b5ad d444 59b9 d444 db5f d544 80f9 d444
000000b0: 0682 d544 d770 d544 2c17 d744 87d6 d644
000000c0: a9f1 d544 41d6 d544 ec1a d744 2c7c d644
000000d0: 4ba5 d544 fc8f d544 2c27 d744 89d1 d644
000000e0: 5a56 d644 2cc1 d644 e6f0 d744 d52f d644
000000f0: e352 d744 cebb d544 e6b3 d544 ce1a d644
00000100: d9d4 d444 0489 d344 38e3 d344 14ef d444
00000110: dfcc d444 5ea4 d544 1b9e d544 b4cc d444
00000120: 3f95 d444 fe8f d544 602a d544 b0e4 d544
00000130: 7526 d544 3748 d544 045a d744 f06c d744
00000140: 3a47 d644 beb6 d544 688d d744 67a2 d644
00000150: 20c1 d544 3e35 d644 1e5b d744 b6c8 d744
00000160: d78a d644 52a7 d644 3af3 d744 e225 d744
00000170: a645 d944 a8fd d544 a6d2 d544 c261 d644
00000180: 95ff d444 f1b8 d344 13aa d444 2974 d444
00000190: 9b3e d544 cce3 d544 59dd d544 cf46 d544
000001a0: ead3 d444 2e70 d544 613f d644 bbea d544
000001b0: 9f7b d644 17ce d444 f231 d744 b2f2 d644
000001c0: b82a d644 526f d544 d9db d644 b332 d644
000001d0: 85da d544 eb0d d644 a992 d744 6d60 d844
000001e0: cbdf d644 3897 d744 95ed d744 5d9d d644
000001f0: 9a5a d844 be17 d644 3686 d644 69fb d544
00000200: b5d2 d444 1366 d444 560b d444 a584 d444
00000210: 2f86 d444 dd21 d644 6845 d644 4b00 d544
00000220: f86c d544 0819 d544 f2f4 d544 7465 d544
00000230: 1fc2 d544 f05f d544 8db0 d744 c024 d744
00000240: 1169 d544 14d7 d544 f003 d744 9fe0 d644
00000250: dfb3 d544 b04f d644 1acd d744 9f60 d844
00000260: 9018 d744 b8b1 d744 762a d844 1f3b d744
00000270: 2098 d744 6e0c d744 4f82 d644 79d0 d644
00000280: 2a02 d544 6e25 d444 7919 d544 92bb d444
00000290: 69d5 d444 69b3 d644 4733 d744 3a48 d544
000002a0: fcfd d544 6204 d644 54c2 d644 05a0 d544
000002b0: b56a d544 3344 d544 d021 d744 6a39 d744
000002c0: 8a93 d644 453b d644 adab d744 6d40 d744
000002d0: 0864 d644 8508 d644 894a d844 1181 d844
000002e0: 5cf4 d644 12be d744 209e d744 f761 d644
000002f0: dbb8 d744 4020 d744 0f74 d644 d3e9 d644
00000300: 1420 d544 d7f4 d344 7cd4 d444 faef d344
00000310: 17e5 d444 9e47 d644 b36b d644 e4c3 d444
00000320: facd d444 8feb d544 e641 d644 eeff d444
00000330: b888 d544 19b8 d444 adc3 d644 f6ff d644
00000340: ea2a d644 c37d d644 9682 d744 4f8e d644
00000350: a0e5 d544 968a d644 b9fd d744 e25d d844
00000360: 702a d644 1f27 d744 56ae d744 4762 d644
00000370: f5b3 d744 7389 d644 809d d544 7287 d644
00000380: 2bb1 d444 2c7c d444 1179 d444 9537 d444
00000390: d682 d444 8321 d544 6bd1 d644 d167 d544
000003a0: da32 d644 194f d544 b030 d644 9527 d544
000003b0: bfd9 d444 2d03 d544 a6b0 d644 fc63 d744
000003c0: 5353 d644 0046 d644 1b2b d744 cbe8 d644
000003d0: ef01 d644 bbc6 d644 f683 d744 f59f d744
000003e0: 21e4 d544 66b0 d644 bf4f d744 bcc7 d544
000003f0: 58cd d644 8ae4 d544 e46e d544 943b d544
