data/dataset/negative/95c318e1-89f1-435b-b0c5-44bbd0386cca.npz (npz, 23743 bytes, 4 tensors)

methane f8 [32, 32]
000000 00 00 00 00 00 00 9e 47 00 00 00 00 00 00 9e 47
       9.969209968386869e+36 9.969209968386869e+36
000010 00 00 00 00 00 00 9e 47 00 00 00 00 00 00 9e 47
       9.969209968386869e+36 9.969209968386869e+36
000020 00 00 00 00 00 00 9e 47 00 00 00 00 00 00 9e 47
       9.969209968386869e+36 9.969209968386869e+36
000030 00 00 00 00 00 00 9e 47 00 00 00 00 00 00 9e 47
       9.969209968386869e+36 9.969209968386869e+36
000040 00 00 00 00 00 00 9e 47 00 00 00 00 00 00 9e 47
       9.969209968386869e+36 9.969209968386869e+36
000050 00 00 00 00 00 00 9e 47 00 00 00 00 00 00 9e 47
       9.969209968386869e+36 9.969209968386869e+36
000060 00 00 00 00 00 00 9e 47 00 00 00 00 00 00 9e 47
       9.969209968386869e+36 9.969209968386869e+36
000070 00 00 00 00 00 00 9e 47 00 00 00 00 00 00 9e 47
       9.969209968386869e+36 9.969209968386869e+36
000080 00 00 00 00 00 00 9e 47 00 00 00 00 00 00 9e 47
       9.969209968386869e+36 9.969209968386869e+36
000090 00 00 00 00 00 00 9e 47 00 00 00 00 00 00 9e 47
       9.969209968386869e+36 9.969209968386869e+36
0000a0 00 00 00 00 00 00 9e 47 00 00 00 00 00 00 9e 47
       9.969209968386869e+36 9.969209968386869e+36
0000b0 00 00 00 00 00 00 9e 47 00 00 00 00 00 00 9e 47
       9.969209968386869e+36 9.969209968386869e+36
0000c0 00 00 00 00 00 00 9e 47 00 00 00 00 00 00 9e 47
       9.969209968386869e+36 9.969209968386869e+36
0000d0 00 00 00 00 00 00 9e 47 00 00 00 00 00 00 9e 47
       9.969209968386869e+36 9.969209968386869e+36
0000e0 00 00 00 00 00 00 9e 47 00 00 00 00 00 00 9e 47
       9.969209968386869e+36 9.969209968386869e+36
0000f0 00 00 00 00 00 00 9e 47 00 00 00 00 00 00 9e 47
       9.969209968386869e+36 9.969209968386869e+36
000100 00 00 00 00 00 00 9e 47 00 00 00 00 00 00 9e 47
       9.969209968386869e+36 9.969209968386869e+36
000110 00 00 00 00 00 00 9e 47 00 00 00 00 00 00 9e 47
       9.969209968386869e+36 9.969209968386869e+36
000120 00 00 00 00 00 00 9e 47 00 00 00 00 00 00 9e 47
       9.969209968386869e+36 9.969209968386869e+36
000130 00 00 00 00 00 00 9e 47 00 00 00 00 00 00 9e 47
       9.969209968386869e+36 9.969209968386869e+36
000140 00 00 00 00 00 00 9e 47 00 00 00 00 00 00 9e 47
       9.969209968386869e+36 9.969209968386869e+36
000150 00 00 00 00 00 00 9e 47 00 00 00 00 00 00 9e 47
       9.969209968386869e+36 9.969209968386869e+36
000160 00 00 00 00 00 00 9e 47 00 00 00 00 00 00 9e 47
       9.969209968386869e+36 9.969209968386869e+36
000170 00 00 00 00 00 00 9e 47 00 00 00 00 00 00 9e 47
       9.969209968386869e+36 9.969209968386869e+36
000180 00 00 00 00 00 00 9e 47 00 00 00 00 00 00 9e 47
       9.969209968386869e+36 9.969209968386869e+36
000190 00 00 00 00 00 00 9e 47 00 00 00 00 00 00 9e 47
       9.969209968386869e+36 9.969209968386869e+36
0001a0 00 00 00 00 00 00 9e 47 00 00 00 00 00 00 9e 47
       9.969209968386869e+36 9.969209968386869e+36
0001b0 00 00 00 00 00 00 9e 47 00 00 00 00 00 00 9e 47
       9.969209968386869e+36 9.969209968386869e+36
0001c0 00 00 00 00 00 00 9e 47 00 00 00 00 00 00 9e 47
       9.969209968386869e+36 9.969209968386869e+36
0001d0 00 00 00 00 00 00 9e 47 00 00 00 00 00 00 9e 47
       9.969209968386869e+36 9.969209968386869e+36
0001e0 00 00 00 00 00 00 9e 47 00 00 00 00 00 00 9e 47
       9.969209968386869e+36 9.969209968386869e+36
0001f0 00 00 00 00 00 00 9e 47 00 00 00 00 00 00 9e 47
       9.969209968386869e+36 9.969209968386869e+36
000200 00 00 00 00 00 00 9e 47 00 00 00 00 00 00 9e 47
       9.969209968386869e+36 9.969209968386869e+36
000210 00 00 00 00 00 00 9e 47 00 00 00 00 00 00 9e 47
       9.969209968386869e+36 9.969209968386869e+36
000220 00 00 00 00 00 00 9e 47 00 00 00 00 00 00 9e 47
       9.969209968386869e+36 9.969209968386869e+36
000230 00 00 00 00 00 00 9e 47 00 00 00 00 00 00 9e 47
       9.969209968386869e+36 9.969209968386869e+36
000240 00 00 00 00 00 00 9e 47 00 00 00 00 00 00 9e 47
       9.969209968386869e+36 9.969209968386869e+36
000250 00 00 00 00 00 00 9e 47 00 00 00 00 00 00 9e 47
       9.969209968386869e+36 9.969209968386869e+36
000260 00 00 00 00 00 00 9e 47 00 00 00 00 00 00 9e 47
       9.969209968386869e+36 9.969209968386869e+36
000270 00 00 00 00 00 00 9e 47 00 00 00 00 00 00 9e 47
       9.969209968386869e+36 9.969209968386869e+36
000280 00 00 00 00 00 00 9e 47 00 00 00 00 00 00 9e 47
       9.969209968386869e+36 9.969209968386869e+36
000290 00 00 00 00 00 00 9e 47 00 00 00 00 00 00 9e 47
       9.969209968386869e+36 9.969209968386869e+36
0002a0 00 00 00 00 00 00 9e 47 00 00 00 00 00 00 9e 47
       9.969209968386869e+36 9.969209968386869e+36
0002b0 00 00 00 00 00 00 9e 47 00 00 00 00 00 00 9e 47
       9.969209968386869e+36 9.969209968386869e+36
0002c0 00 00 00 00 00 00 9e 47 00 00 00 00 00 00 9e 47
       9.969209968386869e+36 9.969209968386869e+36
0002d0 00 00 00 00 00 00 9e 47 00 00 00 00 00 00 9e 47
       9.969209968386869e+36 9.969209968386869e+36
0002e0 00 00 00 00 00 00 9e 47 00 00 00 00 00 00 9e 47
       9.969209968386869e+36 9.969209968386869e+36
0002f0 00 00 00 00 00 00 9e 47 00 00 00 00 00 00 9e 47
       9.969209968386869e+36 9.969209968386869e+36
000300 00 00 00 00 00 00 9e 47 00 00 00 00 00 00 9e 47
       9.969209968386869e+36 9.969209968386869e+36
000310 00 00 00 00 00 00 9e 47 00 00 00 00 00 00 9e 47
       9.969209968386869e+36 9.969209968386869e+36
000320 00 00 00 00 00 00 9e 47 00 00 00 00 00 00 9e 47
       9.969209968386869e+36 9.969209968386869e+36
000330 00 00 00 00 00 00 9e 47 00 00 00 00 00 00 9e 47
       9.969209968386869e+36 9.969209968386869e+36
000340 00 00 00 00 00 00 9e 47 00 00 00 00 00 00 9e 47
       9.969209968386869e+36 9.969209968386869e+36
000350 00 00 00 00 00 00 9e 47 00 00 00 00 00 00 9e 47
       9.969209968386869e+36 9.969209968386869e+36
000360 00 00 00 00 00 00 9e 47 00 00 00 00 00 00 9e 47
       9.969209968386869e+36 9.969209968386869e+36
000370 00 00 00 00 00 00 9e 47 00 00 00 00 00 00 9e 47
       9.969209968386869e+36 9.969209968386869e+36
000380 00 00 00 00 00 00 9e 47 00 00 00 00 00 00 9e 47
       9.969209968386869e+36 9.969209968386869e+36
000390 00 00 00 00 00 00 9e 47 00 00 00 00 00 00 9e 47
       9.969209968386869e+36 9.969209968386869e+36
0003a0 00 00 00 00 00 00 9e 47 00 00 00 00 00 00 9e 47
       9.969209968386869e+36 9.969209968386869e+36
0003b0 00 00 00 00 00 00 9e 47 00 00 00 00 00 00 9e 47
       9.969209968386869e+36 9.969209968386869e+36
0003c0 00 00 00 00 00 00 9e 47 00 00 00 00 00 00 9e 47
       9.969209968386869e+36 9.969209968386869e+36
0003d0 00 00 00 00 00 00 9e 47 00 00 00 00 00 00 9e 47
       9.969209968386869e+36 9.969209968386869e+36
0003e0 00 00 00 00 00 00 9e 47 00 00 00 00 00 00 9e 47
       9.969209968386869e+36 9.969209968386869e+36
0003f0 00 00 00 00 00 00 9e 47 00 00 00 00 00 00 9e 47
       9.969209968386869e+36 9.969209968386869e+36
000400 00 00 00 00 00 00 9e 47 00 00 00 00 00 00 9e 47
       9.969209968386869e+36 9.969209968386869e+36
000410 00 00 00 00 00 00 9e 47 00 00 00 00 00 00 9e 47
       9.969209968386869e+36 9.969209968386869e+36
000420 00 00 00 00 00 00 9e 47 00 00 00 00 00 00 9e 47
       9.969209968386869e+36 9.969209968386869e+36
000430 00 00 00 00 00 00 9e 47 00 00 00 00 00 00 9e 47
       9.969209968386869e+36 9.969209968386869e+36
000440 00 00 00 00 00 00 9e 47 00 00 00 00 00 00 9e 47
       9.969209968386869e+36 9.969209968386869e+36
000450 00 00 00 00 00 00 9e 47 00 00 00 00 00 00 9e 47
       9.969209968386869e+36 9.969209968386869e+36
000460 00 00 00 00 00 00 9e 47 00 00 00 00 00 00 9e 47
       9.969209968386869e+36 9.969209968386869e+36
000470 00 00 00 00 00 00 9e 47 00 00 00 00 00 00 9e 47
       9.969209968386869e+36 9.969209968386869e+36
000480 00 00 00 00 00 00 9e 47 00 00 00 00 00 00 9e 47
       9.969209968386869e+36 9.969209968386869e+36
000490 00 00 00 00 00 00 9e 47 00 00 00 00 00 00 9e 47
       9.969209968386869e+36 9.969209968386869e+36
0004a0 00 00 00 00 00 00 9e 47 00 00 00 00 00 00 9e 47
       9.969209968386869e+36 9.969209968386869e+36
0004b0 00 00 00 00 00 00 9e 47 00 00 00 00 00 00 9e 47
       9.969209968386869e+36 9.969209968386869e+36
0004c0 00 00 00 00 00 00 9e 47 00 00 00 00 00 00 9e 47
       9.969209968386869e+36 9.969209968386869e+36
0004d0 00 00 00 00 00 00 9e 47 00 00 00 00 00 00 9e 47
       9.969209968386869e+36 9.969209968386869e+36
0004e0 00 00 00 00 00 00 9e 47 00 00 00 00 00 00 9e 47
       9.969209968386869e+36 9.969209968386869e+36
0004f0 00 00 00 00 00 00 9e 47 00 00 00 00 00 00 9e 47
       9.969209968386869e+36 9.969209968386869e+36
000500 00 00 00 00 00 00 9e 47 00 00 00 00 00 00 9e 47
       9.969209968386869e+36 9.969209968386869e+36
000510 00 00 00 00 00 00 9e 47 00 00 00 00 00 00 9e 47
       9.969209968386869e+36 9.969209968386869e+36
000520 00 00 00 00 00 00 9e 47 00 00 00 00 00 00 9e 47
       9.969209968386869e+36 9.969209968386869e+36
000530 00 00 00 00 00 00 9e 47 00 00 00 00 00 00 9e 47
       9.969209968386869e+36 9.969209968386869e+36
000540 00 00 00 00 00 00 9e 47 00 00 00 00 00 00 9e 47
       9.969209968386869e+36 9.969209968386869e+36
000550 00 00 00 00 00 00 9e 47 00 00 00 00 00 00 9e 47
       9.969209968386869e+36 9.969209968386869e+36
000560 00 00 00 00 00 00 9e 47 00 00 00 00 00 00 9e 47
       9.969209968386869e+36 9.969209968386869e+36
000570 00 00 00 00 00 00 9e 47 00 00 00 00 00 00 9e 47
       9.969209968386869e+36 9.969209968386869e+36
000580 00 00 00 00 00 00 9e 47 00 00 00 00 00 00 9e 47
       9.969209968386869e+36 9.969209968386869e+36
000590 00 00 00 00 00 00 9e 47 00 00 00 00 00 00 9e 47
       9.969209968386869e+36 9.969209968386869e+36
0005a0 00 00 00 00 00 00 9e 47 00 00 00 00 00 00 9e 47
       9.969209968386869e+36 9.969209968386869e+36
0005b0 00 00 00 00 00 00 9e 47 00 00 00 00 00 00 9e 47
       9.969209968386869e+36 9.969209968386869e+36
0005c0 00 00 00 00 00 00 9e 47 00 00 00 00 00 00 9e 47
       9.969209968386869e+36 9.969209968386869e+36
0005d0 00 00 00 00 00 00 9e 47 00 00 00 00 00 00 9e 47
       9.969209968386869e+36 9.969209968386869e+36
0005e0 00 00 00 00 00 00 9e 47 00 00 00 00 00 00 9e 47
       9.969209968386869e+36 9.969209968386869e+36
0005f0 00 00 00 00 00 00 9e 47 00 00 00 00 00 00 9e 47
       9.969209968386869e+36 9.969209968386869e+36
000600 00 00 00 00 00 00 9e 47 00 00 00 00 00 00 9e 47
       9.969209968386869e+36 9.969209968386869e+36
000610 00 00 00 00 00 00 9e 47 00 00 00 00 00 00 9e 47
       9.969209968386869e+36 9.969209968386869e+36
000620 00 00 00 00 00 00 9e 47 00 00 00 00 00 00 9e 47
       9.969209968386869e+36 9.969209968386869e+36
000630 00 00 00 00 00 00 9e 47 00 00 00 00 00 00 9e 47
       9.969209968386869e+36 9.969209968386869e+36
000640 00 00 00 00 00 00 9e 47 00 00 00 00 00 00 9e 47
       9.969209968386869e+36 9.969209968386869e+36
000650 00 00 00 00 00 00 9e 47 00 00 00 00 00 00 9e 47
       9.969209968386869e+36 9.969209968386869e+36
000660 00 00 00 00 00 00 9e 47 00 00 00 00 00 00 9e 47
       9.969209968386869e+36 9.969209968386869e+36
000670 00 00 00 00 00 00 9e 47 00 00 00 00 00 00 9e 47
       9.969209968386869e+36 9.969209968386869e+36
000680 00 00 00 00 00 00 9e 47 00 00 00 00 00 00 9e 47
       9.969209968386869e+36 9.969209968386869e+36
000690 00 00 00 00 00 00 9e 47 00 00 00 00 00 00 9e 47
       9.969209968386869e+36 9.969209968386869e+36
0006a0 00 00 00 00 00 00 9e 47 00 00 00 00 00 00 9e 47
       9.969209968386869e+36 9.969209968386869e+36
0006b0 00 00 00 00 00 00 9e 47 00 00 00 00 00 00 9e 47
       9.969209968386869e+36 9.969209968386869e+36
0006c0 00 00 00 00 00 00 9e 47 00 00 00 00 00 00 9e 47
       9.969209968386869e+36 9.969209968386869e+36
0006d0 00 00 00 00 00 00 9e 47 00 00 00 00 00 00 9e 47
       9.969209968386869e+36 9.969209968386869e+36
0006e0 00 00 00 00 00 00 9e 47 00 00 00 00 00 00 9e 47
       9.969209968386869e+36 9.969209968386869e+36
0006f0 00 00 00 00 00 00 9e 47 00 00 00 00 00 00 9e 47
       9.969209968386869e+36 9.969209968386869e+36
000700 00 00 00 00 00 00 9e 47 00 00 00 00 00 00 9e 47
       9.969209968386869e+36 9.969209968386869e+36
000710 00 00 00 00 00 00 9e 47 00 00 00 00 00 00 9e 47
       9.969209968386869e+36 9.969209968386869e+36
000720 00 00 00 00 00 00 9e 47 00 00 00 00 00 00 9e 47
       9.969209968386869e+36 9.969209968386869e+36
000730 00 00 00 00 00 00 9e 47 00 00 00 00 00 00 9e 47
       9.969209968386869e+36 9.969209968386869e+36
000740 00 00 00 00 00 00 9e 47 00 00 00 00 00 00 9e 47
       9.969209968386869e+36 9.969209968386869e+36
000750 00 00 00 00 00 00 9e 47 00 00 00 00 00 00 9e 47
       9.969209968386869e+36 9.969209968386869e+36
000760 00 00 00 00 00 00 9e 47 00 00 00 00 00 00 9e 47
       9.969209968386869e+36 9.969209968386869e+36
000770 00 00 00 00 00 00 9e 47 00 00 00 00 00 00 9e 47
       9.969209968386869e+36 9.969209968386869e+36
000780 00 00 00 00 00 00 9e 47 00 00 00 00 00 00 9e 47
       9.969209968386869e+36 9.969209968386869e+36
000790 00 00 00 00 00 00 9e 47 00 00 00 00 00 00 9e 47
       9.969209968386869e+36 9.969209968386869e+36
0007a0 00 00 00 00 00 00 9e 47 00 00 00 00 00 00 9e 47
       9.969209968386869e+36 9.969209968386869e+36
0007b0 00 00 00 00 00 00 9e 47 00 00 00 00 00 00 9e 47
       9.969209968386869e+36 9.969209968386869e+36
0007c0 00 00 00 00 00 00 9e 47 00 00 00 00 00 00 9e 47
       9.969209968386869e+36 9.969209968386869e+36
0007d0 00 00 00 00 00 00 9e 47 00 00 00 00 00 00 9e 47
       9.969209968386869e+36 9.969209968386869e+36
0007e0 00 00 00 00 00 00 9e 47 00 00 00 00 00 00 9e 47
       9.969209968386869e+36 9.969209968386869e+36
0007f0 00 00 00 00 00 00 9e 47 00 00 00 00 00 00 9e 47
       9.969209968386869e+36 9.969209968386869e+36

lat f4 [32, 32]
000000 b0 98 4b c2 24 68 4b c2 96 38 4b c2 fd 09 4b c2
       -50.89911 -50.8517 -50.80526 -50.759754
000010 53 dc 4a c2 8f af 4a c2 ab 83 4a c2 a0 58 4a c2
       -50.71516 -50.671444 -50.628582 -50.586548
000020 66 2e 4a c2 f8 04 4a c2 4f dc 49 c2 66 b4 49 c2
       -50.54531 -50.504852 -50.465145 -50.42617
000030 35 8d 49 c2 b9 66 49 c2 ea 40 49 c2 c5 1b 49 c2
       -50.387897 -50.350315 -50.313393 -50.27712
000040 43 f7 48 c2 60 d3 48 c2 17 b0 48 c2 63 8d 48 c2
       -50.241467 -50.20642 -50.171963 -50.138073
000050 41 6b 48 c2 ab 49 48 c2 9d 28 48 c2 14 08 48 c2
       -50.10474 -50.07194 -50.03966 -50.00789
000060 0b e8 47 c2 7f c8 47 c2 6b a9 47 c2 ce 8a 47 c2
       -49.976604 -49.945797 -49.915447 -49.88555
000070 a2 6c 47 c2 e4 4e 47 c2 93 31 47 c2 a9 14 47 c2
       -49.856087 -49.82704 -49.798412 -49.770176
000080 f4 66 4b c2 64 36 4b c2 d1 06 4b c2 35 d8 4a c2
       -50.85054 -50.803116 -50.756657 -50.71114
000090 87 aa 4a c2 c0 7d 4a c2 d9 51 4a c2 cb 26 4a c2
       -50.66653 -50.622803 -50.57993 -50.537884
0000a0 8f fc 49 c2 1f d3 49 c2 74 aa 49 c2 89 82 49 c2
       -50.49664 -50.456173 -50.41646 -50.377476
0000b0 57 5b 49 c2 d9 34 49 c2 0a 0f 49 c2 e3 e9 48 c2
       -50.3392 -50.30161 -50.264687 -50.228405
0000c0 60 c5 48 c2 7d a1 48 c2 33 7e 48 c2 7f 5b 48 c2
       -50.19275 -50.157703 -50.12324 -50.08935
0000d0 5d 39 48 c2 c6 17 48 c2 b9 f6 47 c2 30 d6 47 c2
       -50.05602 -50.023216 -49.99094 -49.959167
0000e0 27 b6 47 c2 9b 96 47 c2 88 77 47 c2 eb 58 47 c2
       -49.927883 -49.897076 -49.86673 -49.836834
0000f0 c0 3a 47 c2 03 1d 47 c2 b2 ff 46 c2 c9 e2 46 c2
       -49.807373 -49.77833 -49.749702 -49.72147
000100 38 35 4b c2 a3 04 4b c2 0c d5 4a c2 6c a6 4a c2
       -50.80197 -50.754528 -50.708054 -50.66252
000110 ba 78 4a c2 f0 4b 4a c2 06 20 4a c2 f6 f4 49 c2
       -50.617897 -50.574158 -50.531273 -50.48922
000120 b7 ca 49 c2 45 a1 49 c2 99 78 49 c2 ac 50 49 c2
       -50.447964 -50.40749 -50.36777 -50.32878
000130 79 29 49 c2 f9 02 49 c2 29 dd 48 c2 01 b8 48 c2
       -50.2905 -50.252903 -50.215977 -50.17969
000140 7e 93 48 c2 9a 6f 48 c2 50 4c 48 c2 9c 29 48 c2
       -50.144035 -50.108986 -50.074524 -50.040634
000150 78 07 48 c2 e2 e5 47 c2 d5 c4 47 c2 4c a4 47 c2
       -50.007294 -49.974495 -49.94222 -49.910446
000160 43 84 47 c2 b8 64 47 c2 a5 45 47 c2 08 27 47 c2
       -49.87916 -49.84836 -49.818012 -49.788116
000170 de 08 47 c2 22 eb 46 c2 d1 cd 46 c2 e9 b0 46 c2
       -49.75866 -49.72962 -49.700993 -49.672764
000180 73 03 4b c2 d9 d2 4a c2 3e a3 4a c2 9a 74 4a c2
       -50.75337 -50.705906 -50.659416 -50.61387
000190 e5 46 4a c2 18 1a 4a c2 2b ee 49 c2 18 c3 49 c2
       -50.569233 -50.525482 -50.482586 -50.44052
0001a0 d8 98 49 c2 63 6f 49 c2 b5 46 49 c2 c7 1e 49 c2
       -50.39926 -50.358776 -50.31905 -50.280056
0001b0 92 f7 48 c2 12 d1 48 c2 40 ab 48 c2 18 86 48 c2
       -50.241768 -50.20417 -50.167236 -50.13095
0001c0 94 61 48 c2 b0 3d 48 c2 65 1a 48 c2 b1 f7 47 c2
       -50.09529 -50.06024 -50.025776 -49.991886
0001d0 8e d5 47 c2 f7 b3 47 c2 ea 92 47 c2 61 72 47 c2
       -49.95855 -49.925747 -49.89347 -49.8617
0001e0 59 52 47 c2 ce 32 47 c2 bc 13 47 c2 20 f5 46 c2
       -49.830418 -49.799614 -49.76927 -49.73938
0001f0 f5 d6 46 c2 3a b9 46 c2 eb 9b 46 c2 03 7f 46 c2
       -49.70992 -49.680885 -49.652264 -49.624035
000200 bc d1 4a c2 1d a1 4a c2 7e 71 4a c2 d6 42 4a c2
       -50.70482 -50.657337 -50.610832 -50.56527
000210 1e 15 4a c2 4d e8 49 c2 5e bc 49 c2 48 91 49 c2
       -50.520622 -50.476856 -50.433952 -50.391876
000220 05 67 49 c2 8f 3d 49 c2 df 14 49 c2 ef ec 48 c2
       -50.350605 -50.310116 -50.270382 -50.23138
000230 b9 c5 48 c2 37 9f 48 c2 64 79 48 c2 3b 54 48 c2
       -50.19309 -50.155483 -50.118546 -50.082256
000240 b7 2f 48 c2 d1 0b 48 c2 86 e8 47 c2 d2 c5 47 c2
       -50.046597 -50.01154 -49.977074 -49.943184
000250 ae a3 47 c2 18 82 47 c2 0a 61 47 c2 82 40 47 c2
       -49.909843 -49.877045 -49.844765 -49.812996
000260 7a 20 47 c2 ef 00 47 c2 dd e1 46 c2 42 c3 46 c2
       -49.781715 -49.75091 -49.72057 -49.69068
000270 18 a5 46 c2 5e 87 46 c2 0f 6a 46 c2 28 4d 46 c2
       -49.661224 -49.632195 -49.603573 -49.575348
000280 01 a0 4a c2 5e 6f 4a c2 bb 3f 4a c2 0f 11 4a c2
       -50.656254 -50.608757 -50.562237 -50.51666
000290 53 e3 49 c2 7f b6 49 c2 8c 8a 49 c2 74 5f 49 c2
       -50.471996 -50.42822 -50.3853 -50.343216
0002a0 2f 35 49 c2 b6 0b 49 c2 04 e3 48 c2 13 bb 48 c2
       -50.301937 -50.261436 -50.221695 -50.18269
0002b0 db 93 48 c2 58 6d 48 c2 85 47 48 c2 5b 22 48 c2
       -50.14439 -50.10678 -50.069843 -50.03355
0002c0 d5 fd 47 c2 ef d9 47 c2 a4 b6 47 c2 ef 93 47 c2
       -49.997883 -49.962826 -49.92836 -49.894466
0002d0 cb 71 47 c2 35 50 47 c2 27 2f 47 c2 9f 0e 47 c2
       -49.861126 -49.828327 -49.796047 -49.76428
0002e0 97 ee 46 c2 0c cf 46 c2 fb af 46 c2 60 91 46 c2
       -49.732998 -49.702194 -49.671856 -49.641968
0002f0 37 73 46 c2 7d 55 46 c2 2f 38 46 c2 49 1b 46 c2
       -49.612514 -49.583485 -49.554867 -49.526646
000300 49 6e 4a c2 a1 3d 4a c2 f9 0d 4a c2 49 df 49 c2
       -50.6077 -50.560184 -50.513645 -50.468052
000310 8a b1 49 c2 b3 84 49 c2 bd 58 49 c2 a2 2d 49 c2
       -50.423378 -50.37959 -50.33666 -50.294563
000320 5a 03 49 c2 e0 d9 48 c2 2c b1 48 c2 39 89 48 c2
       -50.253273 -50.21277 -50.17302 -50.134007
000330 00 62 48 c2 7b 3b 48 c2 a7 15 48 c2 7c f0 47 c2
       -50.095703 -50.058086 -50.021145 -49.984848
000340 f5 cb 47 c2 0f a8 47 c2 c3 84 47 c2 0d 62 47 c2
       -49.949177 -49.91412 -49.87965 -49.845753
000350 e9 3f 47 c2 53 1e 47 c2 45 fd 46 c2 bd dc 46 c2
       -49.812412 -49.779613 -49.747334 -49.715565
000360 b5 bc 46 c2 2b 9d 46 c2 1a 7e 46 c2 7f 5f 46 c2
       -49.684284 -49.653484 -49.623146 -49.593258
000370 57 41 46 c2 9d 23 46 c2 50 06 46 c2 6b e9 45 c2
       -49.56381 -49.53478 -49.506165 -49.477947
000380 8e 3c 4a c2 e1 0b 4a c2 35 dc 49 c2 81 ad 49 c2
       -50.559135 -50.5116 -50.465046 -50.419437
000390 be 7f 49 c2 e4 52 49 c2 eb 26 49 c2 cd fb 48 c2
       -50.37475 -50.330948 -50.288006 -50.2459
0003a0 83 d1 48 c2 07 a8 48 c2 51 7f 48 c2 5c 57 48 c2
       -50.2046 -50.16409 -50.124332 -50.08531
0003b0 21 30 48 c2 9c 09 48 c2 c6 e3 47 c2 9a be 47 c2
       -50.047 -50.009384 -49.972435 -49.936134
0003c0 13 9a 47 c2 2b 76 47 c2 df 52 47 c2 29 30 47 c2
       -49.900463 -49.8654 -49.83093 -49.79703
0003d0 05 0e 47 c2 6e ec 46 c2 61 cb 46 c2 d8 aa 46 c2
       -49.76369 -49.73089 -49.698612 -49.66684
0003e0 d1 8a 46 c2 47 6b 46 c2 36 4c 46 c2 9c 2d 46 c2
       -49.635563 -49.604763 -49.574425 -49.54454
0003f0 74 0f 46 c2 bb f1 45 c2 6e d4 45 c2 8a b7 45 c2
       -49.51509 -49.486065 -49.45745 -49.429237

lon f4 [32, 32]
000000 9d 24 0a c3 62 de 09 c3 4e 9a 09 c3 40 58 09 c3
       -138.14302 -137.86868 -137.60275 -137.34473
000010 1b 18 09 c3 c4 d9 08 c3 20 9d 08 c3 1b 62 08 c3
       -137.09416 -136.85065 -136.61377 -136.38322
000020 9c 28 08 c3 91 f0 07 c3 e7 b9 07 c3 8d 84 07 c3
       -136.15863 -135.93971 -135.72618 -135.51778
000030 71 50 07 c3 86 1d 07 c3 bc eb 06 c3 06 bb 06 c3
       -135.31422 -135.11533 -134.92084 -134.73056
000040 58 8b 06 c3 a7 5c 06 c3 e5 2e 06 c3 0b 02 06 c3
       -134.54431 -134.36192 -134.18318 -134.00798
000050 0c d6 05 c3 e1 aa 05 c3 80 80 05 c3 e2 56 05 c3
       -133.83612 -133.6675 -133.50195 -133.33939
000060 fd 2d 05 c3 ca 05 05 c3 43 de 04 c3 60 b7 04 c3
       -133.17964 -133.02261 -132.86821 -132.71631
000070 1c 91 04 c3 70 6b 04 c3 55 46 04 c3 c7 21 04 c3
       -132.56683 -132.41968 -132.27473 -132.13194
000080 9f 26 0a c3 78 e0 09 c3 76 9c 09 c3 7b 5a 09 c3
       -138.15086 -137.87683 -137.61118 -137.35344
000090 68 1a 09 c3 21 dc 08 c3 8f 9f 08 c3 99 64 08 c3
       -137.10315 -136.85988 -136.62328 -136.39296
0000a0 2b 2b 08 c3 2f f3 07 c3 94 bc 07 c3 48 87 07 c3
       -136.16862 -135.94994 -135.73663 -135.52844
0000b0 3a 53 07 c3 5d 20 07 c3 a0 ee 06 c3 f8 bd 06 c3
       -135.3251 -135.12642 -134.93213 -134.74207
0000c0 57 8e 06 c3 b1 5f 06 c3 fd 31 06 c3 2e 05 06 c3
       -134.55602 -134.3738 -134.19527 -134.02023
0000d0 3b d9 05 c3 1c ae 05 c3 c6 83 05 c3 32 5a 05 c3
       -133.84856 -133.68011 -133.51474 -133.35233
0000e0 58 31 05 c3 30 09 05 c3 b3 e1 04 c3 db ba 04 c3
       -133.19275 -133.03589 -132.88164 -132.7299
0000f0 a0 94 04 c3 fe 6e 04 c3 ed 49 04 c3 69 25 04 c3
       -132.58057 -132.43356 -132.28877 -132.14613
000100 a1 28 0a c3 8d e2 09 c3 9f 9e 09 c3 b6 5c 09 c3
       -138.1587 -137.88496 -137.61961 -137.36215
000110 b4 1c 09 c3 7f de 08 c3 fd a1 08 c3 18 67 08 c3
       -137.11212 -136.86913 -136.63277 -136.40271
000120 b9 2d 08 c3 cd f5 07 c3 40 bf 07 c3 03 8a 07 c3
       -136.1786 -135.96016 -135.74707 -135.53911
000130 03 56 07 c3 33 23 07 c3 84 f1 06 c3 e9 c0 06 c3
       -135.33598 -135.1375 -134.94342 -134.75356
000140 55 91 06 c3 bc 62 06 c3 13 35 06 c3 50 08 06 c3
       -134.5677 -134.38568 -134.20732 -134.03247
000150 69 dc 05 c3 55 b1 05 c3 0b 87 05 c3 82 5d 05 c3
       -133.86098 -133.6927 -133.52751 -133.36526
000160 b2 34 05 c3 95 0c 05 c3 23 e5 04 c3 54 be 04 c3
       -133.20584 -133.04915 -132.89507 -132.74347
000170 24 98 04 c3 8b 72 04 c3 84 4d 04 c3 09 29 04 c3
       -132.5943 -132.44743 -132.3028 -132.1603
000180 90 2a 0a c3 91 e4 09 c3 b6 a0 09 c3 e0 5e 09 c3
       -138.16626 -137.89284 -137.62778 -137.3706
000190 f0 1e 09 c3 cd e0 08 c3 5c a4 08 c3 87 69 08 c3
       -137.12085 -136.87813 -136.64203 -136.41222
0001a0 38 30 08 c3 5b f8 07 c3 de c1 07 c3 af 8c 07 c3
       -136.18835 -135.97014 -135.7573 -135.54955
0001b0 bf 58 07 c3 fc 25 07 c3 5b f4 06 c3 cd c3 06 c3
       -135.34666 -135.14838 -134.95451 -134.76485
0001c0 46 94 06 c3 b9 65 06 c3 1d 38 06 c3 66 0b 06 c3
       -134.5792 -134.39735 -134.2192 -134.04453
0001d0 8b df 05 c3 83 b4 05 c3 44 8a 05 c3 c6 60 05 c3
       -133.87321 -133.70512 -133.5401 -133.37802
0001e0 01 38 05 c3 ef 0f 05 c3 87 e8 04 c3 c3 c1 04 c3
       -133.21877 -133.06224 -132.90831 -132.75688
0001f0 9d 9b 04 c3 0e 76 04 c3 10 51 04 c3 9f 2c 04 c3
       -132.60786 -132.46115 -132.31665 -132.1743
000200 90 2c 0a c3 a4 e6 09 c3 dc a2 09 c3 18 61 09 c3
       -138.17407 -137.90094 -137.63617 -137.37927
000210 3a 21 09 c3 28 e3 08 c3 c8 a6 08 c3 03 6c 08 c3
       -137.12979 -136.88733 -136.65149 -136.42192
000220 c4 32 08 c3 f6 fa 07 c3 88 c4 07 c3 67 8f 07 c3
       -136.1983 -135.98032 -135.7677 -135.56017
000230 85 5b 07 c3 d0 28 07 c3 3c f7 06 c3 bb c6 06 c3
       -135.3575 -135.15942 -134.96576 -134.77629
000240 41 97 06 c3 c1 68 06 c3 31 3b 06 c3 86 0e 06 c3
       -134.59084 -134.4092 -134.23122 -134.05673
000250 b6 e2 05 c3 b9 b7 05 c3 85 8d 05 c3 12 64 05 c3
       -133.88559 -133.71767 -133.55281 -133.3909
000260 58 3b 05 c3 50 13 05 c3 f3 eb 04 c3 39 c5 04 c3
       -133.23181 -133.07544 -132.92168 -132.7704
000270 1d 9f 04 c3 97 79 04 c3 a4 54 04 c3 3c 30 04 c3
       -132.62154 -132.47496 -132.33063 -132.18842
000280 8d 2e 0a c3 b5 e8 09 c3 00 a5 09 c3 4e 63 09 c3
       -138.18184 -137.90901 -137.64453 -137.38791
000290 82 23 09 c3 80 e5 08 c3 31 a9 08 c3 7c 6e 08 c3
       -137.1387 -136.89648 -136.6609 -136.43158
0002a0 4c 35 08 c3 8e fd 07 c3 2f c7 07 c3 1d 92 07 c3
       -136.20819 -135.99045 -135.77806 -135.57076
0002b0 48 5e 07 c3 a1 2b 07 c3 1b fa 06 c3 a7 c9 06 c3
       -135.36829 -135.17043 -134.97697 -134.7877
0002c0 39 9a 06 c3 c6 6b 06 c3 42 3e 06 c3 a3 11 06 c3
       -134.60243 -134.42099 -134.2432 -134.0689
0002d0 df e5 05 c3 ed ba 05 c3 c4 90 05 c3 5c 67 05 c3
       -133.89793 -133.73018 -133.56549 -133.40375
0002e0 ad 3e 05 c3 af 16 05 c3 5c ef 04 c3 ad c8 04 c3
       -133.24483 -133.08861 -132.935 -132.78389
0002f0 9a a2 04 c3 1f 7d 04 c3 35 58 04 c3 d6 33 04 c3
       -132.63516 -132.48875 -132.34456 -132.20248
000300 8c 30 0a c3 c7 ea 09 c3 25 a7 09 c3 85 65 09 c3
       -138.18964 -137.9171 -137.65291 -137.39656
000310 ca 25 09 c3 da e7 08 c3 9b ab 08 c3 f7 70 08 c3
       -137.14761 -136.90567 -136.67033 -136.44127
000320 d7 37 08 c3 28 00 08 c3 d7 c9 07 c3 d3 94 07 c3
       -136.21812 -136.00061 -135.78844 -135.58134
000330 0d 61 07 c3 74 2e 07 c3 fa fc 06 c3 93 cc 06 c3
       -135.3791 -135.18146 -134.98819 -134.79912
000340 32 9d 06 c3 cb 6e 06 c3 53 41 06 c3 c0 14 06 c3
       -134.61404 -134.43279 -134.25517 -134.08105
000350 08 e9 05 c3 21 be 05 c3 04 94 05 c3 a6 6a 05 c3
       -133.91028 -133.74269 -133.57819 -133.4166
000360 02 42 05 c3 0f 1a 05 c3 c6 f2 04 c3 20 cc 04 c3
       -133.25784 -133.10179 -132.94833 -132.79736
000370 18 a6 04 c3 a6 80 04 c3 c5 5b 04 c3 71 37 04 c3
       -132.6488 -132.50253 -132.35847 -132.21657
000380 8b 32 0a c3 da ec 09 c3 4a a9 09 c3 bd 67 09 c3
       -138.19743 -137.9252 -137.66129 -137.40523
000390 14 28 09 c3 34 ea 08 c3 06 ae 08 c3 71 73 08 c3
       -137.15656 -136.91486 -136.67978 -136.45094
0003a0 61 3a 08 c3 c1 02 08 c3 7f cc 07 c3 8a 97 07 c3
       -136.22804 -136.01076 -135.79881 -135.59195
0003b0 d1 63 07 c3 45 31 07 c3 d9 ff 06 c3 7f cf 06 c3
       -135.38991 -135.19246 -134.9994 -134.81053
0003c0 2b a0 06 c3 d0 71 06 c3 64 44 06 c3 dd 17 06 c3
       -134.62566 -134.44458 -134.26715 -134.09322
0003d0 30 ec 05 c3 55 c1 05 c3 43 97 05 c3 f0 6d 05 c3
       -133.9226 -133.7552 -133.59087 -133.42944
0003e0 56 45 05 c3 6e 1d 05 c3 2f f6 04 c3 93 cf 04 c3
       -133.27084 -133.11496 -132.96165 -132.81084
0003f0 95 a9 04 c3 2d 84 04 c3 56 5f 04 c3 0a 3b 04 c3
       -132.66243 -132.51631 -132.3724 -132.23062

qa f4 [32, 32]
000000 00 00 00 00 00 00 00 00 00 00 00 00 00 00 00 00
       0.0 0.0 0.0 0.0
000010 00 00 00 00 00 00 00 00 00 00 00 00 00 00 00 00
       0.0 0.0 0.0 0.0
000020 00 00 00 00 00 00 00 00 00 00 00 00 00 00 00 00
       0.0 0.0 0.0 0.0
000030 00 00 00 00 00 00 00 00 00 00 00 00 00 00 00 00
       0.0 0.0 0.0 0.0
000040 00 00 00 00 00 00 00 00 00 00 00 00 00 00 00 00
       0.0 0.0 0.0 0.0
000050 00 00 00 00 00 00 00 00 00 00 00 00 00 00 00 00
       0.0 0.0 0.0 0.0
000060 00 00 00 00 00 00 00 00 00 00 00 00 00 00 00 00
       0.0 0.0 0.0 0.0
000070 00 00 00 00 00 00 00 00 00 00 00 00 00 00 00 00
       0.0 0.0 0.0 0.0
000080 00 00 00 00 00 00 00 00 00 00 00 00 00 00 00 00
       0.0 0.0 0.0 0.0
000090 00 00 00 00 00 00 00 00 00 00 00 00 00 00 00 00
       0.0 0.0 0.0 0.0
0000a0 00 00 00 00 00 00 00 00 00 00 00 00 00 00 00 00
       0.0 0.0 0.0 0.0
0000b0 00 00 00 00 00 00 00 00 00 00 00 00 00 00 00 00
       0.0 0.0 0.0 0.0
0000c0 00 00 00 00 00 00 00 00 00 00 00 00 00 00 00 00
       0.0 0.0 0.0 0.0
0000d0 00 00 00 00 00 00 00 00 00 00 00 00 00 00 00 00
       0.0 0.0 0.0 0.0
0000e0 00 00 00 00 00 00 00 00 00 00 00 00 00 00 00 00
       0.0 0.0 0.0 0.0
0000f0 00 00 00 00 00 00 00 00 00 00 00 00 00 00 00 00
       0.0 0.0 0.0 0.0
000100 00 00 00 00 00 00 00 00 00 00 00 00 00 00 00 00
       0.0 0.0 0.0 0.0
000110 00 00 00 00 00 00 00 00 00 00 00 00 00 00 00 00
       0.0 0.0 0.0 0.0
000120 00 00 00 00 00 00 00 00 00 00 00 00 00 00 00 00
       0.0 0.0 0.0 0.0
000130 00 00 00 00 00 00 00 00 00 00 00 00 00 00 00 00
       0.0 0.0 0.0 0.0
000140 00 00 00 00 00 00 00 00 00 00 00 00 00 00 00 00
       0.0 0.0 0.0 0.0
000150 00 00 00 00 00 00 00 00 00 00 00 00 00 00 00 00
       0.0 0.0 0.0 0.0
000160 00 00 00 00 00 00 00 00 00 00 00 00 00 00 00 00
       0.0 0.0 0.0 0.0
000170 00 00 00 00 00 00 00 00 00 00 00 00 00 00 00 00
       0.0 0.0 0.0 0.0
000180 00 00 00 00 00 00 00 00 00 00 00 00 00 00 00 00
       0.0 0.0 0.0 0.0
000190 00 00 00 00 00 00 00 00 00 00 00 00 00 00 00 00
       0.0 0.0 0.0 0.0
0001a0 00 00 00 00 00 00 00 00 00 00 00 00 00 00 00 00
       0.0 0.0 0.0 0.0
0001b0 00 00 00 00 00 00 00 00 00 00 00 00 00 00 00 00
       0.0 0.0 0.0 0.0
0001c0 00 00 00 00 00 00 00 00 00 00 00 00 00 00 00 00
       0.0 0.0 0.0 0.0
0001d0 00 00 00 00 00 00 00 00 00 00 00 00 00 00 00 00
       0.0 0.0 0.0 0.0
0001e0 00 00 00 00 00 00 00 00 00 00 00 00 00 00 00 00
       0.0 0.0 0.0 0.0
0001f0 00 00 00 00 00 00 00 00 00 00 00 00 00 00 00 00
       0.0 0.0 0.0 0.0
000200 00 00 00 00 00 00 00 00 00 00 00 00 00 00 00 00
       0.0 0.0 0.0 0.0
000210 00 00 00 00 00 00 00 00 00 00 00 00 00 00 00 00
       0.0 0.0 0.0 0.0
000220 00 00 00 00 00 00 00 00 00 00 00 00 00 00 00 00
       0.0 0.0 0.0 0.0
000230 00 00 00 00 00 00 00 00 00 00 00 00 00 00 00 00
       0.0 0.0 0.0 0.0
000240 00 00 00 00 00 00 00 00 00 00 00 00 00 00 00 00
       0.0 0.0 0.0 0.0
000250 00 00 00 00 00 00 00 00 00 00 00 00 00 00 00 00
       0.0 0.0 0.0 0.0
000260 00 00 00 00 00 00 00 00 00 00 00 00 00 00 00 00
       0.0 0.0 0.0 0.0
000270 00 00 00 00 00 00 00 00 00 00 00 00 00 00 00 00
       0.0 0.0 0.0 0.0
000280 00 00 00 00 00 00 00 00 00 00 00 00 00 00 00 00
       0.0 0.0 0.0 0.0
000290 00 00 00 00 00 00 00 00 00 00 00 00 00 00 00 00
       0.0 0.0 0.0 0.0
0002a0 00 00 00 00 00 00 00 00 00 00 00 00 00 00 00 00
       0.0 0.0 0.0 0.0
0002b0 00 00 00 00 00 00 00 00 00 00 00 00 00 00 00 00
       0.0 0.0 0.0 0.0
0002c0 00 00 00 00 00 00 00 00 00 00 00 00 00 00 00 00
       0.0 0.0 0.0 0.0
0002d0 00 00 00 00 00 00 00 00 00 00 00 00 00 00 00 00
       0.0 0.0 0.0 0.0
0002e0 00 00 00 00 00 00 00 00 00 00 00 00 00 00 00 00
       0.0 0.0 0.0 0.0
0002f0 00 00 00 00 00 00 00 00 00 00 00 00 00 00 00 00
       0.0 0.0 0.0 0.0
000300 00 00 00 00 00 00 00 00 00 00 00 00 00 00 00 00
       0.0 0.0 0.0 0.0
000310 00 00 00 00 00 00 00 00 00 00 00 00 00 00 00 00
       0.0 0.0 0.0 0.0
000320 00 00 00 00 00 00 00 00 00 00 00 00 00 00 00 00
       0.0 0.0 0.0 0.0
000330 00 00 00 00 00 00 00 00 00 00 00 00 00 00 00 00
       0.0 0.0 0.0 0.0
000340 00 00 00 00 00 00 00 00 00 00 00 00 00 00 00 00
       0.0 0.0 0.0 0.0
000350 00 00 00 00 00 00 00 00 00 00 00 00 00 00 00 00
       0.0 0.0 0.0 0.0
000360 00 00 00 00 00 00 00 00 00 00 00 00 00 00 00 00
       0.0 0.0 0.0 0.0
000370 00 00 00 00 00 00 00 00 00 00 00 00 00 00 00 00
       0.0 0.0 0.0 0.0
000380 00 00 00 00 00 00 00 00 00 00 00 00 00 00 00 00
       0.0 0.0 0.0 0.0
000390 00 00 00 00 00 00 00 00 00 00 00 00 00 00 00 00
       0.0 0.0 0.0 0.0
0003a0 00 00 00 00 00 00 00 00 00 00 00 00 00 00 00 00
       0.0 0.0 0.0 0.0
0003b0 00 00 00 00 00 00 00 00 00 00 00 00 00 00 00 00
       0.0 0.0 0.0 0.0
0003c0 00 00 00 00 00 00 00 00 00 00 00 00 00 00 00 00
       0.0 0.0 0.0 0.0
0003d0 00 00 00 00 00 00 00 00 00 00 00 00 00 00 00 00
       0.0 0.0 0.0 0.0
0003e0 00 00 00 00 00 00 00 00 00 00 00 00 00 00 00 00
       0.0 0.0 0.0 0.0
0003f0 00 00 00 00 00 00 00 00 00 00 00 00 00 00 00 00
       0.0 0.0 0.0 0.0
