data/dataset/negative/9e716364-426a-4929-b55a-dcc0ddf3d588.npz (npz, 23743 bytes, 4 tensors)

methane f8 [32, 32]
000000 00 00 00 00 00 00 9e 47 00 00 00 00 00 00 9e 47
       9.969209968386869e+36 9.969209968386869e+36
000010 00 00 00 00 00 00 9e 47 00 00 00 00 00 00 9e 47
       9.969209968386869e+36 9.969209968386869e+36
000020 00 00 00 00 00 00 9e 47 00 00 00 00 00 00 9e 47
       9.969209968386869e+36 9.969209968386869e+36
000030 00 00 00 00 00 00 9e 47 00 00 00 00 00 00 9e 47
       9.969209968386869e+36 9.969209968386869e+36
000040 00 00 00 00 00 00 9e 47 00 00 00 00 00 00 9e 47
       9.969209968386869e+36 9.969209968386869e+36
000050 00 00 00 00 00 00 9e 47 00 00 00 00 00 00 9e 47
       9.969209968386869e+36 9.969209968386869e+36
000060 00 00 00 00 00 00 9e 47 00 00 00 00 00 00 9e 47
       9.969209968386869e+36 9.969209968386869e+36
000070 00 00 00 00 00 00 9e 47 00 00 00 00 00 00 9e 47
       9.969209968386869e+36 9.969209968386869e+36
000080 00 00 00 00 00 00 9e 47 00 00 00 00 00 00 9e 47
       9.969209968386869e+36 9.969209968386869e+36
000090 00 00 00 00 00 00 9e 47 00 00 00 00 00 00 9e 47
       9.969209968386869e+36 9.969209968386869e+36
0000a0 00 00 00 00 00 00 9e 47 00 00 00 00 00 00 9e 47
       9.969209968386869e+36 9.969209968386869e+36
0000b0 00 00 00 00 00 00 9e 47 00 00 00 00 00 00 9e 47
       9.969209968386869e+36 9.969209968386869e+36
0000c0 00 00 00 00 00 00 9e 47 00 00 00 00 00 00 9e 47
       9.969209968386869e+36 9.969209968386869e+36
0000d0 00 00 00 00 00 00 9e 47 00 00 00 00 00 00 9e 47
       9.969209968386869e+36 9.969209968386869e+36
0000e0 00 00 00 00 00 00 9e 47 00 00 00 00 00 00 9e 47
       9.969209968386869e+36 9.969209968386869e+36
0000f0 00 00 00 00 00 00 9e 47 00 00 00 00 00 00 9e 47
       9.969209968386869e+36 9.969209968386869e+36
000100 00 00 00 00 00 00 9e 47 00 00 00 00 00 00 9e 47
       9.969209968386869e+36 9.969209968386869e+36
000110 00 00 00 00 00 00 9e 47 00 00 00 00 00 00 9e 47
       9.969209968386869e+36 9.969209968386869e+36
000120 00 00 00 00 00 00 9e 47 00 00 00 00 00 00 9e 47
       9.969209968386869e+36 9.969209968386869e+36
000130 00 00 00 00 00 00 9e 47 00 00 00 00 00 00 9e 47
       9.969209968386869e+36 9.969209968386869e+36
000140 00 00 00 00 00 00 9e 47 00 00 00 00 00 00 9e 47
       9.969209968386869e+36 9.969209968386869e+36
000150 00 00 00 00 00 00 9e 47 00 00 00 00 00 00 9e 47
       9.969209968386869e+36 9.969209968386869e+36
000160 00 00 00 00 00 00 9e 47 00 00 00 00 00 00 9e 47
       9.969209968386869e+36 9.969209968386869e+36
000170 00 00 00 00 00 00 9e 47 00 00 00 00 00 00 9e 47
       9.969209968386869e+36 9.969209968386869e+36
000180 00 00 00 00 00 00 9e 47 00 00 00 00 00 00 9e 47
       9.969209968386869e+36 9.969209968386869e+36
000190 00 00 00 00 00 00 9e 47 00 00 00 00 00 00 9e 47
       9.969209968386869e+36 9.969209968386869e+36
0001a0 00 00 00 00 00 00 9e 47 00 00 00 00 00 00 9e 47
       9.969209968386869e+36 9.969209968386869e+36
0001b0 00 00 00 00 00 00 9e 47 00 00 00 00 00 00 9e 47
       9.969209968386869e+36 9.969209968386869e+36
0001c0 00 00 00 00 00 00 9e 47 00 00 00 00 00 00 9e 47
       9.969209968386869e+36 9.969209968386869e+36
0001d0 00 00 00 00 00 00 9e 47 00 00 00 00 00 00 9e 47
       9.969209968386869e+36 9.969209968386869e+36
0001e0 00 00 00 00 00 00 9e 47 00 00 00 00 00 00 9e 47
       9.969209968386869e+36 9.969209968386869e+36
0001f0 00 00 00 00 00 00 9e 47 00 00 00 00 00 00 9e 47
       9.969209968386869e+36 9.969209968386869e+36
000200 00 00 00 00 00 00 9e 47 00 00 00 00 00 00 9e 47
       9.969209968386869e+36 9.969209968386869e+36
000210 00 00 00 00 00 00 9e 47 00 00 00 00 00 00 9e 47
       9.969209968386869e+36 9.969209968386869e+36
000220 00 00 00 00 00 00 9e 47 00 00 00 00 00 00 9e 47
       9.969209968386869e+36 9.969209968386869e+36
000230 00 00 00 00 00 00 9e 47 00 00 00 00 00 00 9e 47
       9.969209968386869e+36 9.969209968386869e+36
000240 00 00 00 00 00 00 9e 47 00 00 00 00 00 00 9e 47
       9.969209968386869e+36 9.969209968386869e+36
000250 00 00 00 00 00 00 9e 47 00 00 00 00 00 00 9e 47
       9.969209968386869e+36 9.969209968386869e+36
000260 00 00 00 00 00 00 9e 47 00 00 00 00 00 00 9e 47
       9.969209968386869e+36 9.969209968386869e+36
000270 00 00 00 00 00 00 9e 47 00 00 00 00 00 00 9e 47
       9.969209968386869e+36 9.969209968386869e+36
000280 00 00 00 00 00 00 9e 47 00 00 00 00 00 00 9e 47
       9.969209968386869e+36 9.969209968386869e+36
000290 00 00 00 00 00 00 9e 47 00 00 00 00 00 00 9e 47
       9.969209968386869e+36 9.969209968386869e+36
0002a0 00 00 00 00 00 00 9e 47 00 00 00 00 00 00 9e 47
       9.969209968386869e+36 9.969209968386869e+36
0002b0 00 00 00 00 00 00 9e 47 00 00 00 00 00 00 9e 47
       9.969209968386869e+36 9.969209968386869e+36
0002c0 00 00 00 00 00 00 9e 47 00 00 00 00 00 00 9e 47
       9.969209968386869e+36 9.969209968386869e+36
0002d0 00 00 00 00 00 00 9e 47 00 00 00 00 00 00 9e 47
       9.969209968386869e+36 9.969209968386869e+36
0002e0 00 00 00 00 00 00 9e 47 00 00 00 00 00 00 9e 47
       9.969209968386869e+36 9.969209968386869e+36
0002f0 00 00 00 00 00 00 9e 47 00 00 00 00 00 00 9e 47
       9.969209968386869e+36 9.969209968386869e+36
000300 00 00 00 00 00 00 9e 47 00 00 00 00 00 00 9e 47
       9.969209968386869e+36 9.969209968386869e+36
000310 00 00 00 00 00 00 9e 47 00 00 00 00 00 00 9e 47
       9.969209968386869e+36 9.969209968386869e+36
000320 00 00 00 00 00 00 9e 47 00 00 00 00 00 00 9e 47
       9.969209968386869e+36 9.969209968386869e+36
000330 00 00 00 00 00 00 9e 47 00 00 00 00 00 00 9e 47
       9.969209968386869e+36 9.969209968386869e+36
000340 00 00 00 00 00 00 9e 47 00 00 00 00 00 00 9e 47
       9.969209968386869e+36 9.969209968386869e+36
000350 00 00 00 00 00 00 9e 47 00 00 00 00 00 00 9e 47
       9.969209968386869e+36 9.969209968386869e+36
000360 00 00 00 00 00 00 9e 47 00 00 00 00 00 00 9e 47
       9.969209968386869e+36 9.969209968386869e+36
000370 00 00 00 00 00 00 9e 47 00 00 00 00 00 00 9e 47
       9.969209968386869e+36 9.969209968386869e+36
000380 00 00 00 00 00 00 9e 47 00 00 00 00 00 00 9e 47
       9.969209968386869e+36 9.969209968386869e+36
000390 00 00 00 00 00 00 9e 47 00 00 00 00 00 00 9e 47
       9.969209968386869e+36 9.969209968386869e+36
0003a0 00 00 00 00 00 00 9e 47 00 00 00 00 00 00 9e 47
       9.969209968386869e+36 9.969209968386869e+36
0003b0 00 00 00 00 00 00 9e 47 00 00 00 00 00 00 9e 47
       9.969209968386869e+36 9.969209968386869e+36
0003c0 00 00 00 00 00 00 9e 47 00 00 00 00 00 00 9e 47
       9.969209968386869e+36 9.969209968386869e+36
0003d0 00 00 00 00 00 00 9e 47 00 00 00 00 00 00 9e 47
       9.969209968386869e+36 9.969209968386869e+36
0003e0 00 00 00 00 00 00 9e 47 00 00 00 00 00 00 9e 47
       9.969209968386869e+36 9.969209968386869e+36
0003f0 00 00 00 00 00 00 9e 47 00 00 00 00 00 00 9e 47
       9.969209968386869e+36 9.969209968386869e+36
000400 00 00 00 00 00 00 9e 47 00 00 00 00 00 00 9e 47
       9.969209968386869e+36 9.969209968386869e+36
000410 00 00 00 00 00 00 9e 47 00 00 00 00 00 00 9e 47
       9.969209968386869e+36 9.969209968386869e+36
000420 00 00 00 00 00 00 9e 47 00 00 00 00 00 00 9e 47
       9.969209968386869e+36 9.969209968386869e+36
000430 00 00 00 00 00 00 9e 47 00 00 00 00 00 00 9e 47
       9.969209968386869e+36 9.969209968386869e+36
000440 00 00 00 00 00 00 9e 47 00 00 00 00 00 00 9e 47
       9.969209968386869e+36 9.969209968386869e+36
000450 00 00 00 00 00 00 9e 47 00 00 00 00 00 00 9e 47
       9.969209968386869e+36 9.969209968386869e+36
000460 00 00 00 00 00 00 9e 47 00 00 00 00 00 00 9e 47
       9.969209968386869e+36 9.969209968386869e+36
000470 00 00 00 00 00 00 9e 47 00 00 00 00 00 00 9e 47
       9.969209968386869e+36 9.969209968386869e+36
000480 00 00 00 00 00 00 9e 47 00 00 00 00 00 00 9e 47
       9.969209968386869e+36 9.969209968386869e+36
000490 00 00 00 00 00 00 9e 47 00 00 00 00 00 00 9e 47
       9.969209968386869e+36 9.969209968386869e+36
0004a0 00 00 00 00 00 00 9e 47 00 00 00 00 00 00 9e 47
       9.969209968386869e+36 9.969209968386869e+36
0004b0 00 00 00 00 00 00 9e 47 00 00 00 00 00 00 9e 47
       9.969209968386869e+36 9.969209968386869e+36
0004c0 00 00 00 00 00 00 9e 47 00 00 00 00 00 00 9e 47
       9.969209968386869e+36 9.969209968386869e+36
0004d0 00 00 00 00 00 00 9e 47 00 00 00 00 00 00 9e 47
       9.969209968386869e+36 9.969209968386869e+36
0004e0 00 00 00 00 00 00 9e 47 00 00 00 00 00 00 9e 47
       9.969209968386869e+36 9.969209968386869e+36
0004f0 00 00 00 00 00 00 9e 47 00 00 00 00 00 00 9e 47
       9.969209968386869e+36 9.969209968386869e+36
000500 00 00 00 00 00 00 9e 47 00 00 00 00 00 00 9e 47
       9.969209968386869e+36 9.969209968386869e+36
000510 00 00 00 00 00 00 9e 47 00 00 00 00 00 00 9e 47
       9.969209968386869e+36 9.969209968386869e+36
000520 00 00 00 00 00 00 9e 47 00 00 00 00 00 00 9e 47
       9.969209968386869e+36 9.969209968386869e+36
000530 00 00 00 00 00 00 9e 47 00 00 00 00 00 00 9e 47
       9.969209968386869e+36 9.969209968386869e+36
000540 00 00 00 00 00 00 9e 47 00 00 00 00 00 00 9e 47
       9.969209968386869e+36 9.969209968386869e+36
000550 00 00 00 00 00 00 9e 47 00 00 00 00 00 00 9e 47
       9.969209968386869e+36 9.969209968386869e+36
000560 00 00 00 00 00 00 9e 47 00 00 00 00 00 00 9e 47
       9.969209968386869e+36 9.969209968386869e+36
000570 00 00 00 00 00 00 9e 47 00 00 00 00 00 00 9e 47
       9.969209968386869e+36 9.969209968386869e+36
000580 00 00 00 00 00 00 9e 47 00 00 00 00 00 00 9e 47
       9.969209968386869e+36 9.969209968386869e+36
000590 00 00 00 00 00 00 9e 47 00 00 00 00 00 00 9e 47
       9.969209968386869e+36 9.969209968386869e+36
0005a0 00 00 00 00 00 00 9e 47 00 00 00 00 00 00 9e 47
       9.969209968386869e+36 9.969209968386869e+36
0005b0 00 00 00 00 00 00 9e 47 00 00 00 00 00 00 9e 47
       9.969209968386869e+36 9.969209968386869e+36
0005c0 00 00 00 00 00 00 9e 47 00 00 00 00 00 00 9e 47
       9.969209968386869e+36 9.969209968386869e+36
0005d0 00 00 00 00 00 00 9e 47 00 00 00 00 00 00 9e 47
       9.969209968386869e+36 9.969209968386869e+36
0005e0 00 00 00 00 00 00 9e 47 00 00 00 00 00 00 9e 47
       9.969209968386869e+36 9.969209968386869e+36
0005f0 00 00 00 00 00 00 9e 47 00 00 00 00 00 00 9e 47
       9.969209968386869e+36 9.969209968386869e+36
000600 00 00 00 00 00 00 9e 47 00 00 00 00 00 00 9e 47
       9.969209968386869e+36 9.969209968386869e+36
000610 00 00 00 00 00 00 9e 47 00 00 00 00 00 00 9e 47
       9.969209968386869e+36 9.969209968386869e+36
000620 00 00 00 00 00 00 9e 47 00 00 00 00 00 00 9e 47
       9.969209968386869e+36 9.969209968386869e+36
000630 00 00 00 00 00 00 9e 47 00 00 00 00 00 00 9e 47
       9.969209968386869e+36 9.969209968386869e+36
000640 00 00 00 00 00 00 9e 47 00 00 00 00 00 00 9e 47
       9.969209968386869e+36 9.969209968386869e+36
000650 00 00 00 00 00 00 9e 47 00 00 00 00 00 00 9e 47
       9.969209968386869e+36 9.969209968386869e+36
000660 00 00 00 00 00 00 9e 47 00 00 00 00 00 00 9e 47
       9.969209968386869e+36 9.969209968386869e+36
000670 00 00 00 00 00 00 9e 47 00 00 00 00 00 00 9e 47
       9.969209968386869e+36 9.969209968386869e+36
000680 00 00 00 00 00 00 9e 47 00 00 00 00 00 00 9e 47
       9.969209968386869e+36 9.969209968386869e+36
000690 00 00 00 00 00 00 9e 47 00 00 00 00 00 00 9e 47
       9.969209968386869e+36 9.969209968386869e+36
0006a0 00 00 00 00 00 00 9e 47 00 00 00 00 00 00 9e 47
       9.969209968386869e+36 9.969209968386869e+36
0006b0 00 00 00 00 00 00 9e 47 00 00 00 00 00 00 9e 47
       9.969209968386869e+36 9.969209968386869e+36
0006c0 00 00 00 00 00 00 9e 47 00 00 00 00 00 00 9e 47
       9.969209968386869e+36 9.969209968386869e+36
0006d0 00 00 00 00 00 00 9e 47 00 00 00 00 00 00 9e 47
       9.969209968386869e+36 9.969209968386869e+36
0006e0 00 00 00 00 00 00 9e 47 00 00 00 00 00 00 9e 47
       9.969209968386869e+36 9.969209968386869e+36
0006f0 00 00 00 00 00 00 9e 47 00 00 00 00 00 00 9e 47
       9.969209968386869e+36 9.969209968386869e+36
000700 00 00 00 00 00 00 9e 47 00 00 00 00 00 00 9e 47
       9.969209968386869e+36 9.969209968386869e+36
000710 00 00 00 00 00 00 9e 47 00 00 00 00 00 00 9e 47
       9.969209968386869e+36 9.969209968386869e+36
000720 00 00 00 00 00 00 9e 47 00 00 00 00 00 00 9e 47
       9.969209968386869e+36 9.969209968386869e+36
000730 00 00 00 00 00 00 9e 47 00 00 00 00 00 00 9e 47
       9.969209968386869e+36 9.969209968386869e+36
000740 00 00 00 00 00 00 9e 47 00 00 00 00 00 00 9e 47
       9.969209968386869e+36 9.969209968386869e+36
000750 00 00 00 00 00 00 9e 47 00 00 00 00 00 00 9e 47
       9.969209968386869e+36 9.969209968386869e+36
000760 00 00 00 00 00 00 9e 47 00 00 00 00 00 00 9e 47
       9.969209968386869e+36 9.969209968386869e+36
000770 00 00 00 00 00 00 9e 47 00 00 00 00 00 00 9e 47
       9.969209968386869e+36 9.969209968386869e+36
000780 00 00 00 00 00 00 9e 47 00 00 00 00 00 00 9e 47
       9.969209968386869e+36 9.969209968386869e+36
000790 00 00 00 00 00 00 9e 47 00 00 00 00 00 00 9e 47
       9.969209968386869e+36 9.969209968386869e+36
0007a0 00 00 00 00 00 00 9e 47 00 00 00 00 00 00 9e 47
       9.969209968386869e+36 9.969209968386869e+36
0007b0 00 00 00 00 00 00 9e 47 00 00 00 00 00 00 9e 47
       9.969209968386869e+36 9.969209968386869e+36
0007c0 00 00 00 00 00 00 9e 47 00 00 00 00 00 00 9e 47
       9.969209968386869e+36 9.969209968386869e+36
0007d0 00 00 00 00 00 00 9e 47 00 00 00 00 00 00 9e 47
       9.969209968386869e+36 9.969209968386869e+36
0007e0 00 00 00 00 00 00 9e 47 00 00 00 00 00 00 9e 47
       9.969209968386869e+36 9.969209968386869e+36
0007f0 00 00 00 00 00 00 9e 47 00 00 00 00 00 00 9e 47
       9.969209968386869e+36 9.969209968386869e+36

lat f4 [32, 32]
000000 3b 75 26 42 f7 87 26 42 7d 9a 26 42 d0 ac 26 42
       41.614483 41.63278 41.650867 41.668762
000010 ef be 26 42 dd d0 26 42 9a e2 26 42 26 f4 26 42
       41.68646 41.703968 41.72129 41.738426
000020 84 05 27 42 b4 16 27 42 b6 27 27 42 8c 38 27 42
       41.755386 41.77217 41.78878 41.80522
000030 37 49 27 42 b6 59 27 42 0c 6a 27 42 37 7a 27 42
       41.8215 41.83761 41.85356 41.86935
000040 3b 8a 27 42 15 9a 27 42 c9 a9 27 42 55 b9 27 42
       41.88499 41.90047 41.915806 41.93099
000050 bb c8 27 42 fb d7 27 42 16 e7 27 42 0c f6 27 42
       41.946026 41.96092 41.97567 41.99028
000060 dd 04 28 42 8a 13 28 42 14 22 28 42 7a 30 28 42
       42.00475 42.01908 42.03328 42.04734
000070 bd 3e 28 42 dd 4c 28 42 db 5a 28 42 b7 68 28 42
       42.061268 42.07506 42.088726 42.10226
000080 09 a7 26 42 c7 b9 26 42 4f cc 26 42 a4 de 26 42
       41.66312 41.681423 41.69952 41.717422
000090 c6 f0 26 42 b6 02 27 42 74 14 27 42 03 26 27 42
       41.73513 41.752647 41.769974 41.78712
0000a0 63 37 27 42 95 48 27 42 99 59 27 42 71 6a 27 42
       41.80409 41.82088 41.837498 41.853947
0000b0 1d 7b 27 42 9f 8b 27 42 f6 9b 27 42 24 ac 27 42
       41.870228 41.88635 41.902306 41.918106
0000c0 29 bc 27 42 05 cc 27 42 bb db 27 42 49 eb 27 42
       41.93375 41.949238 41.96458 41.97977
0000d0 b1 fa 27 42 f2 09 28 42 0f 19 28 42 06 28 28 42
       41.994816 42.009712 42.02447 42.039085
0000e0 d9 36 28 42 88 45 28 42 13 54 28 42 7b 62 28 42
       42.053562 42.0679 42.082104 42.096172
0000f0 bf 70 28 42 e1 7e 28 42 e0 8c 28 42 bd 9a 28 42
       42.110104 42.123905 42.137573 42.15111
000100 d8 d8 26 42 99 eb 26 42 24 fe 26 42 7a 10 27 42
       41.71176 41.730076 41.748184 41.76609
000110 9e 22 27 42 90 34 27 42 51 46 27 42 e2 57 27 42
       41.783806 41.80133 41.81867 41.835823
000120 44 69 27 42 78 7a 27 42 7e 8b 27 42 58 9c 27 42
       41.8528 41.8696 41.886223 41.90268
000130 06 ad 27 42 8a bd 27 42 e3 cd 27 42 12 de 27 42
       41.91897 41.935097 41.95106 41.966866
000140 19 ee 27 42 f8 fd 27 42 af 0d 28 42 3f 1d 28 42
       41.982517 41.998016 42.013363 42.02856
000150 a8 2c 28 42 ec 3b 28 42 0a 4b 28 42 03 5a 28 42
       42.04361 42.058517 42.07328 42.087902
000160 d7 68 28 42 88 77 28 42 14 86 28 42 7e 94 28 42
       42.102383 42.11673 42.130936 42.14501
000170 c4 a2 28 42 e7 b0 28 42 e8 be 28 42 c6 cc 28 42
       42.15895 42.172756 42.18643 42.199974
000180 a6 0a 27 42 68 1d 27 42 f5 2f 27 42 4e 42 27 42
       41.7604 41.778717 41.796833 41.81475
000190 74 54 27 42 68 66 27 42 2b 78 27 42 be 89 27 42
       41.832474 41.850006 41.86735 41.884514
0001a0 22 9b 27 42 58 ac 27 42 60 bd 27 42 3c ce 27 42
       41.901497 41.918304 41.934937 41.9514
0001b0 ec de 27 42 71 ef 27 42 cc ff 27 42 fe 0f 28 42
       41.967697 41.98383 41.9998 42.015617
0001c0 06 20 28 42 e7 2f 28 42 a0 3f 28 42 31 4f 28 42
       42.031273 42.04678 42.062134 42.077335
0001d0 9c 5e 28 42 e2 6d 28 42 01 7d 28 42 fc 8b 28 42
       42.092392 42.107307 42.122074 42.136703
0001e0 d2 9a 28 42 84 a9 28 42 13 b8 28 42 7d c6 28 42
       42.15119 42.165543 42.17976 42.193836
0001f0 c5 d4 28 42 ea e2 28 42 ec f0 28 42 cc fe 28 42
       42.207783 42.221596 42.235275 42.248825
000200 6f 3c 27 42 34 4f 27 42 c3 61 27 42 1e 74 27 42
       41.809017 41.827347 41.84547 41.863396
000210 47 86 27 42 3d 98 27 42 02 aa 27 42 97 bb 27 42
       41.88113 41.89867 41.916023 41.933193
000220 fd cc 27 42 34 de 27 42 3f ef 27 42 1c 00 28 42
       41.950184 41.966995 41.98364 42.000107
000230 ce 10 28 42 55 21 28 42 b2 31 28 42 e6 41 28 42
       42.01641 42.03255 42.04853 42.064354
000240 f0 51 28 42 d2 61 28 42 8c 71 28 42 20 81 28 42
       42.080017 42.095528 42.110886 42.1261
000250 8d 90 28 42 d4 9f 28 42 f5 ae 28 42 f1 bd 28 42
       42.141163 42.156082 42.170856 42.18549
000260 c9 cc 28 42 7d db 28 42 0c ea 28 42 79 f8 28 42
       42.199986 42.214344 42.22856 42.24265
000270 c2 06 29 42 e8 14 29 42 ec 22 29 42 cd 30 29 42
       42.2566 42.270416 42.284103 42.297657
000280 3d 6e 27 42 04 81 27 42 95 93 27 42 f3 a5 27 42
       41.857655 41.87599 41.894123 41.91206
000290 1d b8 27 42 15 ca 27 42 dd db 27 42 74 ed 27 42
       41.9298 41.947346 41.96471 41.981888
0002a0 dc fe 27 42 15 10 28 42 22 21 28 42 01 32 28 42
       41.998886 42.015705 42.032356 42.048832
0002b0 b5 42 28 42 3e 53 28 42 9d 63 28 42 d2 73 28 42
       42.065144 42.08129 42.09728 42.113106
0002c0 de 83 28 42 c2 93 28 42 7f a3 28 42 14 b3 28 42
       42.128777 42.144295 42.159664 42.17488
0002d0 82 c2 28 42 cb d1 28 42 ee e0 28 42 ec ef 28 42
       42.18995 42.204876 42.219658 42.2343
0002e0 c6 fe 28 42 7b 0d 29 42 0c 1c 29 42 7a 2a 29 42
       42.248802 42.263165 42.27739 42.29148
0002f0 c5 38 29 42 ed 46 29 42 f2 54 29 42 d5 62 29 42
       42.30544 42.319263 42.332954 42.346516
000300 08 a0 27 42 d1 b2 27 42 65 c5 27 42 c5 d7 27 42
       41.90628 41.924625 41.94277 41.960712
000310 f1 e9 27 42 eb fb 27 42 b5 0d 28 42 4e 1f 28 42
       41.97846 41.996014 42.013386 42.03057
000320 b8 30 28 42 f4 41 28 42 02 53 28 42 e4 63 28 42
       42.047577 42.064407 42.081062 42.09755
000330 9a 74 28 42 25 85 28 42 85 95 28 42 bc a5 28 42
       42.11387 42.130024 42.146015 42.16185
000340 cb b5 28 42 b0 c5 28 42 6e d5 28 42 05 e5 28 42
       42.177532 42.193054 42.208427 42.22365
000350 76 f4 28 42 c0 03 29 42 e5 12 29 42 e5 21 29 42
       42.23873 42.253662 42.26845 42.2831
000360 c0 30 29 42 77 3f 29 42 0a 4e 29 42 79 5c 29 42
       42.297607 42.311977 42.32621 42.340305
000370 c6 6a 29 42 ef 78 29 42 f6 86 29 42 da 94 29 42
       42.35427 42.3681 42.381798 42.395363
000380 d4 d1 27 42 9f e4 27 42 35 f7 27 42 97 09 28 42
       41.95491 41.973263 41.991413 42.009365
000390 c5 1b 28 42 c2 2d 28 42 8d 3f 28 42 29 51 28 42
       42.02712 42.044685 42.06206 42.079258
0003a0 95 62 28 42 d3 73 28 42 e3 84 28 42 c7 95 28 42
       42.09627 42.11311 42.129772 42.146267
0003b0 7f a6 28 42 0c b7 28 42 6e c7 28 42 a7 d7 28 42
       42.162594 42.178757 42.194756 42.210598
0003c0 b7 e7 28 42 9f f7 28 42 5f 07 29 42 f7 16 29 42
       42.226284 42.241817 42.2572 42.272427
0003d0 6a 26 29 42 b6 35 29 42 dc 44 29 42 de 53 29 42
       42.287514 42.302452 42.317245 42.3319
0003e0 ba 62 29 42 73 71 29 42 08 80 29 42 79 8e 29 42
       42.346413 42.36079 42.37503 42.389133
0003f0 c7 9c 29 42 f1 aa 29 42 fa b8 29 42 e0 c6 29 42
       42.403103 42.416935 42.43064 42.444214

lon f4 [32, 32]
000000 49 8e 13 c3 f2 78 13 c3 a0 63 13 c3 53 4e 13 c3
       -147.5558 -147.47244 -147.38916 -147.30595
000010 09 39 13 c3 c2 23 13 c3 7c 0e 13 c3 36 f9 12 c3
       -147.2228 -147.13968 -147.05658 -146.97348
000020 ef e3 12 c3 a7 ce 12 c3 5c b9 12 c3 0d a4 12 c3
       -146.89037 -146.80724 -146.72406 -146.64082
000030 ba 8e 12 c3 62 79 12 c3 02 64 12 c3 9b 4e 12 c3
       -146.55753 -146.47415 -146.39066 -146.30705
000040 2c 39 12 c3 b3 23 12 c3 2f 0e 12 c3 a0 f8 11 c3
       -146.22333 -146.13945 -146.0554 -145.97119
000050 03 e3 11 c3 5a cd 11 c3 a1 b7 11 c3 d8 a1 11 c3
       -145.88676 -145.80215 -145.7173 -145.6322
000060 ff 8b 11 c3 13 76 11 c3 14 60 11 c3 01 4a 11 c3
       -145.54686 -145.46123 -145.3753 -145.28908
000070 d8 33 11 c3 99 1d 11 c3 42 07 11 c3 d2 f0 10 c3
       -145.20251 -145.11562 -145.02835 -144.9407
000080 d2 92 13 c3 77 7d 13 c3 22 68 13 c3 d0 52 13 c3
       -147.57352 -147.4901 -147.40677 -147.32349
000090 83 3d 13 c3 37 28 13 c3 ed 12 13 c3 a3 fd 12 c3
       -147.24028 -147.15709 -147.07393 -146.99077
0000a0 58 e8 12 c3 0c d3 12 c3 bd bd 12 c3 6b a8 12 c3
       -146.9076 -146.8244 -146.74117 -146.65788
0000b0 13 93 12 c3 b7 7d 12 c3 53 68 12 c3 e8 52 12 c3
       -146.57451 -146.49107 -146.40752 -146.32385
0000c0 75 3d 12 c3 f8 27 12 c3 70 12 12 c3 dc fc 11 c3
       -146.24007 -146.15613 -146.07202 -145.98773
0000d0 3c e7 11 c3 8e d1 11 c3 d1 bb 11 c3 04 a6 11 c3
       -145.90326 -145.81857 -145.73366 -145.6485
0000e0 26 90 11 c3 36 7a 11 c3 33 64 11 c3 1c 4e 11 c3
       -145.56308 -145.47739 -145.3914 -145.30511
0000f0 ef 37 11 c3 ab 21 11 c3 50 0b 11 c3 db f4 10 c3
       -145.21849 -145.13152 -145.04419 -144.95647
000100 5f 97 13 c3 00 82 13 c3 a7 6c 13 c3 52 57 13 c3
       -147.5913 -147.50781 -147.42442 -147.3411
000110 00 42 13 c3 b0 2c 13 c3 62 17 13 c3 14 02 13 c3
       -147.25781 -147.17456 -147.09134 -147.00812
000120 c5 ec 12 c3 75 d7 12 c3 22 c2 12 c3 cc ac 12 c3
       -146.92488 -146.84163 -146.75833 -146.67499
000130 70 97 12 c3 10 82 12 c3 a8 6c 12 c3 39 57 12 c3
       -146.59155 -146.50806 -146.42444 -146.34071
000140 c1 41 12 c3 40 2c 12 c3 b4 16 12 c3 1c 01 12 c3
       -146.25685 -146.17285 -146.08868 -146.00433
000150 78 eb 11 c3 c6 d5 11 c3 05 c0 11 c3 33 aa 11 c3
       -145.9198 -145.83505 -145.75008 -145.66484
000160 51 94 11 c3 5d 7e 11 c3 56 68 11 c3 3a 52 11 c3
       -145.57936 -145.4936 -145.40756 -145.3212
000170 09 3c 11 c3 c1 25 11 c3 61 0f 11 c3 e8 f8 10 c3
       -145.23451 -145.14748 -145.06007 -144.97229
000180 ed 9b 13 c3 8a 86 13 c3 2d 71 13 c3 d3 5b 13 c3
       -147.60909 -147.52554 -147.4421 -147.35869
000190 7e 46 13 c3 2a 31 13 c3 d8 1b 13 c3 86 06 13 c3
       -147.27536 -147.19205 -147.10876 -147.02548
0001a0 33 f1 12 c3 df db 12 c3 88 c6 12 c3 2d b1 12 c3
       -146.94218 -146.85887 -146.77551 -146.6921
0001b0 ce 9b 12 c3 69 86 12 c3 fe 70 12 c3 8a 5b 12 c3
       -146.60861 -146.52504 -146.44138 -146.35757
0001c0 0f 46 12 c3 89 30 12 c3 f9 1a 12 c3 5d 05 12 c3
       -146.27367 -146.18959 -146.10536 -146.02095
0001d0 b4 ef 11 c3 fe d9 11 c3 39 c4 11 c3 63 ae 11 c3
       -145.93634 -145.85153 -145.7665 -145.6812
0001e0 7d 98 11 c3 85 82 11 c3 79 6c 11 c3 59 56 11 c3
       -145.59566 -145.50984 -145.42372 -145.3373
0001f0 23 40 11 c3 d7 29 11 c3 73 13 11 c3 f6 fc 10 c3
       -145.25053 -145.16344 -145.07597 -144.98813
000200 78 a0 13 c3 11 8b 13 c3 b0 75 13 c3 53 60 13 c3
       -147.62683 -147.54323 -147.45972 -147.37627
000210 f9 4a 13 c3 a1 35 13 c3 4b 20 13 c3 f5 0a 13 c3
       -147.29286 -147.20949 -147.12614 -147.0428
000220 9e f5 12 c3 46 e0 12 c3 eb ca 12 c3 8c b5 12 c3
       -146.95944 -146.87607 -146.79265 -146.70917
000230 29 a0 12 c3 c0 8a 12 c3 50 75 12 c3 d9 5f 12 c3
       -146.62563 -146.54199 -146.45825 -146.3744
000240 59 4a 12 c3 cf 34 12 c3 3b 1f 12 c3 9b 09 12 c3
       -146.29042 -146.20628 -146.122 -146.03752
000250 ee f3 11 c3 33 de 11 c3 6a c8 11 c3 90 b2 11 c3
       -145.95285 -145.86797 -145.78287 -145.69751
000260 a6 9c 11 c3 a9 86 11 c3 99 70 11 c3 75 5a 11 c3
       -145.61191 -145.52602 -145.43983 -145.35335
000270 3b 44 11 c3 ea 2d 11 c3 82 17 11 c3 00 01 11 c3
       -145.26653 -145.17935 -145.09183 -145.0039
000280 08 a5 13 c3 9e 8f 13 c3 38 7a 13 c3 d7 64 13 c3
       -147.64465 -147.561 -147.47742 -147.3939
000290 79 4f 13 c3 1e 3a 13 c3 c3 24 13 c3 69 0f 13 c3
       -147.31044 -147.22702 -147.1436 -147.0602
0002a0 0f fa 12 c3 b2 e4 12 c3 53 cf 12 c3 f0 b9 12 c3
       -146.97679 -146.89334 -146.80986 -146.72632
0002b0 89 a4 12 c3 1c 8f 12 c3 a8 79 12 c3 2d 64 12 c3
       -146.64272 -146.55902 -146.47522 -146.39131
0002c0 a9 4e 12 c3 1b 39 12 c3 82 23 12 c3 de 0d 12 c3
       -146.30727 -146.22307 -146.1387 -146.05417
0002d0 2d f8 11 c3 6e e2 11 c3 a0 cc 11 c3 c3 b6 11 c3
       -145.96944 -145.88449 -145.79932 -145.71391
0002e0 d4 a0 11 c3 d3 8a 11 c3 bf 74 11 c3 96 5e 11 c3
       -145.62823 -145.54228 -145.45604 -145.36948
0002f0 58 48 11 c3 03 32 11 c3 96 1b 11 c3 10 05 11 c3
       -145.2826 -145.19536 -145.10776 -145.01978
000300 98 a9 13 c3 29 94 13 c3 c0 7e 13 c3 5b 69 13 c3
       -147.66248 -147.57875 -147.49512 -147.41154
000310 f9 53 13 c3 99 3e 13 c3 3b 29 13 c3 dd 13 13 c3
       -147.32802 -147.24452 -147.16106 -147.07759
000320 7e fe 12 c3 1d e9 12 c3 ba d3 12 c3 53 be 12 c3
       -146.99411 -146.9106 -146.82706 -146.74345
000330 e8 a8 12 c3 77 93 12 c3 ff 7d 12 c3 7f 68 12 c3
       -146.65979 -146.57603 -146.49217 -146.40819
000340 f7 52 12 c3 65 3d 12 c3 c9 27 12 c3 20 12 12 c3
       -146.32408 -146.23982 -146.15541 -146.0708
000350 6b fc 11 c3 a8 e6 11 c3 d6 d0 11 c3 f4 ba 11 c3
       -145.98601 -145.901 -145.81577 -145.73029
000360 01 a5 11 c3 fb 8e 11 c3 e3 78 11 c3 b6 62 11 c3
       -145.64455 -145.55852 -145.47221 -145.38559
000370 73 4c 11 c3 1a 36 11 c3 a8 1f 11 c3 1e 09 11 c3
       -145.29863 -145.21133 -145.12366 -145.03561
000380 29 ae 13 c3 b6 98 13 c3 49 83 13 c3 e0 6d 13 c3
       -147.68031 -147.59653 -147.51283 -147.4292
000390 7a 58 13 c3 16 43 13 c3 b4 2d 13 c3 52 18 13 c3
       -147.34561 -147.26205 -147.17853 -147.095
0003a0 ef 02 13 c3 8a ed 12 c3 23 d8 12 c3 b8 c2 12 c3
       -147.01146 -146.92789 -146.84428 -146.76062
0003b0 49 ad 12 c3 d3 97 12 c3 57 82 12 c3 d4 6c 12 c3
       -146.6769 -146.59306 -146.50914 -146.42511
0003c0 47 57 12 c3 b1 41 12 c3 10 2c 12 c3 64 16 12 c3
       -146.34093 -146.2566 -146.17212 -146.08746
0003d0 aa 00 12 c3 e3 ea 11 c3 0d d5 11 c3 26 bf 11 c3
       -146.0026 -145.91753 -145.83223 -145.74667
0003e0 2f a9 11 c3 25 93 11 c3 08 7d 11 c3 d7 66 11 c3
       -145.66087 -145.57478 -145.4884 -145.40172
0003f0 90 50 11 c3 32 3a 11 c3 bc 23 11 c3 2e 0d 11 c3
       -145.3147 -145.22733 -145.13959 -145.05148

qa f4 [32, 32]
000000 00 00 00 00 00 00 00 00 00 00 00 00 00 00 00 00
       0.0 0.0 0.0 0.0
000010 00 00 00 00 00 00 00 00 00 00 00 00 00 00 00 00
       0.0 0.0 0.0 0.0
000020 00 00 00 00 00 00 00 00 00 00 00 00 00 00 00 00
       0.0 0.0 0.0 0.0
000030 00 00 00 00 00 00 00 00 00 00 00 00 00 00 00 00
       0.0 0.0 0.0 0.0
000040 00 00 00 00 00 00 00 00 00 00 00 00 00 00 00 00
       0.0 0.0 0.0 0.0
000050 00 00 00 00 00 00 00 00 00 00 00 00 00 00 00 00
       0.0 0.0 0.0 0.0
000060 00 00 00 00 00 00 00 00 00 00 00 00 00 00 00 00
       0.0 0.0 0.0 0.0
000070 00 00 00 00 00 00 00 00 00 00 00 00 00 00 00 00
       0.0 0.0 0.0 0.0
000080 00 00 00 00 00 00 00 00 00 00 00 00 00 00 00 00
       0.0 0.0 0.0 0.0
000090 00 00 00 00 00 00 00 00 00 00 00 00 00 00 00 00
       0.0 0.0 0.0 0.0
0000a0 00 00 00 00 00 00 00 00 00 00 00 00 00 00 00 00
       0.0 0.0 0.0 0.0
0000b0 00 00 00 00 00 00 00 00 00 00 00 00 00 00 00 00
       0.0 0.0 0.0 0.0
0000c0 00 00 00 00 00 00 00 00 00 00 00 00 00 00 00 00
       0.0 0.0 0.0 0.0
0000d0 00 00 00 00 00 00 00 00 00 00 00 00 00 00 00 00
       0.0 0.0 0.0 0.0
0000e0 00 00 00 00 00 00 00 00 00 00 00 00 00 00 00 00
       0.0 0.0 0.0 0.0
0000f0 00 00 00 00 00 00 00 00 00 00 00 00 00 00 00 00
       0.0 0.0 0.0 0.0
000100 00 00 00 00 00 00 00 00 00 00 00 00 00 00 00 00
       0.0 0.0 0.0 0.0
000110 00 00 00 00 00 00 00 00 00 00 00 00 00 00 00 00
       0.0 0.0 0.0 0.0
000120 00 00 00 00 00 00 00 00 00 00 00 00 00 00 00 00
       0.0 0.0 0.0 0.0
000130 00 00 00 00 00 00 00 00 00 00 00 00 00 00 00 00
       0.0 0.0 0.0 0.0
000140 00 00 00 00 00 00 00 00 00 00 00 00 00 00 00 00
       0.0 0.0 0.0 0.0
000150 00 00 00 00 00 00 00 00 00 00 00 00 00 00 00 00
       0.0 0.0 0.0 0.0
000160 00 00 00 00 00 00 00 00 00 00 00 00 00 00 00 00
       0.0 0.0 0.0 0.0
000170 00 00 00 00 00 00 00 00 00 00 00 00 00 00 00 00
       0.0 0.0 0.0 0.0
000180 00 00 00 00 00 00 00 00 00 00 00 00 00 00 00 00
       0.0 0.0 0.0 0.0
000190 00 00 00 00 00 00 00 00 00 00 00 00 00 00 00 00
       0.0 0.0 0.0 0.0
0001a0 00 00 00 00 00 00 00 00 00 00 00 00 00 00 00 00
       0.0 0.0 0.0 0.0
0001b0 00 00 00 00 00 00 00 00 00 00 00 00 00 00 00 00
       0.0 0.0 0.0 0.0
0001c0 00 00 00 00 00 00 00 00 00 00 00 00 00 00 00 00
       0.0 0.0 0.0 0.0
0001d0 00 00 00 00 00 00 00 00 00 00 00 00 00 00 00 00
       0.0 0.0 0.0 0.0
0001e0 00 00 00 00 00 00 00 00 00 00 00 00 00 00 00 00
       0.0 0.0 0.0 0.0
0001f0 00 00 00 00 00 00 00 00 00 00 00 00 00 00 00 00
       0.0 0.0 0.0 0.0
000200 00 00 00 00 00 00 00 00 00 00 00 00 00 00 00 00
       0.0 0.0 0.0 0.0
000210 00 00 00 00 00 00 00 00 00 00 00 00 00 00 00 00
       0.0 0.0 0.0 0.0
000220 00 00 00 00 00 00 00 00 00 00 00 00 00 00 00 00
       0.0 0.0 0.0 0.0
000230 00 00 00 00 00 00 00 00 00 00 00 00 00 00 00 00
       0.0 0.0 0.0 0.0
000240 00 00 00 00 00 00 00 00 00 00 00 00 00 00 00 00
       0.0 0.0 0.0 0.0
000250 00 00 00 00 00 00 00 00 00 00 00 00 00 00 00 00
       0.0 0.0 0.0 0.0
000260 00 00 00 00 00 00 00 00 00 00 00 00 00 00 00 00
       0.0 0.0 0.0 0.0
000270 00 00 00 00 00 00 00 00 00 00 00 00 00 00 00 00
       0.0 0.0 0.0 0.0
000280 00 00 00 00 00 00 00 00 00 00 00 00 00 00 00 00
       0.0 0.0 0.0 0.0
000290 00 00 00 00 00 00 00 00 00 00 00 00 00 00 00 00
       0.0 0.0 0.0 0.0
0002a0 00 00 00 00 00 00 00 00 00 00 00 00 00 00 00 00
       0.0 0.0 0.0 0.0
0002b0 00 00 00 00 00 00 00 00 00 00 00 00 00 00 00 00
       0.0 0.0 0.0 0.0
0002c0 00 00 00 00 00 00 00 00 00 00 00 00 00 00 00 00
       0.0 0.0 0.0 0.0
0002d0 00 00 00 00 00 00 00 00 00 00 00 00 00 00 00 00
       0.0 0.0 0.0 0.0
0002e0 00 00 00 00 00 00 00 00 00 00 00 00 00 00 00 00
       0.0 0.0 0.0 0.0
0002f0 00 00 00 00 00 00 00 00 00 00 00 00 00 00 00 00
       0.0 0.0 0.0 0.0
000300 00 00 00 00 00 00 00 00 00 00 00 00 00 00 00 00
       0.0 0.0 0.0 0.0
000310 00 00 00 00 00 00 00 00 00 00 00 00 00 00 00 00
       0.0 0.0 0.0 0.0
000320 00 00 00 00 00 00 00 00 00 00 00 00 00 00 00 00
       0.0 0.0 0.0 0.0
000330 00 00 00 00 00 00 00 00 00 00 00 00 00 00 00 00
       0.0 0.0 0.0 0.0
000340 00 00 00 00 00 00 00 00 00 00 00 00 00 00 00 00
       0.0 0.0 0.0 0.0
000350 00 00 00 00 00 00 00 00 00 00 00 00 00 00 00 00
       0.0 0.0 0.0 0.0
000360 00 00 00 00 00 00 00 00 00 00 00 00 00 00 00 00
       0.0 0.0 0.0 0.0
000370 00 00 00 00 00 00 00 00 00 00 00 00 00 00 00 00
       0.0 0.0 0.0 0.0
000380 00 00 00 00 00 00 00 00 00 00 00 00 00 00 00 00
       0.0 0.0 0.0 0.0
000390 00 00 00 00 00 00 00 00 00 00 00 00 00 00 00 00
       0.0 0.0 0.0 0.0
0003a0 00 00 00 00 00 00 00 00 00 00 00 00 00 00 00 00
       0.0 0.0 0.0 0.0
0003b0 00 00 00 00 00 00 00 00 00 00 00 00 00 00 00 00
       0.0 0.0 0.0 0.0
0003c0 00 00 00 00 00 00 00 00 00 00 00 00 00 00 00 00
       0.0 0.0 0.0 0.0
0003d0 00 00 00 00 00 00 00 00 00 00 00 00 00 00 00 00
       0.0 0.0 0.0 0.0
0003e0 00 00 00 00 00 00 00 00 00 00 00 00 00 00 00 00
       0.0 0.0 0.0 0.0
0003f0 00 00 00 00 00 00 00 00 00 00 00 00 00 00 00 00
       0.0 0.0 0.0 0.0
