data/dataset/negative/ae67f1c7-83ea-4a43-b46c-6c4e3b608a43.npz (npz, 23743 bytes, 4 tensors)

methane f8 [32, 32]
9.969209968386869e+36 9.969209968386869e+36 9.969209968386869e+36 9.969209968386869e+36 9.969209968386869e+36 9.969209968386869e+36 9.969209968386869e+36 9.969209968386869e+36
9.969209968386869e+36 9.969209968386869e+36 9.969209968386869e+36 9.969209968386869e+36 9.969209968386869e+36 9.969209968386869e+36 9.969209968386869e+36 9.969209968386869e+36
9.969209968386869e+36 9.969209968386869e+36 9.969209968386869e+36 9.969209968386869e+36 9.969209968386869e+36 9.969209968386869e+36 9.969209968386869e+36 9.969209968386869e+36
9.969209968386869e+36 9.969209968386869e+36 9.969209968386869e+36 9.969209968386869e+36 9.969209968386869e+36 9.969209968386869e+36 9.969209968386869e+36 9.969209968386869e+36
9.969209968386869e+36 9.969209968386869e+36 9.969209968386869e+36 9.969209968386869e+36 9.969209968386869e+36 9.969209968386869e+36 9.969209968386869e+36 9.969209968386869e+36
9.969209968386869e+36 9.969209968386869e+36 9.969209968386869e+36 9.969209968386869e+36 9.969209968386869e+36 9.969209968386869e+36 9.969209968386869e+36 9.969209968386869e+36
9.969209968386869e+36 9.969209968386869e+36 9.969209968386869e+36 9.969209968386869e+36 9.969209968386869e+36 9.969209968386869e+36 9.969209968386869e+36 9.969209968386869e+36
9.969209968386869e+36 9.969209968386869e+36 9.969209968386869e+36 9.969209968386869e+36 9.969209968386869e+36 9.969209968386869e+36 9.969209968386869e+36 9.969209968386869e+36
9.969209968386869e+36 9.969209968386869e+36 9.969209968386869e+36 9.969209968386869e+36 9.969209968386869e+36 9.969209968386869e+36 9.969209968386869e+36 9.969209968386869e+36
9.969209968386869e+36 9.969209968386869e+36 9.969209968386869e+36 9.969209968386869e+36 9.969209968386869e+36 9.969209968386869e+36 9.969209968386869e+36 9.969209968386869e+36
9.969209968386869e+36 9.969209968386869e+36 9.969209968386869e+36 9.969209968386869e+36 9.969209968386869e+36 9.969209968386869e+36 9.969209968386869e+36 9.969209968386869e+36
9.969209968386869e+36 9.969209968386869e+36 9.969209968386869e+36 9.969209968386869e+36 9.969209968386869e+36 9.969209968386869e+36 9.969209968386869e+36 9.969209968386869e+36
9.969209968386869e+36 9.969209968386869e+36 9.969209968386869e+36 9.969209968386869e+36 9.969209968386869e+36 9.969209968386869e+36 9.969209968386869e+36 9.969209968386869e+36
9.969209968386869e+36 9.969209968386869e+36 9.969209968386869e+36 9.969209968386869e+36 9.969209968386869e+36 9.969209968386869e+36 9.969209968386869e+36 9.969209968386869e+36
9.969209968386869e+36 9.969209968386869e+36 9.969209968386869e+36 9.969209968386869e+36 9.969209968386869e+36 9.969209968386869e+36 9.969209968386869e+36 9.969209968386869e+36
9.969209968386869e+36 9.969209968386869e+36 9.969209968386869e+36 9.969209968386869e+36 9.969209968386869e+36 9.969209968386869e+36 9.969209968386869e+36 9.969209968386869e+36
9.969209968386869e+36 9.969209968386869e+36 9.969209968386869e+36 9.969209968386869e+36 9.969209968386869e+36 9.969209968386869e+36 9.969209968386869e+36 9.969209968386869e+36
9.969209968386869e+36 9.969209968386869e+36 9.969209968386869e+36 9.969209968386869e+36 9.969209968386869e+36 9.969209968386869e+36 9.969209968386869e+36 9.969209968386869e+36
9.969209968386869e+36 9.969209968386869e+36 9.969209968386869e+36 9.969209968386869e+36 9.969209968386869e+36 9.969209968386869e+36 9.969209968386869e+36 9.969209968386869e+36
9.969209968386869e+36 9.969209968386869e+36 9.969209968386869e+36 9.969209968386869e+36 9.969209968386869e+36 9.969209968386869e+36 9.969209968386869e+36 9.969209968386869e+36
9.969209968386869e+36 9.969209968386869e+36 9.969209968386869e+36 9.969209968386869e+36 9.969209968386869e+36 9.969209968386869e+36 9.969209968386869e+36 9.969209968386869e+36
9.969209968386869e+36 9.969209968386869e+36 9.969209968386869e+36 9.969209968386869e+36 9.969209968386869e+36 9.969209968386869e+36 9.969209968386869e+36 9.969209968386869e+36
9.969209968386869e+36 9.969209968386869e+36 9.969209968386869e+36 9.969209968386869e+36 9.969209968386869e+36 9.969209968386869e+36 9.969209968386869e+36 9.969209968386869e+36
9.969209968386869e+36 9.969209968386869e+36 9.969209968386869e+36 9.969209968386869e+36 9.969209968386869e+36 9.969209968386869e+36 9.969209968386869e+36 9.969209968386869e+36
9.969209968386869e+36 9.969209968386869e+36 9.969209968386869e+36 9.969209968386869e+36 9.969209968386869e+36 9.969209968386869e+36 9.969209968386869e+36 9.969209968386869e+36
9.969209968386869e+36 9.969209968386869e+36 9.969209968386869e+36 9.969209968386869e+36 9.969209968386869e+36 9.969209968386869e+36 9.969209968386869e+36 9.969209968386869e+36
9.969209968386869e+36 9.969209968386869e+36 9.969209968386869e+36 9.969209968386869e+36 9.969209968386869e+36 9.969209968386869e+36 9.969209968386869e+36 9.969209968386869e+36
9.969209968386869e+36 9.969209968386869e+36 9.969209968386869e+36 9.969209968386869e+36 9.969209968386869e+36 9.969209968386869e+36 9.969209968386869e+36 9.969209968386869e+36
9.969209968386869e+36 9.969209968386869e+36 9.969209968386869e+36 9.969209968386869e+36 9.969209968386869e+36 9.969209968386869e+36 9.969209968386869e+36 9.969209968386869e+36
9.969209968386869e+36 9.969209968386869e+36 9.969209968386869e+36 9.969209968386869e+36 9.969209968386869e+36 9.969209968386869e+36 9.969209968386869e+36 9.969209968386869e+36
9.969209968386869e+36 9.969209968386869e+36 9.969209968386869e+36 9.969209968386869e+36 9.969209968386869e+36 9.969209968386869e+36 9.969209968386869e+36 9.969209968386869e+36
9.969209968386869e+36 9.969209968386869e+36 9.969209968386869e+36 9.969209968386869e+36 9.969209968386869e+36 9.969209968386869e+36 9.969209968386869e+36 9.969209968386869e+36
00000000: 0000 0000 0000 9e47 0000 0000 0000 9e47
00000010: 0000 0000 0000 9e47 0000 0000 0000 9e47
00000020: 0000 0000 0000 9e47 0000 0000 0000 9e47
00000030: 0000 0000 0000 9e47 0000 0000 0000 9e47
00000040: 0000 0000 0000 9e47 0000 0000 0000 9e47
00000050: 0000 0000 0000 9e47 0000 0000 0000 9e47
00000060: 0000 0000 0000 9e47 0000 0000 0000 9e47
00000070: 0000 0000 0000 9e47 0000 0000 0000 9e47
00000080: 0000 0000 0000 9e47 0000 0000 0000 9e47
00000090: 0000 0000 0000 9e47 0000 0000 0000 9e47
000000a0: 0000 0000 0000 9e47 0000 0000 0000 9e47
000000b0: 0000 0000 0000 9e47 0000 0000 0000 9e47
000000c0: 0000 0000 0000 9e47 0000 0000 0000 9e47
000000d0: 0000 0000 0000 9e47 0000 0000 0000 9e47
000000e0: 0000 0000 0000 9e47 0000 0000 0000 9e47
000000f0: 0000 0000 0000 9e47 0000 0000 0000 9e47
00000100: 0000 0000 0000 9e47 0000 0000 0000 9e47
00000110: 0000 0000 0000 9e47 0000 0000 0000 9e47
00000120: 0000 0000 0000 9e47 0000 0000 0000 9e47
00000130: 0000 0000 0000 9e47 0000 0000 0000 9e47
00000140: 0000 0000 0000 9e47 0000 0000 0000 9e47
00000150: 0000 0000 0000 9e47 0000 0000 0000 9e47
00000160: 0000 0000 0000 9e47 0000 0000 0000 9e47
00000170: 0000 0000 0000 9e47 0000 0000 0000 9e47
00000180: 0000 0000 0000 9e47 0000 0000 0000 9e47
00000190: 0000 0000 0000 9e47 0000 0000 0000 9e47
000001a0: 0000 0000 0000 9e47 0000 0000 0000 9e47
000001b0: 0000 0000 0000 9e47 0000 0000 0000 9e47
000001c0: 0000 0000 0000 9e47 0000 0000 0000 9e47
000001d0: 0000 0000 0000 9e47 0000 0000 0000 9e47
000001e0: 0000 0000 0000 9e47 0000 0000 0000 9e47
000001f0: 0000 0000 0000 9e47 0000 0000 0000 9e47
00000200: 0000 0000 0000 9e47 0000 0000 0000 9e47
00000210: 0000 0000 0000 9e47 0000 0000 0000 9e47
00000220: 0000 0000 0000 9e47 0000 0000 0000 9e47
00000230: 0000 0000 0000 9e47 0000 0000 0000 9e47
00000240: 0000 0000 0000 9e47 0000 0000 0000 9e47
00000250: 0000 0000 0000 9e47 0000 0000 0000 9e47
00000260: 0000 0000 0000 9e47 0000 0000 0000 9e47
00000270: 0000 0000 0000 9e47 0000 0000 0000 9e47
00000280: 0000 0000 0000 9e47 0000 0000 0000 9e47
00000290: 0000 0000 0000 9e47 0000 0000 0000 9e47
000002a0: 0000 0000 0000 9e47 0000 0000 0000 9e47
000002b0: 0000 0000 0000 9e47 0000 0000 0000 9e47
000002c0: 0000 0000 0000 9e47 0000 0000 0000 9e47
000002d0: 0000 0000 0000 9e47 0000 0000 0000 9e47
000002e0: 0000 0000 0000 9e47 0000 0000 0000 9e47
000002f0: 0000 0000 0000 9e47 0000 0000 0000 9e47
00000300: 0000 0000 0000 9e47 0000 0000 0000 9e47
00000310: 0000 0000 0000 9e47 0000 0000 0000 9e47
00000320: 0000 0000 0000 9e47 0000 0000 0000 9e47
00000330: 0000 0000 0000 9e47 0000 0000 0000 9e47
00000340: 0000 0000 0000 9e47 0000 0000 0000 9e47
00000350: 0000 0000 0000 9e47 0000 0000 0000 9e47
00000360: 0000 0000 0000 9e47 0000 0000 0000 9e47
00000370: 0000 0000 0000 9e47 0000 0000 0000 9e47
00000380: 0000 0000 0000 9e47 0000 0000 0000 9e47
00000390: 0000 0000 0000 9e47 0000 0000 0000 9e47
000003a0: 0000 0000 0000 9e47 0000 0000 0000 9e47
000003b0: 0000 0000 0000 9e47 0000 0000 0000 9e47
000003c0: 0000 0000 0000 9e47 0000 0000 0000 9e47
000003d0: 0000 0000 0000 9e47 0000 0000 0000 9e47
000003e0: 0000 0000 0000 9e47 0000 0000 0000 9e47
000003f0: 0000 0000 0000 9e47 0000 0000 0000 9e47
00000400: 0000 0000 0000 9e47 0000 0000 0000 9e47
00000410: 0000 0000 0000 9e47 0000 0000 0000 9e47
00000420: 0000 0000 0000 9e47 0000 0000 0000 9e47
00000430: 0000 0000 0000 9e47 0000 0000 0000 9e47
00000440: 0000 0000 0000 9e47 0000 0000 0000 9e47
00000450: 0000 0000 0000 9e47 0000 0000 0000 9e47
00000460: 0000 0000 0000 9e47 0000 0000 0000 9e47
00000470: 0000 0000 0000 9e47 0000 0000 0000 9e47
00000480: 0000 0000 0000 9e47 0000 0000 0000 9e47
00000490: 0000 0000 0000 9e47 0000 0000 0000 9e47
000004a0: 0000 0000 0000 9e47 0000 0000 0000 9e47
000004b0: 0000 0000 0000 9e47 0000 0000 0000 9e47
000004c0: 0000 0000 0000 9e47 0000 0000 0000 9e47
000004d0: 0000 0000 0000 9e47 0000 0000 0000 9e47
000004e0: 0000 0000 0000 9e47 0000 0000 0000 9e47
000004f0: 0000 0000 0000 9e47 0000 0000 0000 9e47
00000500: 0000 0000 0000 9e47 0000 0000 0000 9e47
00000510: 0000 0000 0000 9e47 0000 0000 0000 9e47
00000520: 0000 0000 0000 9e47 0000 0000 0000 9e47
00000530: 0000 0000 0000 9e47 0000 0000 0000 9e47
00000540: 0000 0000 0000 9e47 0000 0000 0000 9e47
00000550: 0000 0000 0000 9e47 0000 0000 0000 9e47
00000560: 0000 0000 0000 9e47 0000 0000 0000 9e47
00000570: 0000 0000 0000 9e47 0000 0000 0000 9e47
00000580: 0000 0000 0000 9e47 0000 0000 0000 9e47
00000590: 0000 0000 0000 9e47 0000 0000 0000 9e47
000005a0: 0000 0000 0000 9e47 0000 0000 0000 9e47
000005b0: 0000 0000 0000 9e47 0000 0000 0000 9e47
000005c0: 0000 0000 0000 9e47 0000 0000 0000 9e47
000005d0: 0000 0000 0000 9e47 0000 0000 0000 9e47
000005e0: 0000 0000 0000 9e47 0000 0000 0000 9e47
000005f0: 0000 0000 0000 9e47 0000 0000 0000 9e47
00000600: 0000 0000 0000 9e47 0000 0000 0000 9e47
00000610: 0000 0000 0000 9e47 0000 0000 0000 9e47
00000620: 0000 0000 0000 9e47 0000 0000 0000 9e47
00000630: 0000 0000 0000 9e47 0000 0000 0000 9e47
00000640: 0000 0000 0000 9e47 0000 0000 0000 9e47
00000650: 0000 0000 0000 9e47 0000 0000 0000 9e47
00000660: 0000 0000 0000 9e47 0000 0000 0000 9e47
00000670: 0000 0000 0000 9e47 0000 0000 0000 9e47
00000680: 0000 0000 0000 9e47 0000 0000 0000 9e47
00000690: 0000 0000 0000 9e47 0000 0000 0000 9e47
000006a0: 0000 0000 0000 9e47 0000 0000 0000 9e47
000006b0: 0000 0000 0000 9e47 0000 0000 0000 9e47
000006c0: 0000 0000 0000 9e47 0000 0000 0000 9e47
000006d0: 0000 0000 0000 9e47 0000 0000 0000 9e47
000006e0: 0000 0000 0000 9e47 0000 0000 0000 9e47
000006f0: 0000 0000 0000 9e47 0000 0000 0000 9e47
00000700: 0000 0000 0000 9e47 0000 0000 0000 9e47
00000710: 0000 0000 0000 9e47 0000 0000 0000 9e47
00000720: 0000 0000 0000 9e47 0000 0000 0000 9e47
00000730: 0000 0000 0000 9e47 0000 0000 0000 9e47
00000740: 0000 0000 0000 9e47 0000 0000 0000 9e47
00000750: 0000 0000 0000 9e47 0000 0000 0000 9e47
00000760: 0000 0000 0000 9e47 0000 0000 0000 9e47
00000770: 0000 0000 0000 9e47 0000 0000 0000 9e47
00000780: 0000 0000 0000 9e47 0000 0000 0000 9e47
00000790: 0000 0000 0000 9e47 0000 0000 0000 9e47
000007a0: 0000 0000 0000 9e47 0000 0000 0000 9e47
000007b0: 0000 0000 0000 9e47 0000 0000 0000 9e47
000007c0: 0000 0000 0000 9e47 0000 0000 0000 9e47
000007d0: 0000 0000 0000 9e47 0000 0000 0000 9e47
000007e0: 0000 0000 0000 9e47 0000 0000 0000 9e47
000007f0: 0000 0000 0000 9e47 0000 0000 0000 9e47

lat f4 [32, 32]
-77.387115 -77.32212 -77.256584 -77.19048 -77.1238 -77.05651 -76.9886 -76.92004
-76.8508 -76.78086 -76.710205 -76.6388 -76.56663 -76.493645 -76.41984 -76.34516
-76.2696 -76.19311 -76.11566 -76.03722 -75.95774 -75.8772 -75.79555 -75.712746
-75.628746 -75.5435 -75.45697 -75.3691 -75.27985 -75.18914 -75.096924 -75.00315
-77.364426 -77.29956 -77.23415 -77.16819 -77.10163 -77.03448 -76.96669 -76.89826
-76.829155 -76.75935 -76.688835 -76.61757 -76.545525 -76.47268 -76.399 -76.32447
-76.24904 -76.17269 -76.09538 -76.017075 -75.937744 -75.857346 -75.77583 -75.69318
-75.60932 -75.52422 -75.43784 -75.35012 -75.26101 -75.170456 -75.07839 -74.98477
-77.34157 -77.27683 -77.211555 -77.14572 -77.0793 -77.012276 -76.94462 -76.87632
-76.80735 -76.737686 -76.6673 -76.59616 -76.524254 -76.451546 -76.378006 -76.30361
-76.22832 -76.15211 -76.074936 -75.99677 -75.91758 -75.837326 -75.75596 -75.67344
-75.58973 -75.50478 -75.41855 -75.33098 -75.24201 -75.15161 -75.0597 -74.96623
-77.31854 -77.253944 -77.1888 -77.12309 -77.0568 -76.98991 -76.922386 -76.854225
-76.785385 -76.71585 -76.6456 -76.5746 -76.50282 -76.43025 -76.35685 -76.28259
-76.20744 -76.13137 -76.05434 -75.97632 -75.89726 -75.81715 -75.73592 -75.65355
-75.569984 -75.48518 -75.3991 -75.311676 -75.22286 -75.13261 -75.040855 -74.94754
-77.29537 -77.2309 -77.16589 -77.10031 -77.03416 -76.96739 -76.90001 -76.83198
-76.76327 -76.69387 -76.62375 -76.55289 -76.481255 -76.40881 -76.335556 -76.26143
-76.18642 -76.11048 -76.03359 -75.95571 -75.8768 -75.79683 -75.71575 -75.63352
-75.5501 -75.46545 -75.37951 -75.29224 -75.203575 -75.11347 -75.021866 -74.9287
-77.27205 -77.20771 -77.14283 -77.077385 -77.01136 -76.94473 -76.87748 -76.80958
-76.741005 -76.67174 -76.60176 -76.53103 -76.459526 -76.38723 -76.3141 -76.24012
-76.165245 -76.089455 -76.0127 -75.93496 -75.85619 -75.77637 -75.69543 -75.61334
-75.530075 -75.445564 -75.35977 -75.27265 -75.18414 -75.09419 -75.00274 -74.90973
-77.2486 -77.18439 -77.11964 -77.05432 -76.988434 -76.921936 -76.85481 -76.78705
-76.71861 -76.64948 -76.57963 -76.50904 -76.437675 -76.36552 -76.29253 -76.21868
-76.14394 -76.06829 -75.99168 -75.914085 -75.83546 -75.75577 -75.67498 -75.59304
-75.50992 -75.42555 -75.33991 -75.25294 -75.16458 -75.07478 -74.98348 -74.89063
-77.22498 -77.160904 -77.09628 -77.031105 -76.96534 -76.89898 -76.83199 -76.76436
-76.69606 -76.62706 -76.55735 -76.48689 -76.415665 -76.34364 -76.27079 -76.19708
-76.12249 -76.046974 -75.970505 -75.89305 -75.81457 -75.73502 -75.65438 -75.572586
-75.48961 -75.405396 -75.3199 -75.23308 -75.14487 -75.05522 -74.96408 -74.87138
00000000: 34c6 9ac2 eda4 9ac2 5f83 9ac2 8761 9ac2
00000010: 633f 9ac2 ef1c 9ac2 2afa 99c2 0fd7 99c2
00000020: 9cb3 99c2 cd8f 99c2 a06b 99c2 1147 99c2
00000030: 1d22 99c2 bffc 98c2 f5d6 98c2 b9b0 98c2
00000040: 098a 98c2 df62 98c2 383b 98c2 0e13 98c2
00000050: 5dea 97c2 20c1 97c2 5297 97c2 ed6c 97c2
00000060: eb41 97c2 4616 97c2 f8e9 96c2 fbbc 96c2
00000070: 488f 96c2 d760 96c2 a031 96c2 9d01 96c2
00000080: 96ba 9ac2 6099 9ac2 e377 9ac2 1d56 9ac2
00000090: 0934 9ac2 a711 9ac2 f2ee 99c2 e9cb 99c2
000000a0: 87a8 99c2 ca84 99c2 af60 99c2 323c 99c2
000000b0: 4f17 99c2 03f2 98c2 4acc 98c2 21a6 98c2
000000c0: 827f 98c2 6b58 98c2 d630 98c2 be08 98c2
000000d0: 20e0 97c2 f6b6 97c2 3a8d 97c2 e862 97c2
000000e0: f937 97c2 670c 97c2 2de0 96c2 43b3 96c2
000000f0: a385 96c2 4657 96c2 2328 96c2 34f8 95c2
00000100: e2ae 9ac2 bd8d 9ac2 516c 9ac2 9c4a 9ac2
00000110: 9a28 9ac2 4906 9ac2 a5e3 99c2 adc0 99c2
00000120: 5d9d 99c2 b279 99c2 a855 99c2 3c31 99c2
00000130: 6b0c 99c2 31e7 98c2 8ac1 98c2 739b 98c2
00000140: e674 98c2 e14d 98c2 5e26 98c2 59fe 97c2
00000150: cdd5 97c2 b6ac 97c2 0d83 97c2 cd58 97c2
00000160: f12d 97c2 7302 97c2 4cd6 96c2 76a9 96c2
00000170: e97b 96c2 a04d 96c2 911e 96c2 b6ee 95c2
00000180: 18a3 9ac2 0582 9ac2 aa60 9ac2 063f 9ac2
00000190: 151d 9ac2 d5fa 99c2 43d8 99c2 5db5 99c2
000001a0: 1e92 99c2 846e 99c2 8c4a 99c2 3226 99c2
000001b0: 7201 99c2 4adc 98c2 b5b6 98c2 b090 98c2
000001c0: 366a 98c2 4343 98c2 d21b 98c2 e0f3 97c2
000001d0: 66cb 97c2 61a2 97c2 cb78 97c2 9e4e 97c2
000001e0: d523 97c2 6af8 96c2 57cc 96c2 949f 96c2
000001f0: 1b72 96c2 e543 96c2 eb14 96c2 24e5 95c2
00000200: 3b97 9ac2 3976 9ac2 f054 9ac2 5c33 9ac2
00000210: 7d11 9ac2 4eef 99c2 cecc 99c2 f9a9 99c2
00000220: cb86 99c2 4363 99c2 5c3f 99c2 141b 99c2
00000230: 67f6 98c2 50d1 98c2 ceab 98c2 da85 98c2
00000240: 725f 98c2 9138 98c2 3311 98c2 53e9 97c2
00000250: ecc0 97c2 fa97 97c2 776e 97c2 5d44 97c2
00000260: a719 97c2 4fee 96c2 4fc2 96c2 a095 96c2
00000270: 3b68 96c2 193a 96c2 320b 96c2 7fdb 95c2
00000280: 4a8b 9ac2 596a 9ac2 2149 9ac2 9f27 9ac2
00000290: d105 9ac2 b4e3 99c2 45c1 99c2 819e 99c2
000002a0: 657b 99c2 ee57 99c2 1a34 99c2 e30f 99c2
000002b0: 47eb 98c2 43c6 98c2 d2a0 98c2 f17a 98c2
000002c0: 9b54 98c2 cd2d 98c2 8106 98c2 b3de 97c2
000002d0: 5fb6 97c2 808d 97c2 0f64 97c2 083a 97c2
000002e0: 660f 97c2 21e4 96c2 34b8 96c2 998b 96c2
000002f0: 485e 96c2 3a30 96c2 6701 96c2 c8d1 95c2
00000300: 487f 9ac2 685e 9ac2 413d 9ac2 d01b 9ac2
00000310: 14fa 99c2 08d8 99c2 aab5 99c2 f892 99c2
00000320: ee6f 99c2 894c 99c2 c528 99c2 a104 99c2
00000330: 17e0 98c2 25bb 98c2 c695 98c2 f76f 98c2
00000340: b349 98c2 f722 98c2 bdfb 97c2 03d4 97c2
00000350: c1ab 97c2 f482 97c2 9759 97c2 a32f 97c2
00000360: 1405 97c2 e2d9 96c2 09ae 96c2 8181 96c2
00000370: 4454 96c2 4a26 96c2 8bf7 95c2 01c8 95c2
00000380: 3173 9ac2 6252 9ac2 4c31 9ac2 ed0f 9ac2
00000390: 41ee 99c2 47cc 99c2 fba9 99c2 5a87 99c2
000003a0: 6264 99c2 0e41 99c2 5d1d 99c2 4af9 98c2
000003b0: d2d4 98c2 f2af 98c2 a58a 98c2 e864 98c2
000003c0: b73e 98c2 0d18 98c2 e6f0 97c2 3ec9 97c2
000003d0: 0fa1 97c2 5578 97c2 0b4f 97c2 2a25 97c2
000003e0: aefa 96c2 90cf 96c2 caa3 96c2 5677 96c2
000003f0: 2c4a 96c2 461c 96c2 9ced 95c2 26be 95c2

lon f4 [32, 32]
-111.88209 -111.707596 -111.53298 -111.35822 -111.18327 -111.0081 -110.832664 -110.65692
-110.480835 -110.30437 -110.12748 -109.95013 -109.77227 -109.59388 -109.4149 -109.2353
-109.05502 -108.87405 -108.692314 -108.50979 -108.326416 -108.14216 -107.95698 -107.770805
-107.58361 -107.39534 -107.20595 -107.01537 -106.82358 -106.63049 -106.43607 -106.240265
-112.08605 -111.91086 -111.73555 -111.56009 -111.38444 -111.20856 -111.0324 -110.85595
-110.679146 -110.50195 -110.32434 -110.146255 -109.96767 -109.788536 -109.60881 -109.42846
-109.24744 -109.0657 -108.8832 -108.699905 -108.51576 -108.33072 -108.144745 -107.95779
-107.76979 -107.58071 -107.3905 -107.19911 -107.006485 -106.81256 -106.6173 -106.42064
-112.289314 -112.113434 -111.93744 -111.76129 -111.584946 -111.40836 -111.231514 -111.05435
-110.87684 -110.69893 -110.5206 -110.3418 -110.16248 -109.98262 -109.80216 -109.62107
-109.4393 -109.25681 -109.07356 -108.8895 -108.70459 -108.51878 -108.33202 -108.14428
-107.95549 -107.76562 -107.5746 -107.38239 -107.18894 -106.994194 -106.798096 -106.600586
-112.49193 -112.31538 -112.1387 -111.96187 -111.784836 -111.60757 -111.43002 -111.25217
-111.07395 -110.89535 -110.71631 -110.5368 -110.356766 -110.17618 -109.994995 -109.81317
-109.63067 -109.44744 -109.26344 -109.07863 -108.89296 -108.70639 -108.51886 -108.33034
-108.14077 -107.9501 -107.75829 -107.56528 -107.37102 -107.17545 -106.97852 -106.780174
-112.69389 -112.51668 -112.33934 -112.161835 -111.98413 -111.80619 -111.62796 -111.44942
-111.270515 -111.09122 -110.911476 -110.73126 -110.55052 -110.369225 -110.18733 -110.00478
-109.821556 -109.637596 -109.45286 -109.2673 -109.08089 -108.89356 -108.70528 -108.51598
-108.325645 -108.13419 -107.9416 -107.74779 -107.55272 -107.356346 -107.15859 -106.95942
-112.8951 -112.71723 -112.53923 -112.36107 -112.18269 -112.00408 -111.82519 -111.645966
-111.466385 -111.2864 -111.10597 -110.925064 -110.74363 -110.56163 -110.37902 -110.19576
-110.01182 -109.82713 -109.64167 -109.45538 -109.26823 -109.08015 -108.89111 -108.701065
-108.50996 -108.31773 -108.12435 -107.929756 -107.733894 -107.53671 -107.33815 -107.13816
-113.09544 -112.91692 -112.73828 -112.55946 -112.38044 -112.201164 -112.02161 -111.84172
-111.66147 -111.480804 -111.2997 -111.1181 -110.93598 -110.75329 -110.569984 -110.386024
-110.20137 -110.015976 -109.82979 -109.64278 -109.45489 -109.266075 -109.076294 -108.88549
-108.69363 -108.50064 -108.30649 -108.111115 -107.91447 -107.71649 -107.51713 -107.31632
-113.29521 -113.11606 -112.936775 -112.75732 -112.57765 -112.39773 -112.217514 -112.036964
-111.85606 -111.67473 -111.49295 -111.310684 -111.12788 -110.9445 -110.760506 -110.57585
-110.390495 -110.2044 -110.0175 -109.82977 -109.64116 -109.45162 -109.2611 -109.06956
-108.876945 -108.683205 -108.48829 -108.292145 -108.09472 -107.89595 -107.69579 -107.49419
00000000: a1c3 dfc2 4a6a dfc2 e310 dfc2 69b7 dec2
00000010: d65d dec2 2604 dec2 53aa ddc2 5850 ddc2
00000020: 30f6 dcc2 d69b dcc2 4541 dcc2 77e6 dbc2
00000030: 678b dbc2 1130 dbc2 6ed4 dac2 7978 dac2
00000040: 2c1c dac2 83bf d9c2 7762 d9c2 0305 d9c2
00000050: 20a7 d8c2 c948 d8c2 f9e9 d7c2 a78a d7c2
00000060: cf2a d7c2 6aca d6c2 7269 d6c2 df07 d6c2
00000070: aca5 d5c2 d042 d5c2 45df d4c2 047b d4c2
00000080: 0f2c e0c2 5cd2 dfc2 9a78 dfc2 c41e dfc2
00000090: d5c4 dec2 c86a dec2 9710 dec2 3fb6 ddc2
000000a0: b95b ddc2 0001 ddc2 10a6 dcc2 e24a dcc2
000000b0: 72ef dbc2 bb93 dbc2 b637 dbc2 5fdb dac2
000000c0: b07e dac2 a321 dac2 33c4 d9c2 5a66 d9c2
000000d0: 1208 d9c2 54a9 d8c2 1c4a d8c2 63ea d7c2
000000e0: 228a d7c2 5329 d7c2 f0c7 d6c2 f265 d6c2
000000f0: 5203 d6c2 08a0 d5c2 0f3c d5c2 5ed7 d4c2
00000100: 2194 e0c2 143a e0c2 f8df dfc2 c885 dfc2
00000110: 7e2b dfc2 15d1 dec2 8976 dec2 d41b dec2
00000120: f1c0 ddc2 da65 ddc2 8c0a ddc2 00af dcc2
00000130: 3153 dcc2 1af7 dbc2 b59a dbc2 fd3d dbc2
00000140: ece0 dac2 7d83 dac2 aa25 dac2 6dc7 d9c2
00000150: c068 d9c2 9e09 d9c2 ffa9 d8c2 df49 d8c2
00000160: 36e9 d7c2 ff87 d7c2 3226 d7c2 c9c3 d6c2
00000170: bd60 d6c2 07fd d5c2 a098 d5c2 8033 d5c2
00000180: defb e0c2 79a1 e0c2 0447 e0c2 7aec dfc2
00000190: d691 dfc2 1337 dfc2 2cdc dec2 1c81 dec2
000001a0: dd25 dec2 6bca ddc2 c06e ddc2 d712 ddc2
000001b0: aab6 dcc2 345a dcc2 70fd dbc2 58a0 dbc2
000001c0: e742 dbc2 17e5 dac2 e286 dac2 4228 dac2
000001d0: 32c9 d9c2 ac69 d9c2 a809 d9c2 22a9 d8c2
000001e0: 1348 d8c2 74e6 d7c2 3f84 d7c2 6c21 d7c2
000001f0: f6bd d6c2 d559 d6c2 01f5 d5c2 738f d5c2
00000200: 4663 e1c2 8a08 e1c2 bead e0c2 dc52 e0c2
00000210: e0f7 dfc2 c59c dfc2 8441 dfc2 1ae6 dec2
00000220: 818a dec2 b42e dec2 add2 ddc2 6876 ddc2
00000230: de19 ddc2 0bbd dcc2 ea5f dcc2 7302 dcc2
00000240: a3a4 dbc2 7346 dbc2 dde7 dac2 dc88 dac2
00000250: 6a29 dac2 81c9 d9c2 1a69 d9c2 2f08 d9c2
00000260: bba6 d8c2 b544 d8c2 19e2 d7c2 de7e d7c2
00000270: fe1a d7c2 73b6 d6c2 3351 d6c2 39eb d5c2
00000280: 4bca e1c2 396f e1c2 1614 e1c2 deb8 e0c2
00000290: 8a5d e0c2 1702 e0c2 7fa6 dfc2 bc4a dfc2
000002a0: caee dec2 a392 dec2 4236 dec2 a2d9 ddc2
000002b0: bd7c ddc2 8e1f ddc2 0fc2 dcc2 3b64 dcc2
000002c0: 0d06 dcc2 7ea7 dbc2 8948 dbc2 28e9 dac2
000002d0: 5589 dac2 0929 dac2 40c8 d9c2 f266 d9c2
000002e0: 1905 d9c2 aea2 d8c2 ab3f d8c2 09dc d7c2
000002f0: c177 d7c2 cc12 d7c2 22ad d6c2 bd46 d6c2
00000300: de30 e2c2 77d5 e1c2 007a e1c2 721e e1c2
00000310: c9c2 e0c2 ff66 e0c2 100b e0c2 f6ae dfc2
00000320: ac52 dfc2 2cf6 dec2 7299 dec2 783c dec2
00000330: 39df ddc2 af81 ddc2 d523 ddc2 a5c5 dcc2
00000340: 1a67 dcc2 2e08 dcc2 daa8 dbc2 1a49 dbc2
00000350: e7e8 dac2 3b88 dac2 1027 dac2 5fc5 d9c2
00000360: 2363 d9c2 5400 d9c2 ec9c d8c2 e438 d8c2
00000370: 35d4 d7c2 d86e d7c2 c508 d7c2 f5a1 d6c2
00000380: 2697 e2c2 6c3b e2c2 a1df e1c2 bf83 e1c2
00000390: c227 e1c2 a3cb e0c2 5e6f e0c2 ed12 e0c2
000003a0: 4db6 dfc2 7659 dfc2 64fc dec2 129f dec2
000003b0: 7941 dec2 96e3 ddc2 6185 ddc2 d626 ddc2
000003c0: efc7 dcc2 a768 dcc2 f608 dcc2 d8a8 dbc2
000003d0: 4648 dbc2 3be7 dac2 af85 dac2 9d23 dac2
000003e0: ffc0 d9c2 cd5d d9c2 01fa d8c2 9495 d8c2
000003f0: 7f30 d8c2 baca d7c2 3f64 d7c2 06fd d6c2

qa f4 [32, 32]
0.0 0.0 0.0 0.0 0.0 0.0 0.0 0.0
0.0 0.0 0.0 0.0 0.0 0.0 0.0 0.0
0.0 0.0 0.0 0.0 0.0 0.0 0.0 0.0
0.0 0.0 0.0 0.0 0.0 0.0 0.0 0.0
0.0 0.0 0.0 0.0 0.0 0.0 0.0 0.0
0.0 0.0 0.0 0.0 0.0 0.0 0.0 0.0
0.0 0.0 0.0 0.0 0.0 0.0 0.0 0.0
0.0 0.0 0.0 0.0 0.0 0.0 0.0 0.0
0.0 0.0 0.0 0.0 0.0 0.0 0.0 0.0
0.0 0.0 0.0 0.0 0.0 0.0 0.0 0.0
0.0 0.0 0.0 0.0 0.0 0.0 0.0 0.0
0.0 0.0 0.0 0.0 0.0 0.0 0.0 0.0
0.0 0.0 0.0 0.0 0.0 0.0 0.0 0.0
0.0 0.0 0.0 0.0 0.0 0.0 0.0 0.0
0.0 0.0 0.0 0.0 0.0 0.0 0.0 0.0
0.0 0.0 0.0 0.0 0.0 0.0 0.0 0.0
0.0 0.0 0.0 0.0 0.0 0.0 0.0 0.0
0.0 0.0 0.0 0.0 0.0 0.0 0.0 0.0
0.0 0.0 0.0 0.0 0.0 0.0 0.0 0.0
0.0 0.0 0.0 0.0 0.0 0.0 0.0 0.0
0.0 0.0 0.0 0.0 0.0 0.0 0.0 0.0
0.0 0.0 0.0 0.0 0.0 0.0 0.0 0.0
0.0 0.0 0.0 0.0 0.0 0.0 0.0 0.0
0.0 0.0 0.0 0.0 0.0 0.0 0.0 0.0
0.0 0.0 0.0 0.0 0.0 0.0 0.0 0.0
0.0 0.0 0.0 0.0 0.0 0.0 0.0 0.0
0.0 0.0 0.0 0.0 0.0 0.0 0.0 0.0
0.0 0.0 0.0 0.0 0.0 0.0 0.0 0.0
0.0 0.0 0.0 0.0 0.0 0.0 0.0 0.0
0.0 0.0 0.0 0.0 0.0 0.0 0.0 0.0
0.0 0.0 0.0 0.0 0.0 0.0 0.0 0.0
0.0 0.0 0.0 0.0 0.0 0.0 0.0 0.0
00000000: 0000 0000 0000 0000 0000 0000 0000 0000
00000010: 0000 0000 0000 0000 0000 0000 0000 0000
00000020: 0000 0000 0000 0000 0000 0000 0000 0000
00000030: 0000 0000 0000 0000 0000 0000 0000 0000
00000040: 0000 0000 0000 0000 0000 0000 0000 0000
00000050: 0000 0000 0000 0000 0000 0000 0000 0000
00000060: 0000 0000 0000 0000 0000 0000 0000 0000
00000070: 0000 0000 0000 0000 0000 0000 0000 0000
00000080: 0000 0000 0000 0000 0000 0000 0000 0000
00000090: 0000 0000 0000 0000 0000 0000 0000 0000
000000a0: 0000 0000 0000 0000 0000 0000 0000 0000
000000b0: 0000 0000 0000 0000 0000 0000 0000 0000
000000c0: 0000 0000 0000 0000 0000 0000 0000 0000
000000d0: 0000 0000 0000 0000 0000 0000 0000 0000
000000e0: 0000 0000 0000 0000 0000 0000 0000 0000
000000f0: 0000 0000 0000 0000 0000 0000 0000 0000
00000100: 0000 0000 0000 0000 0000 0000 0000 0000
00000110: 0000 0000 0000 0000 0000 0000 0000 0000
00000120: 0000 0000 0000 0000 0000 0000 0000 0000
00000130: 0000 0000 0000 0000 0000 0000 0000 0000
00000140: 0000 0000 0000 0000 0000 0000 0000 0000
00000150: 0000 0000 0000 0000 0000 0000 0000 0000
00000160: 0000 0000 0000 0000 0000 0000 0000 0000
00000170: 0000 0000 0000 0000 0000 0000 0000 0000
00000180: 0000 0000 0000 0000 0000 0000 0000 0000
00000190: 0000 0000 0000 0000 0000 0000 0000 0000
000001a0: 0000 0000 0000 0000 0000 0000 0000 0000
000001b0: 0000 0000 0000 0000 0000 0000 0000 0000
000001c0: 0000 0000 0000 0000 0000 0000 0000 0000
000001d0: 0000 0000 0000 0000 0000 0000 0000 0000
000001e0: 0000 0000 0000 0000 0000 0000 0000 0000
000001f0: 0000 0000 0000 0000 0000 0000 0000 0000
00000200: 0000 0000 0000 0000 0000 0000 0000 0000
00000210: 0000 0000 0000 0000 0000 0000 0000 0000
00000220: 0000 0000 0000 0000 0000 0000 0000 0000
00000230: 0000 0000 0000 0000 0000 0000 0000 0000
00000240: 0000 0000 0000 0000 0000 0000 0000 0000
00000250: 0000 0000 0000 0000 0000 0000 0000 0000
00000260: 0000 0000 0000 0000 0000 0000 0000 0000
00000270: 0000 0000 0000 0000 0000 0000 0000 0000
00000280: 0000 0000 0000 0000 0000 0000 0000 0000
00000290: 0000 0000 0000 0000 0000 0000 0000 0000
000002a0: 0000 0000 0000 0000 0000 0000 0000 0000
000002b0: 0000 0000 0000 0000 0000 0000 0000 0000
000002c0: 0000 0000 0000 0000 0000 0000 0000 0000
000002d0: 0000 0000 0000 0000 0000 0000 0000 0000
000002e0: 0000 0000 0000 0000 0000 0000 0000 0000
000002f0: 0000 0000 0000 0000 0000 0000 0000 0000
00000300: 0000 0000 0000 0000 0000 0000 0000 0000
00000310: 0000 0000 0000 0000 0000 0000 0000 0000
00000320: 0000 0000 0000 0000 0000 0000 0000 0000
00000330: 0000 0000 0000 0000 0000 0000 0000 0000
00000340: 0000 0000 0000 0000 0000 0000 0000 0000
00000350: 0000 0000 0000 0000 0000 0000 0000 0000
00000360: 0000 0000 0000 0000 0000 0000 0000 0000
00000370: 0000 0000 0000 0000 0000 0000 0000 0000
00000380: 0000 0000 0000 0000 0000 0000 0000 0000
00000390: 0000 0000 0000 0000 0000 0000 0000 0000
000003a0: 0000 0000 0000 0000 0000 0000 0000 0000
000003b0: 0000 0000 0000 0000 0000 0000 0000 0000
000003c0: 0000 0000 0000 0000 0000 0000 0000 0000
000003d0: 0000 0000 0000 0000 0000 0000 0000 0000
000003e0: 0000 0000 0000 0000 0000 0000 0000 0000
000003f0: 0000 0000 0000 0000 0000 0000 0000 0000
