data/dataset/negative/b19b1816-e858-48b4-b329-f1f43bae12bb.npz (npz, 23743 bytes, 4 tensors)

methane f8 [32, 32]
0	0x479e000000000000	9.969209968386869e+36
1	0x479e000000000000	9.969209968386869e+36
2	0x479e000000000000	9.969209968386869e+36
3	0x479e000000000000	9.969209968386869e+36
4	0x479e000000000000	9.969209968386869e+36
5	0x479e000000000000	9.969209968386869e+36
6	0x479e000000000000	9.969209968386869e+36
7	0x479e000000000000	9.969209968386869e+36
8	0x479e000000000000	9.969209968386869e+36
9	0x479e000000000000	9.969209968386869e+36
10	0x479e000000000000	9.969209968386869e+36
11	0x479e000000000000	9.969209968386869e+36
12	0x479e000000000000	9.969209968386869e+36
13	0x479e000000000000	9.969209968386869e+36
14	0x479e000000000000	9.969209968386869e+36
15	0x479e000000000000	9.969209968386869e+36
16	0x479e000000000000	9.969209968386869e+36
17	0x479e000000000000	9.969209968386869e+36
18	0x479e000000000000	9.969209968386869e+36
19	0x479e000000000000	9.969209968386869e+36
20	0x479e000000000000	9.969209968386869e+36
21	0x479e000000000000	9.969209968386869e+36
22	0x479e000000000000	9.969209968386869e+36
23	0x479e000000000000	9.969209968386869e+36
24	0x479e000000000000	9.969209968386869e+36
25	0x479e000000000000	9.969209968386869e+36
26	0x479e000000000000	9.969209968386869e+36
27	0x479e000000000000	9.969209968386869e+36
28	0x479e000000000000	9.969209968386869e+36
29	0x479e000000000000	9.969209968386869e+36
30	0x479e000000000000	9.969209968386869e+36
31	0x479e000000000000	9.969209968386869e+36
32	0x479e000000000000	9.969209968386869e+36
33	0x479e000000000000	9.969209968386869e+36
34	0x479e000000000000	9.969209968386869e+36
35	0x479e000000000000	9.969209968386869e+36
36	0x479e000000000000	9.969209968386869e+36
37	0x479e000000000000	9.969209968386869e+36
38	0x479e000000000000	9.969209968386869e+36
39	0x479e000000000000	9.969209968386869e+36
40	0x479e000000000000	9.969209968386869e+36
41	0x479e000000000000	9.969209968386869e+36
42	0x479e000000000000	9.969209968386869e+36
43	0x479e000000000000	9.969209968386869e+36
44	0x479e000000000000	9.969209968386869e+36
45	0x479e000000000000	9.969209968386869e+36
46	0x479e000000000000	9.969209968386869e+36
47	0x479e000000000000	9.969209968386869e+36
48	0x479e000000000000	9.969209968386869e+36
49	0x479e000000000000	9.969209968386869e+36
50	0x479e000000000000	9.969209968386869e+36
51	0x479e000000000000	9.969209968386869e+36
52	0x479e000000000000	9.969209968386869e+36
53	0x479e000000000000	9.969209968386869e+36
54	0x479e000000000000	9.969209968386869e+36
55	0x479e000000000000	9.969209968386869e+36
56	0x479e000000000000	9.969209968386869e+36
57	0x479e000000000000	9.969209968386869e+36
58	0x479e000000000000	9.969209968386869e+36
59	0x479e000000000000	9.969209968386869e+36
60	0x479e000000000000	9.969209968386869e+36
61	0x479e000000000000	9.969209968386869e+36
62	0x479e000000000000	9.969209968386869e+36
63	0x479e000000000000	9.969209968386869e+36
64	0x479e000000000000	9.969209968386869e+36
65	0x479e000000000000	9.969209968386869e+36
66	0x479e000000000000	9.969209968386869e+36
67	0x479e000000000000	9.969209968386869e+36
68	0x479e000000000000	9.969209968386869e+36
69	0x479e000000000000	9.969209968386869e+36
70	0x479e000000000000	9.969209968386869e+36
71	0x479e000000000000	9.969209968386869e+36
72	0x479e000000000000	9.969209968386869e+36
73	0x479e000000000000	9.969209968386869e+36
74	0x479e000000000000	9.969209968386869e+36
75	0x479e000000000000	9.969209968386869e+36
76	0x479e000000000000	9.969209968386869e+36
77	0x479e000000000000	9.969209968386869e+36
78	0x479e000000000000	9.969209968386869e+36
79	0x479e000000000000	9.969209968386869e+36
80	0x479e000000000000	9.969209968386869e+36
81	0x479e000000000000	9.969209968386869e+36
82	0x479e000000000000	9.969209968386869e+36
83	0x479e000000000000	9.969209968386869e+36
84	0x479e000000000000	9.969209968386869e+36
85	0x479e000000000000	9.969209968386869e+36
86	0x479e000000000000	9.969209968386869e+36
87	0x479e000000000000	9.969209968386869e+36
88	0x479e000000000000	9.969209968386869e+36
89	0x479e000000000000	9.969209968386869e+36
90	0x479e000000000000	9.969209968386869e+36
91	0x479e000000000000	9.969209968386869e+36
92	0x479e000000000000	9.969209968386869e+36
93	0x479e000000000000	9.969209968386869e+36
94	0x479e000000000000	9.969209968386869e+36
95	0x479e000000000000	9.969209968386869e+36
96	0x479e000000000000	9.969209968386869e+36
97	0x479e000000000000	9.969209968386869e+36
98	0x479e000000000000	9.969209968386869e+36
99	0x479e000000000000	9.969209968386869e+36
100	0x479e000000000000	9.969209968386869e+36
101	0x479e000000000000	9.969209968386869e+36
102	0x479e000000000000	9.969209968386869e+36
103	0x479e000000000000	9.969209968386869e+36
104	0x479e000000000000	9.969209968386869e+36
105	0x479e000000000000	9.969209968386869e+36
106	0x479e000000000000	9.969209968386869e+36
107	0x479e000000000000	9.969209968386869e+36
108	0x479e000000000000	9.969209968386869e+36
109	0x479e000000000000	9.969209968386869e+36
110	0x479e000000000000	9.969209968386869e+36
111	0x479e000000000000	9.969209968386869e+36
112	0x479e000000000000	9.969209968386869e+36
113	0x479e000000000000	9.969209968386869e+36
114	0x479e000000000000	9.969209968386869e+36
115	0x479e000000000000	9.969209968386869e+36
116	0x479e000000000000	9.969209968386869e+36
117	0x479e000000000000	9.969209968386869e+36
118	0x479e000000000000	9.969209968386869e+36
119	0x479e000000000000	9.969209968386869e+36
120	0x479e000000000000	9.969209968386869e+36
121	0x479e000000000000	9.969209968386869e+36
122	0x479e000000000000	9.969209968386869e+36
123	0x479e000000000000	9.969209968386869e+36
124	0x479e000000000000	9.969209968386869e+36
125	0x479e000000000000	9.969209968386869e+36
126	0x479e000000000000	9.969209968386869e+36
127	0x479e000000000000	9.969209968386869e+36
128	0x479e000000000000	9.969209968386869e+36
129	0x479e000000000000	9.969209968386869e+36
130	0x479e000000000000	9.969209968386869e+36
131	0x479e000000000000	9.969209968386869e+36
132	0x479e000000000000	9.969209968386869e+36
133	0x479e000000000000	9.969209968386869e+36
134	0x479e000000000000	9.969209968386869e+36
135	0x479e000000000000	9.969209968386869e+36
136	0x479e000000000000	9.969209968386869e+36
137	0x479e000000000000	9.969209968386869e+36
138	0x479e000000000000	9.969209968386869e+36
139	0x479e000000000000	9.969209968386869e+36
140	0x479e000000000000	9.969209968386869e+36
141	0x479e000000000000	9.969209968386869e+36
142	0x479e000000000000	9.969209968386869e+36
143	0x479e000000000000	9.969209968386869e+36
144	0x479e000000000000	9.969209968386869e+36
145	0x479e000000000000	9.969209968386869e+36
146	0x479e000000000000	9.969209968386869e+36
147	0x479e000000000000	9.969209968386869e+36
148	0x479e000000000000	9.969209968386869e+36
149	0x479e000000000000	9.969209968386869e+36
150	0x479e000000000000	9.969209968386869e+36
151	0x479e000000000000	9.969209968386869e+36
152	0x479e000000000000	9.969209968386869e+36
153	0x479e000000000000	9.969209968386869e+36
154	0x479e000000000000	9.969209968386869e+36
155	0x479e000000000000	9.969209968386869e+36
156	0x479e000000000000	9.969209968386869e+36
157	0x479e000000000000	9.969209968386869e+36
158	0x479e000000000000	9.969209968386869e+36
159	0x479e000000000000	9.969209968386869e+36
160	0x479e000000000000	9.969209968386869e+36
161	0x479e000000000000	9.969209968386869e+36
162	0x479e000000000000	9.969209968386869e+36
163	0x479e000000000000	9.969209968386869e+36
164	0x479e000000000000	9.969209968386869e+36
165	0x479e000000000000	9.969209968386869e+36
166	0x479e000000000000	9.969209968386869e+36
167	0x479e000000000000	9.969209968386869e+36
168	0x479e000000000000	9.969209968386869e+36
169	0x479e000000000000	9.969209968386869e+36
170	0x479e000000000000	9.969209968386869e+36
171	0x479e000000000000	9.969209968386869e+36
172	0x479e000000000000	9.969209968386869e+36
173	0x479e000000000000	9.969209968386869e+36
174	0x479e000000000000	9.969209968386869e+36
175	0x479e000000000000	9.969209968386869e+36
176	0x479e000000000000	9.969209968386869e+36
177	0x479e000000000000	9.969209968386869e+36
178	0x479e000000000000	9.969209968386869e+36
179	0x479e000000000000	9.969209968386869e+36
180	0x479e000000000000	9.969209968386869e+36
181	0x479e000000000000	9.969209968386869e+36
182	0x479e000000000000	9.969209968386869e+36
183	0x479e000000000000	9.969209968386869e+36
184	0x479e000000000000	9.969209968386869e+36
185	0x479e000000000000	9.969209968386869e+36
186	0x479e000000000000	9.969209968386869e+36
187	0x479e000000000000	9.969209968386869e+36
188	0x479e000000000000	9.969209968386869e+36
189	0x479e000000000000	9.969209968386869e+36
190	0x479e000000000000	9.969209968386869e+36
191	0x479e000000000000	9.969209968386869e+36
192	0x479e000000000000	9.969209968386869e+36
193	0x479e000000000000	9.969209968386869e+36
194	0x479e000000000000	9.969209968386869e+36
195	0x479e000000000000	9.969209968386869e+36
196	0x479e000000000000	9.969209968386869e+36
197	0x479e000000000000	9.969209968386869e+36
198	0x479e000000000000	9.969209968386869e+36
199	0x479e000000000000	9.969209968386869e+36
200	0x479e000000000000	9.969209968386869e+36
201	0x479e000000000000	9.969209968386869e+36
202	0x479e000000000000	9.969209968386869e+36
203	0x479e000000000000	9.969209968386869e+36
204	0x479e000000000000	9.969209968386869e+36
205	0x479e000000000000	9.969209968386869e+36
206	0x479e000000000000	9.969209968386869e+36
207	0x479e000000000000	9.969209968386869e+36
208	0x479e000000000000	9.969209968386869e+36
209	0x479e000000000000	9.969209968386869e+36
210	0x479e000000000000	9.969209968386869e+36
211	0x479e000000000000	9.969209968386869e+36
212	0x479e000000000000	9.969209968386869e+36
213	0x479e000000000000	9.969209968386869e+36
214	0x479e000000000000	9.969209968386869e+36
215	0x479e000000000000	9.969209968386869e+36
216	0x479e000000000000	9.969209968386869e+36
217	0x479e000000000000	9.969209968386869e+36
218	0x479e000000000000	9.969209968386869e+36
219	0x479e000000000000	9.969209968386869e+36
220	0x479e000000000000	9.969209968386869e+36
221	0x479e000000000000	9.969209968386869e+36
222	0x479e000000000000	9.969209968386869e+36
223	0x479e000000000000	9.969209968386869e+36
224	0x479e000000000000	9.969209968386869e+36
225	0x479e000000000000	9.969209968386869e+36
226	0x479e000000000000	9.969209968386869e+36
227	0x479e000000000000	9.969209968386869e+36
228	0x479e000000000000	9.969209968386869e+36
229	0x479e000000000000	9.969209968386869e+36
230	0x479e000000000000	9.969209968386869e+36
231	0x479e000000000000	9.969209968386869e+36
232	0x479e000000000000	9.969209968386869e+36
233	0x479e000000000000	9.969209968386869e+36
234	0x479e000000000000	9.969209968386869e+36
235	0x479e000000000000	9.969209968386869e+36
236	0x479e000000000000	9.969209968386869e+36
237	0x479e000000000000	9.969209968386869e+36
238	0x479e000000000000	9.969209968386869e+36
239	0x479e000000000000	9.969209968386869e+36
240	0x479e000000000000	9.969209968386869e+36
241	0x479e000000000000	9.969209968386869e+36
242	0x479e000000000000	9.969209968386869e+36
243	0x479e000000000000	9.969209968386869e+36
244	0x479e000000000000	9.969209968386869e+36
245	0x479e000000000000	9.969209968386869e+36
246	0x479e000000000000	9.969209968386869e+36
247	0x479e000000000000	9.969209968386869e+36
248	0x479e000000000000	9.969209968386869e+36
249	0x479e000000000000	9.969209968386869e+36
250	0x479e000000000000	9.969209968386869e+36
251	0x479e000000000000	9.969209968386869e+36
252	0x479e000000000000	9.969209968386869e+36
253	0x479e000000000000	9.969209968386869e+36
254	0x479e000000000000	9.969209968386869e+36
255	0x479e000000000000	9.969209968386869e+36

lat f4 [32, 32]
0	0x429568d7	74.704765
1	0x4295a5fc	74.82419
2	0x4295e1f0	74.941284
3	0x42961cbe	75.05614
4	0x42965672	75.16884
5	0x42968f18	75.27948
6	0x4296c6bb	75.388145
7	0x4296fd64	75.4949
8	0x4297331d	75.59983
9	0x429767f0	75.703
10	0x42979be5	75.80448
11	0x4297cf05	75.904335
12	0x42980158	76.002625
13	0x429832e4	76.099396
14	0x429863b1	76.19471
15	0x429893c7	76.28863
16	0x4298c32b	76.38119
17	0x4298f1e4	76.47244
18	0x42991ff8	76.56244
19	0x42994d6d	76.65122
20	0x42997a48	76.73883
21	0x4299a68f	76.82531
22	0x4299d246	76.91069
23	0x4299fd73	76.99502
24	0x429a281a	77.07832
25	0x429a5240	77.160645
26	0x429a7be8	77.242004
27	0x429aa518	77.32245
28	0x429acdd3	77.402
29	0x429af61e	77.4807
30	0x429b1dfb	77.558556
31	0x429b456f	77.63561
32	0x42956fc5	74.7183
33	0x4295acf1	74.837776
34	0x4295e8ec	74.954926
35	0x429623c1	75.06983
36	0x42965d7c	75.18259
37	0x42969629	75.29328
38	0x4296cdd3	75.402
39	0x42970483	75.50881
40	0x42973a44	75.6138
41	0x42976f1e	75.717026
42	0x4297a31b	75.818565
43	0x4297d642	75.91847
44	0x4298089c	76.016815
45	0x42983a30	76.11365
46	0x42986b05	76.20902
47	0x42989b22	76.30299
48	0x4298ca8e	76.395615
49	0x4298f94f	76.48693
50	0x4299276b	76.57699
51	0x429954e8	76.66583
52	0x429981cb	76.7535
53	0x4299ae1a	76.84004
54	0x4299d9da	76.92549
55	0x429a050f	77.00988
56	0x429a2fbe	77.09325
57	0x429a59ec	77.17563
58	0x429a839d	77.25706
59	0x429aacd6	77.33757
60	0x429ad59a	77.41719
61	0x429afded	77.49595
62	0x429b25d3	77.573875
63	0x429b4d4f	77.65099
64	0x4295769f	74.73168
65	0x4295b3d2	74.85121
66	0x4295efd4	74.968414
67	0x42962aaf	75.08337
68	0x42966472	75.19618
69	0x42969d26	75.30693
70	0x4296d4d7	75.4157
71	0x42970b8e	75.52257
72	0x42974156	75.62761
73	0x42977638	75.730896
74	0x4297aa3b	75.83248
75	0x4297dd6a	75.93245
76	0x42980fcb	76.030846
77	0x42984167	76.12774
78	0x42987243	76.22317
79	0x4298a268	76.3172
80	0x4298d1dc	76.40988
81	0x429900a4	76.50125
82	0x42992ec8	76.59137
83	0x42995c4d	76.680275
84	0x42998938	76.768005
85	0x4299b58f	76.85461
86	0x4299e156	76.94011
87	0x429a0c94	77.02457
88	0x429a374b	77.107994
89	0x429a6182	77.190445
90	0x429a8b3b	77.271935
91	0x429ab47c	77.35251
92	0x429add49	77.4322
93	0x429b05a5	77.511024
94	0x429b2d93	77.58901
95	0x429b5519	77.66621
96	0x42957d6b	74.74496
97	0x4295baa5	74.86454
98	0x4295f6ad	74.98179
99	0x42963190	75.0968
100	0x42966b59	75.20966
101	0x4296a414	75.320465
102	0x4296dbcb	75.42928
103	0x4297128a	75.53621
104	0x42974859	75.641304
105	0x42977d41	75.74464
106	0x4297b14c	75.84628
107	0x4297e482	75.946304
108	0x429816ea	76.044754
109	0x4298488d	76.1417
110	0x42987971	76.23719
111	0x4298a99d	76.331276
112	0x4298d918	76.42401
113	0x429907e9	76.51545
114	0x42993614	76.60562
115	0x429963a0	76.69458
116	0x42999093	76.78237
117	0x4299bcf2	76.86903
118	0x4299e8c1	76.9546
119	0x429a1407	77.039116
120	0x429a3ec6	77.122604
121	0x429a6905	77.20512
122	0x429a92c7	77.286674
123	0x429abc10	77.36731
124	0x429ae4e5	77.44706
125	0x429b0d49	77.52595
126	0x429b3541	77.60401
127	0x429b5ccf	77.68127
128	0x42958424	74.75809
129	0x4295c164	74.877716
130	0x4295fd73	74.99502
131	0x4296385b	75.11007
132	0x4296722b	75.222984
133	0x4296aaed	75.33384
134	0x4296e2ab	75.44271
135	0x42971970	75.54968
136	0x42974f46	75.65483
137	0x42978435	75.75822
138	0x4297b847	75.85992
139	0x4297eb84	75.95999
140	0x42981df3	76.058495
141	0x42984f9d	76.155495
142	0x42988088	76.25104
143	0x4298b0bc	76.345184
144	0x4298e03e	76.43797
145	0x42990f16	76.529465
146	0x42993d49	76.6197
147	0x42996add	76.70872
148	0x429997d7	76.79656
149	0x4299c43e	76.883286
150	0x4299f015	76.96891
151	0x429a1b62	77.05348
152	0x429a462a	77.13704
153	0x429a7070	77.219604
154	0x429a9a3a	77.30122
155	0x429ac38c	77.38193
156	0x429aec69	77.46174
157	0x429b14d6	77.540695
158	0x429b3cd6	77.61882
159	0x429b646c	77.69614
160	0x42958ac9	74.771065
161	0x4295c810	74.89075
162	0x42960424	75.00809
163	0x42963f14	75.1232
164	0x429678ea	75.23616
165	0x4296b1b2	75.34706
166	0x4296e977	75.455986
167	0x42972042	75.563
168	0x4297561f	75.668205
169	0x42978b15	75.771645
170	0x4297bf2e	75.8734
171	0x4297f271	75.97352
172	0x429824e8	76.07208
173	0x42985698	76.16913
174	0x4298878b	76.26473
175	0x4298b7c5	76.358925
176	0x4298e74f	76.451775
177	0x4299162e	76.54332
178	0x42994468	76.633606
179	0x42997204	76.72269
180	0x42999f06	76.81059
181	0x4299cb74	76.89737
182	0x4299f753	76.983055
183	0x429a22a8	77.06769
184	0x429a4d77	77.1513
185	0x429a77c6	77.23393
186	0x429aa198	77.31561
187	0x429acaf1	77.39637
188	0x429af3d7	77.47625
189	0x429b1c4b	77.55526
190	0x429b4454	77.63345
191	0x429b6bf3	77.71084
192	0x42959155	74.78385
193	0x4295cea2	74.90358
194	0x42960abd	75.02097
195	0x429645b3	75.13613
196	0x42967f8f	75.24914
197	0x4296b85e	75.36009
198	0x4296f029	75.46906
199	0x429726fb	75.57613
200	0x42975cde	75.68138
201	0x429791db	75.784874
202	0x4297c5fa	75.88667
203	0x4297f945	75.986855
204	0x42982bc2	76.085464
205	0x42985d7a	76.18257
206	0x42988e73	76.27822
207	0x4298beb5	76.372475
208	0x4298ee46	76.46538
209	0x42991d2c	76.55698
210	0x42994b6e	76.64732
211	0x42997910	76.73645
212	0x4299a61a	76.82442
213	0x4299d28f	76.91125
214	0x4299fe76	76.996994
215	0x429a29d2	77.08168
216	0x429a54aa	77.16536
217	0x429a7f00	77.24805
218	0x429aa8da	77.32979
219	0x429ad23b	77.41061
220	0x429afb29	77.49055
221	0x429b23a6	77.569626
222	0x429b4bb6	77.64787
223	0x429b735e	77.72533
224	0x429597d0	74.79651
225	0x4295d523	74.91628
226	0x42961144	75.03372
227	0x42964c40	75.148926
228	0x42968622	75.26198
229	0x4296bef7	75.37298
230	0x4296f6c9	75.482
231	0x42972da1	75.58912
232	0x4297638b	75.69442
233	0x4297988e	75.79796
234	0x4297ccb4	75.89981
235	0x42980005	76.00004
236	0x42983289	76.0987
237	0x42986448	76.19586
238	0x42989548	76.291565
239	0x4298c590	76.385864
240	0x4298f528	76.47882
241	0x42992416	76.57048
242	0x4299525e	76.66087
243	0x42998008	76.75006
244	0x4299ad19	76.83808
245	0x4299d996	76.92497
246	0x429a0584	77.01077
247	0x429a30e8	77.09552
248	0x429a5bc7	77.17925
249	0x429a8625	77.262
250	0x429ab006	77.343796
251	0x429ad970	77.42468
252	0x429b0265	77.50468
253	0x429b2aea	77.58382
254	0x429b5303	77.66213
255	0x429b7ab2	77.73964

lon f4 [32, 32]
0	0xc1d82ff5	-27.023417
1	0xc1d7aac1	-26.958376
2	0xc1d7248d	-26.892847
3	0xc1d69d51	-26.826815
4	0xc1d61506	-26.760265
5	0xc1d58ba4	-26.693184
6	0xc1d50124	-26.625557
7	0xc1d4757f	-26.557371
8	0xc1d3e8ae	-26.488613
9	0xc1d35aa9	-26.419268
10	0xc1d2cb6b	-26.349325
11	0xc1d23aeb	-26.278769
12	0xc1d1a924	-26.207588
13	0xc1d1160e	-26.135769
14	0xc1d081a3	-26.0633
15	0xc1cfebdc	-25.990166
16	0xc1cf54b3	-25.916357
17	0xc1cebc20	-25.841858
18	0xc1ce221e	-25.766659
19	0xc1cd86a5	-25.690744
20	0xc1cce9ae	-25.614101
21	0xc1cc4b32	-25.536716
22	0xc1cbab2b	-25.458578
23	0xc1cb0990	-25.37967
24	0xc1ca665c	-25.29998
25	0xc1c9c186	-25.219494
26	0xc1c91b07	-25.138197
27	0xc1c872d7	-25.056074
28	0xc1c7c8ef	-24.973112
29	0xc1c71d46	-24.889294
30	0xc1c66fd4	-24.804604
31	0xc1c5c091	-24.719027
32	0xc1d9a938	-27.207626
33	0xc1d926c5	-27.14393
34	0xc1d8a34f	-27.07974
35	0xc1d81ecd	-27.01504
36	0xc1d79938	-26.949814
37	0xc1d71288	-26.884048
38	0xc1d68ab7	-26.817732
39	0xc1d601be	-26.75085
40	0xc1d57795	-26.68339
41	0xc1d4ec36	-26.615337
42	0xc1d45f9b	-26.546682
43	0xc1d3d1bb	-26.477407
44	0xc1d34292	-26.407505
45	0xc1d2b218	-26.33696
46	0xc1d22046	-26.265759
47	0xc1d18d17	-26.193892
48	0xc1d0f884	-26.121346
49	0xc1d06285	-26.048105
50	0xc1cfcb15	-25.974161
51	0xc1cf322c	-25.899498
52	0xc1ce97c4	-25.824104
53	0xc1cdfbd7	-25.747969
54	0xc1cd5e5c	-25.671074
55	0xc1ccbf4e	-25.59341
56	0xc1cc1ea4	-25.514961
57	0xc1cb7c59	-25.435717
58	0xc1cad863	-25.355658
59	0xc1ca32bc	-25.274773
60	0xc1c98b5c	-25.193047
61	0xc1c8e23b	-25.110464
62	0xc1c83751	-25.02701
63	0xc1c78a95	-24.942667
64	0xc1db235f	-27.392271
65	0xc1daa3b1	-27.329927
66	0xc1da22fb	-27.26708
67	0xc1d9a135	-27.203714
68	0xc1d91e59	-27.139818
69	0xc1d89a5f	-27.075377
70	0xc1d81541	-27.010378
71	0xc1d78ef6	-26.944805
72	0xc1d70779	-26.878649
73	0xc1d67ec4	-26.811897
74	0xc1d5f4ce	-26.744534
75	0xc1d56993	-26.67655
76	0xc1d4dd0b	-26.607931
77	0xc1d44f30	-26.538666
78	0xc1d3bffb	-26.46874
79	0xc1d32f67	-26.398146
80	0xc1d29d6d	-26.326868
81	0xc1d20a05	-26.254892
82	0xc1d1752b	-26.18221
83	0xc1d0ded7	-26.108809
84	0xc1d04702	-26.034672
85	0xc1cfada7	-25.959791
86	0xc1cf12bd	-25.88415
87	0xc1ce763e	-25.807735
88	0xc1cdd824	-25.730537
89	0xc1cd3866	-25.652538
90	0xc1cc96fe	-25.573727
91	0xc1cbf3e4	-25.494087
92	0xc1cb4f10	-25.413605
93	0xc1caa87c	-25.332268
94	0xc1ca001e	-25.250057
95	0xc1c955ee	-25.166958
96	0xc1dc9e5b	-27.577322
97	0xc1dc2175	-27.516336
98	0xc1dba384	-27.454842
99	0xc1db247f	-27.39282
100	0xc1daa45f	-27.33026
101	0xc1da231e	-27.267147
102	0xc1d9a0b5	-27.20347
103	0xc1d91d1e	-27.139217
104	0xc1d89851	-27.074373
105	0xc1d81248	-27.008926
106	0xc1d78afc	-26.942863
107	0xc1d70269	-26.876177
108	0xc1d67886	-26.80885
109	0xc1d5ed4e	-26.740871
110	0xc1d560bb	-26.672232
111	0xc1d4d2c6	-26.602917
112	0xc1d44368	-26.532913
113	0xc1d3b29d	-26.462214
114	0xc1d3205d	-26.390802
115	0xc1d28ca1	-26.318666
116	0xc1d1f764	-26.245796
117	0xc1d1609e	-26.172176
118	0xc1d0c84a	-26.097797
119	0xc1d02e5f	-26.022642
120	0xc1cf92d8	-25.946701
121	0xc1cef5ad	-25.869959
122	0xc1ce56d7	-25.792402
123	0xc1cdb64f	-25.714018
124	0xc1cd140d	-25.63479
125	0xc1cc7009	-25.554705
126	0xc1cbca3c	-25.473747
127	0xc1cb229d	-25.391901
128	0xc1de19bf	-27.762571
129	0xc1dd9fa4	-27.70295
130	0xc1dd247a	-27.64281
131	0xc1dca839	-27.58214
132	0xc1dc2ad9	-27.520922
133	0xc1dbac55	-27.459146
134	0xc1db2ca5	-27.3968
135	0xc1daabc4	-27.33387
136	0xc1da29aa	-27.270344
137	0xc1d9a651	-27.20621
138	0xc1d921b3	-27.141455
139	0xc1d89bcb	-27.07607
140	0xc1d81491	-27.010042
141	0xc1d78c00	-26.94336
142	0xc1d70211	-26.876009
143	0xc1d676bf	-26.807981
144	0xc1d5ea03	-26.739264
145	0xc1d55bd7	-26.669844
146	0xc1d4cc35	-26.59971
147	0xc1d43b16	-26.52885
148	0xc1d3a874	-26.457253
149	0xc1d31449	-26.384905
150	0xc1d27e8d	-26.311792
151	0xc1d1e73b	-26.237906
152	0xc1d14e4c	-26.16323
153	0xc1d0b3b8	-26.087753
154	0xc1d01778	-26.01146
155	0xc1cf7986	-25.934338
156	0xc1ced9d9	-25.85637
157	0xc1ce386b	-25.777548
158	0xc1cd9534	-25.697853
159	0xc1ccf02a	-25.617268
160	0xc1df95c8	-27.948135
161	0xc1df1e7d	-27.889887
162	0xc1dea61d	-27.83111
163	0xc1de2ca3	-27.771795
164	0xc1ddb207	-27.711927
165	0xc1dd3643	-27.651495
166	0xc1dcb950	-27.590485
167	0xc1dc3b28	-27.528885
168	0xc1dbbbc5	-27.466684
169	0xc1db3b20	-27.40387
170	0xc1dab934	-27.340431
171	0xc1da35fb	-27.276358
172	0xc1d9b16e	-27.211636
173	0xc1d92b87	-27.146254
174	0xc1d8a442	-27.080204
175	0xc1d81b96	-27.01347
176	0xc1d7917f	-26.946043
177	0xc1d705f7	-26.877913
178	0xc1d678f6	-26.809063
179	0xc1d5ea78	-26.739487
180	0xc1d55a76	-26.66917
181	0xc1d4c8e9	-26.5981
182	0xc1d435cb	-26.526266
183	0xc1d3a116	-26.453655
184	0xc1d30ac2	-26.380253
185	0xc1d272ca	-26.30605
186	0xc1d1d925	-26.231028
187	0xc1d13dce	-26.155178
188	0xc1d0a0bc	-26.078484
189	0xc1d001e7	-26.000929
190	0xc1cf614a	-25.922504
191	0xc1cebedb	-25.843191
192	0xc1e11298	-28.134079
193	0xc1e09e1e	-28.077206
194	0xc1e0288c	-28.019798
195	0xc1dfb1dc	-27.961845
196	0xc1df3a06	-27.903332
197	0xc1dec105	-27.844248
198	0xc1de46d1	-27.784578
199	0xc1ddcb66	-27.724316
200	0xc1dd4ebc	-27.663445
201	0xc1dcd0cf	-27.601957
202	0xc1dc5197	-27.539839
203	0xc1dbd10f	-27.47708
204	0xc1db4f32	-27.41367
205	0xc1dacbf9	-27.349596
206	0xc1da475f	-27.28485
207	0xc1d9c15e	-27.219418
208	0xc1d939ef	-27.153288
209	0xc1d8b10d	-27.08645
210	0xc1d826b2	-27.018894
211	0xc1d79ad8	-26.950607
212	0xc1d70d78	-26.881577
213	0xc1d67e8e	-26.811794
214	0xc1d5ee11	-26.741243
215	0xc1d55bfc	-26.669914
216	0xc1d4c848	-26.597794
217	0xc1d432ee	-26.524868
218	0xc1d39be8	-26.451126
219	0xc1d3032f	-26.376554
220	0xc1d268bb	-26.301138
221	0xc1d1cc85	-26.224863
222	0xc1d12e86	-26.147717
223	0xc1d08eb5	-26.069681
224	0xc1e28fb5	-28.32017
225	0xc1e21e0f	-28.264677
226	0xc1e1ab4e	-28.208645
227	0xc1e1376a	-28.152058
228	0xc1e0c25e	-28.094906
229	0xc1e04c22	-28.037174
230	0xc1dfd4b1	-27.978853
231	0xc1df5c06	-27.919933
232	0xc1dee219	-27.8604
233	0xc1de66e5	-27.800241
234	0xc1ddea65	-27.73945
235	0xc1dd6c93	-27.678015
236	0xc1dced69	-27.615923
237	0xc1dc6ce1	-27.553164
238	0xc1dbeaf6	-27.489727
239	0xc1db67a2	-27.425602
240	0xc1dae2df	-27.360777
241	0xc1da5ca7	-27.29524
242	0xc1d9d4f5	-27.228983
243	0xc1d94bc3	-27.161993
244	0xc1d8c10a	-27.094257
245	0xc1d834c5	-27.025766
246	0xc1d7a6ed	-26.956507
247	0xc1d7177c	-26.886467
248	0xc1d6866b	-26.815634
249	0xc1d5f3b5	-26.743998
250	0xc1d55f52	-26.671543
251	0xc1d4c93b	-26.598257
252	0xc1d43169	-26.524126
253	0xc1d397d5	-26.449137
254	0xc1d2fc78	-26.373276
255	0xc1d25f4a	-26.296528

qa f4 [32, 32]
0	0x00000000	0.0
1	0x00000000	0.0
2	0x00000000	0.0
3	0x00000000	0.0
4	0x00000000	0.0
5	0x00000000	0.0
6	0x00000000	0.0
7	0x00000000	0.0
8	0x00000000	0.0
9	0x00000000	0.0
10	0x00000000	0.0
11	0x00000000	0.0
12	0x00000000	0.0
13	0x00000000	0.0
14	0x00000000	0.0
15	0x00000000	0.0
16	0x00000000	0.0
17	0x00000000	0.0
18	0x00000000	0.0
19	0x00000000	0.0
20	0x00000000	0.0
21	0x00000000	0.0
22	0x00000000	0.0
23	0x00000000	0.0
24	0x00000000	0.0
25	0x00000000	0.0
26	0x00000000	0.0
27	0x00000000	0.0
28	0x00000000	0.0
29	0x00000000	0.0
30	0x00000000	0.0
31	0x00000000	0.0
32	0x00000000	0.0
33	0x00000000	0.0
34	0x00000000	0.0
35	0x00000000	0.0
36	0x00000000	0.0
37	0x00000000	0.0
38	0x00000000	0.0
39	0x00000000	0.0
40	0x00000000	0.0
41	0x00000000	0.0
42	0x00000000	0.0
43	0x00000000	0.0
44	0x00000000	0.0
45	0x00000000	0.0
46	0x00000000	0.0
47	0x00000000	0.0
48	0x00000000	0.0
49	0x00000000	0.0
50	0x00000000	0.0
51	0x00000000	0.0
52	0x00000000	0.0
53	0x00000000	0.0
54	0x00000000	0.0
55	0x00000000	0.0
56	0x00000000	0.0
57	0x00000000	0.0
58	0x00000000	0.0
59	0x00000000	0.0
60	0x00000000	0.0
61	0x00000000	0.0
62	0x00000000	0.0
63	0x00000000	0.0
64	0x00000000	0.0
65	0x00000000	0.0
66	0x00000000	0.0
67	0x00000000	0.0
68	0x00000000	0.0
69	0x00000000	0.0
70	0x00000000	0.0
71	0x00000000	0.0
72	0x00000000	0.0
73	0x00000000	0.0
74	0x00000000	0.0
75	0x00000000	0.0
76	0x00000000	0.0
77	0x00000000	0.0
78	0x00000000	0.0
79	0x00000000	0.0
80	0x00000000	0.0
81	0x00000000	0.0
82	0x00000000	0.0
83	0x00000000	0.0
84	0x00000000	0.0
85	0x00000000	0.0
86	0x00000000	0.0
87	0x00000000	0.0
88	0x00000000	0.0
89	0x00000000	0.0
90	0x00000000	0.0
91	0x00000000	0.0
92	0x00000000	0.0
93	0x00000000	0.0
94	0x00000000	0.0
95	0x00000000	0.0
96	0x00000000	0.0
97	0x00000000	0.0
98	0x00000000	0.0
99	0x00000000	0.0
100	0x00000000	0.0
101	0x00000000	0.0
102	0x00000000	0.0
103	0x00000000	0.0
104	0x00000000	0.0
105	0x00000000	0.0
106	0x00000000	0.0
107	0x00000000	0.0
108	0x00000000	0.0
109	0x00000000	0.0
110	0x00000000	0.0
111	0x00000000	0.0
112	0x00000000	0.0
113	0x00000000	0.0
114	0x00000000	0.0
115	0x00000000	0.0
116	0x00000000	0.0
117	0x00000000	0.0
118	0x00000000	0.0
119	0x00000000	0.0
120	0x00000000	0.0
121	0x00000000	0.0
122	0x00000000	0.0
123	0x00000000	0.0
124	0x00000000	0.0
125	0x00000000	0.0
126	0x00000000	0.0
127	0x00000000	0.0
128	0x00000000	0.0
129	0x00000000	0.0
130	0x00000000	0.0
131	0x00000000	0.0
132	0x00000000	0.0
133	0x00000000	0.0
134	0x00000000	0.0
135	0x00000000	0.0
136	0x00000000	0.0
137	0x00000000	0.0
138	0x00000000	0.0
139	0x00000000	0.0
140	0x00000000	0.0
141	0x00000000	0.0
142	0x00000000	0.0
143	0x00000000	0.0
144	0x00000000	0.0
145	0x00000000	0.0
146	0x00000000	0.0
147	0x00000000	0.0
148	0x00000000	0.0
149	0x00000000	0.0
150	0x00000000	0.0
151	0x00000000	0.0
152	0x00000000	0.0
153	0x00000000	0.0
154	0x00000000	0.0
155	0x00000000	0.0
156	0x00000000	0.0
157	0x00000000	0.0
158	0x00000000	0.0
159	0x00000000	0.0
160	0x00000000	0.0
161	0x00000000	0.0
162	0x00000000	0.0
163	0x00000000	0.0
164	0x00000000	0.0
165	0x00000000	0.0
166	0x00000000	0.0
167	0x00000000	0.0
168	0x00000000	0.0
169	0x00000000	0.0
170	0x00000000	0.0
171	0x00000000	0.0
172	0x00000000	0.0
173	0x00000000	0.0
174	0x00000000	0.0
175	0x00000000	0.0
176	0x00000000	0.0
177	0x00000000	0.0
178	0x00000000	0.0
179	0x00000000	0.0
180	0x00000000	0.0
181	0x00000000	0.0
182	0x00000000	0.0
183	0x00000000	0.0
184	0x00000000	0.0
185	0x00000000	0.0
186	0x00000000	0.0
187	0x00000000	0.0
188	0x00000000	0.0
189	0x00000000	0.0
190	0x00000000	0.0
191	0x00000000	0.0
192	0x00000000	0.0
193	0x00000000	0.0
194	0x00000000	0.0
195	0x00000000	0.0
196	0x00000000	0.0
197	0x00000000	0.0
198	0x00000000	0.0
199	0x00000000	0.0
200	0x00000000	0.0
201	0x00000000	0.0
202	0x00000000	0.0
203	0x00000000	0.0
204	0x00000000	0.0
205	0x00000000	0.0
206	0x00000000	0.0
207	0x00000000	0.0
208	0x00000000	0.0
209	0x00000000	0.0
210	0x00000000	0.0
211	0x00000000	0.0
212	0x00000000	0.0
213	0x00000000	0.0
214	0x00000000	0.0
215	0x00000000	0.0
216	0x00000000	0.0
217	0x00000000	0.0
218	0x00000000	0.0
219	0x00000000	0.0
220	0x00000000	0.0
221	0x00000000	0.0
222	0x00000000	0.0
223	0x00000000	0.0
224	0x00000000	0.0
225	0x00000000	0.0
226	0x00000000	0.0
227	0x00000000	0.0
228	0x00000000	0.0
229	0x00000000	0.0
230	0x00000000	0.0
231	0x00000000	0.0
232	0x00000000	0.0
233	0x00000000	0.0
234	0x00000000	0.0
235	0x00000000	0.0
236	0x00000000	0.0
237	0x00000000	0.0
238	0x00000000	0.0
239	0x00000000	0.0
240	0x00000000	0.0
241	0x00000000	0.0
242	0x00000000	0.0
243	0x00000000	0.0
244	0x00000000	0.0
245	0x00000000	0.0
246	0x00000000	0.0
247	0x00000000	0.0
248	0x00000000	0.0
249	0x00000000	0.0
250	0x00000000	0.0
251	0x00000000	0.0
252	0x00000000	0.0
253	0x00000000	0.0
254	0x00000000	0.0
255	0x00000000	0.0
