data/dataset/negative/b1eafb77-ad11-4c1a-b352-dd30c0ae37d0.npz (npz, 23743 bytes, 4 tensors)

methane f8 [32, 32]
9.969209968386869e+36 9.969209968386869e+36 9.969209968386869e+36 9.969209968386869e+36 9.969209968386869e+36 9.969209968386869e+36 9.969209968386869e+36 9.969209968386869e+36
9.969209968386869e+36 9.969209968386869e+36 9.969209968386869e+36 9.969209968386869e+36 9.969209968386869e+36 9.969209968386869e+36 9.969209968386869e+36 9.969209968386869e+36
9.969209968386869e+36 9.969209968386869e+36 9.969209968386869e+36 9.969209968386869e+36 9.969209968386869e+36 9.969209968386869e+36 9.969209968386869e+36 9.969209968386869e+36
9.969209968386869e+36 9.969209968386869e+36 9.969209968386869e+36 9.969209968386869e+36 9.969209968386869e+36 9.969209968386869e+36 9.969209968386869e+36 9.969209968386869e+36
9.969209968386869e+36 9.969209968386869e+36 9.969209968386869e+36 9.969209968386869e+36 9.969209968386869e+36 9.969209968386869e+36 9.969209968386869e+36 9.969209968386869e+36
9.969209968386869e+36 9.969209968386869e+36 9.969209968386869e+36 9.969209968386869e+36 9.969209968386869e+36 9.969209968386869e+36 9.969209968386869e+36 9.969209968386869e+36
9.969209968386869e+36 9.969209968386869e+36 9.969209968386869e+36 9.969209968386869e+36 9.969209968386869e+36 9.969209968386869e+36 9.969209968386869e+36 9.969209968386869e+36
9.969209968386869e+36 9.969209968386869e+36 9.969209968386869e+36 9.969209968386869e+36 9.969209968386869e+36 9.969209968386869e+36 9.969209968386869e+36 9.969209968386869e+36
9.969209968386869e+36 9.969209968386869e+36 9.969209968386869e+36 9.969209968386869e+36 9.969209968386869e+36 9.969209968386869e+36 9.969209968386869e+36 9.969209968386869e+36
9.969209968386869e+36 9.969209968386869e+36 9.969209968386869e+36 9.969209968386869e+36 9.969209968386869e+36 9.969209968386869e+36 9.969209968386869e+36 9.969209968386869e+36
9.969209968386869e+36 9.969209968386869e+36 9.969209968386869e+36 9.969209968386869e+36 9.969209968386869e+36 9.969209968386869e+36 9.969209968386869e+36 9.969209968386869e+36
9.969209968386869e+36 9.969209968386869e+36 9.969209968386869e+36 9.969209968386869e+36 9.969209968386869e+36 9.969209968386869e+36 9.969209968386869e+36 9.969209968386869e+36
9.969209968386869e+36 9.969209968386869e+36 9.969209968386869e+36 9.969209968386869e+36 9.969209968386869e+36 9.969209968386869e+36 9.969209968386869e+36 9.969209968386869e+36
9.969209968386869e+36 9.969209968386869e+36 9.969209968386869e+36 9.969209968386869e+36 9.969209968386869e+36 9.969209968386869e+36 9.969209968386869e+36 9.969209968386869e+36
9.969209968386869e+36 9.969209968386869e+36 9.969209968386869e+36 9.969209968386869e+36 9.969209968386869e+36 9.969209968386869e+36 9.969209968386869e+36 9.969209968386869e+36
9.969209968386869e+36 9.969209968386869e+36 9.969209968386869e+36 9.969209968386869e+36 9.969209968386869e+36 9.969209968386869e+36 9.969209968386869e+36 9.969209968386869e+36
9.969209968386869e+36 9.969209968386869e+36 9.969209968386869e+36 9.969209968386869e+36 9.969209968386869e+36 9.969209968386869e+36 9.969209968386869e+36 9.969209968386869e+36
9.969209968386869e+36 9.969209968386869e+36 9.969209968386869e+36 9.969209968386869e+36 9.969209968386869e+36 9.969209968386869e+36 9.969209968386869e+36 9.969209968386869e+36
9.969209968386869e+36 9.969209968386869e+36 9.969209968386869e+36 9.969209968386869e+36 9.969209968386869e+36 9.969209968386869e+36 9.969209968386869e+36 9.969209968386869e+36
9.969209968386869e+36 9.969209968386869e+36 9.969209968386869e+36 9.969209968386869e+36 9.969209968386869e+36 9.969209968386869e+36 9.969209968386869e+36 9.969209968386869e+36
9.969209968386869e+36 9.969209968386869e+36 9.969209968386869e+36 9.969209968386869e+36 9.969209968386869e+36 9.969209968386869e+36 9.969209968386869e+36 9.969209968386869e+36
9.969209968386869e+36 9.969209968386869e+36 9.969209968386869e+36 9.969209968386869e+36 9.969209968386869e+36 9.969209968386869e+36 9.969209968386869e+36 9.969209968386869e+36
9.969209968386869e+36 9.969209968386869e+36 9.969209968386869e+36 9.969209968386869e+36 9.969209968386869e+36 9.969209968386869e+36 9.969209968386869e+36 9.969209968386869e+36
9.969209968386869e+36 9.969209968386869e+36 9.969209968386869e+36 9.969209968386869e+36 9.969209968386869e+36 9.969209968386869e+36 9.969209968386869e+36 9.969209968386869e+36
9.969209968386869e+36 9.969209968386869e+36 9.969209968386869e+36 9.969209968386869e+36 9.969209968386869e+36 9.969209968386869e+36 9.969209968386869e+36 9.969209968386869e+36
9.969209968386869e+36 9.969209968386869e+36 9.969209968386869e+36 9.969209968386869e+36 9.969209968386869e+36 9.969209968386869e+36 9.969209968386869e+36 9.969209968386869e+36
9.969209968386869e+36 9.969209968386869e+36 9.969209968386869e+36 9.969209968386869e+36 9.969209968386869e+36 9.969209968386869e+36 9.969209968386869e+36 9.969209968386869e+36
9.969209968386869e+36 9.969209968386869e+36 9.969209968386869e+36 9.969209968386869e+36 9.969209968386869e+36 9.969209968386869e+36 9.969209968386869e+36 9.969209968386869e+36
9.969209968386869e+36 9.969209968386869e+36 9.969209968386869e+36 9.969209968386869e+36 9.969209968386869e+36 9.969209968386869e+36 9.969209968386869e+36 9.969209968386869e+36
9.969209968386869e+36 9.969209968386869e+36 9.969209968386869e+36 9.969209968386869e+36 9.969209968386869e+36 9.969209968386869e+36 9.969209968386869e+36 9.969209968386869e+36
9.969209968386869e+36 9.969209968386869e+36 9.969209968386869e+36 9.969209968386869e+36 9.969209968386869e+36 9.969209968386869e+36 9.969209968386869e+36 9.969209968386869e+36
9.969209968386869e+36 9.969209968386869e+36 9.969209968386869e+36 9.969209968386869e+36 9.969209968386869e+36 9.969209968386869e+36 9.969209968386869e+36 9.969209968386869e+36
00000000: 0000 0000 0000 9e47 0000 0000 0000 9e47
00000010: 0000 0000 0000 9e47 0000 0000 0000 9e47
00000020: 0000 0000 0000 9e47 0000 0000 0000 9e47
00000030: 0000 0000 0000 9e47 0000 0000 0000 9e47
00000040: 0000 0000 0000 9e47 0000 0000 0000 9e47
00000050: 0000 0000 0000 9e47 0000 0000 0000 9e47
00000060: 0000 0000 0000 9e47 0000 0000 0000 9e47
00000070: 0000 0000 0000 9e47 0000 0000 0000 9e47
00000080: 0000 0000 0000 9e47 0000 0000 0000 9e47
00000090: 0000 0000 0000 9e47 0000 0000 0000 9e47
000000a0: 0000 0000 0000 9e47 0000 0000 0000 9e47
000000b0: 0000 0000 0000 9e47 0000 0000 0000 9e47
000000c0: 0000 0000 0000 9e47 0000 0000 0000 9e47
000000d0: 0000 0000 0000 9e47 0000 0000 0000 9e47
000000e0: 0000 0000 0000 9e47 0000 0000 0000 9e47
000000f0: 0000 0000 0000 9e47 0000 0000 0000 9e47
00000100: 0000 0000 0000 9e47 0000 0000 0000 9e47
00000110: 0000 0000 0000 9e47 0000 0000 0000 9e47
00000120: 0000 0000 0000 9e47 0000 0000 0000 9e47
00000130: 0000 0000 0000 9e47 0000 0000 0000 9e47
00000140: 0000 0000 0000 9e47 0000 0000 0000 9e47
00000150: 0000 0000 0000 9e47 0000 0000 0000 9e47
00000160: 0000 0000 0000 9e47 0000 0000 0000 9e47
00000170: 0000 0000 0000 9e47 0000 0000 0000 9e47
00000180: 0000 0000 0000 9e47 0000 0000 0000 9e47
00000190: 0000 0000 0000 9e47 0000 0000 0000 9e47
000001a0: 0000 0000 0000 9e47 0000 0000 0000 9e47
000001b0: 0000 0000 0000 9e47 0000 0000 0000 9e47
000001c0: 0000 0000 0000 9e47 0000 0000 0000 9e47
000001d0: 0000 0000 0000 9e47 0000 0000 0000 9e47
000001e0: 0000 0000 0000 9e47 0000 0000 0000 9e47
000001f0: 0000 0000 0000 9e47 0000 0000 0000 9e47
00000200: 0000 0000 0000 9e47 0000 0000 0000 9e47
00000210: 0000 0000 0000 9e47 0000 0000 0000 9e47
00000220: 0000 0000 0000 9e47 0000 0000 0000 9e47
00000230: 0000 0000 0000 9e47 0000 0000 0000 9e47
00000240: 0000 0000 0000 9e47 0000 0000 0000 9e47
00000250: 0000 0000 0000 9e47 0000 0000 0000 9e47
00000260: 0000 0000 0000 9e47 0000 0000 0000 9e47
00000270: 0000 0000 0000 9e47 0000 0000 0000 9e47
00000280: 0000 0000 0000 9e47 0000 0000 0000 9e47
00000290: 0000 0000 0000 9e47 0000 0000 0000 9e47
000002a0: 0000 0000 0000 9e47 0000 0000 0000 9e47
000002b0: 0000 0000 0000 9e47 0000 0000 0000 9e47
000002c0: 0000 0000 0000 9e47 0000 0000 0000 9e47
000002d0: 0000 0000 0000 9e47 0000 0000 0000 9e47
000002e0: 0000 0000 0000 9e47 0000 0000 0000 9e47
000002f0: 0000 0000 0000 9e47 0000 0000 0000 9e47
00000300: 0000 0000 0000 9e47 0000 0000 0000 9e47
00000310: 0000 0000 0000 9e47 0000 0000 0000 9e47
00000320: 0000 0000 0000 9e47 0000 0000 0000 9e47
00000330: 0000 0000 0000 9e47 0000 0000 0000 9e47
00000340: 0000 0000 0000 9e47 0000 0000 0000 9e47
00000350: 0000 0000 0000 9e47 0000 0000 0000 9e47
00000360: 0000 0000 0000 9e47 0000 0000 0000 9e47
00000370: 0000 0000 0000 9e47 0000 0000 0000 9e47
00000380: 0000 0000 0000 9e47 0000 0000 0000 9e47
00000390: 0000 0000 0000 9e47 0000 0000 0000 9e47
000003a0: 0000 0000 0000 9e47 0000 0000 0000 9e47
000003b0: 0000 0000 0000 9e47 0000 0000 0000 9e47
000003c0: 0000 0000 0000 9e47 0000 0000 0000 9e47
000003d0: 0000 0000 0000 9e47 0000 0000 0000 9e47
000003e0: 0000 0000 0000 9e47 0000 0000 0000 9e47
000003f0: 0000 0000 0000 9e47 0000 0000 0000 9e47
00000400: 0000 0000 0000 9e47 0000 0000 0000 9e47
00000410: 0000 0000 0000 9e47 0000 0000 0000 9e47
00000420: 0000 0000 0000 9e47 0000 0000 0000 9e47
00000430: 0000 0000 0000 9e47 0000 0000 0000 9e47
00000440: 0000 0000 0000 9e47 0000 0000 0000 9e47
00000450: 0000 0000 0000 9e47 0000 0000 0000 9e47
00000460: 0000 0000 0000 9e47 0000 0000 0000 9e47
00000470: 0000 0000 0000 9e47 0000 0000 0000 9e47
00000480: 0000 0000 0000 9e47 0000 0000 0000 9e47
00000490: 0000 0000 0000 9e47 0000 0000 0000 9e47
000004a0: 0000 0000 0000 9e47 0000 0000 0000 9e47
000004b0: 0000 0000 0000 9e47 0000 0000 0000 9e47
000004c0: 0000 0000 0000 9e47 0000 0000 0000 9e47
000004d0: 0000 0000 0000 9e47 0000 0000 0000 9e47
000004e0: 0000 0000 0000 9e47 0000 0000 0000 9e47
000004f0: 0000 0000 0000 9e47 0000 0000 0000 9e47
00000500: 0000 0000 0000 9e47 0000 0000 0000 9e47
00000510: 0000 0000 0000 9e47 0000 0000 0000 9e47
00000520: 0000 0000 0000 9e47 0000 0000 0000 9e47
00000530: 0000 0000 0000 9e47 0000 0000 0000 9e47
00000540: 0000 0000 0000 9e47 0000 0000 0000 9e47
00000550: 0000 0000 0000 9e47 0000 0000 0000 9e47
00000560: 0000 0000 0000 9e47 0000 0000 0000 9e47
00000570: 0000 0000 0000 9e47 0000 0000 0000 9e47
00000580: 0000 0000 0000 9e47 0000 0000 0000 9e47
00000590: 0000 0000 0000 9e47 0000 0000 0000 9e47
000005a0: 0000 0000 0000 9e47 0000 0000 0000 9e47
000005b0: 0000 0000 0000 9e47 0000 0000 0000 9e47
000005c0: 0000 0000 0000 9e47 0000 0000 0000 9e47
000005d0: 0000 0000 0000 9e47 0000 0000 0000 9e47
000005e0: 0000 0000 0000 9e47 0000 0000 0000 9e47
000005f0: 0000 0000 0000 9e47 0000 0000 0000 9e47
00000600: 0000 0000 0000 9e47 0000 0000 0000 9e47
00000610: 0000 0000 0000 9e47 0000 0000 0000 9e47
00000620: 0000 0000 0000 9e47 0000 0000 0000 9e47
00000630: 0000 0000 0000 9e47 0000 0000 0000 9e47
00000640: 0000 0000 0000 9e47 0000 0000 0000 9e47
00000650: 0000 0000 0000 9e47 0000 0000 0000 9e47
00000660: 0000 0000 0000 9e47 0000 0000 0000 9e47
00000670: 0000 0000 0000 9e47 0000 0000 0000 9e47
00000680: 0000 0000 0000 9e47 0000 0000 0000 9e47
00000690: 0000 0000 0000 9e47 0000 0000 0000 9e47
000006a0: 0000 0000 0000 9e47 0000 0000 0000 9e47
000006b0: 0000 0000 0000 9e47 0000 0000 0000 9e47
000006c0: 0000 0000 0000 9e47 0000 0000 0000 9e47
000006d0: 0000 0000 0000 9e47 0000 0000 0000 9e47
000006e0: 0000 0000 0000 9e47 0000 0000 0000 9e47
000006f0: 0000 0000 0000 9e47 0000 0000 0000 9e47
00000700: 0000 0000 0000 9e47 0000 0000 0000 9e47
00000710: 0000 0000 0000 9e47 0000 0000 0000 9e47
00000720: 0000 0000 0000 9e47 0000 0000 0000 9e47
00000730: 0000 0000 0000 9e47 0000 0000 0000 9e47
00000740: 0000 0000 0000 9e47 0000 0000 0000 9e47
00000750: 0000 0000 0000 9e47 0000 0000 0000 9e47
00000760: 0000 0000 0000 9e47 0000 0000 0000 9e47
00000770: 0000 0000 0000 9e47 0000 0000 0000 9e47
00000780: 0000 0000 0000 9e47 0000 0000 0000 9e47
00000790: 0000 0000 0000 9e47 0000 0000 0000 9e47
000007a0: 0000 0000 0000 9e47 0000 0000 0000 9e47
000007b0: 0000 0000 0000 9e47 0000 0000 0000 9e47
000007c0: 0000 0000 0000 9e47 0000 0000 0000 9e47
000007d0: 0000 0000 0000 9e47 0000 0000 0000 9e47
000007e0: 0000 0000 0000 9e47 0000 0000 0000 9e47
000007f0: 0000 0000 0000 9e47 0000 0000 0000 9e47

lat f4 [32, 32]
-63.87479 -63.850655 -63.826538 -63.802433 -63.77834 -63.75425 -63.73016 -63.706062
-63.68196 -63.657845 -63.63371 -63.609554 -63.585373 -63.56116 -63.53691 -63.512623
-63.488293 -63.463913 -63.43948 -63.414986 -63.39043 -63.36581 -63.341114 -63.316345
-63.29149 -63.26655 -63.241516 -63.216385 -63.191154 -63.165813 -63.140358 -63.114784
-63.82799 -63.803886 -63.7798 -63.75573 -63.731667 -63.707607 -63.683548 -63.659485
-63.635414 -63.61133 -63.587227 -63.563107 -63.538956 -63.51478 -63.490562 -63.46631
-63.44201 -63.417664 -63.393265 -63.36881 -63.344288 -63.319702 -63.295044 -63.27031
-63.24549 -63.22059 -63.19559 -63.170498 -63.1453 -63.12 -63.09458 -63.069046
-63.78119 -63.75712 -63.733063 -63.70902 -63.684986 -63.66096 -63.636932 -63.6129
-63.588863 -63.564808 -63.54074 -63.51665 -63.492535 -63.468388 -63.444206 -63.419987
-63.39572 -63.37141 -63.347046 -63.32262 -63.298138 -63.273586 -63.248962 -63.224262
-63.199482 -63.174614 -63.149654 -63.1246 -63.09944 -63.074173 -63.048798 -63.0233
-63.734394 -63.71035 -63.686325 -63.662315 -63.638313 -63.614315 -63.59032 -63.56632
-63.542313 -63.51829 -63.494255 -63.470196 -63.446114 -63.422 -63.39785 -63.373665
-63.349434 -63.325157 -63.300827 -63.276436 -63.251987 -63.22747 -63.202885 -63.17822
-63.153473 -63.128643 -63.103718 -63.0787 -63.053577 -63.02835 -63.00301 -62.97755
-63.687546 -63.663532 -63.639538 -63.61556 -63.591587 -63.56762 -63.543655 -63.519688
-63.495712 -63.47172 -63.44772 -63.42369 -63.399643 -63.37556 -63.351444 -63.327293
-63.303093 -63.27885 -63.254555 -63.230198 -63.205784 -63.1813 -63.15675 -63.132122
-63.10741 -63.082615 -63.057728 -63.032745 -63.00766 -62.98247 -62.95717 -62.931747
-63.640697 -63.616714 -63.59275 -63.5688 -63.54486 -63.520927 -63.496994 -63.473057
-63.449112 -63.425156 -63.401184 -63.37719 -63.35317 -63.32912 -63.30504 -63.28092
-63.256756 -63.232544 -63.208282 -63.183964 -63.15958 -63.135136 -63.11062 -63.086025
-63.061348 -63.03659 -63.011738 -62.986794 -62.961746 -62.936592 -62.911327 -62.885944
-63.59387 -63.569916 -63.545982 -63.52206 -63.498154 -63.47425 -63.450348 -63.42644
-63.402527 -63.3786 -63.354664 -63.3307 -63.306713 -63.2827 -63.258648 -63.234562
-63.210434 -63.186256 -63.162025 -63.13774 -63.113396 -63.08898 -63.0645 -63.03994
-63.015305 -62.990578 -62.965767 -62.940857 -62.915848 -62.89073 -62.8655 -62.840157
-63.54702 -63.523098 -63.499195 -63.475304 -63.451424 -63.42755 -63.40368 -63.379807
-63.355923 -63.33203 -63.30812 -63.28419 -63.260235 -63.23625 -63.212234 -63.188183
-63.164085 -63.139942 -63.115746 -63.09149 -63.06718 -63.042805 -63.018356 -62.99383
-62.96923 -62.944542 -62.91976 -62.89489 -62.869915 -62.844837 -62.819645 -62.79434
00000000: c97f 7fc2 1267 7fc2 604e 7fc2 b135 7fc2
00000010: 051d 7fc2 5a04 7fc2 afeb 7ec2 02d3 7ec2
00000020: 54ba 7ec2 a2a1 7ec2 eb88 7ec2 2f70 7ec2
00000030: 6c57 7ec2 a13e 7ec2 cc25 7ec2 ed0c 7ec2
00000040: 03f4 7dc2 0cdb 7dc2 07c2 7dc2 f2a8 7dc2
00000050: cd8f 7dc2 9776 7dc2 4d5d 7dc2 f043 7dc2
00000060: 7c2a 7dc2 f210 7dc2 50f7 7cc2 94dd 7cc2
00000070: bec3 7cc2 cba9 7cc2 ba8f 7cc2 8a75 7cc2
00000080: dd4f 7fc2 2e37 7fc2 841e 7fc2 de05 7fc2
00000090: 3aed 7ec2 97d4 7ec2 f4bb 7ec2 50a3 7ec2
000000a0: aa8a 7ec2 0072 7ec2 5259 7ec2 9f40 7ec2
000000b0: e427 7ec2 220f 7ec2 56f6 7dc2 80dd 7dc2
000000c0: 9ec4 7dc2 b0ab 7dc2 b492 7dc2 a979 7dc2
000000d0: 8d60 7dc2 6047 7dc2 202e 7dc2 cc14 7dc2
000000e0: 62fb 7cc2 e2e1 7cc2 49c8 7cc2 97ae 7cc2
000000f0: ca94 7cc2 e17a 7cc2 da60 7cc2 b446 7cc2
00000100: f01f 7fc2 4a07 7fc2 a8ee 7ec2 09d6 7ec2
00000110: 6dbd 7ec2 d3a4 7ec2 388c 7ec2 9c73 7ec2
00000120: ff5a 7ec2 5d42 7ec2 b829 7ec2 0d11 7ec2
00000130: 5bf8 7dc2 a1df 7dc2 dec6 7dc2 11ae 7dc2
00000140: 3895 7dc2 537c 7dc2 6063 7dc2 5d4a 7dc2
00000150: 4b31 7dc2 2718 7dc2 f0fe 7cc2 a5e5 7cc2
00000160: 45cc 7cc2 ceb2 7cc2 3f99 7cc2 977f 7cc2
00000170: d465 7cc2 f44b 7cc2 f831 7cc2 dc17 7cc2
00000180: 05f0 7ec2 66d7 7ec2 ccbe 7ec2 36a6 7ec2
00000190: a28d 7ec2 0f75 7ec2 7d5c 7ec2 e943 7ec2
000001a0: 542b 7ec2 bb12 7ec2 1efa 7dc2 7be1 7dc2
000001b0: d2c8 7dc2 21b0 7dc2 6697 7dc2 a27e 7dc2
000001c0: d265 7dc2 f64c 7dc2 0c34 7dc2 121b 7dc2
000001d0: 0902 7dc2 eee8 7cc2 c1cf 7cc2 7fb6 7cc2
000001e0: 289d 7cc2 bb83 7cc2 356a 7cc2 9750 7cc2
000001f0: dd36 7cc2 081d 7cc2 1503 7cc2 03e9 7bc2
00000200: 0cc0 7ec2 75a7 7ec2 e38e 7ec2 5576 7ec2
00000210: c95d 7ec2 3e45 7ec2 b42c 7ec2 2914 7ec2
00000220: 9cfb 7dc2 0be3 7dc2 77ca 7dc2 dcb1 7dc2
00000230: 3c99 7dc2 9380 7dc2 e167 7dc2 264f 7dc2
00000240: 5e36 7dc2 8b1d 7dc2 aa04 7dc2 b9eb 7cc2
00000250: b9d2 7cc2 a7b9 7cc2 83a0 7cc2 4b87 7cc2
00000260: fd6d 7cc2 9954 7cc2 1d3b 7cc2 8821 7cc2
00000270: d807 7cc2 0dee 7bc2 24d4 7bc2 1cba 7bc2
00000280: 1390 7ec2 8477 7ec2 fa5e 7ec2 7446 7ec2
00000290: f02d 7ec2 6e15 7ec2 ecfc 7dc2 69e4 7dc2
000002a0: e4cb 7dc2 5cb3 7dc2 d09a 7dc2 3e82 7dc2
000002b0: a569 7dc2 0551 7dc2 5c38 7dc2 a91f 7dc2
000002c0: eb06 7dc2 20ee 7cc2 48d5 7cc2 61bc 7cc2
000002d0: 69a3 7cc2 618a 7cc2 4671 7cc2 1758 7cc2
000002e0: d23e 7cc2 7825 7cc2 050c 7cc2 7af2 7bc2
000002f0: d4d8 7bc2 12bf 7bc2 33a5 7bc2 358b 7bc2
00000300: 1f60 7ec2 9847 7ec2 162f 7ec2 9716 7ec2
00000310: 1cfe 7dc2 a2e5 7dc2 28cd 7dc2 adb4 7dc2
00000320: 309c 7dc2 b083 7dc2 2d6b 7dc2 a352 7dc2
00000330: 133a 7dc2 7c21 7dc2 db08 7dc2 31f0 7cc2
00000340: 7cd7 7cc2 babe 7cc2 eaa5 7cc2 0c8d 7cc2
00000350: 1e74 7cc2 1e5b 7cc2 0c42 7cc2 e628 7cc2
00000360: ac0f 7cc2 5af6 7bc2 f2dc 7bc2 70c3 7bc2
00000370: d4a9 7bc2 1c90 7bc2 4676 7bc2 525c 7bc2
00000380: 2630 7ec2 a717 7ec2 2dff 7dc2 b6e6 7dc2
00000390: 42ce 7dc2 d0b5 7dc2 5e9d 7dc2 ec84 7dc2
000003a0: 776c 7dc2 0054 7dc2 843b 7dc2 0323 7dc2
000003b0: 7b0a 7dc2 ecf1 7cc2 54d9 7cc2 b3c0 7cc2
000003c0: 06a8 7cc2 4d8f 7cc2 8676 7cc2 b05d 7cc2
000003d0: cb44 7cc2 d52b 7cc2 cc12 7cc2 aff9 7bc2
000003e0: 7ee0 7bc2 36c7 7bc2 d6ad 7bc2 5e94 7bc2
000003f0: cb7a 7bc2 1d61 7bc2 5147 7bc2 672d 7bc2

lon f4 [32, 32]
149.97469 150.11505 150.25499 150.39453 150.53369 150.67252 150.811 150.94922
151.08716 151.22487 151.36237 151.49968 151.63683 151.77385 151.91078 152.04762
152.18442 152.32118 152.45796 152.59476 152.73161 152.86855 153.00558 153.14276
153.2801 153.41762 153.55536 153.69333 153.83157 153.97012 154.10898 154.2482
149.93579 150.07596 150.2157 150.35503 150.49399 150.6326 150.77089 150.9089
151.04665 151.18414 151.32144 151.45856 151.59552 151.73235 151.86908 152.00574
152.14233 152.27892 152.4155 152.5521 152.68877 152.8255 152.96236 153.09935
153.2365 153.37383 153.51137 153.64915 153.78722 153.92557 154.06424 154.20328
149.89711 150.03706 150.17659 150.31572 150.45448 150.59288 150.73097 150.86879
151.00632 151.14363 151.28073 151.41765 151.55441 151.69106 151.82758 151.96404
152.10045 152.23683 152.37323 152.50964 152.64612 152.78267 152.91933 153.05612
153.19308 153.33023 153.46759 153.6052 153.74306 153.88123 154.01971 154.15855
149.85854 149.99828 150.1376 150.27652 150.41507 150.55328 150.69118 150.82878
150.96613 151.10323 151.24013 151.37685 151.51343 151.64986 151.78621 151.92247
152.05869 152.19487 152.33107 152.4673 152.60358 152.73994 152.87642 153.01303
153.1498 153.28676 153.42393 153.56134 153.69902 153.837 153.97531 154.11397
149.82005 149.9596 150.09871 150.23743 150.37578 150.51378 150.65147 150.78888
150.92603 151.06293 151.19963 151.33617 151.47253 151.60878 151.74493 151.881
152.01703 152.15303 152.28903 152.42506 152.56116 152.69734 152.83362 152.97005
153.10663 153.2434 153.38037 153.51761 153.6551 153.7929 153.93102 154.06949
149.78166 149.921 150.0599 150.19843 150.33656 150.47438 150.61186 150.74907
150.88602 151.02274 151.15924 151.29556 151.43175 151.5678 151.70375 151.83963
151.97546 152.11127 152.24709 152.38293 152.51884 152.65483 152.79092 152.92715
153.06355 153.20013 153.33693 153.47397 153.61128 153.74889 153.88683 154.0251
149.74338 149.8825 150.02122 150.15953 150.29747 150.43507 150.57237 150.70938
150.84612 150.98264 151.11896 151.25508 151.39107 151.52693 151.66269 151.79839
151.93402 152.06964 152.20528 152.34093 152.47664 152.61244 152.74835 152.8844
153.0206 153.157 153.29361 153.43047 153.5676 153.70502 153.84276 153.98087
149.70525 149.84416 149.98267 150.12077 150.25851 150.39592 150.53302 150.66983
150.80638 150.9427 151.07881 151.21475 151.35054 151.4862 151.62178 151.75728
151.89273 152.02817 152.1636 152.29907 152.4346 152.5702 152.70593 152.84178
152.9778 153.11401 153.25044 153.38712 153.52405 153.66129 153.79886 153.93677
00000000: 85f9 1543 741d 1643 4741 1643 0065 1643
00000010: a088 1643 2aac 1643 9ecf 1643 00f3 1643
00000020: 5016 1743 9139 1743 c45c 1743 eb7f 1743
00000030: 07a3 1743 1bc6 1743 29e9 1743 310c 1843
00000040: 362f 1843 3952 1843 3d75 1843 4298 1843
00000050: 4bbb 1843 59de 1843 6e01 1943 8c24 1943
00000060: b547 1943 e96a 1943 2c8e 1943 7eb1 1943
00000070: e2d4 1943 5af8 1943 e61b 1a43 8a3f 1a43
00000080: 90ef 1543 7213 1643 3837 1643 e35a 1643
00000090: 767e 1643 f2a1 1643 59c5 1643 aee8 1643
000000a0: f10b 1743 242f 1743 4a52 1743 6475 1743
000000b0: 7498 1743 7bbb 1743 7cde 1743 7801 1843
000000c0: 7024 1843 6747 1843 5e6a 1843 568d 1843
000000d0: 53b0 1843 54d3 1843 5df6 1843 6f19 1943
000000e0: 8b3c 1943 b35f 1943 e982 1943 2fa6 1943
000000f0: 87c9 1943 f2ec 1943 7210 1a43 0a34 1a43
00000100: a9e5 1543 7d09 1643 352d 1643 d350 1643
00000110: 5974 1643 c797 1643 21bb 1643 69de 1643
00000120: 9e01 1743 c524 1743 de47 1743 eb6a 1743
00000130: ee8d 1743 e9b0 1743 dcd3 1743 cbf6 1743
00000140: b719 1843 a13c 1843 8c5f 1843 7882 1843
00000150: 68a5 1843 5dc8 1843 59eb 1843 5e0e 1943
00000160: 6e31 1943 8a54 1943 b477 1943 ee9a 1943
00000170: 39be 1943 98e1 1943 0c05 1a43 9728 1a43
00000180: c9db 1543 8fff 1543 3a23 1643 ca46 1643
00000190: 426a 1643 a48d 1643 f1b0 1643 2bd4 1643
000001a0: 54f7 1643 6d1a 1743 793d 1743 7960 1743
000001b0: 7083 1743 5da6 1743 45c9 1743 27ec 1743
000001c0: 060f 1843 e331 1843 c154 1843 a177 1843
000001d0: 849a 1843 6dbd 1843 5de0 1843 5603 1943
000001e0: 5926 1943 6949 1943 876c 1943 b48f 1943
000001f0: f3b2 1943 46d6 1943 aef9 1943 2d1d 1a43
00000200: efd1 1543 a8f5 1543 4519 1643 c83c 1643
00000210: 3360 1643 8783 1643 c7a6 1643 f4c9 1643
00000220: 10ed 1643 1c10 1743 1b33 1743 0f56 1743
00000230: f878 1743 d99b 1743 b4be 1743 89e1 1743
00000240: 5c04 1843 2d27 1843 fe49 1843 d16c 1843
00000250: a88f 1843 85b2 1843 68d5 1843 55f8 1843
00000260: 4c1b 1943 4f3e 1943 6061 1943 8284 1943
00000270: b5a7 1943 fbca 1943 57ee 1943 ca11 1a43
00000280: 1bc8 1543 c7eb 1543 560f 1643 cc32 1643
00000290: 2956 1643 7179 1643 a39c 1643 c3bf 1643
000002a0: d2e2 1643 d205 1743 c428 1743 aa4b 1743
000002b0: 876e 1743 5b91 1743 29b4 1743 f2d6 1743
000002c0: b8f9 1743 7c1c 1843 413f 1843 0862 1843
000002d0: d384 1843 a3a7 1843 7aca 1843 5aed 1843
000002e0: 4510 1943 3c33 1943 4156 1943 5679 1943
000002f0: 7d9c 1943 b7bf 1943 07e3 1943 6d06 1a43
00000300: 4ebe 1543 ece1 1543 6f05 1643 d728 1643
00000310: 274c 1643 616f 1643 8792 1643 9ab5 1643
00000320: 9bd8 1643 8efb 1643 741e 1743 4d41 1743
00000330: 1d64 1743 e586 1743 a6a9 1743 63cc 1743
00000340: 1cef 1743 d411 1843 8d34 1843 4757 1843
00000350: 057a 1843 c99c 1843 94bf 1843 68e2 1843
00000360: 4605 1943 3128 1943 2a4b 1943 336e 1943
00000370: 4e91 1943 7cb4 1943 bfd7 1943 1afb 1943
00000380: 8bb4 1543 1bd8 1543 90fb 1543 eb1e 1643
00000390: 2e42 1643 5b65 1643 7488 1643 7aab 1643
000003a0: 6fce 1643 55f1 1643 2d14 1743 fa36 1743
000003b0: bd59 1743 787c 1743 2d9f 1743 ddc1 1743
000003c0: 8ae4 1743 3607 1843 e229 1843 904c 1843
000003d0: 426f 1843 f991 1843 b8b4 1843 7fd7 1843
000003e0: 51fa 1843 301d 1943 1d40 1943 1a63 1943
000003f0: 2886 1943 4aa9 1943 82cc 1943 d0ef 1943

qa f4 [32, 32]
0.0 0.0 0.0 0.0 0.0 0.0 0.0 0.0
0.0 0.0 0.0 0.0 0.0 0.0 0.0 0.0
0.0 0.0 0.0 0.0 0.0 0.0 0.0 0.0
0.0 0.0 0.0 0.0 0.0 0.0 0.0 0.0
0.0 0.0 0.0 0.0 0.0 0.0 0.0 0.0
0.0 0.0 0.0 0.0 0.0 0.0 0.0 0.0
0.0 0.0 0.0 0.0 0.0 0.0 0.0 0.0
0.0 0.0 0.0 0.0 0.0 0.0 0.0 0.0
0.0 0.0 0.0 0.0 0.0 0.0 0.0 0.0
0.0 0.0 0.0 0.0 0.0 0.0 0.0 0.0
0.0 0.0 0.0 0.0 0.0 0.0 0.0 0.0
0.0 0.0 0.0 0.0 0.0 0.0 0.0 0.0
0.0 0.0 0.0 0.0 0.0 0.0 0.0 0.0
0.0 0.0 0.0 0.0 0.0 0.0 0.0 0.0
0.0 0.0 0.0 0.0 0.0 0.0 0.0 0.0
0.0 0.0 0.0 0.0 0.0 0.0 0.0 0.0
0.0 0.0 0.0 0.0 0.0 0.0 0.0 0.0
0.0 0.0 0.0 0.0 0.0 0.0 0.0 0.0
0.0 0.0 0.0 0.0 0.0 0.0 0.0 0.0
0.0 0.0 0.0 0.0 0.0 0.0 0.0 0.0
0.0 0.0 0.0 0.0 0.0 0.0 0.0 0.0
0.0 0.0 0.0 0.0 0.0 0.0 0.0 0.0
0.0 0.0 0.0 0.0 0.0 0.0 0.0 0.0
0.0 0.0 0.0 0.0 0.0 0.0 0.0 0.0
0.0 0.0 0.0 0.0 0.0 0.0 0.0 0.0
0.0 0.0 0.0 0.0 0.0 0.0 0.0 0.0
0.0 0.0 0.0 0.0 0.0 0.0 0.0 0.0
0.0 0.0 0.0 0.0 0.0 0.0 0.0 0.0
0.0 0.0 0.0 0.0 0.0 0.0 0.0 0.0
0.0 0.0 0.0 0.0 0.0 0.0 0.0 0.0
0.0 0.0 0.0 0.0 0.0 0.0 0.0 0.0
0.0 0.0 0.0 0.0 0.0 0.0 0.0 0.0
00000000: 0000 0000 0000 0000 0000 0000 0000 0000
00000010: 0000 0000 0000 0000 0000 0000 0000 0000
00000020: 0000 0000 0000 0000 0000 0000 0000 0000
00000030: 0000 0000 0000 0000 0000 0000 0000 0000
00000040: 0000 0000 0000 0000 0000 0000 0000 0000
00000050: 0000 0000 0000 0000 0000 0000 0000 0000
00000060: 0000 0000 0000 0000 0000 0000 0000 0000
00000070: 0000 0000 0000 0000 0000 0000 0000 0000
00000080: 0000 0000 0000 0000 0000 0000 0000 0000
00000090: 0000 0000 0000 0000 0000 0000 0000 0000
000000a0: 0000 0000 0000 0000 0000 0000 0000 0000
000000b0: 0000 0000 0000 0000 0000 0000 0000 0000
000000c0: 0000 0000 0000 0000 0000 0000 0000 0000
000000d0: 0000 0000 0000 0000 0000 0000 0000 0000
000000e0: 0000 0000 0000 0000 0000 0000 0000 0000
000000f0: 0000 0000 0000 0000 0000 0000 0000 0000
00000100: 0000 0000 0000 0000 0000 0000 0000 0000
00000110: 0000 0000 0000 0000 0000 0000 0000 0000
00000120: 0000 0000 0000 0000 0000 0000 0000 0000
00000130: 0000 0000 0000 0000 0000 0000 0000 0000
00000140: 0000 0000 0000 0000 0000 0000 0000 0000
00000150: 0000 0000 0000 0000 0000 0000 0000 0000
00000160: 0000 0000 0000 0000 0000 0000 0000 0000
00000170: 0000 0000 0000 0000 0000 0000 0000 0000
00000180: 0000 0000 0000 0000 0000 0000 0000 0000
00000190: 0000 0000 0000 0000 0000 0000 0000 0000
000001a0: 0000 0000 0000 0000 0000 0000 0000 0000
000001b0: 0000 0000 0000 0000 0000 0000 0000 0000
000001c0: 0000 0000 0000 0000 0000 0000 0000 0000
000001d0: 0000 0000 0000 0000 0000 0000 0000 0000
000001e0: 0000 0000 0000 0000 0000 0000 0000 0000
000001f0: 0000 0000 0000 0000 0000 0000 0000 0000
00000200: 0000 0000 0000 0000 0000 0000 0000 0000
00000210: 0000 0000 0000 0000 0000 0000 0000 0000
00000220: 0000 0000 0000 0000 0000 0000 0000 0000
00000230: 0000 0000 0000 0000 0000 0000 0000 0000
00000240: 0000 0000 0000 0000 0000 0000 0000 0000
00000250: 0000 0000 0000 0000 0000 0000 0000 0000
00000260: 0000 0000 0000 0000 0000 0000 0000 0000
00000270: 0000 0000 0000 0000 0000 0000 0000 0000
00000280: 0000 0000 0000 0000 0000 0000 0000 0000
00000290: 0000 0000 0000 0000 0000 0000 0000 0000
000002a0: 0000 0000 0000 0000 0000 0000 0000 0000
000002b0: 0000 0000 0000 0000 0000 0000 0000 0000
000002c0: 0000 0000 0000 0000 0000 0000 0000 0000
000002d0: 0000 0000 0000 0000 0000 0000 0000 0000
000002e0: 0000 0000 0000 0000 0000 0000 0000 0000
000002f0: 0000 0000 0000 0000 0000 0000 0000 0000
00000300: 0000 0000 0000 0000 0000 0000 0000 0000
00000310: 0000 0000 0000 0000 0000 0000 0000 0000
00000320: 0000 0000 0000 0000 0000 0000 0000 0000
00000330: 0000 0000 0000 0000 0000 0000 0000 0000
00000340: 0000 0000 0000 0000 0000 0000 0000 0000
00000350: 0000 0000 0000 0000 0000 0000 0000 0000
00000360: 0000 0000 0000 0000 0000 0000 0000 0000
00000370: 0000 0000 0000 0000 0000 0000 0000 0000
00000380: 0000 0000 0000 0000 0000 0000 0000 0000
00000390: 0000 0000 0000 0000 0000 0000 0000 0000
000003a0: 0000 0000 0000 0000 0000 0000 0000 0000
000003b0: 0000 0000 0000 0000 0000 0000 0000 0000
000003c0: 0000 0000 0000 0000 0000 0000 0000 0000
000003d0: 0000 0000 0000 0000 0000 0000 0000 0000
000003e0: 0000 0000 0000 0000 0000 0000 0000 0000
000003f0: 0000 0000 0000 0000 0000 0000 0000 0000
