data/dataset/negative/b76e4225-1eb9-40fe-9d6b-3d890fa00df6.npz (npz, 23743 bytes, 4 tensors)

methane f8 [32, 32]
0	0x479e000000000000	9.969209968386869e+36
1	0x479e000000000000	9.969209968386869e+36
2	0x479e000000000000	9.969209968386869e+36
3	0x479e000000000000	9.969209968386869e+36
4	0x479e000000000000	9.969209968386869e+36
5	0x479e000000000000	9.969209968386869e+36
6	0x479e000000000000	9.969209968386869e+36
7	0x479e000000000000	9.969209968386869e+36
8	0x479e000000000000	9.969209968386869e+36
9	0x479e000000000000	9.969209968386869e+36
10	0x479e000000000000	9.969209968386869e+36
11	0x479e000000000000	9.969209968386869e+36
12	0x479e000000000000	9.969209968386869e+36
13	0x479e000000000000	9.969209968386869e+36
14	0x479e000000000000	9.969209968386869e+36
15	0x479e000000000000	9.969209968386869e+36
16	0x479e000000000000	9.969209968386869e+36
17	0x479e000000000000	9.969209968386869e+36
18	0x479e000000000000	9.969209968386869e+36
19	0x479e000000000000	9.969209968386869e+36
20	0x479e000000000000	9.969209968386869e+36
21	0x479e000000000000	9.969209968386869e+36
22	0x479e000000000000	9.969209968386869e+36
23	0x479e000000000000	9.969209968386869e+36
24	0x479e000000000000	9.969209968386869e+36
25	0x479e000000000000	9.969209968386869e+36
26	0x479e000000000000	9.969209968386869e+36
27	0x479e000000000000	9.969209968386869e+36
28	0x479e000000000000	9.969209968386869e+36
29	0x479e000000000000	9.969209968386869e+36
30	0x479e000000000000	9.969209968386869e+36
31	0x479e000000000000	9.969209968386869e+36
32	0x479e000000000000	9.969209968386869e+36
33	0x479e000000000000	9.969209968386869e+36
34	0x479e000000000000	9.969209968386869e+36
35	0x479e000000000000	9.969209968386869e+36
36	0x479e000000000000	9.969209968386869e+36
37	0x479e000000000000	9.969209968386869e+36
38	0x479e000000000000	9.969209968386869e+36
39	0x479e000000000000	9.969209968386869e+36
40	0x479e000000000000	9.969209968386869e+36
41	0x479e000000000000	9.969209968386869e+36
42	0x479e000000000000	9.969209968386869e+36
43	0x479e000000000000	9.969209968386869e+36
44	0x479e000000000000	9.969209968386869e+36
45	0x479e000000000000	9.969209968386869e+36
46	0x479e000000000000	9.969209968386869e+36
47	0x479e000000000000	9.969209968386869e+36
48	0x479e000000000000	9.969209968386869e+36
49	0x479e000000000000	9.969209968386869e+36
50	0x479e000000000000	9.969209968386869e+36
51	0x479e000000000000	9.969209968386869e+36
52	0x479e000000000000	9.969209968386869e+36
53	0x479e000000000000	9.969209968386869e+36
54	0x479e000000000000	9.969209968386869e+36
55	0x479e000000000000	9.969209968386869e+36
56	0x479e000000000000	9.969209968386869e+36
57	0x479e000000000000	9.969209968386869e+36
58	0x479e000000000000	9.969209968386869e+36
59	0x479e000000000000	9.969209968386869e+36
60	0x479e000000000000	9.969209968386869e+36
61	0x479e000000000000	9.969209968386869e+36
62	0x479e000000000000	9.969209968386869e+36
63	0x479e000000000000	9.969209968386869e+36
64	0x479e000000000000	9.969209968386869e+36
65	0x479e000000000000	9.969209968386869e+36
66	0x479e000000000000	9.969209968386869e+36
67	0x479e000000000000	9.969209968386869e+36
68	0x479e000000000000	9.969209968386869e+36
69	0x479e000000000000	9.969209968386869e+36
70	0x479e000000000000	9.969209968386869e+36
71	0x479e000000000000	9.969209968386869e+36
72	0x479e000000000000	9.969209968386869e+36
73	0x479e000000000000	9.969209968386869e+36
74	0x479e000000000000	9.969209968386869e+36
75	0x479e000000000000	9.969209968386869e+36
76	0x479e000000000000	9.969209968386869e+36
77	0x479e000000000000	9.969209968386869e+36
78	0x479e000000000000	9.969209968386869e+36
79	0x479e000000000000	9.969209968386869e+36
80	0x479e000000000000	9.969209968386869e+36
81	0x479e000000000000	9.969209968386869e+36
82	0x479e000000000000	9.969209968386869e+36
83	0x479e000000000000	9.969209968386869e+36
84	0x479e000000000000	9.969209968386869e+36
85	0x479e000000000000	9.969209968386869e+36
86	0x479e000000000000	9.969209968386869e+36
87	0x479e000000000000	9.969209968386869e+36
88	0x479e000000000000	9.969209968386869e+36
89	0x479e000000000000	9.969209968386869e+36
90	0x479e000000000000	9.969209968386869e+36
91	0x479e000000000000	9.969209968386869e+36
92	0x479e000000000000	9.969209968386869e+36
93	0x479e000000000000	9.969209968386869e+36
94	0x479e000000000000	9.969209968386869e+36
95	0x479e000000000000	9.969209968386869e+36
96	0x479e000000000000	9.969209968386869e+36
97	0x479e000000000000	9.969209968386869e+36
98	0x479e000000000000	9.969209968386869e+36
99	0x479e000000000000	9.969209968386869e+36
100	0x479e000000000000	9.969209968386869e+36
101	0x479e000000000000	9.969209968386869e+36
102	0x479e000000000000	9.969209968386869e+36
103	0x479e000000000000	9.969209968386869e+36
104	0x479e000000000000	9.969209968386869e+36
105	0x479e000000000000	9.969209968386869e+36
106	0x479e000000000000	9.969209968386869e+36
107	0x479e000000000000	9.969209968386869e+36
108	0x479e000000000000	9.969209968386869e+36
109	0x479e000000000000	9.969209968386869e+36
110	0x479e000000000000	9.969209968386869e+36
111	0x479e000000000000	9.969209968386869e+36
112	0x479e000000000000	9.969209968386869e+36
113	0x479e000000000000	9.969209968386869e+36
114	0x479e000000000000	9.969209968386869e+36
115	0x479e000000000000	9.969209968386869e+36
116	0x479e000000000000	9.969209968386869e+36
117	0x479e000000000000	9.969209968386869e+36
118	0x479e000000000000	9.969209968386869e+36
119	0x479e000000000000	9.969209968386869e+36
120	0x479e000000000000	9.969209968386869e+36
121	0x479e000000000000	9.969209968386869e+36
122	0x479e000000000000	9.969209968386869e+36
123	0x479e000000000000	9.969209968386869e+36
124	0x479e000000000000	9.969209968386869e+36
125	0x479e000000000000	9.969209968386869e+36
126	0x479e000000000000	9.969209968386869e+36
127	0x479e000000000000	9.969209968386869e+36
128	0x479e000000000000	9.969209968386869e+36
129	0x479e000000000000	9.969209968386869e+36
130	0x479e000000000000	9.969209968386869e+36
131	0x479e000000000000	9.969209968386869e+36
132	0x479e000000000000	9.969209968386869e+36
133	0x479e000000000000	9.969209968386869e+36
134	0x479e000000000000	9.969209968386869e+36
135	0x479e000000000000	9.969209968386869e+36
136	0x479e000000000000	9.969209968386869e+36
137	0x479e000000000000	9.969209968386869e+36
138	0x479e000000000000	9.969209968386869e+36
139	0x479e000000000000	9.969209968386869e+36
140	0x479e000000000000	9.969209968386869e+36
141	0x479e000000000000	9.969209968386869e+36
142	0x479e000000000000	9.969209968386869e+36
143	0x479e000000000000	9.969209968386869e+36
144	0x479e000000000000	9.969209968386869e+36
145	0x479e000000000000	9.969209968386869e+36
146	0x479e000000000000	9.969209968386869e+36
147	0x479e000000000000	9.969209968386869e+36
148	0x479e000000000000	9.969209968386869e+36
149	0x479e000000000000	9.969209968386869e+36
150	0x479e000000000000	9.969209968386869e+36
151	0x479e000000000000	9.969209968386869e+36
152	0x479e000000000000	9.969209968386869e+36
153	0x479e000000000000	9.969209968386869e+36
154	0x479e000000000000	9.969209968386869e+36
155	0x479e000000000000	9.969209968386869e+36
156	0x479e000000000000	9.969209968386869e+36
157	0x479e000000000000	9.969209968386869e+36
158	0x479e000000000000	9.969209968386869e+36
159	0x479e000000000000	9.969209968386869e+36
160	0x479e000000000000	9.969209968386869e+36
161	0x479e000000000000	9.969209968386869e+36
162	0x479e000000000000	9.969209968386869e+36
163	0x479e000000000000	9.969209968386869e+36
164	0x479e000000000000	9.969209968386869e+36
165	0x479e000000000000	9.969209968386869e+36
166	0x479e000000000000	9.969209968386869e+36
167	0x479e000000000000	9.969209968386869e+36
168	0x479e000000000000	9.969209968386869e+36
169	0x479e000000000000	9.969209968386869e+36
170	0x479e000000000000	9.969209968386869e+36
171	0x479e000000000000	9.969209968386869e+36
172	0x479e000000000000	9.969209968386869e+36
173	0x479e000000000000	9.969209968386869e+36
174	0x479e000000000000	9.969209968386869e+36
175	0x479e000000000000	9.969209968386869e+36
176	0x479e000000000000	9.969209968386869e+36
177	0x479e000000000000	9.969209968386869e+36
178	0x479e000000000000	9.969209968386869e+36
179	0x479e000000000000	9.969209968386869e+36
180	0x479e000000000000	9.969209968386869e+36
181	0x479e000000000000	9.969209968386869e+36
182	0x479e000000000000	9.969209968386869e+36
183	0x479e000000000000	9.969209968386869e+36
184	0x479e000000000000	9.969209968386869e+36
185	0x479e000000000000	9.969209968386869e+36
186	0x479e000000000000	9.969209968386869e+36
187	0x479e000000000000	9.969209968386869e+36
188	0x479e000000000000	9.969209968386869e+36
189	0x479e000000000000	9.969209968386869e+36
190	0x479e000000000000	9.969209968386869e+36
191	0x479e000000000000	9.969209968386869e+36
192	0x479e000000000000	9.969209968386869e+36
193	0x479e000000000000	9.969209968386869e+36
194	0x479e000000000000	9.969209968386869e+36
195	0x479e000000000000	9.969209968386869e+36
196	0x479e000000000000	9.969209968386869e+36
197	0x479e000000000000	9.969209968386869e+36
198	0x479e000000000000	9.969209968386869e+36
199	0x479e000000000000	9.969209968386869e+36
200	0x479e000000000000	9.969209968386869e+36
201	0x479e000000000000	9.969209968386869e+36
202	0x479e000000000000	9.969209968386869e+36
203	0x479e000000000000	9.969209968386869e+36
204	0x479e000000000000	9.969209968386869e+36
205	0x479e000000000000	9.969209968386869e+36
206	0x479e000000000000	9.969209968386869e+36
207	0x479e000000000000	9.969209968386869e+36
208	0x479e000000000000	9.969209968386869e+36
209	0x479e000000000000	9.969209968386869e+36
210	0x479e000000000000	9.969209968386869e+36
211	0x479e000000000000	9.969209968386869e+36
212	0x479e000000000000	9.969209968386869e+36
213	0x479e000000000000	9.969209968386869e+36
214	0x479e000000000000	9.969209968386869e+36
215	0x479e000000000000	9.969209968386869e+36
216	0x479e000000000000	9.969209968386869e+36
217	0x479e000000000000	9.969209968386869e+36
218	0x479e000000000000	9.969209968386869e+36
219	0x479e000000000000	9.969209968386869e+36
220	0x479e000000000000	9.969209968386869e+36
221	0x479e000000000000	9.969209968386869e+36
222	0x479e000000000000	9.969209968386869e+36
223	0x479e000000000000	9.969209968386869e+36
224	0x479e000000000000	9.969209968386869e+36
225	0x479e000000000000	9.969209968386869e+36
226	0x479e000000000000	9.969209968386869e+36
227	0x479e000000000000	9.969209968386869e+36
228	0x479e000000000000	9.969209968386869e+36
229	0x479e000000000000	9.969209968386869e+36
230	0x479e000000000000	9.969209968386869e+36
231	0x479e000000000000	9.969209968386869e+36
232	0x479e000000000000	9.969209968386869e+36
233	0x479e000000000000	9.969209968386869e+36
234	0x479e000000000000	9.969209968386869e+36
235	0x479e000000000000	9.969209968386869e+36
236	0x479e000000000000	9.969209968386869e+36
237	0x479e000000000000	9.969209968386869e+36
238	0x479e000000000000	9.969209968386869e+36
239	0x479e000000000000	9.969209968386869e+36
240	0x479e000000000000	9.969209968386869e+36
241	0x479e000000000000	9.969209968386869e+36
242	0x479e000000000000	9.969209968386869e+36
243	0x479e000000000000	9.969209968386869e+36
244	0x479e000000000000	9.969209968386869e+36
245	0x479e000000000000	9.969209968386869e+36
246	0x479e000000000000	9.969209968386869e+36
247	0x479e000000000000	9.969209968386869e+36
248	0x479e000000000000	9.969209968386869e+36
249	0x479e000000000000	9.969209968386869e+36
250	0x479e000000000000	9.969209968386869e+36
251	0x479e000000000000	9.969209968386869e+36
252	0x479e000000000000	9.969209968386869e+36
253	0x479e000000000000	9.969209968386869e+36
254	0x479e000000000000	9.969209968386869e+36
255	0x479e000000000000	9.969209968386869e+36

lat f4 [32, 32]
0	0x3fce7845	1.6130453
1	0x3fd07540	1.6285782
2	0x3fd26da2	1.6439707
3	0x3fd4618c	1.6592269
4	0x3fd65118	1.6743498
5	0x3fd83c64	1.689343
6	0x3fda238b	1.7042097
7	0x3fdc06a6	1.7189529
8	0x3fdde5d0	1.7335758
9	0x3fdfc122	1.7480814
10	0x3fe198b3	1.7624725
11	0x3fe36c9b	1.7767519
12	0x3fe53cf0	1.7909222
13	0x3fe709ca	1.8049862
14	0x3fe8d33c	1.8189464
15	0x3fea995c	1.8328052
16	0x3fec5c3e	1.846565
17	0x3fee1bf5	1.8602282
18	0x3fefd895	1.873797
19	0x3ff1922f	1.8872737
20	0x3ff348d6	1.9006603
21	0x3ff4fc9a	1.9139588
22	0x3ff6ad8d	1.9271713
23	0x3ff85bbd	1.9402996
24	0x3ffa073c	1.9533458
25	0x3ffbb018	1.9663115
26	0x3ffd5660	1.9791985
27	0x3ffefa23	1.9920086
28	0x40004db6	2.004743
29	0x40011d26	2.017404
30	0x4001eb67	2.0299928
31	0x4002b87e	2.0425105
32	0x3fd4ca84	1.6624303
33	0x3fd6c783	1.6779636
34	0x3fd8bfeb	1.6933569
35	0x3fdab3d9	1.7086135
36	0x3fdca369	1.7237369
37	0x3fde8eb9	1.7387305
38	0x3fe075e2	1.7535975
39	0x3fe25900	1.7683411
40	0x3fe4382c	1.7829642
41	0x3fe6137e	1.7974699
42	0x3fe7eb10	1.811861
43	0x3fe9bef8	1.8261404
44	0x3feb8f4e	1.8403108
45	0x3fed5c26	1.8543746
46	0x3fef2598	1.8683348
47	0x3ff0ebb6	1.8821933
48	0x3ff2ae96	1.8959529
49	0x3ff46e4b	1.9096159
50	0x3ff62ae7	1.9231843
51	0x3ff7e47e	1.9366605
52	0x3ff99b20	1.9500465
53	0x3ffb4ee0	1.9633446
54	0x3ffcffcd	1.9765564
55	0x3ffeadf9	1.9896842
56	0x40002cb9	2.0027297
57	0x40010123	2.0156944
58	0x4001d444	2.0285807
59	0x4002a621	2.0413897
60	0x400376c2	2.0541234
61	0x4004462d	2.0667832
62	0x40051469	2.0793707
63	0x4005e17c	2.0918875
64	0x3fdb1c6b	1.7118047
65	0x3fdd1970	1.7273388
66	0x3fdf11dc	1.7427325
67	0x3fe105cd	1.7579895
68	0x3fe2f561	1.7731134
69	0x3fe4e0b3	1.7881073
70	0x3fe6c7df	1.8029746
71	0x3fe8aaff	1.8177184
72	0x3fea8a2c	1.8323417
73	0x3fec6580	1.8468475
74	0x3fee3d12	1.8612387
75	0x3ff010fa	1.8755181
76	0x3ff1e14f	1.8896884
77	0x3ff3ae27	1.9037522
78	0x3ff57797	1.9177121
79	0x3ff73db3	1.9315704
80	0x3ff90091	1.9453298
81	0x3ffac042	1.9589922
82	0x3ffc7cdb	1.9725603
83	0x3ffe366e	1.9860361
84	0x3fffed0c	1.9994216
85	0x4000d063	2.012719
86	0x4001a8d7	2.0259302
87	0x40027fea	2.0390573
88	0x400355a3	2.0521019
89	0x40042a0a	2.0650659
90	0x4004fd27	2.0779512
91	0x4005cf00	2.0907593
92	0x40069f9d	2.103492
93	0x40076f03	2.1161506
94	0x40083d3a	2.128737
95	0x40090a48	2.1412525
96	0x3fe16e42	1.7611773
97	0x3fe36b4c	1.776712
98	0x3fe563be	1.7921064
99	0x3fe757b5	1.8073641
100	0x3fe9474d	1.8224884
101	0x3feb32a4	1.8374829
102	0x3fed19d3	1.8523506
103	0x3feefcf6	1.8670948
104	0x3ff0dc26	1.8817184
105	0x3ff2b77c	1.8962245
106	0x3ff48f10	1.9106159
107	0x3ff662f9	1.9248954
108	0x3ff8334f	1.9390658
109	0x3ffa0026	1.9531295
110	0x3ffbc996	1.9670894
111	0x3ffd8fb2	1.9809477
112	0x3fff528e	1.9947069
113	0x4000891f	2.0083692
114	0x4001676a	2.021937
115	0x40024432	2.0354123
116	0x40031f80	2.0487976
117	0x4003f95b	2.0620944
118	0x4004d1cd	2.0753052
119	0x4005a8dd	2.0884316
120	0x40067e93	2.1014755
121	0x400752f8	2.114439
122	0x40082611	2.1273234
123	0x4008f7e7	2.1401308
124	0x4009c87f	2.1528623
125	0x400a97e2	2.1655202
126	0x400b6615	2.1781056
127	0x400c331e	2.19062
128	0x3fe7c0c6	1.8105705
129	0x3fe9bdd7	1.826106
130	0x3febb64e	1.841501
131	0x3fedaa49	1.8567592
132	0x3fef99e6	1.8718841
133	0x3ff18540	1.886879
134	0x3ff36c73	1.9017471
135	0x3ff54f99	1.9164916
136	0x3ff72ecb	1.9311155
137	0x3ff90a23	1.9456218
138	0x3ffae1b8	1.9600134
139	0x3ffcb5a2	1.974293
140	0x3ffe85f8	1.9884634
141	0x40002968	2.0025272
142	0x40010e20	2.0164871
143	0x4001f12d	2.0303452
144	0x4002d29a	2.044104
145	0x4003b271	2.0577662
146	0x400490bb	2.0713336
147	0x40056d82	2.0848088
148	0x400648cd	2.0981934
149	0x400722a7	2.11149
150	0x4007fb16	2.1247
151	0x4008d224	2.137826
152	0x4009a7d7	2.1508691
153	0x400a7c39	2.163832
154	0x400b4f4f	2.1767156
155	0x400c2121	2.189522
156	0x400cf1b6	2.2022529
157	0x400dc114	2.2149096
158	0x400e8f42	2.2274938
159	0x400f5c47	2.2400072
160	0x3fee1347	1.8599633
161	0x3ff0105d	1.8754994
162	0x3ff208d8	1.8908949
163	0x3ff3fcd8	1.9061537
164	0x3ff5ec79	1.9212791
165	0x3ff7d7d6	1.9362743
166	0x3ff9bf0c	1.9511428
167	0x3ffba234	1.9658875
168	0x3ffd8168	1.9805117
169	0x3fff5cc1	1.9950181
170	0x40009a2c	2.00941
171	0x40018421	2.0236895
172	0x40026c4c	2.03786
173	0x400352b7	2.0519235
174	0x4004376e	2.0658832
175	0x40051a7b	2.0797412
176	0x4005fbe7	2.0935
177	0x4006dbbd	2.1071618
178	0x4007ba05	2.1207287
179	0x400896ca	2.1342034
180	0x40097213	2.1475875
181	0x400a4beb	2.1608837
182	0x400b2457	2.174093
183	0x400bfb62	2.1872182
184	0x400cd113	2.2002609
185	0x400da571	2.2132227
186	0x400e7883	2.2261055
187	0x400f4a51	2.238911
188	0x40101ae2	2.2516408
189	0x4010ea3c	2.2642965
190	0x4011b866	2.2768798
191	0x40128565	2.2893918
192	0x3ff46536	1.9093387
193	0x3ff66251	1.9248754
194	0x3ff85ad2	1.9402716
195	0x3ffa4ed7	1.955531
196	0x3ffc3e7b	1.9706568
197	0x3ffe29dd	1.9856526
198	0x4000088b	2.0005214
199	0x4000fa20	2.0152664
200	0x4001e9bb	2.0298908
201	0x4002d769	2.0443976
202	0x4003c334	2.0587893
203	0x4004ad2a	2.073069
204	0x40059555	2.0872395
205	0x40067bc1	2.1013033
206	0x40076077	2.1152627
207	0x40084383	2.1291206
208	0x400924ee	2.142879
209	0x400a04c3	2.1565406
210	0x400ae30a	2.1701074
211	0x400bbfcd	2.1835816
212	0x400c9b15	2.1969655
213	0x400d74ea	2.2102609
214	0x400e4d54	2.2234697
215	0x400f245d	2.2365944
216	0x400ffa0a	2.2496362
217	0x4010ce65	2.2625973
218	0x4011a174	2.2754793
219	0x4012733f	2.288284
220	0x401343cb	2.3010128
221	0x40141321	2.3136675
222	0x4014e146	2.3262496
223	0x4015ae41	2.3387606
224	0x3ffab6de	1.9587057
225	0x3ffcb400	1.9742432
226	0x3ffeac87	1.9896401
227	0x40005049	2.0049002
228	0x4001481e	2.0200267
229	0x40023dd1	2.035023
230	0x40033170	2.0498924
231	0x40042307	2.064638
232	0x400512a4	2.0792627
233	0x40060053	2.0937698
234	0x4006ec20	2.108162
235	0x4007d616	2.1224418
236	0x4008be42	2.1366124
237	0x4009a4ae	2.1506763
238	0x400a8965	2.164636
239	0x400b6c71	2.1784937
240	0x400c4ddc	2.1922522
241	0x400d2db0	2.2059135
242	0x400e0bf6	2.21948
243	0x400ee8b8	2.232954
244	0x400fc3ff	2.2463377
245	0x40109dd2	2.2596326
246	0x4011763b	2.2728412
247	0x40124d41	2.2859652
248	0x401322ec	2.2990065
249	0x4013f744	2.311967
250	0x4014ca50	2.3248482
251	0x40159c18	2.3376522
252	0x40166ca1	2.3503802
253	0x40173bf3	2.363034
254	0x40180a14	2.3756151
255	0x4018d70b	2.3881252

lon f4 [32, 32]
0	0xc1c266bd	-24.300165
1	0xc1c1e5c5	-24.237192
2	0xc1c16502	-24.17432
3	0xc1c0e46e	-24.111538
4	0xc1c06401	-24.04883
5	0xc1bfe3b6	-23.986187
6	0xc1bf6387	-23.923597
7	0xc1bee36d	-23.861048
8	0xc1be6362	-23.798527
9	0xc1bde360	-23.736023
10	0xc1bd6361	-23.673525
11	0xc1bce35f	-23.611021
12	0xc1bc6353	-23.548498
13	0xc1bbe337	-23.485945
14	0xc1bb6305	-23.42335
15	0xc1bae2b8	-23.360703
16	0xc1ba6248	-23.297989
17	0xc1b9e1b0	-23.235199
18	0xc1b960e9	-23.17232
19	0xc1b8dfed	-23.109339
20	0xc1b85eb6	-23.046246
21	0xc1b7dd3d	-22.983027
22	0xc1b75b7c	-22.91967
23	0xc1b6d96c	-22.856163
24	0xc1b65707	-22.792494
25	0xc1b5d446	-22.72865
26	0xc1b55122	-22.664616
27	0xc1b4cd95	-22.600382
28	0xc1b44998	-22.535934
29	0xc1b3c523	-22.471258
30	0xc1b34030	-22.406342
31	0xc1b2bab7	-22.34117
32	0xc1c27d67	-24.311232
33	0xc1c1fc6f	-24.248259
34	0xc1c17bac	-24.185387
35	0xc1c0fb17	-24.122602
36	0xc1c07aaa	-24.059895
37	0xc1bffa5e	-23.99725
38	0xc1bf7a2e	-23.934658
39	0xc1befa14	-23.872108
40	0xc1be7a08	-23.809586
41	0xc1bdfa06	-23.747082
42	0xc1bd7a06	-23.684582
43	0xc1bcfa03	-23.622076
44	0xc1bc79f6	-23.559551
45	0xc1bbf9da	-23.496998
46	0xc1bb79a8	-23.434402
47	0xc1baf95a	-23.371754
48	0xc1ba78e9	-23.309038
49	0xc1b9f851	-23.246248
50	0xc1b97789	-23.183367
51	0xc1b8f68c	-23.120384
52	0xc1b87554	-23.05729
53	0xc1b7f3db	-22.99407
54	0xc1b77219	-22.930712
55	0xc1b6f008	-22.867203
56	0xc1b66da2	-22.803532
57	0xc1b5eae0	-22.739685
58	0xc1b567bc	-22.675652
59	0xc1b4e42e	-22.611416
60	0xc1b46030	-22.546967
61	0xc1b3dbba	-22.482288
62	0xc1b356c6	-22.41737
63	0xc1b2d14d	-22.352198
64	0xc1c29406	-24.322277
65	0xc1c2130d	-24.259302
66	0xc1c1924a	-24.19643
67	0xc1c111b4	-24.133644
68	0xc1c09146	-24.070934
69	0xc1c010fa	-24.00829
70	0xc1bf90ca	-23.945698
71	0xc1bf10af	-23.883146
72	0xc1be90a3	-23.820623
73	0xc1be10a0	-23.758118
74	0xc1bd909f	-23.695616
75	0xc1bd109b	-23.633108
76	0xc1bc908e	-23.570583
77	0xc1bc1071	-23.508028
78	0xc1bb903e	-23.44543
79	0xc1bb0fef	-23.38278
80	0xc1ba8f7e	-23.320065
81	0xc1ba0ee5	-23.257273
82	0xc1b98e1c	-23.19439
83	0xc1b90d1f	-23.131407
84	0xc1b88be6	-23.06831
85	0xc1b80a6c	-23.005089
86	0xc1b788a9	-22.941729
87	0xc1b70698	-22.87822
88	0xc1b68431	-22.814547
89	0xc1b6016e	-22.750698
90	0xc1b57e49	-22.686663
91	0xc1b4faba	-22.622425
92	0xc1b476bb	-22.557974
93	0xc1b3f244	-22.493294
94	0xc1b36d4f	-22.428373
95	0xc1b2e7d5	-22.3632
96	0xc1c2aaaf	-24.333342
97	0xc1c229b6	-24.270367
98	0xc1c1a8f2	-24.207493
99	0xc1c1285c	-24.144707
100	0xc1c0a7ee	-24.081997
101	0xc1c027a1	-24.01935
102	0xc1bfa770	-23.956757
103	0xc1bf2755	-23.894205
104	0xc1bea748	-23.83168
105	0xc1be2744	-23.769173
106	0xc1bda743	-23.70667
107	0xc1bd273f	-23.644163
108	0xc1bca731	-23.581636
109	0xc1bc2713	-23.51908
110	0xc1bba6df	-23.45648
111	0xc1bb2690	-23.39383
112	0xc1baa61e	-23.331112
113	0xc1ba2584	-23.268318
114	0xc1b9a4bb	-23.205435
115	0xc1b923bc	-23.142448
116	0xc1b8a283	-23.079351
117	0xc1b82108	-23.016129
118	0xc1b79f44	-22.952766
119	0xc1b71d32	-22.889256
120	0xc1b69aca	-22.82558
121	0xc1b61807	-22.761732
122	0xc1b594e0	-22.697693
123	0xc1b51151	-22.633455
124	0xc1b48d51	-22.569002
125	0xc1b408d9	-22.50432
126	0xc1b383e3	-22.439398
127	0xc1b2fe68	-22.374222
128	0xc1c2c15b	-24.344412
129	0xc1c24062	-24.281437
130	0xc1c1bf9d	-24.218561
131	0xc1c13f06	-24.155773
132	0xc1c0be97	-24.093061
133	0xc1c03e4a	-24.030415
134	0xc1bfbe19	-23.967821
135	0xc1bf3dfc	-23.905266
136	0xc1bebdef	-23.842741
137	0xc1be3dea	-23.780231
138	0xc1bdbde9	-23.71773
139	0xc1bd3de4	-23.65522
140	0xc1bcbdd5	-23.592691
141	0xc1bc3db6	-23.530132
142	0xc1bbbd82	-23.467533
143	0xc1bb3d32	-23.40488
144	0xc1babcbf	-23.342161
145	0xc1ba3c24	-23.279366
146	0xc1b9bb5a	-23.21648
147	0xc1b93a5b	-23.153494
148	0xc1b8b921	-23.090395
149	0xc1b837a5	-23.02717
150	0xc1b7b5e1	-22.963808
151	0xc1b733cd	-22.900293
152	0xc1b6b165	-22.836618
153	0xc1b62ea1	-22.772768
154	0xc1b5ab79	-22.708727
155	0xc1b527e9	-22.644487
156	0xc1b4a3e8	-22.580032
157	0xc1b41f6f	-22.515348
158	0xc1b39a79	-22.450426
159	0xc1b314fc	-22.385246
160	0xc1c2d7ff	-24.355467
161	0xc1c25705	-24.29249
162	0xc1c1d63f	-24.229612
163	0xc1c155a8	-24.166824
164	0xc1c0d539	-24.104113
165	0xc1c054eb	-24.041464
166	0xc1bfd4b9	-23.978868
167	0xc1bf549c	-23.916313
168	0xc1bed48e	-23.853786
169	0xc1be5488	-23.791275
170	0xc1bdd486	-23.728771
171	0xc1bd5480	-23.66626
172	0xc1bcd471	-23.603731
173	0xc1bc5452	-23.541172
174	0xc1bbd41d	-23.47857
175	0xc1bb53cb	-23.415915
176	0xc1bad358	-23.353195
177	0xc1ba52bc	-23.290398
178	0xc1b9d1f2	-23.227512
179	0xc1b950f2	-23.164524
180	0xc1b8cfb7	-23.101423
181	0xc1b84e3a	-23.038197
182	0xc1b7cc74	-22.97483
183	0xc1b74a60	-22.911316
184	0xc1b6c7f7	-22.84764
185	0xc1b64531	-22.783785
186	0xc1b5c209	-22.719744
187	0xc1b53e78	-22.655502
188	0xc1b4ba76	-22.591045
189	0xc1b435fc	-22.52636
190	0xc1b3b105	-22.461435
191	0xc1b32b87	-22.396254
192	0xc1c2eea7	-24.36653
193	0xc1c26dac	-24.30355
194	0xc1c1ece6	-24.240673
195	0xc1c16c4e	-24.177883
196	0xc1c0ebde	-24.11517
197	0xc1c06b90	-24.05252
198	0xc1bfeb5d	-23.989923
199	0xc1bf6b3f	-23.927366
200	0xc1beeb30	-23.864838
201	0xc1be6b2b	-23.802328
202	0xc1bdeb27	-23.73982
203	0xc1bd6b21	-23.677309
204	0xc1bceb11	-23.614779
205	0xc1bc6af1	-23.552217
206	0xc1bbeabb	-23.489614
207	0xc1bb6a69	-23.426958
208	0xc1bae9f5	-23.364237
209	0xc1ba6958	-23.301437
210	0xc1b9e88d	-23.23855
211	0xc1b9678c	-23.17556
212	0xc1b8e650	-23.112457
213	0xc1b864d2	-23.049229
214	0xc1b7e30c	-22.985863
215	0xc1b760f7	-22.922346
216	0xc1b6de8d	-22.858667
217	0xc1b65bc6	-22.794811
218	0xc1b5d89d	-22.730768
219	0xc1b5550b	-22.666525
220	0xc1b4d108	-22.602066
221	0xc1b44c8d	-22.537378
222	0xc1b3c794	-22.47245
223	0xc1b34216	-22.407269
224	0xc1c3055e	-24.37762
225	0xc1c28463	-24.314642
226	0xc1c2039c	-24.251762
227	0xc1c18304	-24.188972
228	0xc1c10293	-24.126257
229	0xc1c08244	-24.063606
230	0xc1c00210	-24.001007
231	0xc1bf81f2	-23.93845
232	0xc1bf01e2	-23.87592
233	0xc1be81dc	-23.813408
234	0xc1be01d8	-23.7509
235	0xc1bd81d0	-23.688385
236	0xc1bd01bf	-23.625853
237	0xc1bc819f	-23.563292
238	0xc1bc0168	-23.500687
239	0xc1bb8115	-23.438028
240	0xc1bb00a0	-23.375305
241	0xc1ba8003	-23.312506
242	0xc1b9ff36	-23.249615
243	0xc1b97e35	-23.186625
244	0xc1b8fcf8	-23.12352
245	0xc1b87b79	-23.06029
246	0xc1b7f9b2	-22.996922
247	0xc1b7779c	-22.933403
248	0xc1b6f531	-22.869722
249	0xc1b6726a	-22.805866
250	0xc1b5ef40	-22.741821
251	0xc1b56bac	-22.677574
252	0xc1b4e7a8	-22.613113
253	0xc1b4632d	-22.548426
254	0xc1b3de33	-22.483496
255	0xc1b358b4	-22.418312

qa f4 [32, 32]
0	0x00000000	0.0
1	0x00000000	0.0
2	0x00000000	0.0
3	0x00000000	0.0
4	0x00000000	0.0
5	0x00000000	0.0
6	0x00000000	0.0
7	0x00000000	0.0
8	0x00000000	0.0
9	0x00000000	0.0
10	0x00000000	0.0
11	0x00000000	0.0
12	0x00000000	0.0
13	0x00000000	0.0
14	0x00000000	0.0
15	0x00000000	0.0
16	0x00000000	0.0
17	0x00000000	0.0
18	0x00000000	0.0
19	0x00000000	0.0
20	0x00000000	0.0
21	0x00000000	0.0
22	0x00000000	0.0
23	0x00000000	0.0
24	0x00000000	0.0
25	0x00000000	0.0
26	0x00000000	0.0
27	0x00000000	0.0
28	0x00000000	0.0
29	0x00000000	0.0
30	0x00000000	0.0
31	0x00000000	0.0
32	0x00000000	0.0
33	0x00000000	0.0
34	0x00000000	0.0
35	0x00000000	0.0
36	0x00000000	0.0
37	0x00000000	0.0
38	0x00000000	0.0
39	0x00000000	0.0
40	0x00000000	0.0
41	0x00000000	0.0
42	0x00000000	0.0
43	0x00000000	0.0
44	0x00000000	0.0
45	0x00000000	0.0
46	0x00000000	0.0
47	0x00000000	0.0
48	0x00000000	0.0
49	0x00000000	0.0
50	0x00000000	0.0
51	0x00000000	0.0
52	0x00000000	0.0
53	0x00000000	0.0
54	0x00000000	0.0
55	0x00000000	0.0
56	0x00000000	0.0
57	0x00000000	0.0
58	0x00000000	0.0
59	0x00000000	0.0
60	0x00000000	0.0
61	0x00000000	0.0
62	0x00000000	0.0
63	0x00000000	0.0
64	0x00000000	0.0
65	0x00000000	0.0
66	0x00000000	0.0
67	0x00000000	0.0
68	0x00000000	0.0
69	0x00000000	0.0
70	0x00000000	0.0
71	0x00000000	0.0
72	0x00000000	0.0
73	0x00000000	0.0
74	0x00000000	0.0
75	0x00000000	0.0
76	0x00000000	0.0
77	0x00000000	0.0
78	0x00000000	0.0
79	0x00000000	0.0
80	0x00000000	0.0
81	0x00000000	0.0
82	0x00000000	0.0
83	0x00000000	0.0
84	0x00000000	0.0
85	0x00000000	0.0
86	0x00000000	0.0
87	0x00000000	0.0
88	0x00000000	0.0
89	0x00000000	0.0
90	0x00000000	0.0
91	0x00000000	0.0
92	0x00000000	0.0
93	0x00000000	0.0
94	0x00000000	0.0
95	0x00000000	0.0
96	0x00000000	0.0
97	0x00000000	0.0
98	0x00000000	0.0
99	0x00000000	0.0
100	0x00000000	0.0
101	0x00000000	0.0
102	0x00000000	0.0
103	0x00000000	0.0
104	0x00000000	0.0
105	0x00000000	0.0
106	0x00000000	0.0
107	0x00000000	0.0
108	0x00000000	0.0
109	0x00000000	0.0
110	0x00000000	0.0
111	0x00000000	0.0
112	0x00000000	0.0
113	0x00000000	0.0
114	0x00000000	0.0
115	0x00000000	0.0
116	0x00000000	0.0
117	0x00000000	0.0
118	0x00000000	0.0
119	0x00000000	0.0
120	0x00000000	0.0
121	0x00000000	0.0
122	0x00000000	0.0
123	0x00000000	0.0
124	0x00000000	0.0
125	0x00000000	0.0
126	0x00000000	0.0
127	0x00000000	0.0
128	0x00000000	0.0
129	0x00000000	0.0
130	0x00000000	0.0
131	0x00000000	0.0
132	0x00000000	0.0
133	0x00000000	0.0
134	0x00000000	0.0
135	0x00000000	0.0
136	0x00000000	0.0
137	0x00000000	0.0
138	0x00000000	0.0
139	0x00000000	0.0
140	0x00000000	0.0
141	0x00000000	0.0
142	0x00000000	0.0
143	0x00000000	0.0
144	0x00000000	0.0
145	0x00000000	0.0
146	0x00000000	0.0
147	0x00000000	0.0
148	0x00000000	0.0
149	0x00000000	0.0
150	0x00000000	0.0
151	0x00000000	0.0
152	0x00000000	0.0
153	0x00000000	0.0
154	0x00000000	0.0
155	0x00000000	0.0
156	0x00000000	0.0
157	0x00000000	0.0
158	0x00000000	0.0
159	0x00000000	0.0
160	0x00000000	0.0
161	0x00000000	0.0
162	0x00000000	0.0
163	0x00000000	0.0
164	0x00000000	0.0
165	0x00000000	0.0
166	0x00000000	0.0
167	0x00000000	0.0
168	0x00000000	0.0
169	0x00000000	0.0
170	0x00000000	0.0
171	0x00000000	0.0
172	0x00000000	0.0
173	0x00000000	0.0
174	0x00000000	0.0
175	0x00000000	0.0
176	0x00000000	0.0
177	0x00000000	0.0
178	0x00000000	0.0
179	0x00000000	0.0
180	0x00000000	0.0
181	0x00000000	0.0
182	0x00000000	0.0
183	0x00000000	0.0
184	0x00000000	0.0
185	0x00000000	0.0
186	0x00000000	0.0
187	0x00000000	0.0
188	0x00000000	0.0
189	0x00000000	0.0
190	0x00000000	0.0
191	0x00000000	0.0
192	0x00000000	0.0
193	0x00000000	0.0
194	0x00000000	0.0
195	0x00000000	0.0
196	0x00000000	0.0
197	0x00000000	0.0
198	0x00000000	0.0
199	0x00000000	0.0
200	0x00000000	0.0
201	0x00000000	0.0
202	0x00000000	0.0
203	0x00000000	0.0
204	0x00000000	0.0
205	0x00000000	0.0
206	0x00000000	0.0
207	0x00000000	0.0
208	0x00000000	0.0
209	0x00000000	0.0
210	0x00000000	0.0
211	0x00000000	0.0
212	0x00000000	0.0
213	0x00000000	0.0
214	0x00000000	0.0
215	0x00000000	0.0
216	0x00000000	0.0
217	0x00000000	0.0
218	0x00000000	0.0
219	0x00000000	0.0
220	0x00000000	0.0
221	0x00000000	0.0
222	0x00000000	0.0
223	0x00000000	0.0
224	0x00000000	0.0
225	0x00000000	0.0
226	0x00000000	0.0
227	0x00000000	0.0
228	0x00000000	0.0
229	0x00000000	0.0
230	0x00000000	0.0
231	0x00000000	0.0
232	0x00000000	0.0
233	0x00000000	0.0
234	0x00000000	0.0
235	0x00000000	0.0
236	0x00000000	0.0
237	0x00000000	0.0
238	0x00000000	0.0
239	0x00000000	0.0
240	0x00000000	0.0
241	0x00000000	0.0
242	0x00000000	0.0
243	0x00000000	0.0
244	0x00000000	0.0
245	0x00000000	0.0
246	0x00000000	0.0
247	0x00000000	0.0
248	0x00000000	0.0
249	0x00000000	0.0
250	0x00000000	0.0
251	0x00000000	0.0
252	0x00000000	0.0
253	0x00000000	0.0
254	0x00000000	0.0
255	0x00000000	0.0
