data/dataset/negative/b7a40828-0300-4df9-836f-4b4a6aad2bf0.npz (npz, 22479 bytes, 4 tensors)

methane f8 [32, 32]
00000000: 0000 0000 0000 9e47 0000 0000 0000 9e47
00000010: 0000 0000 0000 9e47 0000 0000 0000 9e47
00000020: 0000 0000 0000 9e47 0000 0000 0000 9e47
00000030: 0000 0000 0000 9e47 0000 0000 0000 9e47
00000040: 0000 0000 0000 9e47 0000 0000 0000 9e47
00000050: 0000 0000 0000 9e47 0000 0000 0000 9e47
00000060: 0000 0000 0000 9e47 0000 0000 0000 9e47
00000070: 0000 0000 0000 9e47 0000 0000 0000 9e47
00000080: 0000 0000 0000 9e47 0000 0000 0000 9e47
00000090: 0000 0000 0000 9e47 0000 0000 0000 9e47
000000a0: 0000 0000 0000 9e47 0000 0000 0000 9e47
000000b0: 0000 0000 0000 9e47 0000 0000 0000 9e47
000000c0: 0000 0000 0000 9e47 0000 0000 0000 9e47
000000d0: 0000 0000 0000 9e47 0000 0000 0000 9e47
000000e0: 0000 0000 0000 9e47 0000 0000 0000 9e47
000000f0: 0000 0000 0000 9e47 0000 0000 0000 9e47
00000100: 0000 0000 0000 9e47 0000 0000 0000 9e47
00000110: 0000 0000 0000 9e47 0000 0000 0000 9e47
00000120: 0000 0000 0000 9e47 0000 0000 0000 9e47
00000130: 0000 0000 0000 9e47 0000 0000 0000 9e47
00000140: 0000 0000 0000 9e47 0000 0000 0000 9e47
00000150: 0000 0000 0000 9e47 0000 0000 0000 9e47
00000160: 0000 0000 0000 9e47 0000 0000 0000 9e47
00000170: 0000 0000 0000 9e47 0000 0000 0000 9e47
00000180: 0000 0000 0000 9e47 0000 0000 0000 9e47
00000190: 0000 0000 0000 9e47 0000 0000 0000 9e47
000001a0: 0000 0000 0000 9e47 0000 0000 0000 9e47
000001b0: 0000 0000 0000 9e47 0000 0000 0000 9e47
000001c0: 0000 0000 0000 9e47 0000 0000 0000 9e47
000001d0: 0000 0000 0000 9e47 0000 0000 0000 9e47
000001e0: 0000 0000 0000 9e47 0000 0000 0000 9e47
000001f0: 0000 0000 0000 9e47 0000 0000 0000 9e47
00000200: 0000 0000 0000 9e47 0000 0000 0000 9e47
00000210: 0000 0000 0000 9e47 0000 0000 0000 9e47
00000220: 0000 0000 0000 9e47 0000 0000 0000 9e47
00000230: 0000 0000 0000 9e47 0000 0000 0000 9e47
00000240: 0000 0000 0000 9e47 0000 0000 0000 9e47
00000250: 0000 0000 0000 9e47 0000 0000 0000 9e47
00000260: 0000 0000 0000 9e47 0000 0000 0000 9e47
00000270: 0000 0000 0000 9e47 0000 0000 0000 9e47
00000280: 0000 0000 0000 9e47 0000 0000 0000 9e47
00000290: 0000 0000 0000 9e47 0000 0000 0000 9e47
000002a0: 0000 0000 0000 9e47 0000 0000 0000 9e47
000002b0: 0000 0000 0000 9e47 0000 0000 0000 9e47
000002c0: 0000 0000 0000 9e47 0000 0000 0000 9e47
000002d0: 0000 0000 0000 9e47 0000 0000 0000 9e47
000002e0: 0000 0000 0000 9e47 0000 0000 0000 9e47
000002f0: 0000 0000 0000 9e47 0000 0000 0000 9e47
00000300: 0000 0000 0000 9e47 0000 0000 0000 9e47
00000310: 0000 0000 0000 9e47 0000 0000 0000 9e47
00000320: 0000 0000 0000 9e47 0000 0000 0000 9e47
00000330: 0000 0000 0000 9e47 0000 0000 0000 9e47
00000340: 0000 0000 0000 9e47 0000 0000 0000 9e47
00000350: 0000 0000 0000 9e47 0000 0000 0000 9e47
00000360: 0000 0000 0000 9e47 0000 0000 0000 9e47
00000370: 0000 0000 0000 9e47 0000 0000 0000 9e47
00000380: 0000 0000 0000 9e47 0000 0000 0000 9e47
00000390: 0000 0000 0000 9e47 0000 0000 0000 9e47
000003a0: 0000 0000 0000 9e47 0000 0000 0000 9e47
000003b0: 0000 0000 0000 9e47 0000 0000 0000 9e47
000003c0: 0000 0000 0000 9e47 0000 0000 0000 9e47
000003d0: 0000 0000 0000 9e47 0000 0000 0000 9e47
000003e0: 0000 0000 0000 9e47 0000 0000 0000 9e47
000003f0: 0000 0000 0000 9e47 0000 0000 0000 9e47
00000400: 0000 0000 0000 9e47 0000 0000 0000 9e47
00000410: 0000 0000 0000 9e47 0000 0000 0000 9e47
00000420: 0000 0000 0000 9e47 0000 0000 0000 9e47
00000430: 0000 0000 0000 9e47 0000 0000 0000 9e47
00000440: 0000 0000 0000 9e47 0000 0000 0000 9e47
00000450: 0000 0000 0000 9e47 0000 0000 0000 9e47
00000460: 0000 0000 0000 9e47 0000 0000 0000 9e47
00000470: 0000 0000 0000 9e47 0000 0000 0000 9e47
00000480: 0000 0000 0000 9e47 0000 0000 0000 9e47
00000490: 0000 0000 0000 9e47 0000 0000 0000 9e47
000004a0: 0000 0000 0000 9e47 0000 0000 0000 9e47
000004b0: 0000 0000 0000 9e47 0000 0000 0000 9e47
000004c0: 0000 0000 0000 9e47 0000 0000 0000 9e47
000004d0: 0000 0000 0000 9e47 0000 0000 0000 9e47
000004e0: 0000 0000 0000 9e47 0000 0000 0000 9e47
000004f0: 0000 0000 0000 9e47 0000 0000 0000 9e47
00000500: 0000 0000 0000 9e47 0000 0000 0000 9e47
00000510: 0000 0000 0000 9e47 0000 0000 0000 9e47
00000520: 0000 0000 0000 9e47 0000 0000 0000 9e47
00000530: 0000 0000 0000 9e47 0000 0000 0000 9e47
00000540: 0000 0000 0000 9e47 0000 0000 0000 9e47
00000550: 0000 0000 0000 9e47 0000 0000 0000 9e47
00000560: 0000 0000 0000 9e47 0000 0000 0000 9e47
00000570: 0000 0000 0000 9e47 0000 0000 0000 9e47
00000580: 0000 0000 0000 9e47 0000 0000 0000 9e47
00000590: 0000 0000 0000 9e47 0000 0000 0000 9e47
000005a0: 0000 0000 0000 9e47 0000 0000 0000 9e47
000005b0: 0000 0000 0000 9e47 0000 0000 0000 9e47
000005c0: 0000 0000 0000 9e47 0000 0000 0000 9e47
000005d0: 0000 0000 0000 9e47 0000 0000 0000 9e47
000005e0: 0000 0000 0000 9e47 0000 0000 0000 9e47
000005f0: 0000 0000 0000 9e47 0000 0000 0000 9e47
00000600: 0000 0000 0000 9e47 0000 0000 0000 9e47
00000610: 0000 0000 0000 9e47 0000 0000 0000 9e47
00000620: 0000 0000 0000 9e47 0000 0000 0000 9e47
00000630: 0000 0000 0000 9e47 0000 0000 0000 9e47
00000640: 0000 0000 0000 9e47 0000 0000 0000 9e47
00000650: 0000 0000 0000 9e47 0000 0000 0000 9e47
00000660: 0000 0000 0000 9e47 0000 0000 0000 9e47
00000670: 0000 0000 0000 9e47 0000 0000 0000 9e47
00000680: 0000 0000 0000 9e47 0000 0000 0000 9e47
00000690: 0000 0000 0000 9e47 0000 0000 0000 9e47
000006a0: 0000 0000 0000 9e47 0000 0000 0000 9e47
000006b0: 0000 0000 0000 9e47 0000 0000 0000 9e47
000006c0: 0000 0000 0000 9e47 0000 0000 0000 9e47
000006d0: 0000 0000 0000 9e47 0000 0000 0000 9e47
000006e0: 0000 0000 0000 9e47 0000 0000 0000 9e47
000006f0: 0000 0000 0000 9e47 0000 0000 0000 9e47
00000700: 0000 0000 0000 9e47 0000 0000 0000 9e47
00000710: 0000 0000 0000 9e47 0000 0000 0000 9e47
00000720: 0000 0000 0000 9e47 0000 0000 0000 9e47
00000730: 0000 0000 0000 9e47 0000 0000 0000 9e47
00000740: 0000 0000 0000 9e47 0000 0000 0000 9e47
00000750: 0000 0000 0000 9e47 0000 0000 0000 9e47
00000760: 0000 0000 0000 9e47 0000 0000 0000 9e47
00000770: 0000 0000 0000 9e47 0000 0000 0000 9e47
00000780: 0000 0000 0000 9e47 0000 0000 0000 9e47
00000790: 0000 0000 0000 9e47 0000 0000 0000 9e47
000007a0: 0000 0000 0000 9e47 0000 0000 0000 9e47
000007b0: 0000 0000 0000 9e47 0000 0000 0000 9e47
000007c0: 0000 0000 0000 9e47 0000 0000 0000 9e47
000007d0: 0000 0000 0000 9e47 0000 0000 0000 9e47
000007e0: 0000 0000 0000 9e47 0000 0000 0000 9e47
000007f0: 0000 0000 0000 9e47 0000 0000 0000 9e47
9.969209968386869e+36 9.969209968386869e+36 9.969209968386869e+36 9.969209968386869e+36 9.969209968386869e+36 9.969209968386869e+36 9.969209968386869e+36 9.969209968386869e+36
9.969209968386869e+36 9.969209968386869e+36 9.969209968386869e+36 9.969209968386869e+36 9.969209968386869e+36 9.969209968386869e+36 9.969209968386869e+36 9.969209968386869e+36
9.969209968386869e+36 9.969209968386869e+36 9.969209968386869e+36 9.969209968386869e+36 9.969209968386869e+36 9.969209968386869e+36 9.969209968386869e+36 9.969209968386869e+36
9.969209968386869e+36 9.969209968386869e+36 9.969209968386869e+36 9.969209968386869e+36 9.969209968386869e+36 9.969209968386869e+36 9.969209968386869e+36 9.969209968386869e+36
9.969209968386869e+36 9.969209968386869e+36 9.969209968386869e+36 9.969209968386869e+36 9.969209968386869e+36 9.969209968386869e+36 9.969209968386869e+36 9.969209968386869e+36
9.969209968386869e+36 9.969209968386869e+36 9.969209968386869e+36 9.969209968386869e+36 9.969209968386869e+36 9.969209968386869e+36 9.969209968386869e+36 9.969209968386869e+36
9.969209968386869e+36 9.969209968386869e+36 9.969209968386869e+36 9.969209968386869e+36 9.969209968386869e+36 9.969209968386869e+36 9.969209968386869e+36 9.969209968386869e+36
9.969209968386869e+36 9.969209968386869e+36 9.969209968386869e+36 9.969209968386869e+36 9.969209968386869e+36 9.969209968386869e+36 9.969209968386869e+36 9.969209968386869e+36
9.969209968386869e+36 9.969209968386869e+36 9.969209968386869e+36 9.969209968386869e+36 9.969209968386869e+36 9.969209968386869e+36 9.969209968386869e+36 9.969209968386869e+36
9.969209968386869e+36 9.969209968386869e+36 9.969209968386869e+36 9.969209968386869e+36 9.969209968386869e+36 9.969209968386869e+36 9.969209968386869e+36 9.969209968386869e+36
9.969209968386869e+36 9.969209968386869e+36 9.969209968386869e+36 9.969209968386869e+36 9.969209968386869e+36 9.969209968386869e+36 9.969209968386869e+36 9.969209968386869e+36
9.969209968386869e+36 9.969209968386869e+36 9.969209968386869e+36 9.969209968386869e+36 9.969209968386869e+36 9.969209968386869e+36 9.969209968386869e+36 9.969209968386869e+36
9.969209968386869e+36 9.969209968386869e+36 9.969209968386869e+36 9.969209968386869e+36 9.969209968386869e+36 9.969209968386869e+36 9.969209968386869e+36 9.969209968386869e+36
9.969209968386869e+36 9.969209968386869e+36 9.969209968386869e+36 9.969209968386869e+36 9.969209968386869e+36 9.969209968386869e+36 9.969209968386869e+36 9.969209968386869e+36
9.969209968386869e+36 9.969209968386869e+36 9.969209968386869e+36 9.969209968386869e+36 9.969209968386869e+36 9.969209968386869e+36 9.969209968386869e+36 9.969209968386869e+36
9.969209968386869e+36 9.969209968386869e+36 9.969209968386869e+36 9.969209968386869e+36 9.969209968386869e+36 9.969209968386869e+36 9.969209968386869e+36 9.969209968386869e+36
9.969209968386869e+36 9.969209968386869e+36 9.969209968386869e+36 9.969209968386869e+36 9.969209968386869e+36 9.969209968386869e+36 9.969209968386869e+36 9.969209968386869e+36
9.969209968386869e+36 9.969209968386869e+36 9.969209968386869e+36 9.969209968386869e+36 9.969209968386869e+36 9.969209968386869e+36 9.969209968386869e+36 9.969209968386869e+36
9.969209968386869e+36 9.969209968386869e+36 9.969209968386869e+36 9.969209968386869e+36 9.969209968386869e+36 9.969209968386869e+36 9.969209968386869e+36 9.969209968386869e+36
9.969209968386869e+36 9.969209968386869e+36 9.969209968386869e+36 9.969209968386869e+36 9.969209968386869e+36 9.969209968386869e+36 9.969209968386869e+36 9.969209968386869e+36
9.969209968386869e+36 9.969209968386869e+36 9.969209968386869e+36 9.969209968386869e+36 9.969209968386869e+36 9.969209968386869e+36 9.969209968386869e+36 9.969209968386869e+36
9.969209968386869e+36 9.969209968386869e+36 9.969209968386869e+36 9.969209968386869e+36 9.969209968386869e+36 9.969209968386869e+36 9.969209968386869e+36 9.969209968386869e+36
9.969209968386869e+36 9.969209968386869e+36 9.969209968386869e+36 9.969209968386869e+36 9.969209968386869e+36 9.969209968386869e+36 9.969209968386869e+36 9.969209968386869e+36
9.969209968386869e+36 9.969209968386869e+36 9.969209968386869e+36 9.969209968386869e+36 9.969209968386869e+36 9.969209968386869e+36 9.969209968386869e+36 9.969209968386869e+36
9.969209968386869e+36 9.969209968386869e+36 9.969209968386869e+36 9.969209968386869e+36 9.969209968386869e+36 9.969209968386869e+36 9.969209968386869e+36 9.969209968386869e+36
9.969209968386869e+36 9.969209968386869e+36 9.969209968386869e+36 9.969209968386869e+36 9.969209968386869e+36 9.969209968386869e+36 9.969209968386869e+36 9.969209968386869e+36
9.969209968386869e+36 9.969209968386869e+36 9.969209968386869e+36 9.969209968386869e+36 9.969209968386869e+36 9.969209968386869e+36 9.969209968386869e+36 9.969209968386869e+36
9.969209968386869e+36 9.969209968386869e+36 9.969209968386869e+36 9.969209968386869e+36 9.969209968386869e+36 9.969209968386869e+36 9.969209968386869e+36 9.969209968386869e+36
9.969209968386869e+36 9.969209968386869e+36 9.969209968386869e+36 9.969209968386869e+36 9.969209968386869e+36 9.969209968386869e+36 9.969209968386869e+36 9.969209968386869e+36
9.969209968386869e+36 9.969209968386869e+36 9.969209968386869e+36 9.969209968386869e+36 9.969209968386869e+36 9.969209968386869e+36 9.969209968386869e+36 9.969209968386869e+36
9.969209968386869e+36 9.969209968386869e+36 9.969209968386869e+36 9.969209968386869e+36 9.969209968386869e+36 9.969209968386869e+36 9.969209968386869e+36 9.969209968386869e+36
9.969209968386869e+36 9.969209968386869e+36 9.969209968386869e+36 9.969209968386869e+36 9.969209968386869e+36 9.969209968386869e+36 9.969209968386869e+36 9.969209968386869e+36

lat f4 [32, 32]
00000000: 7993 9ec2 c476 9ec2 f159 9ec2 ff3c 9ec2
00000010: ed1f 9ec2 b902 9ec2 63e5 9dc2 e9c7 9dc2
00000020: 49aa 9dc2 838c 9dc2 956e 9dc2 7d50 9dc2
00000030: 3b32 9dc2 cd13 9dc2 31f5 9cc2 66d6 9cc2
00000040: 6ab7 9cc2 3c98 9cc2 d978 9cc2 4159 9cc2
00000050: 7139 9cc2 6819 9cc2 24f9 9bc2 a2d8 9bc2
00000060: e2b7 9bc2 e196 9bc2 9c75 9bc2 1254 9bc2
00000070: 4132 9bc2 2510 9bc2 beed 9ac2 08cb 9ac2
00000080: 1ea1 9ec2 5884 9ec2 7467 9ec2 714a 9ec2
00000090: 4e2d 9ec2 0a10 9ec2 a3f2 9dc2 19d5 9dc2
000000a0: 69b7 9dc2 9399 9dc2 957b 9dc2 6e5d 9dc2
000000b0: 1c3f 9dc2 9f20 9dc2 f301 9dc2 19e3 9cc2
000000c0: 0ec4 9cc2 d1a4 9cc2 6085 9cc2 b965 9cc2
000000d0: da45 9cc2 c325 9cc2 7005 9cc2 e1e4 9bc2
000000e0: 12c4 9bc2 02a3 9bc2 b081 9bc2 1860 9bc2
000000f0: 393e 9bc2 101c 9bc2 9bf9 9ac2 d8d6 9ac2
00000100: b0ae 9ec2 d891 9ec2 e374 9ec2 d057 9ec2
00000110: 9c3a 9ec2 471d 9ec2 d0ff 9dc2 35e2 9dc2
00000120: 75c4 9dc2 8fa6 9dc2 8288 9dc2 4b6a 9dc2
00000130: ea4b 9dc2 5d2d 9dc2 a30e 9dc2 b9ef 9cc2
00000140: 9fd0 9cc2 53b1 9cc2 d391 9cc2 1e72 9cc2
00000150: 3152 9cc2 0b32 9cc2 aa11 9cc2 0cf1 9bc2
00000160: 2fd0 9bc2 12af 9bc2 b18d 9bc2 0c6c 9bc2
00000170: 1f4a 9bc2 e827 9bc2 6605 9bc2 95e2 9ac2
00000180: 2bbc 9ec2 429f 9ec2 3c82 9ec2 1865 9ec2
00000190: d347 9ec2 6e2a 9ec2 e60c 9ec2 3bef 9dc2
000001a0: 6cd1 9dc2 76b3 9dc2 5895 9dc2 1277 9dc2
000001b0: a158 9dc2 053a 9dc2 3b1b 9dc2 43fc 9cc2
000001c0: 1add 9cc2 bfbd 9cc2 309e 9cc2 6c7e 9cc2
000001d0: 715e 9cc2 3d3e 9cc2 cd1d 9cc2 21fd 9bc2
000001e0: 37dc 9bc2 0bbb 9bc2 9d99 9bc2 e977 9bc2
000001f0: ef55 9bc2 ab33 9bc2 1b11 9bc2 3dee 9ac2
00000200: 8fc9 9ec2 96ac 9ec2 7f8f 9ec2 4972 9ec2
00000210: f454 9ec2 7f37 9ec2 e719 9ec2 2cfc 9dc2
00000220: 4cde 9dc2 46c0 9dc2 19a2 9dc2 c383 9dc2
00000230: 4365 9dc2 9746 9dc2 be27 9dc2 b708 9dc2
00000240: 7fe9 9cc2 15ca 9cc2 78aa 9cc2 a58a 9cc2
00000250: 9b6a 9cc2 594a 9cc2 db29 9cc2 2109 9cc2
00000260: 28e8 9bc2 efc6 9bc2 73a5 9bc2 b283 9bc2
00000270: a961 9bc2 583f 9bc2 ba1c 9bc2 cff9 9ac2
00000280: e0d6 9ec2 d5b9 9ec2 ad9c 9ec2 677f 9ec2
00000290: 0162 9ec2 7b44 9ec2 d326 9ec2 0809 9ec2
000002a0: 18eb 9dc2 02cd 9dc2 c5ae 9dc2 6090 9dc2
000002b0: d171 9dc2 1653 9dc2 2e34 9dc2 1715 9dc2
000002c0: d0f5 9cc2 58d6 9cc2 acb6 9cc2 cb96 9cc2
000002d0: b276 9cc2 6156 9cc2 d635 9cc2 0e15 9cc2
000002e0: 07f4 9bc2 c0d2 9bc2 36b1 9bc2 678f 9bc2
000002f0: 516d 9bc2 f24a 9bc2 4728 9bc2 4f05 9bc2
00000300: 18e4 9ec2 fdc6 9ec2 c4a9 9ec2 6d8c 9ec2
00000310: f76e 9ec2 6051 9ec2 a833 9ec2 cc15 9ec2
00000320: ccf7 9dc2 a7d9 9dc2 5bbb 9dc2 e69c 9dc2
00000330: 477e 9dc2 7d5f 9dc2 8640 9dc2 6021 9dc2
00000340: 0a02 9dc2 83e2 9cc2 c9c2 9cc2 d9a2 9cc2
00000350: b282 9cc2 5362 9cc2 b941 9cc2 e320 9cc2
00000360: ceff 9bc2 79de 9bc2 e2bc 9bc2 059b 9bc2
00000370: e278 9bc2 7556 9bc2 bd33 9bc2 b710 9bc2
00000380: 3cf1 9ec2 0fd4 9ec2 c5b6 9ec2 5e99 9ec2
00000390: d77b 9ec2 305e 9ec2 6740 9ec2 7c22 9ec2
000003a0: 6c04 9ec2 37e6 9dc2 dbc7 9dc2 57a9 9dc2
000003b0: a88a 9dc2 cf6b 9dc2 c94c 9dc2 942d 9dc2
000003c0: 300e 9dc2 9aee 9cc2 d1ce 9cc2 d3ae 9cc2
000003d0: 9e8e 9cc2 306e 9cc2 894d 9cc2 a42c 9cc2
000003e0: 820b 9cc2 1fea 9bc2 7ac8 9bc2 90a6 9bc2
000003f0: 5f84 9bc2 e561 9bc2 203f 9bc2 0c1c 9bc2
-79.28803 -79.231964 -79.17567 -79.11913 -79.062355 -79.00532 -78.94802 -78.89045
-78.83259 -78.77444 -78.71598 -78.6572 -78.59811 -78.53867 -78.47889 -78.41875
-78.35823 -78.29733 -78.23603 -78.174324 -78.11219 -78.04962 -77.9866 -77.92311
-77.859146 -77.794685 -77.729706 -77.6642 -77.59815 -77.53153 -77.46434 -77.396545
-79.31468 -79.258484 -79.20206 -79.14539 -79.088486 -79.03133 -78.9739 -78.91621
-78.85822 -78.79995 -78.74137 -78.68248 -78.62326 -78.56371 -78.50381 -78.44355
-78.38292 -78.32191 -78.2605 -78.19868 -78.13643 -78.07375 -78.01062 -77.94703
-77.88295 -77.818375 -77.753296 -77.68768 -77.62153 -77.55481 -77.48751 -77.41962
-79.34119 -79.28485 -79.228294 -79.17151 -79.11447 -79.05718 -78.99963 -78.94181
-78.883705 -78.82531 -78.76662 -78.7076 -78.64827 -78.5886 -78.52859 -78.46821
-78.40746 -78.34634 -78.28481 -78.222885 -78.16053 -78.09774 -78.0345 -77.970795
-77.90661 -77.841934 -77.77674 -77.71103 -77.64477 -77.57794 -77.510544 -77.44254
-79.367516 -79.31105 -79.254364 -79.19745 -79.14028 -79.08287 -79.02519 -78.96725
-78.90903 -78.85051 -78.79169 -78.73256 -78.6731 -78.61332 -78.553185 -78.4927
-78.43184 -78.3706 -78.30896 -78.24692 -78.184456 -78.12156 -78.058205 -77.99439
-77.93011 -77.86532 -77.800026 -77.7342 -77.66784 -77.600914 -77.53341 -77.46531
-79.39367 -79.33708 -79.280266 -79.22321 -79.165924 -79.10839 -79.05059 -78.99252
-78.93417 -78.875534 -78.8166 -78.75735 -78.69778 -78.63787 -78.57762 -78.51702
-78.45605 -78.39469 -78.33295 -78.27079 -78.20821 -78.14521 -78.08175 -78.01783
-77.95343 -77.88854 -77.82314 -77.75722 -77.69074 -77.62372 -77.55611 -77.48791
-79.41968 -79.36295 -79.30601 -79.24883 -79.191414 -79.13375 -79.07583 -79.01764
-78.95917 -78.900406 -78.84135 -78.78198 -78.7223 -78.66228 -78.60191 -78.54119
-78.4801 -78.41864 -78.35678 -78.29452 -78.23183 -78.16871 -78.10515 -78.04112
-77.976616 -77.91162 -77.846115 -77.78008 -77.71351 -77.64638 -77.57867 -77.51037
-79.445496 -79.38865 -79.33157 -79.27427 -79.21673 -79.158936 -79.10089 -79.04257
-78.98398 -78.9251 -78.86593 -78.80644 -78.746635 -78.6865 -78.62602 -78.565186
-78.50398 -78.442406 -78.38044 -78.31806 -78.255264 -78.19204 -78.128365 -78.06423
-77.99962 -77.93452 -77.86891 -77.80277 -77.7361 -77.66886 -77.60105 -77.532646
-79.47116 -79.41418 -79.35697 -79.299545 -79.241875 -79.18396 -79.125786 -79.06735
-79.00864 -78.94964 -78.89034 -78.83074 -78.77081 -78.71056 -78.64997 -78.58902
-78.52771 -78.46602 -78.40394 -78.34145 -78.27855 -78.21521 -78.151436 -78.08719
-78.02248 -77.95727 -77.891556 -77.82532 -77.75854 -77.6912 -77.62329 -77.55478

lon f4 [32, 32]
00000000: faaf 8341 8330 8241 9db5 8041 537e 7e41
00000010: 179a 7b41 4cbe 7841 bbea 7541 2e1f 7341
00000020: 705b 7041 509f 6d41 9bea 6a41 233d 6841
00000030: b996 6541 2ff7 6241 595e 6041 0fcc 5d41
00000040: 2440 5b41 73ba 5841 d23a 5641 1dc1 5341
00000050: 2d4d 5141 dfde 4e41 0f76 4c41 9b12 4a41
00000060: 61b4 4741 415b 4541 1a07 4341 ceb7 4041
00000070: 3d6d 3e41 4a27 3c41 d7e5 3941 c9a8 3741
00000080: 0ce0 8141 f961 8041 f2d0 7d41 dde6 7a41
00000090: 7705 7841 882c 7541 d85b 7241 3193 6f41
000000a0: 5fd2 6c41 2e19 6a41 6e67 6741 eebc 6441
000000b0: 8119 6241 f87c 5f41 29e7 5c41 e857 5a41
000000c0: 0ccf 5741 6d4c 5541 e3cf 5241 4959 5041
000000d0: 78e8 4d41 4d7d 4b41 a417 4941 5bb7 4641
000000e0: 515c 4441 6406 4241 74b5 3f41 6369 3d41
000000f0: 1222 3b41 63df 3841 39a1 3641 7767 3441
00000100: b50d 8041 1622 7d41 f131 7a41 bc4a 7741
00000110: 3b6c 7441 3796 7141 75c8 6e41 c202 6c41
00000120: e744 6941 b38e 6641 f4df 6341 7a38 6141
00000130: 1698 5e41 9cfe 5b41 df6b 5941 b5df 5641
00000140: f359 5441 72da 5141 0b61 4f41 97ed 4c41
00000150: f07f 4a41 f317 4841 7db5 4541 6a58 4341
00000160: 9a00 4141 ebad 3e41 3e60 3c41 7317 3a41
00000170: 6cd3 3741 0c94 3541 3459 3341 c922 3141
00000180: 3971 7c41 cb7a 7941 908d 7641 49a9 7341
00000190: bdcd 7041 b1fa 6d41 ed2f 6b41 3b6d 6841
000001a0: 67b2 6541 3dff 6241 8d53 6041 26af 5d41
000001b0: da11 5b41 7b7b 5841 ddeb 5541 d662 5341
000001c0: 3be0 5041 e563 4e41 aded 4b41 6b7d 4941
000001d0: fb12 4741 38ae 4441 004f 4241 2ff5 3f41
000001e0: a4a0 3d41 3f51 3b41 df06 3941 66c1 3641
000001f0: b480 3441 ac44 3241 320d 3041 28da 2d41
00000200: 66c2 7841 edce 7541 abe4 7241 6403 7041
00000210: db2a 6d41 d75a 6a41 1f93 6741 7ed3 6441
00000220: bf1b 6241 af6b 5f41 1cc3 5c41 d721 5a41
00000230: af87 5741 79f4 5441 0868 5241 32e2 4f41
00000240: cc62 4d41 aee9 4a41 b176 4841 af09 4641
00000250: 82a2 4341 0641 4141 18e5 3e41 958e 3c41
00000260: 5c3d 3a41 4df1 3741 46aa 3541 2a68 3341
00000270: d92a 3141 36f2 2e41 23be 2c41 868e 2a41
00000280: e00f 7541 6c1f 7241 3538 6f41 fc59 6c41
00000290: 8684 6941 9ab7 6641 fef2 6341 7d36 6141
000002a0: e281 5e41 fad4 5b41 942f 5941 7e91 5641
000002b0: 8afa 5341 8b6a 5141 55e1 4e41 bd5e 4c41
000002c0: 99e2 4941 c16c 4741 0efd 4441 5893 4241
000002d0: 7b2f 4041 53d1 3d41 bd78 3b41 9525 3941
000002e0: bad7 3641 0c8f 3441 6b4b 3241 b80c 3041
000002f0: d4d2 2d41 a29d 2b41 046d 2941 de40 2741
00000300: eb58 7141 8b6b 6e41 6d87 6b41 51ac 6841
00000310: fdd9 6541 3710 6341 c64e 6041 7395 5d41
00000320: 0ae4 5a41 583a 5841 2b98 5541 52fd 5241
00000330: 9f69 5041 e4dc 4d41 f656 4b41 a9d7 4841
00000340: d45e 4641 4dec 4341 ef7f 4141 9219 3f41
00000350: 12b9 3c41 495e 3a41 1509 3841 53b9 3541
00000360: e26e 3341 a229 3141 71e9 2e41 32ae 2c41
00000370: c577 2a41 0e46 2841 ef18 2641 4cf0 2341
00000380: a69c 6d41 6ab2 6a41 74d1 6741 86f9 6441
00000390: 622a 6241 d163 5f41 98a5 5c41 82ef 5941
000003a0: 5941 5741 ea9a 5441 04fc 5141 7664 4f41
000003b0: 11d4 4c41 a74a 4a41 0ec8 4741 184c 4541
000003c0: 9ed6 4241 7667 4041 7afe 3d41 819b 3b41
000003d0: 693e 3941 0be7 3641 4695 3441 f548 3241
000003e0: f901 3041 31c0 2d41 7c83 2b41 bb4b 2941
000003f0: d118 2741 9fea 2441 0ac1 2241 f39b 2041
16.460926 16.273687 16.088678 15.905841 15.72512 15.546459 15.369807 15.195112
15.022324 14.851395 14.682277 14.514926 14.349298 14.185348 14.023034 13.862319
13.703159 13.54552 13.38936 13.234647 13.081342 12.929412 12.778823 12.629542
12.481538 12.334779 12.189234 12.044874 11.9016695 11.759592 11.618613 11.478707
16.234398 16.047838 15.863512 15.681363 15.501334 15.323372 15.147423 14.973435
14.80136 14.631147 14.462751 14.296125 14.131227 13.96801 13.806436 13.6464615
13.488049 13.331159 13.175754 13.021798 12.869255 12.718091 12.568272 12.4197645
12.272538 12.12656 11.9818 11.838229 11.695818 11.554538 11.414361 11.27526
16.006693 15.820822 15.637193 15.455746 15.276423 15.099174 14.92394 14.750673
14.579322 14.409839 14.242176 14.076288 13.91213 13.7496605 13.588836 13.429616
13.27196 13.115831 12.961192 12.808005 12.656235 12.505847 12.356809 12.209085
12.062647 11.91746 11.773497 11.630725 11.489117 11.348644 11.209278 11.070992
15.777642 15.592479 15.409561 15.228829 15.050229 14.873704 14.699201 14.526668
14.356055 14.187314 14.020398 13.855261 13.691858 13.530147 13.370084 13.21163
13.054744 12.899388 12.745526 12.59312 12.442134 12.292534 12.144287 11.997359
11.851719 11.707335 11.5641775 11.422216 11.281422 11.141766 11.0032215 10.865761
15.547461 15.363019 15.180827 15.000828 14.822963 14.647178 14.473418 14.301634
14.131774 13.96379 13.797634 13.633262 13.470626 13.309686 13.150398 12.992723
12.83662 12.682051 12.528977 12.377364 12.227175 12.078375 11.930931 11.78481
11.63998 11.496411 11.354071 11.212931 11.072961 10.934134 10.79642 10.659796
15.316376 15.132671 14.951222 14.771969 14.594854 14.419825 14.246824 14.075803
13.90671 13.739496 13.574116 13.410521 13.248667 13.088511 12.930013 12.773129
12.617822 12.464051 12.311781 12.160973 12.011592 11.863605 11.716977 11.571675
11.427668 11.284924 11.143413 11.003105 10.863972 10.725985 10.589115 10.453337
15.0842085 14.901256 14.720563 14.542069 14.36572 14.191459 14.019232 13.848987
13.680674 13.514244 13.34965 13.186846 13.025786 12.866428 12.708731 12.552651
12.398151 12.245191 12.093734 11.943743 11.795183 11.648019 11.502217 11.357745
11.214571 11.072664 10.931993 10.792528 10.654241 10.517103 10.381087 10.246166
14.850744 14.668558 14.488636 14.310919 14.135347 13.961869 13.790428 13.620974
13.453454 13.287821 13.124027 12.962027 12.801774 12.643226 12.486341 12.331078
12.177397 12.025259 11.874628 11.725465 11.577737 11.431407 11.286444 11.142812
11.000482 10.859422 10.719601 10.580989 10.443559 10.307281 10.172129 10.038074

qa f4 [32, 32]
00000000: 0000 0000 0000 0000 0000 0000 0000 0000
00000010: 0000 0000 0000 0000 0000 0000 0000 0000
00000020: 0000 0000 0000 0000 0000 0000 0000 0000
00000030: 0000 0000 0000 0000 0000 0000 0000 0000
00000040: 0000 0000 0000 0000 0000 0000 0000 0000
00000050: 0000 0000 0000 0000 0000 0000 0000 0000
00000060: 0000 0000 0000 0000 0000 0000 0000 0000
00000070: 0000 0000 0000 0000 0000 0000 0000 0000
00000080: 0000 0000 0000 0000 0000 0000 0000 0000
00000090: 0000 0000 0000 0000 0000 0000 0000 0000
000000a0: 0000 0000 0000 0000 0000 0000 0000 0000
000000b0: 0000 0000 0000 0000 0000 0000 0000 0000
000000c0: 0000 0000 0000 0000 0000 0000 0000 0000
000000d0: 0000 0000 0000 0000 0000 0000 0000 0000
000000e0: 0000 0000 0000 0000 0000 0000 0000 0000
000000f0: 0000 0000 0000 0000 0000 0000 0000 0000
00000100: 0000 0000 0000 0000 0000 0000 0000 0000
00000110: 0000 0000 0000 0000 0000 0000 0000 0000
00000120: 0000 0000 0000 0000 0000 0000 0000 0000
00000130: 0000 0000 0000 0000 0000 0000 0000 0000
00000140: 0000 0000 0000 0000 0000 0000 0000 0000
00000150: 0000 0000 0000 0000 0000 0000 0000 0000
00000160: 0000 0000 0000 0000 0000 0000 0000 0000
00000170: 0000 0000 0000 0000 0000 0000 0000 0000
00000180: 0000 0000 0000 0000 0000 0000 0000 0000
00000190: 0000 0000 0000 0000 0000 0000 0000 0000
000001a0: 0000 0000 0000 0000 0000 0000 0000 0000
000001b0: 0000 0000 0000 0000 0000 0000 0000 0000
000001c0: 0000 0000 0000 0000 0000 0000 0000 0000
000001d0: 0000 0000 0000 0000 0000 0000 0000 0000
000001e0: 0000 0000 0000 0000 0000 0000 0000 0000
000001f0: 0000 0000 0000 0000 0000 0000 0000 0000
00000200: 0000 0000 0000 0000 0000 0000 0000 0000
00000210: 0000 0000 0000 0000 0000 0000 0000 0000
00000220: 0000 0000 0000 0000 0000 0000 0000 0000
00000230: 0000 0000 0000 0000 0000 0000 0000 0000
00000240: 0000 0000 0000 0000 0000 0000 0000 0000
00000250: 0000 0000 0000 0000 0000 0000 0000 0000
00000260: 0000 0000 0000 0000 0000 0000 0000 0000
00000270: 0000 0000 0000 0000 0000 0000 0000 0000
00000280: 0000 0000 0000 0000 0000 0000 0000 0000
00000290: 0000 0000 0000 0000 0000 0000 0000 0000
000002a0: 0000 0000 0000 0000 0000 0000 0000 0000
000002b0: 0000 0000 0000 0000 0000 0000 0000 0000
000002c0: 0000 0000 0000 0000 0000 0000 0000 0000
000002d0: 0000 0000 0000 0000 0000 0000 0000 0000
000002e0: 0000 0000 0000 0000 0000 0000 0000 0000
000002f0: 0000 0000 0000 0000 0000 0000 0000 0000
00000300: 0000 0000 0000 0000 0000 0000 0000 0000
00000310: 0000 0000 0000 0000 0000 0000 0000 0000
00000320: 0000 0000 0000 0000 0000 0000 0000 0000
00000330: 0000 0000 0000 0000 0000 0000 0000 0000
00000340: 0000 0000 0000 0000 0000 0000 0000 0000
00000350: 0000 0000 0000 0000 0000 0000 0000 0000
00000360: 0000 0000 0000 0000 0000 0000 0000 0000
00000370: 0000 0000 0000 0000 0000 0000 0000 0000
00000380: 0000 0000 0000 0000 0000 0000 0000 0000
00000390: 0000 0000 0000 0000 0000 0000 0000 0000
000003a0: 0000 0000 0000 0000 0000 0000 0000 0000
000003b0: 0000 0000 0000 0000 0000 0000 0000 0000
000003c0: 0000 0000 0000 0000 0000 0000 0000 0000
000003d0: 0000 0000 0000 0000 0000 0000 0000 0000
000003e0: 0000 0000 0000 0000 0000 0000 0000 0000
000003f0: 0000 0000 0000 0000 0000 0000 0000 0000
0.0 0.0 0.0 0.0 0.0 0.0 0.0 0.0
0.0 0.0 0.0 0.0 0.0 0.0 0.0 0.0
0.0 0.0 0.0 0.0 0.0 0.0 0.0 0.0
0.0 0.0 0.0 0.0 0.0 0.0 0.0 0.0
0.0 0.0 0.0 0.0 0.0 0.0 0.0 0.0
0.0 0.0 0.0 0.0 0.0 0.0 0.0 0.0
0.0 0.0 0.0 0.0 0.0 0.0 0.0 0.0
0.0 0.0 0.0 0.0 0.0 0.0 0.0 0.0
0.0 0.0 0.0 0.0 0.0 0.0 0.0 0.0
0.0 0.0 0.0 0.0 0.0 0.0 0.0 0.0
0.0 0.0 0.0 0.0 0.0 0.0 0.0 0.0
0.0 0.0 0.0 0.0 0.0 0.0 0.0 0.0
0.0 0.0 0.0 0.0 0.0 0.0 0.0 0.0
0.0 0.0 0.0 0.0 0.0 0.0 0.0 0.0
0.0 0.0 0.0 0.0 0.0 0.0 0.0 0.0
0.0 0.0 0.0 0.0 0.0 0.0 0.0 0.0
0.0 0.0 0.0 0.0 0.0 0.0 0.0 0.0
0.0 0.0 0.0 0.0 0.0 0.0 0.0 0.0
0.0 0.0 0.0 0.0 0.0 0.0 0.0 0.0
0.0 0.0 0.0 0.0 0.0 0.0 0.0 0.0
0.0 0.0 0.0 0.0 0.0 0.0 0.0 0.0
0.0 0.0 0.0 0.0 0.0 0.0 0.0 0.0
0.0 0.0 0.0 0.0 0.0 0.0 0.0 0.0
0.0 0.0 0.0 0.0 0.0 0.0 0.0 0.0
0.0 0.0 0.0 0.0 0.0 0.0 0.0 0.0
0.0 0.0 0.0 0.0 0.0 0.0 0.0 0.0
0.0 0.0 0.0 0.0 0.0 0.0 0.0 0.0
0.0 0.0 0.0 0.0 0.0 0.0 0.0 0.0
0.0 0.0 0.0 0.0 0.0 0.0 0.0 0.0
0.0 0.0 0.0 0.0 0.0 0.0 0.0 0.0
0.0 0.0 0.0 0.0 0.0 0.0 0.0 0.0
0.0 0.0 0.0 0.0 0.0 0.0 0.0 0.0
