data/dataset/negative/bb4c18bb-b722-4e99-8b5e-228b10a18b9c.npz (npz, 23743 bytes, 4 tensors)

methane f8 [32, 32]
0	0x479e000000000000	9.969209968386869e+36
1	0x479e000000000000	9.969209968386869e+36
2	0x479e000000000000	9.969209968386869e+36
3	0x479e000000000000	9.969209968386869e+36
4	0x479e000000000000	9.969209968386869e+36
5	0x479e000000000000	9.969209968386869e+36
6	0x479e000000000000	9.969209968386869e+36
7	0x479e000000000000	9.969209968386869e+36
8	0x479e000000000000	9.969209968386869e+36
9	0x479e000000000000	9.969209968386869e+36
10	0x479e000000000000	9.969209968386869e+36
11	0x479e000000000000	9.969209968386869e+36
12	0x479e000000000000	9.969209968386869e+36
13	0x479e000000000000	9.969209968386869e+36
14	0x479e000000000000	9.969209968386869e+36
15	0x479e000000000000	9.969209968386869e+36
16	0x479e000000000000	9.969209968386869e+36
17	0x479e000000000000	9.969209968386869e+36
18	0x479e000000000000	9.969209968386869e+36
19	0x479e000000000000	9.969209968386869e+36
20	0x479e000000000000	9.969209968386869e+36
21	0x479e000000000000	9.969209968386869e+36
22	0x479e000000000000	9.969209968386869e+36
23	0x479e000000000000	9.969209968386869e+36
24	0x479e000000000000	9.969209968386869e+36
25	0x479e000000000000	9.969209968386869e+36
26	0x479e000000000000	9.969209968386869e+36
27	0x479e000000000000	9.969209968386869e+36
28	0x479e000000000000	9.969209968386869e+36
29	0x479e000000000000	9.969209968386869e+36
30	0x479e000000000000	9.969209968386869e+36
31	0x479e000000000000	9.969209968386869e+36
32	0x479e000000000000	9.969209968386869e+36
33	0x479e000000000000	9.969209968386869e+36
34	0x479e000000000000	9.969209968386869e+36
35	0x479e000000000000	9.969209968386869e+36
36	0x479e000000000000	9.969209968386869e+36
37	0x479e000000000000	9.969209968386869e+36
38	0x479e000000000000	9.969209968386869e+36
39	0x479e000000000000	9.969209968386869e+36
40	0x479e000000000000	9.969209968386869e+36
41	0x479e000000000000	9.969209968386869e+36
42	0x479e000000000000	9.969209968386869e+36
43	0x479e000000000000	9.969209968386869e+36
44	0x479e000000000000	9.969209968386869e+36
45	0x479e000000000000	9.969209968386869e+36
46	0x479e000000000000	9.969209968386869e+36
47	0x479e000000000000	9.969209968386869e+36
48	0x479e000000000000	9.969209968386869e+36
49	0x479e000000000000	9.969209968386869e+36
50	0x479e000000000000	9.969209968386869e+36
51	0x479e000000000000	9.969209968386869e+36
52	0x479e000000000000	9.969209968386869e+36
53	0x479e000000000000	9.969209968386869e+36
54	0x479e000000000000	9.969209968386869e+36
55	0x479e000000000000	9.969209968386869e+36
56	0x479e000000000000	9.969209968386869e+36
57	0x479e000000000000	9.969209968386869e+36
58	0x479e000000000000	9.969209968386869e+36
59	0x479e000000000000	9.969209968386869e+36
60	0x479e000000000000	9.969209968386869e+36
61	0x479e000000000000	9.969209968386869e+36
62	0x479e000000000000	9.969209968386869e+36
63	0x479e000000000000	9.969209968386869e+36
64	0x479e000000000000	9.969209968386869e+36
65	0x479e000000000000	9.969209968386869e+36
66	0x479e000000000000	9.969209968386869e+36
67	0x479e000000000000	9.969209968386869e+36
68	0x479e000000000000	9.969209968386869e+36
69	0x479e000000000000	9.969209968386869e+36
70	0x479e000000000000	9.969209968386869e+36
71	0x479e000000000000	9.969209968386869e+36
72	0x479e000000000000	9.969209968386869e+36
73	0x479e000000000000	9.969209968386869e+36
74	0x479e000000000000	9.969209968386869e+36
75	0x479e000000000000	9.969209968386869e+36
76	0x479e000000000000	9.969209968386869e+36
77	0x479e000000000000	9.969209968386869e+36
78	0x479e000000000000	9.969209968386869e+36
79	0x479e000000000000	9.969209968386869e+36
80	0x479e000000000000	9.969209968386869e+36
81	0x479e000000000000	9.969209968386869e+36
82	0x479e000000000000	9.969209968386869e+36
83	0x479e000000000000	9.969209968386869e+36
84	0x479e000000000000	9.969209968386869e+36
85	0x479e000000000000	9.969209968386869e+36
86	0x479e000000000000	9.969209968386869e+36
87	0x479e000000000000	9.969209968386869e+36
88	0x479e000000000000	9.969209968386869e+36
89	0x479e000000000000	9.969209968386869e+36
90	0x479e000000000000	9.969209968386869e+36
91	0x479e000000000000	9.969209968386869e+36
92	0x479e000000000000	9.969209968386869e+36
93	0x479e000000000000	9.969209968386869e+36
94	0x479e000000000000	9.969209968386869e+36
95	0x479e000000000000	9.969209968386869e+36
96	0x479e000000000000	9.969209968386869e+36
97	0x479e000000000000	9.969209968386869e+36
98	0x479e000000000000	9.969209968386869e+36
99	0x479e000000000000	9.969209968386869e+36
100	0x479e000000000000	9.969209968386869e+36
101	0x479e000000000000	9.969209968386869e+36
102	0x479e000000000000	9.969209968386869e+36
103	0x479e000000000000	9.969209968386869e+36
104	0x479e000000000000	9.969209968386869e+36
105	0x479e000000000000	9.969209968386869e+36
106	0x479e000000000000	9.969209968386869e+36
107	0x479e000000000000	9.969209968386869e+36
108	0x479e000000000000	9.969209968386869e+36
109	0x479e000000000000	9.969209968386869e+36
110	0x479e000000000000	9.969209968386869e+36
111	0x479e000000000000	9.969209968386869e+36
112	0x479e000000000000	9.969209968386869e+36
113	0x479e000000000000	9.969209968386869e+36
114	0x479e000000000000	9.969209968386869e+36
115	0x479e000000000000	9.969209968386869e+36
116	0x479e000000000000	9.969209968386869e+36
117	0x479e000000000000	9.969209968386869e+36
118	0x479e000000000000	9.969209968386869e+36
119	0x479e000000000000	9.969209968386869e+36
120	0x479e000000000000	9.969209968386869e+36
121	0x479e000000000000	9.969209968386869e+36
122	0x479e000000000000	9.969209968386869e+36
123	0x479e000000000000	9.969209968386869e+36
124	0x479e000000000000	9.969209968386869e+36
125	0x479e000000000000	9.969209968386869e+36
126	0x479e000000000000	9.969209968386869e+36
127	0x479e000000000000	9.969209968386869e+36
128	0x479e000000000000	9.969209968386869e+36
129	0x479e000000000000	9.969209968386869e+36
130	0x479e000000000000	9.969209968386869e+36
131	0x479e000000000000	9.969209968386869e+36
132	0x479e000000000000	9.969209968386869e+36
133	0x479e000000000000	9.969209968386869e+36
134	0x479e000000000000	9.969209968386869e+36
135	0x479e000000000000	9.969209968386869e+36
136	0x479e000000000000	9.969209968386869e+36
137	0x479e000000000000	9.969209968386869e+36
138	0x479e000000000000	9.969209968386869e+36
139	0x479e000000000000	9.969209968386869e+36
140	0x479e000000000000	9.969209968386869e+36
141	0x479e000000000000	9.969209968386869e+36
142	0x479e000000000000	9.969209968386869e+36
143	0x479e000000000000	9.969209968386869e+36
144	0x479e000000000000	9.969209968386869e+36
145	0x479e000000000000	9.969209968386869e+36
146	0x479e000000000000	9.969209968386869e+36
147	0x479e000000000000	9.969209968386869e+36
148	0x479e000000000000	9.969209968386869e+36
149	0x479e000000000000	9.969209968386869e+36
150	0x479e000000000000	9.969209968386869e+36
151	0x479e000000000000	9.969209968386869e+36
152	0x479e000000000000	9.969209968386869e+36
153	0x479e000000000000	9.969209968386869e+36
154	0x479e000000000000	9.969209968386869e+36
155	0x479e000000000000	9.969209968386869e+36
156	0x479e000000000000	9.969209968386869e+36
157	0x479e000000000000	9.969209968386869e+36
158	0x479e000000000000	9.969209968386869e+36
159	0x479e000000000000	9.969209968386869e+36
160	0x479e000000000000	9.969209968386869e+36
161	0x479e000000000000	9.969209968386869e+36
162	0x479e000000000000	9.969209968386869e+36
163	0x479e000000000000	9.969209968386869e+36
164	0x479e000000000000	9.969209968386869e+36
165	0x479e000000000000	9.969209968386869e+36
166	0x479e000000000000	9.969209968386869e+36
167	0x479e000000000000	9.969209968386869e+36
168	0x479e000000000000	9.969209968386869e+36
169	0x479e000000000000	9.969209968386869e+36
170	0x479e000000000000	9.969209968386869e+36
171	0x479e000000000000	9.969209968386869e+36
172	0x479e000000000000	9.969209968386869e+36
173	0x479e000000000000	9.969209968386869e+36
174	0x479e000000000000	9.969209968386869e+36
175	0x479e000000000000	9.969209968386869e+36
176	0x479e000000000000	9.969209968386869e+36
177	0x479e000000000000	9.969209968386869e+36
178	0x479e000000000000	9.969209968386869e+36
179	0x479e000000000000	9.969209968386869e+36
180	0x479e000000000000	9.969209968386869e+36
181	0x479e000000000000	9.969209968386869e+36
182	0x479e000000000000	9.969209968386869e+36
183	0x479e000000000000	9.969209968386869e+36
184	0x479e000000000000	9.969209968386869e+36
185	0x479e000000000000	9.969209968386869e+36
186	0x479e000000000000	9.969209968386869e+36
187	0x479e000000000000	9.969209968386869e+36
188	0x479e000000000000	9.969209968386869e+36
189	0x479e000000000000	9.969209968386869e+36
190	0x479e000000000000	9.969209968386869e+36
191	0x479e000000000000	9.969209968386869e+36
192	0x479e000000000000	9.969209968386869e+36
193	0x479e000000000000	9.969209968386869e+36
194	0x479e000000000000	9.969209968386869e+36
195	0x479e000000000000	9.969209968386869e+36
196	0x479e000000000000	9.969209968386869e+36
197	0x479e000000000000	9.969209968386869e+36
198	0x479e000000000000	9.969209968386869e+36
199	0x479e000000000000	9.969209968386869e+36
200	0x479e000000000000	9.969209968386869e+36
201	0x479e000000000000	9.969209968386869e+36
202	0x479e000000000000	9.969209968386869e+36
203	0x479e000000000000	9.969209968386869e+36
204	0x479e000000000000	9.969209968386869e+36
205	0x479e000000000000	9.969209968386869e+36
206	0x479e000000000000	9.969209968386869e+36
207	0x479e000000000000	9.969209968386869e+36
208	0x479e000000000000	9.969209968386869e+36
209	0x479e000000000000	9.969209968386869e+36
210	0x479e000000000000	9.969209968386869e+36
211	0x479e000000000000	9.969209968386869e+36
212	0x479e000000000000	9.969209968386869e+36
213	0x479e000000000000	9.969209968386869e+36
214	0x479e000000000000	9.969209968386869e+36
215	0x479e000000000000	9.969209968386869e+36
216	0x479e000000000000	9.969209968386869e+36
217	0x479e000000000000	9.969209968386869e+36
218	0x479e000000000000	9.969209968386869e+36
219	0x479e000000000000	9.969209968386869e+36
220	0x479e000000000000	9.969209968386869e+36
221	0x479e000000000000	9.969209968386869e+36
222	0x479e000000000000	9.969209968386869e+36
223	0x479e000000000000	9.969209968386869e+36
224	0x479e000000000000	9.969209968386869e+36
225	0x479e000000000000	9.969209968386869e+36
226	0x479e000000000000	9.969209968386869e+36
227	0x479e000000000000	9.969209968386869e+36
228	0x479e000000000000	9.969209968386869e+36
229	0x479e000000000000	9.969209968386869e+36
230	0x479e000000000000	9.969209968386869e+36
231	0x479e000000000000	9.969209968386869e+36
232	0x479e000000000000	9.969209968386869e+36
233	0x479e000000000000	9.969209968386869e+36
234	0x479e000000000000	9.969209968386869e+36
235	0x479e000000000000	9.969209968386869e+36
236	0x479e000000000000	9.969209968386869e+36
237	0x479e000000000000	9.969209968386869e+36
238	0x479e000000000000	9.969209968386869e+36
239	0x479e000000000000	9.969209968386869e+36
240	0x479e000000000000	9.969209968386869e+36
241	0x479e000000000000	9.969209968386869e+36
242	0x479e000000000000	9.969209968386869e+36
243	0x479e000000000000	9.969209968386869e+36
244	0x479e000000000000	9.969209968386869e+36
245	0x479e000000000000	9.969209968386869e+36
246	0x479e000000000000	9.969209968386869e+36
247	0x479e000000000000	9.969209968386869e+36
248	0x479e000000000000	9.969209968386869e+36
249	0x479e000000000000	9.969209968386869e+36
250	0x479e000000000000	9.969209968386869e+36
251	0x479e000000000000	9.969209968386869e+36
252	0x479e000000000000	9.969209968386869e+36
253	0x479e000000000000	9.969209968386869e+36
254	0x479e000000000000	9.969209968386869e+36
255	0x479e000000000000	9.969209968386869e+36

lat f4 [32, 32]
0	0x4277127f	61.768063
1	0x42772c79	61.79343
2	0x4277462c	61.818527
3	0x42775f99	61.843357
4	0x427778c3	61.86793
5	0x427791aa	61.89225
6	0x4277aa4f	61.916317
7	0x4277c2b5	61.940144
8	0x4277dadb	61.963726
9	0x4277f2c4	61.987076
10	0x42780a70	62.010193
11	0x427821e1	62.033085
12	0x42783917	62.05575
13	0x42785014	62.0782
14	0x427866d8	62.100433
15	0x42787d64	62.12245
16	0x427893b9	62.14426
17	0x4278a9d9	62.165867
18	0x4278bfc3	62.187267
19	0x4278d578	62.208466
20	0x4278eafa	62.22947
21	0x42790048	62.250275
22	0x42791564	62.27089
23	0x42792a4d	62.29131
24	0x42793f06	62.311546
25	0x4279538d	62.331593
26	0x427967e4	62.351456
27	0x42797c0a	62.37113
28	0x42799001	62.39063
29	0x4279a3c9	62.409946
30	0x4279b761	62.42908
31	0x4279cacb	62.44804
32	0x4277423c	61.814682
33	0x42775c3e	61.84008
34	0x427775f9	61.865208
35	0x42778f6e	61.890068
36	0x4277a8a0	61.914673
37	0x4277c18e	61.93902
38	0x4277da3c	61.96312
39	0x4277f2a9	61.986973
40	0x42780ad7	62.010586
41	0x427822c8	62.033966
42	0x42783a7b	62.05711
43	0x427851f4	62.080032
44	0x42786931	62.102726
45	0x42788035	62.125202
46	0x42789700	62.14746
47	0x4278ad94	62.16951
48	0x4278c3f1	62.19135
49	0x4278da17	62.21298
50	0x4278f008	62.234406
51	0x427905c5	62.255634
52	0x42791b4e	62.276665
53	0x427930a3	62.297497
54	0x427945c6	62.31814
55	0x42795ab6	62.338585
56	0x42796f76	62.35885
57	0x42798404	62.37892
58	0x42799861	62.398808
59	0x4279ac8f	62.418514
60	0x4279c08d	62.438038
61	0x4279d45b	62.45738
62	0x4279e7fa	62.47654
63	0x4279fb6a	62.49552
64	0x427771ea	61.861244
65	0x42778bf4	61.886673
66	0x4277a5b7	61.91183
67	0x4277bf34	61.93672
68	0x4277d86e	61.961357
69	0x4277f164	61.985733
70	0x42780a19	62.00986
71	0x4278228e	62.033745
72	0x42783ac4	62.05739
73	0x427852bc	62.080795
74	0x42786a78	62.103973
75	0x427881f8	62.126923
76	0x4278993d	62.149647
77	0x4278b048	62.17215
78	0x4278c71b	62.19444
79	0x4278ddb6	62.216515
80	0x4278f41a	62.23838
81	0x42790a48	62.26004
82	0x42792040	62.281494
83	0x42793604	62.30275
84	0x42794b94	62.323807
85	0x427960f0	62.344666
86	0x4279761a	62.365334
87	0x42798b12	62.38581
88	0x42799fd8	62.406097
89	0x4279b46d	62.426197
90	0x4279c8d2	62.446114
91	0x4279dd06	62.465843
92	0x4279f10b	62.485394
93	0x427a04e0	62.50476
94	0x427a1886	62.52395
95	0x427a2bfd	62.542957
96	0x4277a199	61.90781
97	0x4277bbab	61.93327
98	0x4277d576	61.958458
99	0x4277eefb	61.98338
100	0x4278083d	62.008045
101	0x4278213b	62.03245
102	0x427839f8	62.05661
103	0x42785275	62.080524
104	0x42786ab2	62.104195
105	0x427882b2	62.127632
106	0x42789a75	62.150837
107	0x4278b1fd	62.173817
108	0x4278c949	62.196568
109	0x4278e05c	62.2191
110	0x4278f736	62.241417
111	0x42790dd9	62.263523
112	0x42792444	62.285416
113	0x42793a79	62.307102
114	0x42795079	62.328587
115	0x42796644	62.34987
116	0x42797bdb	62.370953
117	0x4279913e	62.391838
118	0x4279a66f	62.412533
119	0x4279bb6e	62.433037
120	0x4279d03b	62.45335
121	0x4279e4d7	62.473476
122	0x4279f943	62.49342
123	0x427a0d7e	62.513176
124	0x427a218a	62.532753
125	0x427a3565	62.552143
126	0x427a4912	62.571358
127	0x427a5c90	62.590393
128	0x4277d150	61.954407
129	0x4277eb6a	61.979897
130	0x4278053d	62.005116
131	0x42781eca	62.030067
132	0x42783814	62.054764
133	0x4278511a	62.0792
134	0x427869df	62.10339
135	0x42788263	62.12733
136	0x42789aa8	62.15103
137	0x4278b2b0	62.1745
138	0x4278ca7b	62.197735
139	0x4278e209	62.220737
140	0x4278f95e	62.243523
141	0x42791078	62.266083
142	0x4279275a	62.28843
143	0x42793e03	62.31056
144	0x42795476	62.33248
145	0x42796ab2	62.354195
146	0x427980b9	62.375706
147	0x4279968c	62.39702
148	0x4279ac2a	62.41813
149	0x4279c195	62.439045
150	0x4279d6cd	62.459766
151	0x4279ebd3	62.480297
152	0x427a00a7	62.500637
153	0x427a154a	62.52079
154	0x427a29bc	62.540756
155	0x427a3dfe	62.56054
156	0x427a5211	62.580143
157	0x427a65f3	62.59956
158	0x427a79a7	62.6188
159	0x427a8d2c	62.637863
160	0x427800fe	62.00097
161	0x42781b20	62.02649
162	0x427834fb	62.05174
163	0x42784e91	62.076725
164	0x427867e2	62.101448
165	0x427880f1	62.12592
166	0x427899bd	62.150135
167	0x4278b24a	62.17411
168	0x4278ca97	62.19784
169	0x4278e2a6	62.221336
170	0x4278fa79	62.244602
171	0x4279120f	62.267635
172	0x4279296b	62.290447
173	0x4279408d	62.313038
174	0x42795776	62.33541
175	0x42796e28	62.357574
176	0x427984a2	62.379524
177	0x42799ae6	62.401268
178	0x4279b0f4	62.422806
179	0x4279c6ce	62.444145
180	0x4279dc73	62.465282
181	0x4279f1e5	62.486225
182	0x427a0725	62.506977
183	0x427a1c32	62.527534
184	0x427a310d	62.5479
185	0x427a45b8	62.568085
186	0x427a5a31	62.588078
187	0x427a6e7a	62.607887
188	0x427a8294	62.627518
189	0x427a967d	62.64696
190	0x427aaa38	62.66623
191	0x427abdc3	62.685314
192	0x4278309e	62.047478
193	0x42784ac9	62.073032
194	0x427864ac	62.098312
195	0x42787e4a	62.12333
196	0x427897a3	62.148083
197	0x4278b0ba	62.172585
198	0x4278c98e	62.19683
199	0x4278e223	62.220837
200	0x4278fa78	62.2446
201	0x4279128f	62.268124
202	0x42792a69	62.291416
203	0x42794207	62.31448
204	0x4279596b	62.337322
205	0x42797095	62.359943
206	0x42798785	62.382343
207	0x42799e3e	62.404533
208	0x4279b4c0	62.426514
209	0x4279cb0b	62.448284
210	0x4279e121	62.469852
211	0x4279f702	62.49122
212	0x427a0caf	62.512386
213	0x427a2228	62.533356
214	0x427a376e	62.55413
215	0x427a4c83	62.57472
216	0x427a6165	62.59511
217	0x427a7617	62.615322
218	0x427a8a97	62.63534
219	0x427a9ee7	62.655178
220	0x427ab308	62.674835
221	0x427ac6f8	62.694305
222	0x427adaba	62.7136
223	0x427aee4c	62.73271
224	0x42786049	62.09403
225	0x42787a7c	62.119614
226	0x42789468	62.144928
227	0x4278ae0d	62.16997
228	0x4278c76f	62.19476
229	0x4278e08d	62.219288
230	0x4278f96a	62.24357
231	0x42791206	62.2676
232	0x42792a63	62.291393
233	0x42794281	62.314945
234	0x42795a63	62.33827
235	0x42797209	62.361362
236	0x42798974	62.38423
237	0x4279a0a5	62.40688
238	0x4279b79e	62.429314
239	0x4279ce5e	62.45153
240	0x4279e4e7	62.473537
241	0x4279fb3a	62.49534
242	0x427a1157	62.516933
243	0x427a273f	62.538326
244	0x427a3cf3	62.55952
245	0x427a5273	62.580517
246	0x427a67c1	62.601322
247	0x427a7cdc	62.621933
248	0x427a91c6	62.642357
249	0x427aa67e	62.66259
250	0x427abb06	62.68264
251	0x427acf5d	62.702503
252	0x427ae384	62.722183
253	0x427af77c	62.741684
254	0x427b0b44	62.761
255	0x427b1edd	62.78014

lon f4 [32, 32]
0	0xc32cac66	-172.67343
1	0xc32c8be0	-172.54639
2	0xc32c6b57	-172.4193
3	0xc32c4aca	-172.29214
4	0xc32c2a37	-172.1649
5	0xc32c099d	-172.03755
6	0xc32be8fb	-171.91008
7	0xc32bc850	-171.78247
8	0xc32ba799	-171.65468
9	0xc32b86d5	-171.52669
10	0xc32b6603	-171.39848
11	0xc32b4521	-171.27003
12	0xc32b242f	-171.14134
13	0xc32b032a	-171.01236
14	0xc32ae211	-170.88307
15	0xc32ac0e2	-170.75345
16	0xc32a9f9d	-170.62349
17	0xc32a7e3f	-170.49315
18	0xc32a5cc6	-170.3624
19	0xc32a3b32	-170.23123
20	0xc32a1981	-170.09962
21	0xc329f7b1	-169.96754
22	0xc329d5c0	-169.83496
23	0xc329b3ae	-169.70187
24	0xc3299177	-169.56822
25	0xc3296f1b	-169.434
26	0xc3294c97	-169.29918
27	0xc32929ea	-169.16373
28	0xc3290713	-169.02763
29	0xc328e40f	-168.89085
30	0xc328c0dc	-168.75336
31	0xc3289d79	-168.61513
32	0xc32cb686	-172.71298
33	0xc32c95f4	-172.58575
34	0xc32c7560	-172.4585
35	0xc32c54c8	-172.33118
36	0xc32c342a	-172.20377
37	0xc32c1386	-172.07626
38	0xc32bf2d8	-171.94861
39	0xc32bd221	-171.82082
40	0xc32bb15f	-171.69286
41	0xc32b9090	-171.5647
42	0xc32b6fb2	-171.43631
43	0xc32b4ec5	-171.3077
44	0xc32b2dc7	-171.17882
45	0xc32b0cb6	-171.04965
46	0xc32aeb92	-170.9202
47	0xc32aca57	-170.79039
48	0xc32aa906	-170.66025
49	0xc32a879b	-170.52971
50	0xc32a6617	-170.39879
51	0xc32a4477	-170.26744
52	0xc32a22b9	-170.13564
53	0xc32a00dd	-170.00337
54	0xc329dee0	-169.8706
55	0xc329bcc0	-169.7373
56	0xc3299a7d	-169.60347
57	0xc3297814	-169.46906
58	0xc3295583	-169.33403
59	0xc32932ca	-169.1984
60	0xc3290fe5	-169.06209
61	0xc328ecd4	-168.92511
62	0xc328c994	-168.78741
63	0xc328a623	-168.64897
64	0xc32cc0ac	-172.75262
65	0xc32ca010	-172.62524
66	0xc32c7f71	-172.49782
67	0xc32c5ecd	-172.37032
68	0xc32c3e25	-172.24275
69	0xc32c1d75	-172.11507
70	0xc32bfcbc	-171.98724
71	0xc32bdbfa	-171.85928
72	0xc32bbb2c	-171.73114
73	0xc32b9a51	-171.6028
74	0xc32b7968	-171.47424
75	0xc32b5870	-171.34546
76	0xc32b3766	-171.2164
77	0xc32b164a	-171.08707
78	0xc32af519	-170.95741
79	0xc32ad3d3	-170.82744
80	0xc32ab275	-170.6971
81	0xc32a90ff	-170.56639
82	0xc32a6f6e	-170.43527
83	0xc32a4dc2	-170.30374
84	0xc32a2bf8	-170.17175
85	0xc32a0a0f	-170.03929
86	0xc329e806	-169.90634
87	0xc329c5da	-169.77286
88	0xc329a38a	-169.63882
89	0xc3298114	-169.50421
90	0xc3295e77	-169.369
91	0xc3293bb0	-169.23315
92	0xc32918be	-169.09665
93	0xc328f5a0	-168.95947
94	0xc328d253	-168.82158
95	0xc328aed5	-168.68294
96	0xc32ccad8	-172.79236
97	0xc32caa30	-172.6648
98	0xc32c8986	-172.5372
99	0xc32c68d8	-172.40955
100	0xc32c4824	-172.2818
101	0xc32c2769	-172.15395
102	0xc32c06a5	-172.02596
103	0xc32be5d7	-171.89781
104	0xc32bc4fe	-171.7695
105	0xc32ba418	-171.64099
106	0xc32b8324	-171.51227
107	0xc32b621f	-171.38329
108	0xc32b410a	-171.25406
109	0xc32b1fe2	-171.12454
110	0xc32afea5	-170.9947
111	0xc32add53	-170.86455
112	0xc32abbea	-170.73404
113	0xc32a9a67	-170.60313
114	0xc32a78cb	-170.47185
115	0xc32a5712	-170.34012
116	0xc32a353c	-170.20795
117	0xc32a1346	-170.07529
118	0xc329f130	-169.94214
119	0xc329cef8	-169.80847
120	0xc329ac9b	-169.67424
121	0xc3298a18	-169.53943
122	0xc329676e	-169.40402
123	0xc329449a	-169.26797
124	0xc329219c	-169.13129
125	0xc328fe70	-168.9939
126	0xc328db15	-168.85579
127	0xc328b78a	-168.71695
128	0xc32cd50c	-172.83221
129	0xc32cb459	-172.70448
130	0xc32c93a4	-172.57672
131	0xc32c72eb	-172.4489
132	0xc32c522b	-172.32097
133	0xc32c3165	-172.19295
134	0xc32c1096	-172.06479
135	0xc32befbd	-171.93648
136	0xc32bced8	-171.80798
137	0xc32bade7	-171.6793
138	0xc32b8ce7	-171.5504
139	0xc32b6bd7	-171.42125
140	0xc32b4ab6	-171.29184
141	0xc32b2982	-171.16214
142	0xc32b0839	-171.03212
143	0xc32ae6db	-170.90178
144	0xc32ac565	-170.77107
145	0xc32aa3d7	-170.64
146	0xc32a822e	-170.50851
147	0xc32a6069	-170.3766
148	0xc32a3e87	-170.24425
149	0xc32a1c85	-170.1114
150	0xc329fa62	-169.97806
151	0xc329d81d	-169.8442
152	0xc329b5b3	-169.70976
153	0xc3299324	-169.57477
154	0xc329706d	-169.43916
155	0xc3294d8c	-169.30292
156	0xc3292a80	-169.16602
157	0xc3290747	-169.02843
158	0xc328e3df	-168.89012
159	0xc328c046	-168.75107
160	0xc32cdf4d	-172.87227
161	0xc32cbe90	-172.74438
162	0xc32c9dcf	-172.61644
163	0xc32c7d0b	-172.48845
164	0xc32c5c40	-172.36035
165	0xc32c3b6e	-172.23215
166	0xc32c1a94	-172.10382
167	0xc32bf9b0	-171.97534
168	0xc32bd8bf	-171.84666
169	0xc32bb7c2	-171.7178
170	0xc32b96b7	-171.58873
171	0xc32b759b	-171.4594
172	0xc32b546e	-171.3298
173	0xc32b332e	-171.19992
174	0xc32b11da	-171.06973
175	0xc32af070	-170.93921
176	0xc32aceef	-170.80833
177	0xc32aad54	-170.67706
178	0xc32a8b9f	-170.5454
179	0xc32a69ce	-170.4133
180	0xc32a47df	-170.28075
181	0xc32a25d0	-170.1477
182	0xc32a03a1	-170.01418
183	0xc329e14f	-169.88011
184	0xc329bed9	-169.7455
185	0xc3299c3c	-169.61029
186	0xc3297978	-169.47449
187	0xc329568a	-169.33804
188	0xc3293371	-169.20094
189	0xc329102b	-169.06316
190	0xc328ecb5	-168.92464
191	0xc328c90f	-168.78539
192	0xc32ce98f	-172.91234
193	0xc32cc8c7	-172.78429
194	0xc32ca7fb	-172.65617
195	0xc32c872c	-172.52802
196	0xc32c6656	-172.39975
197	0xc32c4579	-172.27138
198	0xc32c2493	-172.14287
199	0xc32c03a3	-172.0142
200	0xc32be2a8	-171.88538
201	0xc32bc19f	-171.75633
202	0xc32ba088	-171.62708
203	0xc32b7f60	-171.49756
204	0xc32b5e28	-171.3678
205	0xc32b3cdc	-171.23773
206	0xc32b1b7c	-171.10736
207	0xc32afa06	-170.97665
208	0xc32ad878	-170.84558
209	0xc32ab6d1	-170.71413
210	0xc32a9510	-170.58228
211	0xc32a7333	-170.45
212	0xc32a5137	-170.31725
213	0xc32a2f1c	-170.18402
214	0xc32a0ce0	-170.0503
215	0xc329ea82	-169.91605
216	0xc329c7fe	-169.78122
217	0xc329a555	-169.64583
218	0xc3298284	-169.50983
219	0xc3295f89	-169.37318
220	0xc3293c63	-169.23589
221	0xc329190f	-169.09789
222	0xc328f58c	-168.95917
223	0xc328d1d8	-168.8197
224	0xc32cf3d5	-172.95247
225	0xc32cd302	-172.82425
226	0xc32cb22b	-172.69597
227	0xc32c9150	-172.56763
228	0xc32c706f	-172.4392
229	0xc32c4f87	-172.31065
230	0xc32c2e96	-172.18198
231	0xc32c0d9a	-172.05313
232	0xc32bec93	-171.92412
233	0xc32bcb7f	-171.7949
234	0xc32baa5c	-171.66547
235	0xc32b8929	-171.53578
236	0xc32b67e4	-171.40582
237	0xc32b468d	-171.27559
238	0xc32b2521	-171.14503
239	0xc32b039e	-171.01413
240	0xc32ae205	-170.88289
241	0xc32ac052	-170.75125
242	0xc32a9e84	-170.6192
243	0xc32a7c9a	-170.48672
244	0xc32a5a92	-170.35379
245	0xc32a386b	-170.22038
246	0xc32a1622	-170.08646
247	0xc329f3b6	-169.952
248	0xc329d126	-169.81699
249	0xc329ae70	-169.6814
250	0xc3298b92	-169.5452
251	0xc329688a	-169.40836
252	0xc3294556	-169.27084
253	0xc32921f4	-169.13263
254	0xc328fe64	-168.99371
255	0xc328daa2	-168.85403

qa f4 [32, 32]
0	0x00000000	0.0
1	0x00000000	0.0
2	0x00000000	0.0
3	0x00000000	0.0
4	0x00000000	0.0
5	0x00000000	0.0
6	0x00000000	0.0
7	0x00000000	0.0
8	0x00000000	0.0
9	0x00000000	0.0
10	0x00000000	0.0
11	0x00000000	0.0
12	0x00000000	0.0
13	0x00000000	0.0
14	0x00000000	0.0
15	0x00000000	0.0
16	0x00000000	0.0
17	0x00000000	0.0
18	0x00000000	0.0
19	0x00000000	0.0
20	0x00000000	0.0
21	0x00000000	0.0
22	0x00000000	0.0
23	0x00000000	0.0
24	0x00000000	0.0
25	0x00000000	0.0
26	0x00000000	0.0
27	0x00000000	0.0
28	0x00000000	0.0
29	0x00000000	0.0
30	0x00000000	0.0
31	0x00000000	0.0
32	0x00000000	0.0
33	0x00000000	0.0
34	0x00000000	0.0
35	0x00000000	0.0
36	0x00000000	0.0
37	0x00000000	0.0
38	0x00000000	0.0
39	0x00000000	0.0
40	0x00000000	0.0
41	0x00000000	0.0
42	0x00000000	0.0
43	0x00000000	0.0
44	0x00000000	0.0
45	0x00000000	0.0
46	0x00000000	0.0
47	0x00000000	0.0
48	0x00000000	0.0
49	0x00000000	0.0
50	0x00000000	0.0
51	0x00000000	0.0
52	0x00000000	0.0
53	0x00000000	0.0
54	0x00000000	0.0
55	0x00000000	0.0
56	0x00000000	0.0
57	0x00000000	0.0
58	0x00000000	0.0
59	0x00000000	0.0
60	0x00000000	0.0
61	0x00000000	0.0
62	0x00000000	0.0
63	0x00000000	0.0
64	0x00000000	0.0
65	0x00000000	0.0
66	0x00000000	0.0
67	0x00000000	0.0
68	0x00000000	0.0
69	0x00000000	0.0
70	0x00000000	0.0
71	0x00000000	0.0
72	0x00000000	0.0
73	0x00000000	0.0
74	0x00000000	0.0
75	0x00000000	0.0
76	0x00000000	0.0
77	0x00000000	0.0
78	0x00000000	0.0
79	0x00000000	0.0
80	0x00000000	0.0
81	0x00000000	0.0
82	0x00000000	0.0
83	0x00000000	0.0
84	0x00000000	0.0
85	0x00000000	0.0
86	0x00000000	0.0
87	0x00000000	0.0
88	0x00000000	0.0
89	0x00000000	0.0
90	0x00000000	0.0
91	0x00000000	0.0
92	0x00000000	0.0
93	0x00000000	0.0
94	0x00000000	0.0
95	0x00000000	0.0
96	0x00000000	0.0
97	0x00000000	0.0
98	0x00000000	0.0
99	0x00000000	0.0
100	0x00000000	0.0
101	0x00000000	0.0
102	0x00000000	0.0
103	0x00000000	0.0
104	0x00000000	0.0
105	0x00000000	0.0
106	0x00000000	0.0
107	0x00000000	0.0
108	0x00000000	0.0
109	0x00000000	0.0
110	0x00000000	0.0
111	0x00000000	0.0
112	0x00000000	0.0
113	0x00000000	0.0
114	0x00000000	0.0
115	0x00000000	0.0
116	0x00000000	0.0
117	0x00000000	0.0
118	0x00000000	0.0
119	0x00000000	0.0
120	0x00000000	0.0
121	0x00000000	0.0
122	0x00000000	0.0
123	0x00000000	0.0
124	0x00000000	0.0
125	0x00000000	0.0
126	0x00000000	0.0
127	0x00000000	0.0
128	0x00000000	0.0
129	0x00000000	0.0
130	0x00000000	0.0
131	0x00000000	0.0
132	0x00000000	0.0
133	0x00000000	0.0
134	0x00000000	0.0
135	0x00000000	0.0
136	0x00000000	0.0
137	0x00000000	0.0
138	0x00000000	0.0
139	0x00000000	0.0
140	0x00000000	0.0
141	0x00000000	0.0
142	0x00000000	0.0
143	0x00000000	0.0
144	0x00000000	0.0
145	0x00000000	0.0
146	0x00000000	0.0
147	0x00000000	0.0
148	0x00000000	0.0
149	0x00000000	0.0
150	0x00000000	0.0
151	0x00000000	0.0
152	0x00000000	0.0
153	0x00000000	0.0
154	0x00000000	0.0
155	0x00000000	0.0
156	0x00000000	0.0
157	0x00000000	0.0
158	0x00000000	0.0
159	0x00000000	0.0
160	0x00000000	0.0
161	0x00000000	0.0
162	0x00000000	0.0
163	0x00000000	0.0
164	0x00000000	0.0
165	0x00000000	0.0
166	0x00000000	0.0
167	0x00000000	0.0
168	0x00000000	0.0
169	0x00000000	0.0
170	0x00000000	0.0
171	0x00000000	0.0
172	0x00000000	0.0
173	0x00000000	0.0
174	0x00000000	0.0
175	0x00000000	0.0
176	0x00000000	0.0
177	0x00000000	0.0
178	0x00000000	0.0
179	0x00000000	0.0
180	0x00000000	0.0
181	0x00000000	0.0
182	0x00000000	0.0
183	0x00000000	0.0
184	0x00000000	0.0
185	0x00000000	0.0
186	0x00000000	0.0
187	0x00000000	0.0
188	0x00000000	0.0
189	0x00000000	0.0
190	0x00000000	0.0
191	0x00000000	0.0
192	0x00000000	0.0
193	0x00000000	0.0
194	0x00000000	0.0
195	0x00000000	0.0
196	0x00000000	0.0
197	0x00000000	0.0
198	0x00000000	0.0
199	0x00000000	0.0
200	0x00000000	0.0
201	0x00000000	0.0
202	0x00000000	0.0
203	0x00000000	0.0
204	0x00000000	0.0
205	0x00000000	0.0
206	0x00000000	0.0
207	0x00000000	0.0
208	0x00000000	0.0
209	0x00000000	0.0
210	0x00000000	0.0
211	0x00000000	0.0
212	0x00000000	0.0
213	0x00000000	0.0
214	0x00000000	0.0
215	0x00000000	0.0
216	0x00000000	0.0
217	0x00000000	0.0
218	0x00000000	0.0
219	0x00000000	0.0
220	0x00000000	0.0
221	0x00000000	0.0
222	0x00000000	0.0
223	0x00000000	0.0
224	0x00000000	0.0
225	0x00000000	0.0
226	0x00000000	0.0
227	0x00000000	0.0
228	0x00000000	0.0
229	0x00000000	0.0
230	0x00000000	0.0
231	0x00000000	0.0
232	0x00000000	0.0
233	0x00000000	0.0
234	0x00000000	0.0
235	0x00000000	0.0
236	0x00000000	0.0
237	0x00000000	0.0
238	0x00000000	0.0
239	0x00000000	0.0
240	0x00000000	0.0
241	0x00000000	0.0
242	0x00000000	0.0
243	0x00000000	0.0
244	0x00000000	0.0
245	0x00000000	0.0
246	0x00000000	0.0
247	0x00000000	0.0
248	0x00000000	0.0
249	0x00000000	0.0
250	0x00000000	0.0
251	0x00000000	0.0
252	0x00000000	0.0
253	0x00000000	0.0
254	0x00000000	0.0
255	0x00000000	0.0
