data/dataset/negative/bdb823eb-dc7b-4e26-b7ac-18b49321706b.npz (npz, 23743 bytes, 4 tensors)

methane f8 [32, 32]
9.969209968386869e+36 9.969209968386869e+36 9.969209968386869e+36 9.969209968386869e+36 9.969209968386869e+36 9.969209968386869e+36 9.969209968386869e+36 9.969209968386869e+36
9.969209968386869e+36 9.969209968386869e+36 9.969209968386869e+36 9.969209968386869e+36 9.969209968386869e+36 9.969209968386869e+36 9.969209968386869e+36 9.969209968386869e+36
9.969209968386869e+36 9.969209968386869e+36 9.969209968386869e+36 9.969209968386869e+36 9.969209968386869e+36 9.969209968386869e+36 9.969209968386869e+36 9.969209968386869e+36
9.969209968386869e+36 9.969209968386869e+36 9.969209968386869e+36 9.969209968386869e+36 9.969209968386869e+36 9.969209968386869e+36 9.969209968386869e+36 9.969209968386869e+36
9.969209968386869e+36 9.969209968386869e+36 9.969209968386869e+36 9.969209968386869e+36 9.969209968386869e+36 9.969209968386869e+36 9.969209968386869e+36 9.969209968386869e+36
9.969209968386869e+36 9.969209968386869e+36 9.969209968386869e+36 9.969209968386869e+36 9.969209968386869e+36 9.969209968386869e+36 9.969209968386869e+36 9.969209968386869e+36
9.969209968386869e+36 9.969209968386869e+36 9.969209968386869e+36 9.969209968386869e+36 9.969209968386869e+36 9.969209968386869e+36 9.969209968386869e+36 9.969209968386869e+36
9.969209968386869e+36 9.969209968386869e+36 9.969209968386869e+36 9.969209968386869e+36 9.969209968386869e+36 9.969209968386869e+36 9.969209968386869e+36 9.969209968386869e+36
9.969209968386869e+36 9.969209968386869e+36 9.969209968386869e+36 9.969209968386869e+36 9.969209968386869e+36 9.969209968386869e+36 9.969209968386869e+36 9.969209968386869e+36
9.969209968386869e+36 9.969209968386869e+36 9.969209968386869e+36 9.969209968386869e+36 9.969209968386869e+36 9.969209968386869e+36 9.969209968386869e+36 9.969209968386869e+36
9.969209968386869e+36 9.969209968386869e+36 9.969209968386869e+36 9.969209968386869e+36 9.969209968386869e+36 9.969209968386869e+36 9.969209968386869e+36 9.969209968386869e+36
9.969209968386869e+36 9.969209968386869e+36 9.969209968386869e+36 9.969209968386869e+36 9.969209968386869e+36 9.969209968386869e+36 9.969209968386869e+36 9.969209968386869e+36
9.969209968386869e+36 9.969209968386869e+36 9.969209968386869e+36 9.969209968386869e+36 9.969209968386869e+36 9.969209968386869e+36 9.969209968386869e+36 9.969209968386869e+36
9.969209968386869e+36 9.969209968386869e+36 9.969209968386869e+36 9.969209968386869e+36 9.969209968386869e+36 9.969209968386869e+36 9.969209968386869e+36 9.969209968386869e+36
9.969209968386869e+36 9.969209968386869e+36 9.969209968386869e+36 9.969209968386869e+36 9.969209968386869e+36 9.969209968386869e+36 9.969209968386869e+36 9.969209968386869e+36
9.969209968386869e+36 9.969209968386869e+36 9.969209968386869e+36 9.969209968386869e+36 9.969209968386869e+36 9.969209968386869e+36 9.969209968386869e+36 9.969209968386869e+36
9.969209968386869e+36 9.969209968386869e+36 9.969209968386869e+36 9.969209968386869e+36 9.969209968386869e+36 9.969209968386869e+36 9.969209968386869e+36 9.969209968386869e+36
9.969209968386869e+36 9.969209968386869e+36 9.969209968386869e+36 9.969209968386869e+36 9.969209968386869e+36 9.969209968386869e+36 9.969209968386869e+36 9.969209968386869e+36
9.969209968386869e+36 9.969209968386869e+36 9.969209968386869e+36 9.969209968386869e+36 9.969209968386869e+36 9.969209968386869e+36 9.969209968386869e+36 9.969209968386869e+36
9.969209968386869e+36 9.969209968386869e+36 9.969209968386869e+36 9.969209968386869e+36 9.969209968386869e+36 9.969209968386869e+36 9.969209968386869e+36 9.969209968386869e+36
9.969209968386869e+36 9.969209968386869e+36 9.969209968386869e+36 9.969209968386869e+36 9.969209968386869e+36 9.969209968386869e+36 9.969209968386869e+36 9.969209968386869e+36
9.969209968386869e+36 9.969209968386869e+36 9.969209968386869e+36 9.969209968386869e+36 9.969209968386869e+36 9.969209968386869e+36 9.969209968386869e+36 9.969209968386869e+36
9.969209968386869e+36 9.969209968386869e+36 9.969209968386869e+36 9.969209968386869e+36 9.969209968386869e+36 9.969209968386869e+36 9.969209968386869e+36 9.969209968386869e+36
9.969209968386869e+36 9.969209968386869e+36 9.969209968386869e+36 9.969209968386869e+36 9.969209968386869e+36 9.969209968386869e+36 9.969209968386869e+36 9.969209968386869e+36
9.969209968386869e+36 9.969209968386869e+36 9.969209968386869e+36 9.969209968386869e+36 9.969209968386869e+36 9.969209968386869e+36 9.969209968386869e+36 9.969209968386869e+36
9.969209968386869e+36 9.969209968386869e+36 9.969209968386869e+36 9.969209968386869e+36 9.969209968386869e+36 9.969209968386869e+36 9.969209968386869e+36 9.969209968386869e+36
9.969209968386869e+36 9.969209968386869e+36 9.969209968386869e+36 9.969209968386869e+36 9.969209968386869e+36 9.969209968386869e+36 9.969209968386869e+36 9.969209968386869e+36
9.969209968386869e+36 9.969209968386869e+36 9.969209968386869e+36 9.969209968386869e+36 9.969209968386869e+36 9.969209968386869e+36 9.969209968386869e+36 9.969209968386869e+36
9.969209968386869e+36 9.969209968386869e+36 9.969209968386869e+36 9.969209968386869e+36 9.969209968386869e+36 9.969209968386869e+36 9.969209968386869e+36 9.969209968386869e+36
9.969209968386869e+36 9.969209968386869e+36 9.969209968386869e+36 9.969209968386869e+36 9.969209968386869e+36 9.969209968386869e+36 9.969209968386869e+36 9.969209968386869e+36
9.969209968386869e+36 9.969209968386869e+36 9.969209968386869e+36 9.969209968386869e+36 9.969209968386869e+36 9.969209968386869e+36 9.969209968386869e+36 9.969209968386869e+36
9.969209968386869e+36 9.969209968386869e+36 9.969209968386869e+36 9.969209968386869e+36 9.969209968386869e+36 9.969209968386869e+36 9.969209968386869e+36 9.969209968386869e+36
00000000: 0000 0000 0000 9e47 0000 0000 0000 9e47
00000010: 0000 0000 0000 9e47 0000 0000 0000 9e47
00000020: 0000 0000 0000 9e47 0000 0000 0000 9e47
00000030: 0000 0000 0000 9e47 0000 0000 0000 9e47
00000040: 0000 0000 0000 9e47 0000 0000 0000 9e47
00000050: 0000 0000 0000 9e47 0000 0000 0000 9e47
00000060: 0000 0000 0000 9e47 0000 0000 0000 9e47
00000070: 0000 0000 0000 9e47 0000 0000 0000 9e47
00000080: 0000 0000 0000 9e47 0000 0000 0000 9e47
00000090: 0000 0000 0000 9e47 0000 0000 0000 9e47
000000a0: 0000 0000 0000 9e47 0000 0000 0000 9e47
000000b0: 0000 0000 0000 9e47 0000 0000 0000 9e47
000000c0: 0000 0000 0000 9e47 0000 0000 0000 9e47
000000d0: 0000 0000 0000 9e47 0000 0000 0000 9e47
000000e0: 0000 0000 0000 9e47 0000 0000 0000 9e47
000000f0: 0000 0000 0000 9e47 0000 0000 0000 9e47
00000100: 0000 0000 0000 9e47 0000 0000 0000 9e47
00000110: 0000 0000 0000 9e47 0000 0000 0000 9e47
00000120: 0000 0000 0000 9e47 0000 0000 0000 9e47
00000130: 0000 0000 0000 9e47 0000 0000 0000 9e47
00000140: 0000 0000 0000 9e47 0000 0000 0000 9e47
00000150: 0000 0000 0000 9e47 0000 0000 0000 9e47
00000160: 0000 0000 0000 9e47 0000 0000 0000 9e47
00000170: 0000 0000 0000 9e47 0000 0000 0000 9e47
00000180: 0000 0000 0000 9e47 0000 0000 0000 9e47
00000190: 0000 0000 0000 9e47 0000 0000 0000 9e47
000001a0: 0000 0000 0000 9e47 0000 0000 0000 9e47
000001b0: 0000 0000 0000 9e47 0000 0000 0000 9e47
000001c0: 0000 0000 0000 9e47 0000 0000 0000 9e47
000001d0: 0000 0000 0000 9e47 0000 0000 0000 9e47
000001e0: 0000 0000 0000 9e47 0000 0000 0000 9e47
000001f0: 0000 0000 0000 9e47 0000 0000 0000 9e47
00000200: 0000 0000 0000 9e47 0000 0000 0000 9e47
00000210: 0000 0000 0000 9e47 0000 0000 0000 9e47
00000220: 0000 0000 0000 9e47 0000 0000 0000 9e47
00000230: 0000 0000 0000 9e47 0000 0000 0000 9e47
00000240: 0000 0000 0000 9e47 0000 0000 0000 9e47
00000250: 0000 0000 0000 9e47 0000 0000 0000 9e47
00000260: 0000 0000 0000 9e47 0000 0000 0000 9e47
00000270: 0000 0000 0000 9e47 0000 0000 0000 9e47
00000280: 0000 0000 0000 9e47 0000 0000 0000 9e47
00000290: 0000 0000 0000 9e47 0000 0000 0000 9e47
000002a0: 0000 0000 0000 9e47 0000 0000 0000 9e47
000002b0: 0000 0000 0000 9e47 0000 0000 0000 9e47
000002c0: 0000 0000 0000 9e47 0000 0000 0000 9e47
000002d0: 0000 0000 0000 9e47 0000 0000 0000 9e47
000002e0: 0000 0000 0000 9e47 0000 0000 0000 9e47
000002f0: 0000 0000 0000 9e47 0000 0000 0000 9e47
00000300: 0000 0000 0000 9e47 0000 0000 0000 9e47
00000310: 0000 0000 0000 9e47 0000 0000 0000 9e47
00000320: 0000 0000 0000 9e47 0000 0000 0000 9e47
00000330: 0000 0000 0000 9e47 0000 0000 0000 9e47
00000340: 0000 0000 0000 9e47 0000 0000 0000 9e47
00000350: 0000 0000 0000 9e47 0000 0000 0000 9e47
00000360: 0000 0000 0000 9e47 0000 0000 0000 9e47
00000370: 0000 0000 0000 9e47 0000 0000 0000 9e47
00000380: 0000 0000 0000 9e47 0000 0000 0000 9e47
00000390: 0000 0000 0000 9e47 0000 0000 0000 9e47
000003a0: 0000 0000 0000 9e47 0000 0000 0000 9e47
000003b0: 0000 0000 0000 9e47 0000 0000 0000 9e47
000003c0: 0000 0000 0000 9e47 0000 0000 0000 9e47
000003d0: 0000 0000 0000 9e47 0000 0000 0000 9e47
000003e0: 0000 0000 0000 9e47 0000 0000 0000 9e47
000003f0: 0000 0000 0000 9e47 0000 0000 0000 9e47
00000400: 0000 0000 0000 9e47 0000 0000 0000 9e47
00000410: 0000 0000 0000 9e47 0000 0000 0000 9e47
00000420: 0000 0000 0000 9e47 0000 0000 0000 9e47
00000430: 0000 0000 0000 9e47 0000 0000 0000 9e47
00000440: 0000 0000 0000 9e47 0000 0000 0000 9e47
00000450: 0000 0000 0000 9e47 0000 0000 0000 9e47
00000460: 0000 0000 0000 9e47 0000 0000 0000 9e47
00000470: 0000 0000 0000 9e47 0000 0000 0000 9e47
00000480: 0000 0000 0000 9e47 0000 0000 0000 9e47
00000490: 0000 0000 0000 9e47 0000 0000 0000 9e47
000004a0: 0000 0000 0000 9e47 0000 0000 0000 9e47
000004b0: 0000 0000 0000 9e47 0000 0000 0000 9e47
000004c0: 0000 0000 0000 9e47 0000 0000 0000 9e47
000004d0: 0000 0000 0000 9e47 0000 0000 0000 9e47
000004e0: 0000 0000 0000 9e47 0000 0000 0000 9e47
000004f0: 0000 0000 0000 9e47 0000 0000 0000 9e47
00000500: 0000 0000 0000 9e47 0000 0000 0000 9e47
00000510: 0000 0000 0000 9e47 0000 0000 0000 9e47
00000520: 0000 0000 0000 9e47 0000 0000 0000 9e47
00000530: 0000 0000 0000 9e47 0000 0000 0000 9e47
00000540: 0000 0000 0000 9e47 0000 0000 0000 9e47
00000550: 0000 0000 0000 9e47 0000 0000 0000 9e47
00000560: 0000 0000 0000 9e47 0000 0000 0000 9e47
00000570: 0000 0000 0000 9e47 0000 0000 0000 9e47
00000580: 0000 0000 0000 9e47 0000 0000 0000 9e47
00000590: 0000 0000 0000 9e47 0000 0000 0000 9e47
000005a0: 0000 0000 0000 9e47 0000 0000 0000 9e47
000005b0: 0000 0000 0000 9e47 0000 0000 0000 9e47
000005c0: 0000 0000 0000 9e47 0000 0000 0000 9e47
000005d0: 0000 0000 0000 9e47 0000 0000 0000 9e47
000005e0: 0000 0000 0000 9e47 0000 0000 0000 9e47
000005f0: 0000 0000 0000 9e47 0000 0000 0000 9e47
00000600: 0000 0000 0000 9e47 0000 0000 0000 9e47
00000610: 0000 0000 0000 9e47 0000 0000 0000 9e47
00000620: 0000 0000 0000 9e47 0000 0000 0000 9e47
00000630: 0000 0000 0000 9e47 0000 0000 0000 9e47
00000640: 0000 0000 0000 9e47 0000 0000 0000 9e47
00000650: 0000 0000 0000 9e47 0000 0000 0000 9e47
00000660: 0000 0000 0000 9e47 0000 0000 0000 9e47
00000670: 0000 0000 0000 9e47 0000 0000 0000 9e47
00000680: 0000 0000 0000 9e47 0000 0000 0000 9e47
00000690: 0000 0000 0000 9e47 0000 0000 0000 9e47
000006a0: 0000 0000 0000 9e47 0000 0000 0000 9e47
000006b0: 0000 0000 0000 9e47 0000 0000 0000 9e47
000006c0: 0000 0000 0000 9e47 0000 0000 0000 9e47
000006d0: 0000 0000 0000 9e47 0000 0000 0000 9e47
000006e0: 0000 0000 0000 9e47 0000 0000 0000 9e47
000006f0: 0000 0000 0000 9e47 0000 0000 0000 9e47
00000700: 0000 0000 0000 9e47 0000 0000 0000 9e47
00000710: 0000 0000 0000 9e47 0000 0000 0000 9e47
00000720: 0000 0000 0000 9e47 0000 0000 0000 9e47
00000730: 0000 0000 0000 9e47 0000 0000 0000 9e47
00000740: 0000 0000 0000 9e47 0000 0000 0000 9e47
00000750: 0000 0000 0000 9e47 0000 0000 0000 9e47
00000760: 0000 0000 0000 9e47 0000 0000 0000 9e47
00000770: 0000 0000 0000 9e47 0000 0000 0000 9e47
00000780: 0000 0000 0000 9e47 0000 0000 0000 9e47
00000790: 0000 0000 0000 9e47 0000 0000 0000 9e47
000007a0: 0000 0000 0000 9e47 0000 0000 0000 9e47
000007b0: 0000 0000 0000 9e47 0000 0000 0000 9e47
000007c0: 0000 0000 0000 9e47 0000 0000 0000 9e47
000007d0: 0000 0000 0000 9e47 0000 0000 0000 9e47
000007e0: 0000 0000 0000 9e47 0000 0000 0000 9e47
000007f0: 0000 0000 0000 9e47 0000 0000 0000 9e47

lat f4 [32, 32]
24.903269 25.064022 25.215746 25.359316 25.495485 25.62491 25.74816 25.865734
25.978075 26.085577 26.18859 26.287426 26.38237 26.473675 26.561575 26.646276
26.727976 26.806845 26.883045 26.956726 27.028025 27.097063 27.163961 27.228827
27.29176 27.352852 27.412193 27.469866 27.525942 27.580496 27.633595 27.685299
24.950539 25.11137 25.263163 25.4068 25.543032 25.672514 25.795818 25.913445
26.025835 26.133385 26.23644 26.33532 26.430304 26.521646 26.609583 26.69432
26.776052 26.854954 26.931185 27.004896 27.076221 27.145288 27.212212 27.277103
27.34006 27.401176 27.46054 27.518234 27.574331 27.628906 27.682024 27.73375
24.997768 25.158676 25.310543 25.454247 25.590544 25.720085 25.843447 25.961126
26.073566 26.181164 26.284266 26.383186 26.47821 26.569593 26.657566 26.74234
26.824106 26.90304 26.979303 27.053043 27.124397 27.193491 27.260443 27.32536
27.38834 27.449482 27.50887 27.566584 27.622704 27.6773 27.730438 27.782183
25.045025 25.206009 25.357948 25.501719 25.638079 25.767681 25.891096 26.00883
26.121319 26.228962 26.332108 26.431072 26.526136 26.61756 26.705568 26.790377
26.872175 26.951141 27.027435 27.101206 27.172588 27.24171 27.308687 27.373629
27.436636 27.497799 27.557209 27.614946 27.671087 27.725704 27.778862 27.830626
25.092327 25.253387 25.405396 25.549232 25.685654 25.815313 25.938784 26.056566
26.169106 26.276794 26.379984 26.47899 26.574095 26.665554 26.7536 26.838442
26.920275 26.999271 27.075596 27.149395 27.220804 27.289953 27.356956 27.421923
27.484953 27.54614 27.605572 27.663332 27.719494 27.77413 27.827307 27.87909
25.139576 25.300713 25.452791 25.596695 25.733177 25.862896 25.986422 26.104258
26.216845 26.324581 26.427816 26.526863 26.622007 26.713505 26.801588 26.886465
26.96833 27.047361 27.123716 27.197544 27.268984 27.33816 27.40519 27.47018
27.533236 27.594446 27.653902 27.711683 27.767866 27.822523 27.87572 27.92752
25.186941 25.34815 25.500298 25.644264 25.780806 25.91058 26.034157 26.152042
26.264679 26.372458 26.475735 26.574823 26.670006 26.761541 26.849657 26.934568
27.016466 27.095528 27.171911 27.24577 27.317236 27.386438 27.453493 27.518509
27.581587 27.64282 27.702297 27.7601 27.816303 27.87098 27.924196 27.976017
25.234123 25.39541 25.547632 25.691668 25.828274 25.958109 26.081743 26.199682
26.31237 26.420198 26.523521 26.622652 26.717878 26.80945 26.897606 26.982553
27.064486 27.14358 27.219995 27.293882 27.36538 27.434608 27.50169 27.566732
27.629835 27.691093 27.750595 27.808418 27.864645 27.919342 27.97258 28.02442
00000000: e539 c741 1e83 c841 d9b9 c941 e1df ca41
00000010: c1f6 cb41 d1ff cc41 3bfc cd41 06ed ce41
00000020: 19d3 cf41 43af d041 3b82 d141 a64c d241
00000030: 180f d341 16ca d341 1b7e d441 932b d541
00000040: e5d2 d541 6b74 d641 7a10 d741 60a7 d741
00000050: 6539 d841 c9c6 d841 cb4f d941 a3d4 d941
00000060: 8655 da41 a4d2 da41 2c4c db41 49c2 db41
00000070: 2135 dc41 dba4 dc41 9a11 dd41 7e7b dd41
00000080: b49a c741 16e4 c841 f51a ca41 2041 cb41
00000090: 2158 cc41 4f61 cd41 d65d ce41 bc4e cf41
000000a0: e934 d041 2c11 d141 3be4 d141 bcae d241
000000b0: 4371 d341 552c d441 6de0 d441 f88d d541
000000c0: 5b35 d641 f2d6 d641 1173 d741 070a d841
000000d0: 1a9c d841 8d29 d941 9cb2 d941 8237 da41
000000e0: 71b8 da41 9c35 db41 30af db41 5825 dc41
000000f0: 3b98 dc41 0008 dd41 c974 dd41 b8de dd41
00000100: 6efb c741 f844 c941 fe7b ca41 4ca2 cb41
00000110: 6fb9 cc41 bcc2 cd41 61bf ce41 63b0 cf41
00000120: aa96 d041 0673 d141 2d46 d241 c410 d341
00000130: 60d3 d341 878e d441 b242 d541 50f0 d541
00000140: c597 d641 6d39 d741 9dd5 d741 a26c d841
00000150: c4fe d841 458c d941 6315 da41 569a da41
00000160: 521b db41 8a98 db41 2a12 dc41 5d88 dc41
00000170: 4cfb dc41 1c6b dd41 f0d7 dd41 e941 de41
00000180: 365c c841 e8a5 c941 14dd ca41 8503 cc41
00000190: c91a cd41 3624 ce41 f720 cf41 1512 d041
000001a0: 76f8 d041 ead4 d141 28a8 d241 d672 d341
000001b0: 8735 d441 c3f0 d441 01a5 d541 b152 d641
000001c0: 37fa d641 f09b d741 3038 d841 45cf d841
000001d0: 7661 d941 06ef d941 3178 da41 31fd da41
000001e0: 3b7e db41 7efb db41 2a75 dc41 69eb dc41
000001f0: 635e dd41 3ece dd41 1c3b de41 1fa5 de41
00000200: 16bd c841 f006 ca41 403e cb41 d464 cc41
00000210: 387c cd41 c385 ce41 a182 cf41 d973 d041
00000220: 545a d141 e036 d241 350a d341 f9d4 d341
00000230: bf97 d441 0e53 d541 5f07 d641 21b5 d641
00000240: b95c d741 82fe d741 d29a d841 f631 d941
00000250: 35c4 d941 d351 da41 0cdb da41 1960 db41
00000260: 2fe1 db41 7f5e dc41 36d8 dc41 814e dd41
00000270: 86c1 dd41 6b31 de41 539e de41 6008 df41
00000280: da1d c941 dc67 ca41 519f cb41 08c6 cc41
00000290: 8cdd cd41 36e7 ce41 31e4 cf41 85d5 d041
000002a0: 19bc d141 be98 d241 2b6c d341 0437 d441
000002b0: dff9 d441 42b5 d541 a769 d641 7b17 d741
000002c0: 24bf d741 ff60 d841 5ffd d841 9294 d941
000002d0: e126 da41 8db4 da41 d43d db41 eec2 db41
000002e0: 1144 dc41 6dc1 dc41 313b dd41 87b1 dd41
000002f0: 9724 de41 8794 de41 7901 df41 906b df41
00000300: db7e c941 03c9 ca41 9c00 cc41 7427 cd41
00000310: 173f ce41 de48 cf41 f445 d041 6237 d141
00000320: 101e d241 cbfa d241 4ece d341 3d99 d441
00000330: 2c5c d541 a317 d641 19cc d641 ff79 d741
00000340: b921 d841 a4c3 d841 1360 d941 56f7 d941
00000350: b389 da41 6d17 db41 c1a0 db41 e825 dc41
00000360: 17a7 dc41 7f24 dd41 4e9e dd41 af14 de41
00000370: ca87 de41 c4f7 de41 c164 df41 e2ce df41
00000380: 7cdf c941 cd29 cb41 8d61 cc41 8988 cd41
00000390: 4ea0 ce41 35aa cf41 69a7 d041 f398 d141
000003a0: bc7f d241 915c d341 2c30 d441 31fb d441
000003b0: 37be d541 c179 d641 4c2e d741 45dc d741
000003c0: 1184 d841 0d26 d941 8dc2 d941 df59 da41
000003d0: 4cec da41 147a db41 7603 dc41 ab88 dc41
000003e0: e709 dd41 5c87 dd41 3801 de41 a477 de41
000003f0: cbea de41 d05a df41 d8c7 df41 0332 e041

lon f4 [32, 32]
-155.4984 -155.17984 -154.87689 -154.58806 -154.31207 -154.0478 -153.79433 -153.55074
-153.3163 -153.09033 -152.87224 -152.66147 -152.45755 -152.26003 -152.0685 -151.88261
-151.70201 -151.52641 -151.35551 -151.18907 -151.02682 -150.86858 -150.71411 -150.56325
-150.41579 -150.27158 -150.13046 -149.9923 -149.85695 -149.72427 -149.59418 -149.46652
-155.51662 -155.19798 -154.89494 -154.60603 -154.32997 -154.06564 -153.81209 -153.56842
-153.33392 -153.1079 -152.88972 -152.6789 -152.47491 -152.27733 -152.08574 -151.8998
-151.71913 -151.54347 -151.37251 -151.20601 -151.04372 -150.88542 -150.7309 -150.57997
-150.43246 -150.28821 -150.14703 -150.00882 -149.87343 -149.7407 -149.61055 -149.48286
-155.53494 -155.21622 -154.9131 -154.62411 -154.34798 -154.08357 -153.82993 -153.5862
-153.35162 -153.12552 -152.90729 -152.6964 -152.49236 -152.2947 -152.10304 -151.91704
-151.73631 -151.5606 -151.38959 -151.22302 -151.06067 -150.90231 -150.74774 -150.59677
-150.4492 -150.30489 -150.16367 -150.0254 -149.88995 -149.75719 -149.62698 -149.49924
-155.55328 -155.23447 -154.93127 -154.6422 -154.36598 -154.1015 -153.8478 -153.60399
-153.36934 -153.14317 -152.92488 -152.71391 -152.5098 -152.31209 -152.12038 -151.9343
-151.75352 -151.57773 -151.40666 -151.24005 -151.07764 -150.91924 -150.7646 -150.61357
-150.46596 -150.32158 -150.18031 -150.04199 -149.9065 -149.77368 -149.64343 -149.51564
-155.5716 -155.2527 -154.94943 -154.66028 -154.38399 -154.11943 -153.86565 -153.62177
-153.38705 -153.16081 -152.94246 -152.73143 -152.52724 -152.32947 -152.1377 -151.95155
-151.77072 -151.59488 -151.42375 -151.25706 -151.0946 -150.93614 -150.78146 -150.63037
-150.4827 -150.33829 -150.19696 -150.0586 -149.92303 -149.79018 -149.65988 -149.53204
-155.58987 -155.2709 -154.96754 -154.67833 -154.40196 -154.13733 -153.88347 -153.63953
-153.40474 -153.17844 -152.96 -152.74892 -152.54466 -152.34683 -152.15498 -151.9688
-151.7879 -151.612 -151.44081 -151.27408 -151.11156 -150.95303 -150.7983 -150.64716
-150.49944 -150.35497 -150.2136 -150.07518 -149.93958 -149.80666 -149.67632 -149.54843
-155.60811 -155.28906 -154.98563 -154.69633 -154.41989 -154.1552 -153.90126 -153.65726
-153.4224 -153.19603 -152.97754 -152.76637 -152.56207 -152.36417 -152.17227 -151.98602
-151.80507 -151.6291 -151.45787 -151.29108 -151.12851 -150.96992 -150.81514 -150.66394
-150.51617 -150.37164 -150.23022 -150.09175 -149.9561 -149.82314 -149.69275 -149.5648
-155.62656 -155.30742 -155.0039 -154.71452 -154.438 -154.17323 -153.91924 -153.67514
-153.44022 -153.21378 -152.99521 -152.78398 -152.57962 -152.38165 -152.18968 -152.00337
-151.82236 -151.64633 -151.47504 -151.30818 -151.14555 -150.98692 -150.83208 -150.68083
-150.533 -150.38843 -150.24695 -150.10843 -149.97272 -149.8397 -149.70927 -149.58128
00000000: 977f 1bc3 0a2e 1bc3 7ce0 1ac3 8b96 1ac3
00000010: e44f 1ac3 3d0c 1ac3 59cb 19c3 fd8c 19c3
00000020: f950 19c3 2017 19c3 4bdf 18c3 56a9 18c3
00000030: 2275 18c3 9142 18c3 8911 18c3 f3e1 17c3
00000040: b7b3 17c3 c386 17c3 035b 17c3 6730 17c3
00000050: de06 17c3 5bde 16c3 d0b6 16c3 3190 16c3
00000060: 716a 16c3 8645 16c3 6621 16c3 07fe 15c3
00000070: 61db 15c3 6ab9 15c3 1c98 15c3 6e77 15c3
00000080: 4184 1bc3 af32 1bc3 1be5 1ac3 259b 1ac3
00000090: 7954 1ac3 ce10 1ac3 e5cf 19c3 8491 19c3
000000a0: 7c55 19c3 9f1b 19c3 c5e3 18c3 ccad 18c3
000000b0: 9479 18c3 ff46 18c3 f315 18c3 59e6 17c3
000000c0: 19b8 17c3 218b 17c3 5d5f 17c3 bd34 17c3
000000d0: 310b 17c3 abe2 16c3 1cbb 16c3 7994 16c3
000000e0: b66e 16c3 c849 16c3 a425 16c3 4202 16c3
000000f0: 99df 15c3 9fbd 15c3 4d9c 15c3 9d7b 15c3
00000100: f288 1bc3 5a37 1bc3 c1e9 1ac3 c69f 1ac3
00000110: 1559 1ac3 6515 1ac3 76d4 19c3 1196 19c3
00000120: 045a 19c3 2220 19c3 44e8 18c3 47b2 18c3
00000130: 0b7e 18c3 714b 18c3 611a 18c3 c3ea 17c3
00000140: 7fbc 17c3 838f 17c3 bc63 17c3 1839 17c3
00000150: 880f 17c3 fee6 16c3 6cbf 16c3 c698 16c3
00000160: ff72 16c3 0d4e 16c3 e629 16c3 8106 16c3
00000170: d4e3 15c3 d7c1 15c3 82a0 15c3 ce7f 15c3
00000180: a48d 1bc3 063c 1bc3 68ee 1ac3 67a4 1ac3
00000190: b15d 1ac3 fc19 1ac3 09d9 19c3 9f9a 19c3
000001a0: 8d5e 19c3 a724 19c3 c5ec 18c3 c3b6 18c3
000001b0: 8282 18c3 e54f 18c3 d11e 18c3 2eef 17c3
000001c0: e7c0 17c3 e693 17c3 1b68 17c3 743d 17c3
000001d0: e013 17c3 53eb 16c3 bdc3 16c3 139d 16c3
000001e0: 4977 16c3 5352 16c3 292e 16c3 c00a 16c3
000001f0: 10e8 15c3 10c6 15c3 b8a4 15c3 0184 15c3
00000200: 5492 1bc3 b140 1bc3 0ef3 1ac3 08a9 1ac3
00000210: 4d62 1ac3 931e 1ac3 9bdd 19c3 2c9f 19c3
00000220: 1663 19c3 2b29 19c3 45f1 18c3 3fbb 18c3
00000230: f986 18c3 5854 18c3 4023 18c3 99f3 17c3
00000240: 4ec5 17c3 4a98 17c3 7b6c 17c3 cf41 17c3
00000250: 3818 17c3 a7ef 16c3 0ec8 16c3 60a1 16c3
00000260: 927b 16c3 9a56 16c3 6c32 16c3 000f 16c3
00000270: 4cec 15c3 49ca 15c3 eea8 15c3 3488 15c3
00000280: 0297 1bc3 5a45 1bc3 b1f7 1ac3 a7ad 1ac3
00000290: e766 1ac3 2823 1ac3 2be2 19c3 b8a3 19c3
000002a0: 9d67 19c3 ae2d 19c3 c3f5 18c3 b9bf 18c3
000002b0: 6f8b 18c3 ca58 18c3 ad27 18c3 03f8 17c3
000002c0: b4c9 17c3 ac9c 17c3 d970 17c3 2a46 17c3
000002d0: 8f1c 17c3 faf3 16c3 5dcc 16c3 aca5 16c3
000002e0: db7f 16c3 df5a 16c3 ae36 16c3 3f13 16c3
000002f0: 88f0 15c3 81ce 15c3 23ad 15c3 668c 15c3
00000300: ad9b 1bc3 004a 1bc3 52fc 1ac3 43b2 1ac3
00000310: 7e6b 1ac3 bb27 1ac3 b9e6 19c3 42a8 19c3
00000320: 226c 19c3 2f32 19c3 40fa 18c3 31c4 18c3
00000330: e48f 18c3 3a5d 18c3 1a2c 18c3 6cfc 17c3
00000340: 19ce 17c3 0da1 17c3 3775 17c3 844a 17c3
00000350: e620 17c3 4df8 16c3 add0 16c3 f8a9 16c3
00000360: 2484 16c3 245f 16c3 f03a 16c3 7d17 16c3
00000370: c3f4 15c3 b9d2 15c3 58b1 15c3 9790 15c3
00000380: 66a0 1bc3 b34e 1bc3 0001 1bc3 ebb6 1ac3
00000390: 2170 1ac3 592c 1ac3 53eb 19c3 d6ac 19c3
000003a0: b270 19c3 ba36 19c3 c6fe 18c3 b3c8 18c3
000003b0: 6294 18c3 b461 18c3 8f30 18c3 dd00 18c3
000003c0: 86d2 17c3 76a5 17c3 9c79 17c3 e54e 17c3
000003d0: 4325 17c3 a7fc 16c3 03d5 16c3 4bae 16c3
000003e0: 7388 16c3 7063 16c3 383f 16c3 c21b 16c3
000003f0: 04f9 15c3 f7d6 15c3 93b5 15c3 cf94 15c3

qa f4 [32, 32]
0.0 0.0 0.0 0.0 0.0 0.0 0.0 0.0
0.0 0.0 0.0 0.0 0.0 0.0 0.0 0.0
0.0 0.0 0.0 0.0 0.0 0.0 0.0 0.0
0.0 0.0 0.0 0.0 0.0 0.0 0.0 0.0
0.0 0.0 0.0 0.0 0.0 0.0 0.0 0.0
0.0 0.0 0.0 0.0 0.0 0.0 0.0 0.0
0.0 0.0 0.0 0.0 0.0 0.0 0.0 0.0
0.0 0.0 0.0 0.0 0.0 0.0 0.0 0.0
0.0 0.0 0.0 0.0 0.0 0.0 0.0 0.0
0.0 0.0 0.0 0.0 0.0 0.0 0.0 0.0
0.0 0.0 0.0 0.0 0.0 0.0 0.0 0.0
0.0 0.0 0.0 0.0 0.0 0.0 0.0 0.0
0.0 0.0 0.0 0.0 0.0 0.0 0.0 0.0
0.0 0.0 0.0 0.0 0.0 0.0 0.0 0.0
0.0 0.0 0.0 0.0 0.0 0.0 0.0 0.0
0.0 0.0 0.0 0.0 0.0 0.0 0.0 0.0
0.0 0.0 0.0 0.0 0.0 0.0 0.0 0.0
0.0 0.0 0.0 0.0 0.0 0.0 0.0 0.0
0.0 0.0 0.0 0.0 0.0 0.0 0.0 0.0
0.0 0.0 0.0 0.0 0.0 0.0 0.0 0.0
0.0 0.0 0.0 0.0 0.0 0.0 0.0 0.0
0.0 0.0 0.0 0.0 0.0 0.0 0.0 0.0
0.0 0.0 0.0 0.0 0.0 0.0 0.0 0.0
0.0 0.0 0.0 0.0 0.0 0.0 0.0 0.0
0.0 0.0 0.0 0.0 0.0 0.0 0.0 0.0
0.0 0.0 0.0 0.0 0.0 0.0 0.0 0.0
0.0 0.0 0.0 0.0 0.0 0.0 0.0 0.0
0.0 0.0 0.0 0.0 0.0 0.0 0.0 0.0
0.0 0.0 0.0 0.0 0.0 0.0 0.0 0.0
0.0 0.0 0.0 0.0 0.0 0.0 0.0 0.0
0.0 0.0 0.0 0.0 0.0 0.0 0.0 0.0
0.0 0.0 0.0 0.0 0.0 0.0 0.0 0.0
00000000: 0000 0000 0000 0000 0000 0000 0000 0000
00000010: 0000 0000 0000 0000 0000 0000 0000 0000
00000020: 0000 0000 0000 0000 0000 0000 0000 0000
00000030: 0000 0000 0000 0000 0000 0000 0000 0000
00000040: 0000 0000 0000 0000 0000 0000 0000 0000
00000050: 0000 0000 0000 0000 0000 0000 0000 0000
00000060: 0000 0000 0000 0000 0000 0000 0000 0000
00000070: 0000 0000 0000 0000 0000 0000 0000 0000
00000080: 0000 0000 0000 0000 0000 0000 0000 0000
00000090: 0000 0000 0000 0000 0000 0000 0000 0000
000000a0: 0000 0000 0000 0000 0000 0000 0000 0000
000000b0: 0000 0000 0000 0000 0000 0000 0000 0000
000000c0: 0000 0000 0000 0000 0000 0000 0000 0000
000000d0: 0000 0000 0000 0000 0000 0000 0000 0000
000000e0: 0000 0000 0000 0000 0000 0000 0000 0000
000000f0: 0000 0000 0000 0000 0000 0000 0000 0000
00000100: 0000 0000 0000 0000 0000 0000 0000 0000
00000110: 0000 0000 0000 0000 0000 0000 0000 0000
00000120: 0000 0000 0000 0000 0000 0000 0000 0000
00000130: 0000 0000 0000 0000 0000 0000 0000 0000
00000140: 0000 0000 0000 0000 0000 0000 0000 0000
00000150: 0000 0000 0000 0000 0000 0000 0000 0000
00000160: 0000 0000 0000 0000 0000 0000 0000 0000
00000170: 0000 0000 0000 0000 0000 0000 0000 0000
00000180: 0000 0000 0000 0000 0000 0000 0000 0000
00000190: 0000 0000 0000 0000 0000 0000 0000 0000
000001a0: 0000 0000 0000 0000 0000 0000 0000 0000
000001b0: 0000 0000 0000 0000 0000 0000 0000 0000
000001c0: 0000 0000 0000 0000 0000 0000 0000 0000
000001d0: 0000 0000 0000 0000 0000 0000 0000 0000
000001e0: 0000 0000 0000 0000 0000 0000 0000 0000
000001f0: 0000 0000 0000 0000 0000 0000 0000 0000
00000200: 0000 0000 0000 0000 0000 0000 0000 0000
00000210: 0000 0000 0000 0000 0000 0000 0000 0000
00000220: 0000 0000 0000 0000 0000 0000 0000 0000
00000230: 0000 0000 0000 0000 0000 0000 0000 0000
00000240: 0000 0000 0000 0000 0000 0000 0000 0000
00000250: 0000 0000 0000 0000 0000 0000 0000 0000
00000260: 0000 0000 0000 0000 0000 0000 0000 0000
00000270: 0000 0000 0000 0000 0000 0000 0000 0000
00000280: 0000 0000 0000 0000 0000 0000 0000 0000
00000290: 0000 0000 0000 0000 0000 0000 0000 0000
000002a0: 0000 0000 0000 0000 0000 0000 0000 0000
000002b0: 0000 0000 0000 0000 0000 0000 0000 0000
000002c0: 0000 0000 0000 0000 0000 0000 0000 0000
000002d0: 0000 0000 0000 0000 0000 0000 0000 0000
000002e0: 0000 0000 0000 0000 0000 0000 0000 0000
000002f0: 0000 0000 0000 0000 0000 0000 0000 0000
00000300: 0000 0000 0000 0000 0000 0000 0000 0000
00000310: 0000 0000 0000 0000 0000 0000 0000 0000
00000320: 0000 0000 0000 0000 0000 0000 0000 0000
00000330: 0000 0000 0000 0000 0000 0000 0000 0000
00000340: 0000 0000 0000 0000 0000 0000 0000 0000
00000350: 0000 0000 0000 0000 0000 0000 0000 0000
00000360: 0000 0000 0000 0000 0000 0000 0000 0000
00000370: 0000 0000 0000 0000 0000 0000 0000 0000
00000380: 0000 0000 0000 0000 0000 0000 0000 0000
00000390: 0000 0000 0000 0000 0000 0000 0000 0000
000003a0: 0000 0000 0000 0000 0000 0000 0000 0000
000003b0: 0000 0000 0000 0000 0000 0000 0000 0000
000003c0: 0000 0000 0000 0000 0000 0000 0000 0000
000003d0: 0000 0000 0000 0000 0000 0000 0000 0000
000003e0: 0000 0000 0000 0000 0000 0000 0000 0000
000003f0: 0000 0000 0000 0000 0000 0000 0000 0000
