data/dataset/negative/ca2a3d97-f0fc-4b41-b5be-c99b4e0431f4.npz (npz, 28097 bytes, 5 tensors)

methane f8 [32, 32]
00000000: 0000 0000 70a5 1740 0000 0000 80fa e43f
00000010: 0000 0000 b097 2340 0000 0000 a897 2e40
00000020: 0000 0000 4010 1b40 0000 0000 c013 0dc0
00000030: 0000 0000 40f2 13c0 0000 0000 8094 f03f
00000040: 0000 0000 20e8 0a40 0000 0000 8034 fe3f
00000050: 0000 0000 004d e5bf 0000 0000 00e9 f93f
00000060: 0000 0000 e064 0540 0000 0000 b0fa 1040
00000070: 0000 0000 801c 00c0 0000 0000 a017 0dc0
00000080: 0000 0000 40c9 f53f 0000 0000 c068 02c0
00000090: 0000 0000 a0dd 0040 0000 0000 1066 1040
000000a0: 0000 0000 c0ba fbbf 0000 0000 a046 04c0
000000b0: 0000 0000 009d dc3f 0000 0000 00ea e73f
000000c0: 0000 0000 808c 0840 0000 0000 40f7 f93f
000000d0: 0000 0000 e072 1240 0000 0000 404c f0bf
000000e0: 0000 0000 c002 0dc0 0000 0000 0099 f1bf
000000f0: 0000 0000 00e9 ddbf 0000 0000 0018 c4bf
00000100: 0000 0000 50ad 1a40 0000 0000 a067 0640
00000110: 0000 0000 e090 2540 0000 0000 68b7 2840
00000120: 0000 0000 0060 ecbf 0000 0000 e005 11c0
00000130: 0000 0000 20b5 00c0 0000 0000 801e 0c40
00000140: 0000 0000 8047 e73f 0000 0000 c03d f23f
00000150: 0000 0000 d0f9 2040 0000 0000 c0e0 1740
00000160: 0000 0000 c8ef 2640 0000 0000 3010 1640
00000170: 0000 0000 00b2 f03f 0000 0000 a077 0040
00000180: 0000 0000 4022 f1bf 0000 0000 00bf 20c0
00000190: 0000 0000 6072 0540 0000 0000 0042 dcbf
000001a0: 0000 0000 c029 17c0 0000 0000 c030 1440
000001b0: 0000 0000 1008 1340 0000 0000 0011 fc3f
000001c0: 0000 0000 4018 0c40 0000 0000 c031 f4bf
000001d0: 0000 0000 a00a 04c0 0000 0000 80d7 ea3f
000001e0: 0000 0000 0021 e4bf 0000 0000 80fb ecbf
000001f0: 0000 0000 c0c0 1440 0000 0000 0094 d73f
00000200: 0000 0000 f00d 1940 0000 0000 00e5 dcbf
00000210: 0000 0000 80d8 f13f 0000 0000 d0c6 1540
00000220: 0000 0000 4032 f83f 0000 0000 00d0 0a40
00000230: 0000 0000 00d8 a1bf 0000 0000 00e1 1ec0
00000240: 0000 0000 907e 14c0 0000 0000 e0b3 0140
00000250: 0000 0000 e043 13c0 0000 0000 c0d5 1940
00000260: 0000 0000 8053 eebf 0000 0000 002a e83f
00000270: 0000 0000 e04c 06c0 0000 0000 20d1 0240
00000280: 0000 0000 a09a 0140 0000 0000 0028 fcbf
00000290: 0000 0000 3067 15c0 0000 0000 80b4 eabf
000002a0: 0000 0000 0000 75bf 0000 0000 4056 0b40
000002b0: 0000 0000 c0aa 0b40 0000 0000 001b 1440
000002c0: 0000 0000 c045 1940 0000 0000 0016 ce3f
000002d0: 0000 0000 80d8 e33f 0000 0000 00e2 eb3f
000002e0: 0000 0000 8042 20c0 0000 0000 005f f1bf
000002f0: 0000 0000 0008 bb3f 0000 0000 60dc 18c0
00000300: 0000 0000 0015 d33f 0000 0000 200c 0140
00000310: 0000 0000 80f0 1840 0000 0000 70e5 1e40
00000320: 0000 0000 981e 2b40 0000 0000 00af fa3f
00000330: 0000 0000 0044 bc3f 0000 0000 00b6 17c0
00000340: 0000 0000 00d8 e63f 0000 0000 c087 11c0
00000350: 0000 0000 0088 fc3f 0000 0000 f077 1b40
00000360: 0000 0000 f022 1040 0000 0000 902f 1240
00000370: 0000 0000 d030 1440 0000 0000 4059 f4bf
00000380: 0000 0000 c009 f1bf 0000 0000 0020 bd3f
00000390: 0000 0000 d011 1cc0 0000 0000 80b5 f6bf
000003a0: 0000 0000 0020 0c40 0000 0000 0070 a23f
000003b0: 0000 0000 8045 e4bf 0000 0000 00fb f23f
000003c0: 0000 0000 7066 1b40 0000 0000 b072 1340
000003d0: 0000 0000 40de ff3f 0000 0000 c02d 1240
000003e0: 0000 0000 206d 15c0 0000 0000 8078 e33f
000003f0: 0000 0000 c06d f0bf 0000 0000 5084 1ac0
00000400: 0000 0000 00c4 fe3f 0000 0000 8039 e83f
00000410: 0000 0000 00b8 b23f 0000 0000 30a2 1f40
00000420: 0000 0000 903d 1340 0000 0000 0060 a8bf
00000430: 0000 0000 004a cb3f 0000 0000 c0ed 0340
00000440: 0000 0000 c019 0c40 0000 0000 0040 ab3f
00000450: 0000 0000 0049 e43f 0000 0000 10a4 1840
00000460: 0000 0000 0061 d83f 0000 0000 c072 03c0
00000470: 0000 0000 802c edbf 0000 0000 a086 05c0
00000480: 0000 0000 8052 ee3f 0000 0000 007f ed3f
00000490: 0000 0000 002d debf 0000 0000 80e5 fbbf
000004a0: 0000 0000 2056 09c0 0000 0000 a08f 0040
000004b0: 0000 0000 2099 09c0 0000 0000 005a ec3f
000004c0: 0000 0000 8023 fc3f 0000 0000 e08b 05c0
000004d0: 0000 0000 d02c 1240 0000 0000 40df 0ec0
000004e0: 0000 0000 0067 1bc0 0000 0000 40b0 f6bf
000004f0: 0000 0000 50b6 1640 0000 0000 c06f f23f
00000500: 0000 0000 00b5 0bc0 0000 0000 f87b 2040
00000510: 0000 0000 8001 fa3f 0000 0000 c01d 0bc0
00000520: 0000 0000 0053 f3bf 0000 0000 50ba 1440
00000530: 0000 0000 c0d8 fb3f 0000 0000 4073 0d40
00000540: 0000 0000 8017 0b40 0000 0000 a0a7 0cc0
00000550: 0000 0000 80f9 f1bf 0000 0000 401c f1bf
00000560: 0000 0000 901f 1140 0000 0000 207a 0640
00000570: 0000 0000 600a 15c0 0000 0000 a08a 0a40
00000580: 0000 0000 c030 ffbf 0000 0000 00ef 0bc0
00000590: 0000 0000 f019 1640 0000 0000 007c cabf
000005a0: 0000 0000 c003 f23f 0000 0000 e044 0bc0
000005b0: 0000 0000 407d 0840 0000 0000 00b1 07c0
000005c0: 0000 0000 409d 0b40 0000 0000 4076 f03f
000005d0: 0000 0000 4071 fa3f 0000 0000 a050 0f40
000005e0: 0000 0000 80e3 0fc0 0000 0000 e0fb 07c0
000005f0: 0000 0000 c0ee 0840 0000 0000 4035 f03f
00000600: 0000 0000 20e5 0240 0000 0000 5034 1140
00000610: 0000 0000 00d0 e7bf 0000 0000 e0f0 1a40
00000620: 0000 0000 20d8 1040 0000 0000 20b3 0f40
00000630: 0000 0000 a0fe 1440 0000 0000 20e1 1440
00000640: 0000 0000 00e8 bfbf 0000 0000 803e e0bf
00000650: 0000 0000 8084 fbbf 0000 0000 402a fdbf
00000660: 0000 0000 a0bc 0340 0000 0000 306f 1b40
00000670: 0000 0000 00cf e0bf 0000 0000 008f d13f
00000680: 0000 0000 40c5 fbbf 0000 0000 80bc 19c0
00000690: 0000 0000 4044 0240 0000 0000 00b8 e7bf
000006a0: 0000 0000 006a c5bf 0000 0000 2087 0cc0
000006b0: 0000 0000 00ed ec3f 0000 0000 00fd e2bf
000006c0: 0000 0000 00c8 c0bf 0000 0000 00ab d2bf
000006d0: 0000 0000 9068 1740 0000 0000 0072 d93f
000006e0: 0000 0000 00b4 ee3f 0000 0000 a0c4 03c0
000006f0: 0000 0000 202d 1e40 0000 0000 807e e0bf
00000700: 0000 0000 6083 1540 0000 0000 a020 0640
00000710: 0000 0000 c086 2040 0000 0000 905d 1f40
00000720: 0000 0000 0045 0d40 0000 0000 f0c5 1740
00000730: 0000 0000 8067 0b40 0000 0000 a093 10c0
00000740: 0000 0000 0069 f5bf 0000 0000 0059 e63f
00000750: 0000 0000 803f 03c0 0000 0000 f0a7 1240
00000760: 0000 0000 c0ef 15c0 0000 0000 909e 1640
00000770: 0000 0000 a078 0840 0000 0000 70db 16c0
00000780: 0000 0000 c0e2 1140 0000 0000 8036 0ec0
00000790: 0000 0000 80e1 fbbf 0000 0000 409c 0f40
000007a0: 0000 0000 b04c 19c0 0000 0000 10d8 10c0
000007b0: 0000 0000 904f 10c0 0000 0000 a060 10c0
000007c0: 0000 0000 10ad 1340 0000 0000 b014 1a40
000007d0: 0000 0000 007a f13f 0000 0000 00b8 bbbf
000007e0: 0000 0000 c081 0140 0000 0000 00e3 d7bf
000007f0: 0000 0000 0004 e63f 0000 0000 7023 11c0
5.91156005859375 0.65557861328125 9.7962646484375 15.29620361328125 6.765869140625 -3.6346435546875 -4.986572265625 1.0362548828125
3.36334228515625 1.8878173828125 -0.6656494140625 1.619384765625 2.67425537109375 4.24481201171875 -2.013916015625 -3.63653564453125
1.36163330078125 -2.3011474609375 2.10821533203125 4.09967041015625 -1.73309326171875 -2.53448486328125 0.44708251953125 0.747314453125
3.068603515625 1.62286376953125 4.6121826171875 -1.01861572265625 -3.6263427734375 -1.099853515625 -0.46734619140625 -0.156982421875
6.66925048828125 2.80059814453125 10.782958984375 12.35821533203125 -0.88671875 -4.2557373046875 -2.08843994140625 3.514892578125
0.72747802734375 1.14007568359375 8.4879150390625 5.969482421875 11.46832275390625 5.51580810546875 1.04345703125 2.05841064453125
-1.07086181640625 -8.373046875 2.68084716796875 -0.4415283203125 -5.790771484375 5.047607421875 4.75787353515625 1.754150390625
3.5118408203125 -1.26214599609375 -2.50518798828125 0.83880615234375 -0.6290283203125 -0.90570068359375 5.188232421875 0.368408203125
6.26361083984375 -0.45147705078125 1.1153564453125 5.44415283203125 1.51226806640625 3.3515625 -0.03485107421875 -7.7197265625
-5.12359619140625 2.21282958984375 -4.8162841796875 6.458740234375 -0.94769287109375 0.755126953125 -2.78753662109375 2.35211181640625
2.20050048828125 -1.759765625 -5.35076904296875 -0.83453369140625 -0.005126953125 3.4171142578125 3.4583740234375 5.0263671875
6.318115234375 0.23504638671875 0.62017822265625 0.871337890625 -8.1298828125 -1.085693359375 0.1055908203125 -6.2152099609375
0.29815673828125 2.13092041015625 6.23486328125 7.72406005859375 13.55975341796875 1.667724609375 0.11041259765625 -5.927734375
0.7138671875 -4.382568359375 1.783203125 6.86712646484375 4.03411865234375 4.54644775390625 5.04766845703125 -1.27178955078125
-1.06488037109375 0.11376953125 -7.01739501953125 -1.4193115234375 3.515625 0.0360107421875 -0.63348388671875 1.186279296875
6.85003662109375 4.86199951171875 1.99176025390625 4.544677734375 -5.3565673828125 0.60845947265625 -1.02679443359375 -6.62921142578125
1.9228515625 0.75701904296875 0.0731201171875 7.90838623046875 4.81011962890625 -0.047607421875 0.21319580078125 2.4910888671875
3.5125732421875 0.05322265625 0.6339111328125 6.16021728515625 0.38092041015625 -2.4310302734375 -0.91168212890625 -2.69073486328125
0.94757080078125 0.9217529296875 -0.47149658203125 -1.7435302734375 -3.16705322265625 2.07012939453125 -3.19976806640625 0.885986328125
1.7586669921875 -2.69329833984375 4.54376220703125 -3.8590087890625 -6.8505859375 -1.41802978515625 5.67803955078125 1.15228271484375
-3.46337890625 8.24212646484375 1.6253662109375 -3.3895263671875 -1.207763671875 5.18194580078125 1.74041748046875 3.6812744140625
3.386474609375 -3.58184814453125 -1.1234130859375 -1.06939697265625 4.28082275390625 2.80963134765625 -5.2601318359375 3.31768798828125
-1.94940185546875 -3.49169921875 5.52532958984375 -0.2069091796875 1.12591552734375 -3.40863037109375 3.0611572265625 -2.96142578125
3.4517822265625 1.02886962890625 1.65264892578125 3.91436767578125 -3.986083984375 -2.99798583984375 3.1165771484375 1.01300048828125
2.36187744140625 4.30108642578125 -0.744140625 6.7352294921875 4.2110595703125 3.96246337890625 5.2486572265625 5.2198486328125
-0.1246337890625 -0.50762939453125 -1.7198486328125 -1.82281494140625 2.46710205078125 6.85858154296875 -0.5252685546875 0.27435302734375
-1.73565673828125 -6.43408203125 2.2833251953125 -0.7412109375 -0.16729736328125 -3.56597900390625 0.9039306640625 -0.5933837890625
-0.131103515625 -0.29168701171875 5.85211181640625 0.3975830078125 0.95947265625 -2.47100830078125 7.5440673828125 -0.51544189453125
5.3782958984375 2.76593017578125 8.26318359375 7.84136962890625 3.65869140625 5.94329833984375 3.425537109375 -4.1441650390625
-1.338134765625 0.6983642578125 -2.406005859375 4.66400146484375 -5.484130859375 5.65484619140625 3.05889892578125 -5.71429443359375
4.471435546875 -3.776611328125 -1.7425537109375 3.9512939453125 -6.32489013671875 -4.21099853515625 -4.07769775390625 -4.0943603515625
4.91900634765625 6.52020263671875 1.09228515625 -0.1082763671875 2.1883544921875 -0.37322998046875 0.68798828125 -4.28460693359375

lat f4 [32, 32]
00000000: c656 a3c2 f038 a3c2 3c1b a3c2 abfd a2c2
00000010: 3ee0 a2c2 f5c2 a2c2 cfa5 a2c2 cc88 a2c2
00000020: ed6b a2c2 324f a2c2 9932 a2c2 2316 a2c2
00000030: cff9 a1c2 9ddd a1c2 8bc1 a1c2 9ba5 a1c2
00000040: c989 a1c2 176e a1c2 8352 a1c2 0d37 a1c2
00000050: b41b a1c2 7600 a1c2 53e5 a0c2 4bca a0c2
00000060: 5caf a0c2 8694 a0c2 c779 a0c2 1f5f a0c2
00000070: 8d44 a0c2 0f2a a0c2 a60f a0c2 4ff5 9fc2
00000080: 5541 a3c2 9b23 a3c2 0306 a3c2 8ee8 a2c2
00000090: 3ccb a2c2 0eae a2c2 0391 a2c2 1b74 a2c2
000000a0: 5657 a2c2 b43a a2c2 351e a2c2 d901 a2c2
000000b0: 9ee5 a1c2 84c9 a1c2 8cad a1c2 b391 a1c2
000000c0: fa75 a1c2 5f5a a1c2 e33e a1c2 8423 a1c2
000000d0: 4208 a1c2 1bed a0c2 0fd2 a0c2 1db7 a0c2
000000e0: 449c a0c2 8481 a0c2 db66 a0c2 484c a0c2
000000f0: cb31 a0c2 6317 a0c2 0efd 9fc2 cde2 9fc2
00000100: db2b a3c2 3d0e a3c2 c1f0 a2c2 68d3 a2c2
00000110: 31b6 a2c2 1d99 a2c2 2d7c a2c2 5f5f a2c2
00000120: b542 a2c2 2d26 a2c2 c709 a2c2 84ed a1c2
00000130: 62d1 a1c2 61b5 a1c2 8099 a1c2 c07d a1c2
00000140: 1f62 a1c2 9c46 a1c2 372b a1c2 ef0f a1c2
00000150: c4f4 a0c2 b4d9 a0c2 bebe a0c2 e3a3 a0c2
00000160: 2089 a0c2 766e a0c2 e253 a0c2 6539 a0c2
00000170: fd1e a0c2 aa04 a0c2 6aea 9fc2 3dd0 9fc2
00000180: 5b16 a3c2 d9f8 a2c2 79db a2c2 3bbe a2c2
00000190: 1fa1 a2c2 2684 a2c2 5067 a2c2 9c4a a2c2
000001a0: 0b2e a2c2 9d11 a2c2 51f5 a1c2 26d9 a1c2
000001b0: 1dbd a1c2 35a1 a1c2 6d85 a1c2 c469 a1c2
000001c0: 3b4e a1c2 cf32 a1c2 8217 a1c2 51fc a0c2
000001d0: 3ce1 a0c2 43c6 a0c2 64ab a0c2 9e90 a0c2
000001e0: f275 a0c2 5d5b a0c2 df40 a0c2 7726 a0c2
000001f0: 250c a0c2 e7f1 9fc2 bcd7 9fc2 a3bd 9fc2
00000200: d000 a3c2 69e3 a2c2 24c6 a2c2 01a9 a2c2
00000210: 008c a2c2 216f a2c2 6552 a2c2 cc35 a2c2
00000220: 5519 a2c2 00fd a1c2 cde0 a1c2 bbc4 a1c2
00000230: cba8 a1c2 fb8c a1c2 4b71 a1c2 ba55 a1c2
00000240: 483a a1c2 f41e a1c2 be03 a1c2 a4e8 a0c2
00000250: a6cd a0c2 c3b2 a0c2 fa97 a0c2 4b7d a0c2
00000260: b462 a0c2 3548 a0c2 cd2d a0c2 7a13 a0c2
00000270: 3df9 9fc2 14df 9fc2 fdc4 9fc2 f9aa 9fc2
00000280: 39eb a2c2 eecd a2c2 c4b0 a2c2 bb93 a2c2
00000290: d576 a2c2 115a a2c2 6f3d a2c2 ef20 a2c2
000002a0: 9104 a2c2 56e8 a1c2 3ccc a1c2 43b0 a1c2
000002b0: 6b94 a1c2 b378 a1c2 1b5d a1c2 a241 a1c2
000002c0: 4826 a1c2 0b0b a1c2 ecef a0c2 e9d4 a0c2
000002d0: 01ba a0c2 359f a0c2 8284 a0c2 e969 a0c2
000002e0: 684f a0c2 fe34 a0c2 ab1a a0c2 6e00 a0c2
000002f0: 45e6 9fc2 31cc 9fc2 2fb2 9fc2 4098 9fc2
00000300: 9ad5 a2c2 6bb8 a2c2 5c9b a2c2 6e7e a2c2
00000310: a261 a2c2 f844 a2c2 6f28 a2c2 090c a2c2
00000320: c5ef a1c2 a2d3 a1c2 a1b7 a1c2 c19b a1c2
00000330: 0180 a1c2 6164 a1c2 e148 a1c2 802d a1c2
00000340: 3d12 a1c2 17f7 a0c2 0fdc a0c2 22c1 a0c2
00000350: 51a6 a0c2 9b8b a0c2 ff70 a0c2 7b56 a0c2
00000360: 103c a0c2 bb21 a0c2 7e07 a0c2 56ed 9fc2
00000370: 42d3 9fc2 42b9 9fc2 559f 9fc2 7a85 9fc2
00000380: f8bf a2c2 e3a2 a2c2 ee85 a2c2 1b69 a2c2
00000390: 694c a2c2 d92f a2c2 6a13 a2c2 1df7 a1c2
000003a0: f2da a1c2 e8be a1c2 00a3 a1c2 3887 a1c2
000003b0: 906b a1c2 0850 a1c2 a034 a1c2 5619 a1c2
000003c0: 2afe a0c2 1be3 a0c2 2ac8 a0c2 54ad a0c2
000003d0: 9992 a0c2 f977 a0c2 725d a0c2 0443 a0c2
000003e0: af28 a0c2 700e a0c2 47f4 9fc2 34da 9fc2
000003f0: 35c0 9fc2 4aa6 9fc2 728c 9fc2 ab72 9fc2
-81.66948 -81.611206 -81.55319 -81.495445 -81.43797 -81.380775 -81.323845 -81.26718
-81.21079 -81.15468 -81.09882 -81.043236 -80.98791 -80.93284 -80.87801 -80.82345
-80.76911 -80.71502 -80.661156 -80.60752 -80.55411 -80.5009 -80.4479 -80.3951
-80.3425 -80.290085 -80.23785 -80.18578 -80.13389 -80.082146 -80.03056 -79.97912
-81.6276 -81.56954 -81.51174 -81.45421 -81.39694 -81.33995 -81.283226 -81.22677
-81.17058 -81.114655 -81.059 -81.00361 -80.94847 -80.893585 -80.83896 -80.78457
-80.73042 -80.676506 -80.622826 -80.56937 -80.51613 -80.4631 -80.41027 -80.35764
-80.30521 -80.25296 -80.20089 -80.14899 -80.09725 -80.04568 -79.99425 -79.94297
-81.585655 -81.52781 -81.47022 -81.4129 -81.35584 -81.29905 -81.24253 -81.18627
-81.13029 -81.07456 -81.0191 -80.9639 -80.90895 -80.854256 -80.799805 -80.745605
-80.69164 -80.63791 -80.584404 -80.53112 -80.47806 -80.4252 -80.37254 -80.32009
-80.26782 -80.215744 -80.16383 -80.1121 -80.060524 -80.00911 -79.95784 -79.906715
-81.54366 -81.48603 -81.42866 -81.371544 -81.31469 -81.2581 -81.20178 -81.14572
-81.08993 -81.0344 -80.97913 -80.92412 -80.86936 -80.81486 -80.7606 -80.70657
-80.652794 -80.599236 -80.54591 -80.492805 -80.43991 -80.38723 -80.33475 -80.282455
-80.23036 -80.178444 -80.1267 -80.07513 -80.02372 -79.972466 -79.92136 -79.870384
-81.50159 -81.44416 -81.38699 -81.330086 -81.27344 -81.21705 -81.16093 -81.10507
-81.04948 -80.99414 -80.939064 -80.88424 -80.82967 -80.77535 -80.721275 -80.667435
-80.61383 -80.560455 -80.50731 -80.45438 -80.40166 -80.349144 -80.29683 -80.24471
-80.19278 -80.14103 -80.089455 -80.03804 -79.98679 -79.9357 -79.88474 -79.83393
-81.45942 -81.40221 -81.345245 -81.288536 -81.23209 -81.17591 -81.11999 -81.06432
-81.00892 -80.95378 -80.898895 -80.84426 -80.78988 -80.73574 -80.68185 -80.62819
-80.57477 -80.52157 -80.4686 -80.41584 -80.36329 -80.31095 -80.258804 -80.206856
-80.15509 -80.1035 -80.052086 -80.00084 -79.949745 -79.89881 -79.848015 -79.79736
-81.41719 -81.36019 -81.30344 -81.24693 -81.19069 -81.134705 -81.07897 -81.023506
-80.9683 -80.913345 -80.85865 -80.80421 -80.75001 -80.69605 -80.64234 -80.58887
-80.53562 -80.4826 -80.4298 -80.37721 -80.32484 -80.27267 -80.220695 -80.16891
-80.11731 -80.06588 -80.01463 -79.96355 -79.91261 -79.86183 -79.811195 -79.7607
-81.37494 -81.31814 -81.26158 -81.205284 -81.14924 -81.09345 -81.03792 -80.98264
-80.92763 -80.87286 -80.81836 -80.7641 -80.71008 -80.65631 -80.60278 -80.549484
-80.496414 -80.443565 -80.390945 -80.33853 -80.28632 -80.23432 -80.18251 -80.13089
-80.07946 -80.0282 -79.977104 -79.92618 -79.875404 -79.82478 -79.77431 -79.72396

lon f4 [32, 32]
00000000: b854 c041 8471 c441 a373 c841 415c cc41
00000010: 7a2c d041 5be5 d341 e387 d741 0515 db41
00000020: a58d de41 9cf2 e141 bb44 e541 c484 e841
00000030: 73b3 eb41 78d1 ee41 7edf f141 24de f441
00000040: 03ce f741 aeaf fa41 af83 fd41 4525 0042
00000050: 6082 0142 65d9 0242 8c2a 0442 0e76 0542
00000060: 1ebc 0642 f1fc 0742 b638 0942 9b6f 0a42
00000070: cda1 0b42 77cf 0c42 c1f8 0d42 d31d 0f42
00000080: f0ea be41 e004 c341 5204 c741 6fea ca41
00000090: 52b8 ce41 056f d241 830f d641 be9a d941
000000a0: 9811 dd41 e974 e041 7dc5 e341 1704 e741
000000b0: 7131 ea41 3b4e ed41 1a5b f041 b158 f341
000000c0: 9547 f641 5828 f941 83fb fb41 9cc1 fe41
000000d0: 8fbd 0042 4114 0242 1e65 0342 5db0 0442
000000e0: 31f6 0542 cd36 0742 6172 0842 1ca9 0942
000000f0: 29db 0a42 b308 0c42 e231 0d42 de56 0e42
00000100: 5884 bd41 699b c141 2c98 c541 c77b c941
00000110: 5147 cd41 d1fb d041 429a d441 9223 d841
00000120: a298 db41 47fa de41 4c49 e241 7386 e541
00000130: 74b2 e841 fbcd eb41 b1d9 ee41 32d6 f141
00000140: 15c4 f441 eba3 f741 3c76 fa41 8b3b fd41
00000150: 54f4 ff41 8850 0142 17a1 0242 0fec 0342
00000160: a431 0542 0672 0642 67ad 0742 f4e3 0842
00000170: d915 0a42 4043 0b42 526c 0c42 3491 0d42
00000180: 3d21 bc41 6f35 c041 802f c441 9610 c841
00000190: c3d9 cb41 0e8c cf41 6f28 d341 d0af d641
000001a0: 1123 da41 0683 dd41 79d0 e041 280c e441
000001b0: c936 e741 0a51 ea41 905b ed41 f756 f041
000001c0: d543 f341 b822 f641 29f4 f841 a8b8 fb41
000001d0: b370 fe41 608e 0042 9fde 0142 4e29 0342
000001e0: a06e 0442 c7ae 0542 f1e9 0642 4e20 0842
000001f0: 0852 0942 497f 0a42 3aa8 0b42 00cd 0c42
00000200: 6cc1 ba41 bad2 be41 17ca c241 a3a8 c641
00000210: 706f ca41 811f ce41 ccb9 d141 393f d541
00000220: a7b0 d841 e60e dc41 c05a df41 f194 e241
00000230: 2ebe e541 23d7 e841 72e0 eb41 b9da ee41
00000240: 8bc6 f141 75a4 f441 ff74 f741 aa38 fa41
00000250: f0ef fc41 469b ff41 8f1d 0142 f267 0242
00000260: feac 0342 e6ec 0442 d727 0642 005e 0742
00000270: 8c8f 0842 a5bc 0942 72e5 0a42 190a 0c42
00000280: f164 b941 5873 bd41 fc67 c141 fa43 c541
00000290: 6208 c941 34b6 cc41 634e d041 d7d1 d341
000002a0: 6c41 d741 f09d da41 2be8 dd41 d820 e141
000002b0: aa48 e441 4c60 e741 6068 ea41 8061 ed41
000002c0: 404c f041 2b29 f341 c8f8 f541 97bb f841
000002d0: 1172 fb41 ac1c fe41 ec5d 0042 ffa7 0142
000002e0: c2ec 0242 672c 0442 1c67 0542 0f9d 0642
000002f0: 6ace 0742 56fb 0842 fc23 0a42 8148 0b42
00000300: e60b b841 6417 bc41 4c09 c041 b9e2 c341
00000310: b8a4 c741 4750 cb41 57e6 ce41 ce67 d241
00000320: 85d5 d541 4930 d941 e078 dc41 04b0 df41
00000330: 67d6 e241 b1ec e541 83f3 e841 77eb eb41
00000340: 1ed5 ee41 04b1 f141 af7f f441 9c41 f741
00000350: 45f7 f941 1ea1 fc41 963f ff41 8ce9 0042
00000360: 032e 0242 636d 0342 d9a7 0442 91dd 0542
00000370: b80e 0742 753b 0842 f163 0942 5188 0a42
00000380: 3fb6 b641 d2be ba41 fdad be41 d784 c241
00000390: 6b44 c641 b4ed c941 a281 cd41 1801 d141
000003a0: ec6c d441 edc5 d741 dc0c db41 7342 de41
000003b0: 6167 e141 4e7c e441 da81 e741 9d78 ea41
000003c0: 2761 ed41 043c f041 b609 f341 bcca f541
000003d0: 8f7f f841 a228 fb41 61c6 fd41 9c2c 0042
000003e0: c570 0142 dcaf 0242 10ea 0342 8c1f 0542
000003f0: 7c50 0642 077d 0742 56a5 0842 8fc9 0942
24.041367 24.555428 25.056463 25.545046 26.021717 26.48699 26.94135 27.385263
27.819162 28.243462 28.65856 29.064827 29.462622 29.85228 30.234127 30.608467
30.975592 31.335781 31.689299 32.036396 32.37732 32.7123 33.04155 33.365288
33.68371 33.997013 34.30538 34.60899 34.90801 35.202602 35.492924 35.779125
23.864716 24.37738 24.87711 25.36447 25.84 26.304209 26.757574 27.200558
27.63359 28.057085 28.47143 28.876997 29.274141 29.663198 30.044483 30.418306
30.784952 31.1447 31.497808 31.844536 32.185116 32.51978 32.848747 33.17223
33.49042 33.803516 34.1117 34.415146 34.714024 35.008495 35.298714 35.58483
23.689621 24.200884 24.699303 25.185438 25.659822 26.122957 26.575321 27.017368
27.449528 27.872206 28.28579 28.690649 29.087135 29.475576 29.856295 30.229588
30.595743 30.955038 31.307732 31.654074 31.9943 32.328644 32.657314 32.980526
33.298477 33.61135 33.91934 34.22261 34.521336 34.815674 35.10578 35.3918
23.51623 24.02609 24.523193 25.008099 25.481329 25.943386 26.394743 26.835846
27.267122 27.688976 28.101793 28.505936 28.90175 29.28957 29.669708 30.042463
30.408121 30.766953 31.119219 31.465164 31.805029 32.139038 32.467403 32.790337
33.108032 33.42068 33.72846 34.031548 34.33011 34.624302 34.914284 35.200195
23.344444 23.852894 24.348677 24.832342 25.304413 25.765383 26.215721 26.65587
27.086256 27.507275 27.919312 28.322725 28.717861 29.105047 29.484592 29.856798
30.221945 30.580301 30.932127 31.277668 31.617157 31.950817 32.278866 32.60151
32.918938 33.231346 33.538906 33.841797 34.140182 34.434223 34.724068 35.00986
23.174288 23.68132 24.175774 24.658192 25.129093 25.588966 26.038275 26.47746
26.906944 27.327118 27.738363 28.141037 28.53548 28.92202 29.300964 29.672607
30.037231 30.395102 30.746475 31.091597 31.430696 31.764 32.09172 32.41406
32.73121 33.04336 33.350693 33.653378 33.951576 34.245445 34.53514 34.820805
23.00581 23.511421 24.00454 24.485704 24.95543 25.414198 25.86247 26.300686
26.729258 27.148577 27.559021 27.960945 28.354689 28.740572 29.118902 29.489973
29.854061 30.211433 30.562346 30.907036 31.245737 31.57867 31.906048 32.228073
32.544933 32.856823 33.163914 33.466373 33.764374 34.058064 34.3476 34.63312
22.838987 23.343174 23.834955 24.314863 24.783407 25.241066 25.688297 26.125534
26.553185 26.971643 27.381279 27.782446 28.175478 28.560696 28.938404 29.308893
29.672438 30.029305 30.379742 30.723991 31.062284 31.39484 31.721865 32.043564
32.360126 32.671738 32.978577 33.280807 33.578598 33.872097 34.16146 34.446835

qa f4 [32, 32]
00000000: 0000 803f 0000 803f 0000 803f 0000 803f
00000010: 0000 803f 0000 803f 0000 803f 0000 803f
00000020: 0000 803f 0000 803f 0000 803f 0000 803f
00000030: 0000 803f 0000 803f 0000 803f 0000 803f
00000040: 0000 803f 0000 803f 0000 803f 0000 803f
00000050: 0000 803f 0000 803f 0000 803f 0000 803f
00000060: 0000 803f 0000 803f 0000 803f 0000 803f
00000070: 0000 803f 0000 803f 0000 803f 0000 803f
00000080: 0000 803f 0000 803f 0000 803f 0000 803f
00000090: 0000 803f 0000 803f 0000 803f 0000 803f
000000a0: 0000 803f 0000 803f 0000 803f 0000 803f
000000b0: 0000 803f 0000 803f 0000 803f 0000 803f
000000c0: 0000 803f 0000 803f 0000 803f 0000 803f
000000d0: 0000 803f 0000 803f 0000 803f 0000 803f
000000e0: 0000 803f 0000 803f 0000 803f 0000 803f
000000f0: 0000 803f 0000 803f 0000 803f 0000 803f
00000100: 0000 803f 0000 803f 0000 803f 0000 803f
00000110: 0000 803f 0000 803f 0000 803f 0000 803f
00000120: 0000 803f 0000 803f 0000 803f 0000 803f
00000130: 0000 803f 0000 803f 0000 803f 0000 803f
00000140: 0000 803f 0000 803f 0000 803f 0000 803f
00000150: 0000 803f 0000 803f 0000 803f 0000 803f
00000160: 0000 803f 0000 803f 0000 803f 0000 803f
00000170: 0000 803f 0000 803f 0000 803f 0000 803f
00000180: 0000 803f 0000 803f 0000 803f 0000 803f
00000190: 0000 803f 0000 803f 0000 803f 0000 803f
000001a0: 0000 803f 0000 803f 0000 803f 0000 803f
000001b0: 0000 803f 0000 803f 0000 803f 0000 803f
000001c0: 0000 803f 0000 803f 0000 803f 0000 803f
000001d0: 0000 803f 0000 803f 0000 803f 0000 803f
000001e0: 0000 803f 0000 803f 0000 803f 0000 803f
000001f0: 0000 803f 0000 803f 0000 803f 0000 803f
00000200: 0000 803f 0000 803f 0000 803f 0000 803f
00000210: 0000 803f 0000 803f 0000 803f 0000 803f
00000220: 0000 803f 0000 803f 0000 803f 0000 803f
00000230: 0000 803f 0000 803f 0000 803f 0000 803f
00000240: 0000 803f 0000 803f 0000 803f 0000 803f
00000250: 0000 803f 0000 803f 0000 803f 0000 803f
00000260: 0000 803f 0000 803f 0000 803f 0000 803f
00000270: 0000 803f 0000 803f 0000 803f 0000 803f
00000280: 0000 803f 0000 803f 0000 803f 0000 803f
00000290: 0000 803f 0000 803f 0000 803f 0000 803f
000002a0: 0000 803f 0000 803f 0000 803f 0000 803f
000002b0: 0000 803f 0000 803f 0000 803f 0000 803f
000002c0: 0000 803f 0000 803f 0000 803f 0000 803f
000002d0: 0000 803f 0000 803f 0000 803f 0000 803f
000002e0: 0000 803f 0000 803f 0000 803f 0000 803f
000002f0: 0000 803f 0000 803f 0000 803f 0000 803f
00000300: 0000 803f 0000 803f 0000 803f 0000 803f
00000310: 0000 803f 0000 803f 0000 803f 0000 803f
00000320: 0000 803f 0000 803f 0000 803f 0000 803f
00000330: 0000 803f 0000 803f 0000 803f 0000 803f
00000340: 0000 803f 0000 803f 0000 803f 0000 803f
00000350: 0000 803f 0000 803f 0000 803f 0000 803f
00000360: 0000 803f 0000 803f 0000 803f 0000 803f
00000370: 0000 803f 0000 803f 0000 803f 0000 803f
00000380: 0000 803f 0000 803f 0000 803f 0000 803f
00000390: 0000 803f 0000 803f 0000 803f 0000 803f
000003a0: 0000 803f 0000 803f 0000 803f 0000 803f
000003b0: 0000 803f 0000 803f 0000 803f 0000 803f
000003c0: 0000 803f 0000 803f 0000 803f 0000 803f
000003d0: 0000 803f 0000 803f 0000 803f 0000 803f
000003e0: 0000 803f 0000 803f 0000 803f 0000 803f
000003f0: 0000 803f 0000 803f 0000 803f 0000 803f
1.0 1.0 1.0 1.0 1.0 1.0 1.0 1.0
1.0 1.0 1.0 1.0 1.0 1.0 1.0 1.0
1.0 1.0 1.0 1.0 1.0 1.0 1.0 1.0
1.0 1.0 1.0 1.0 1.0 1.0 1.0 1.0
1.0 1.0 1.0 1.0 1.0 1.0 1.0 1.0
1.0 1.0 1.0 1.0 1.0 1.0 1.0 1.0
1.0 1.0 1.0 1.0 1.0 1.0 1.0 1.0
1.0 1.0 1.0 1.0 1.0 1.0 1.0 1.0
1.0 1.0 1.0 1.0 1.0 1.0 1.0 1.0
1.0 1.0 1.0 1.0 1.0 1.0 1.0 1.0
1.0 1.0 1.0 1.0 1.0 1.0 1.0 1.0
1.0 1.0 1.0 1.0 1.0 1.0 1.0 1.0
1.0 1.0 1.0 1.0 1.0 1.0 1.0 1.0
1.0 1.0 1.0 1.0 1.0 1.0 1.0 1.0
1.0 1.0 1.0 1.0 1.0 1.0 1.0 1.0
1.0 1.0 1.0 1.0 1.0 1.0 1.0 1.0
1.0 1.0 1.0 1.0 1.0 1.0 1.0 1.0
1.0 1.0 1.0 1.0 1.0 1.0 1.0 1.0
1.0 1.0 1.0 1.0 1.0 1.0 1.0 1.0
1.0 1.0 1.0 1.0 1.0 1.0 1.0 1.0
1.0 1.0 1.0 1.0 1.0 1.0 1.0 1.0
1.0 1.0 1.0 1.0 1.0 1.0 1.0 1.0
1.0 1.0 1.0 1.0 1.0 1.0 1.0 1.0
1.0 1.0 1.0 1.0 1.0 1.0 1.0 1.0
1.0 1.0 1.0 1.0 1.0 1.0 1.0 1.0
1.0 1.0 1.0 1.0 1.0 1.0 1.0 1.0
1.0 1.0 1.0 1.0 1.0 1.0 1.0 1.0
1.0 1.0 1.0 1.0 1.0 1.0 1.0 1.0
1.0 1.0 1.0 1.0 1.0 1.0 1.0 1.0
1.0 1.0 1.0 1.0 1.0 1.0 1.0 1.0
1.0 1.0 1.0 1.0 1.0 1.0 1.0 1.0
1.0 1.0 1.0 1.0 1.0 1.0 1.0 1.0

non_destriped f4 [32, 32]
00000000: 6743 d644 2412 d544 0b63 d844 ec09 d844
00000010: 19cd d544 781d d544 bd95 d544 e5e6 d644
00000020: b7c4 d544 dd05 d644 3dd2 d644 810d d544
00000030: d7d5 d644 ae78 d544 bcfd d444 2b9a d444
00000040: a63c d744 3416 d944 ef39 d644 5771 d644
00000050: 83f5 d644 38cd d544 530e d744 057f d444
00000060: 8b8b d544 7c3d d744 ef4e d644 aaf0 d544
00000070: 6165 d544 e792 d544 a893 d544 258c d544
00000080: 604f d644 ed73 d544 856d d844 187e d744
00000090: 5cd0 d444 bd01 d544 2eea d544 9dff d644
000000a0: 0223 d544 2886 d544 478e d744 642e d544
000000b0: 21c2 d744 e839 d544 6ac5 d444 46ef d444
000000c0: 5e93 d644 76f8 d744 2904 d644 bb86 d544
000000d0: 3bf0 d544 bc74 d644 084e d744 0055 d444
000000e0: a07e d544 2ded d644 2c80 d544 5660 d644
000000f0: f1df d544 21a8 d544 3c5a d644 bcb3 d544
00000100: 08cf d644 087b d544 7ccc d744 6e2a d744
00000110: e85c d544 1d3e d644 b5a4 d644 9e42 d644
00000120: 0a2a d544 d288 d644 e1c4 d644 621e d644
00000130: 04bd d644 8c1d d544 4dc1 d444 b36d d544
00000140: d96b d744 6602 d944 4f21 d544 3b6d d544
00000150: a697 d644 a342 d644 9324 d744 cabf d444
00000160: e794 d544 10dc d644 9dbe d544 ee39 d644
00000170: 75db d444 2499 d544 baae d544 65d7 d444
00000180: b9a0 d544 9f4e d544 b7d2 d744 cfd8 d644
00000190: 1f3f d644 3c6e d544 4407 d644 f7e1 d544
000001a0: ea6f d544 0740 d544 6b23 d744 7bb5 d544
000001b0: c3ae d644 e3f8 d444 391e d544 a85c d444
000001c0: 5750 d644 a1c4 d844 17c4 d444 5c22 d544
000001d0: 4f10 d744 f2af d544 8b76 d644 bf30 d444
000001e0: 90b3 d544 f27d d744 fef7 d544 f7bc d644
000001f0: f53a d544 6ad6 d544 8290 d544 c2cd d444
00000200: f1e2 d544 ce61 d544 2c78 d744 e379 d744
00000210: 62a7 d544 80b1 d544 2a5c d644 cd63 d744
00000220: e83d d644 6842 d644 1373 d744 4b13 d644
00000230: 52e7 d644 b1cc d444 5610 d544 ecc7 d444
00000240: 21f0 d644 8025 d944 28aa d544 952c d544
00000250: 8b49 d644 8ce2 d544 e810 d644 5906 d444
00000260: be12 d544 9888 d644 e543 d644 49aa d544
00000270: be08 d544 5a91 d544 1541 d644 b2ad d544
00000280: b95f d544 3659 d644 b8b8 d744 d6f0 d544
00000290: 3dfc d444 4064 d644 1aa5 d644 a99c d744
000002a0: a54c d644 f8ab d544 6d19 d744 d03b d544
000002b0: fc73 d744 7b57 d544 4869 d444 b530 d544
000002c0: 6853 d644 8f43 d844 8ef2 d544 6b3c d544
000002d0: e991 d644 b23f d544 19e3 d644 b397 d344
000002e0: 3846 d544 0702 d744 35b3 d544 bd70 d644
000002f0: 3909 d544 cb38 d544 37d4 d544 6da9 d544
00000300: 7b42 d644 8dfa d544 a555 d744 941d d744
00000310: b982 d544 8b15 d644 9e43 d744 faa6 d744
00000320: 6891 d544 d1f3 d544 c6ea d644 5cd8 d444
00000330: 9aee d644 0e7c d544 cea3 d444 1493 d444
00000340: a049 d644 25c3 d744 7789 d544 1009 d544
00000350: f165 d644 d422 d544 a588 d644 25cd d344
00000360: 51cd d444 1eb7 d644 5324 d644 0fe9 d544
00000370: dd91 d544 d30e d544 8d41 d644 4033 d544
00000380: 82c7 d644 fbe3 d544 2fa4 d844 f06d d744
00000390: 67b4 d544 4998 d644 57ec d644 6285 d644
000003a0: e547 d544 c0e6 d544 c7a3 d644 e676 d544
000003b0: 89c0 d544 f52c d544 78be d444 4cb1 d344
000003c0: 11c3 d644 27fc d744 cd01 d544 e365 d544
000003d0: 9067 d544 a7bb d444 84a7 d544 c518 d344
000003e0: 8217 d544 0367 d744 ac8a d544 a8cc d544
000003f0: 9bbf d544 684b d544 4661 d544 08c6 d444
1714.1063 1704.5669 1731.0951 1728.31 1710.4093 1704.9209 1708.6793 1719.2155
1710.1473 1712.1832 1718.57 1704.422 1718.6825 1707.7712 1703.9292 1700.8177
1721.8953 1736.6938 1713.8104 1715.5419 1719.6722 1710.4131 1720.4476 1699.9694
1708.3607 1721.9214 1714.4667 1711.5208 1707.1681 1708.5907 1708.6143 1708.3795
1714.4805 1707.6227 1731.4225 1723.9404 1702.5112 1704.0543 1711.3181 1719.9879
1705.094 1708.1924 1724.4462 1705.4497 1726.0665 1705.8096 1702.1692 1703.4773
1716.6052 1727.7644 1712.13 1708.2103 1711.5072 1715.648 1722.4385 1698.6562
1707.957 1719.4117 1708.0054 1715.0105 1710.9982 1709.254 1714.8198 1709.6167
1718.4697 1707.8447 1726.3901 1721.3259 1706.9033 1713.941 1717.1471 1714.0818
1705.3137 1716.2756 1718.1525 1712.9495 1717.9067 1704.9233 1702.0406 1707.4281
1723.3702 1736.075 1705.0409 1707.4135 1716.739 1714.0824 1721.143 1701.9934
1708.6532 1718.877 1709.9567 1713.8103 1702.858 1708.7856 1709.4602 1702.7311
1709.0226 1706.4569 1726.5848 1718.7753 1713.9725 1707.4448 1712.227 1711.0614
1707.4973 1706.0009 1721.1068 1709.6713 1717.4613 1703.7777 1704.9445 1698.8955
1714.5106 1734.1447 1702.1278 1705.0737 1720.5096 1709.4983 1715.7045 1697.5233
1709.6113 1723.9358 1711.7498 1717.9052 1705.8424 1710.7004 1708.5159 1702.4299
1711.0919 1707.0564 1723.7554 1723.809 1709.2307 1709.5469 1714.8801 1723.1188
1713.9346 1714.0752 1723.5961 1712.6029 1719.2288 1702.3966 1704.5105 1702.2476
1719.504 1737.1719 1709.3174 1705.3932 1714.2982 1711.0796 1712.5283 1696.1984
1704.5857 1716.2686 1714.1217 1709.3214 1704.2732 1708.5422 1714.0338 1709.428
1706.9913 1714.7878 1725.7725 1711.5261 1703.8824 1715.1328 1717.1594 1724.8956
1714.3951 1709.374 1720.7946 1705.8691 1723.6245 1706.7338 1699.29 1705.5221
1714.6064 1730.1112 1711.5798 1705.8881 1716.5597 1705.9905 1719.0968 1692.7406
1706.1943 1720.0634 1709.6002 1715.5231 1704.2882 1705.7748 1710.6317 1709.2946
1714.0775 1711.8297 1722.6764 1720.9243 1708.0851 1712.6732 1722.113 1725.218
1708.544 1711.6193 1719.3367 1702.7612 1719.4563 1707.8767 1701.1189 1700.5962
1714.3008 1726.0983 1708.2958 1704.2832 1715.1857 1705.0884 1716.2701 1694.4108
1702.4161 1717.7224 1713.1351 1711.2831 1708.5582 1704.4633 1714.0485 1705.6016
1718.2346 1711.1244 1733.1307 1723.4355 1709.6376 1716.7589 1719.3856 1716.1682
1706.2467 1711.2109 1717.118 1707.7156 1710.0167 1705.4049 1701.9521 1693.5405
1718.0958 1727.8798 1704.0563 1707.184 1707.2363 1701.8641 1709.2349 1688.774
1704.7346 1723.2191 1708.3335 1710.3955 1709.9877 1706.3564 1707.0398 1702.1885
