data/dataset/negative/e028fd52-b226-42f9-9558-216e37c88e59.npz (npz, 23743 bytes, 4 tensors)

methane f8 [32, 32]
000000 00 00 00 00 00 00 9e 47 00 00 00 00 00 00 9e 47
       9.969209968386869e+36 9.969209968386869e+36
000010 00 00 00 00 00 00 9e 47 00 00 00 00 00 00 9e 47
       9.969209968386869e+36 9.969209968386869e+36
000020 00 00 00 00 00 00 9e 47 00 00 00 00 00 00 9e 47
       9.969209968386869e+36 9.969209968386869e+36
000030 00 00 00 00 00 00 9e 47 00 00 00 00 00 00 9e 47
       9.969209968386869e+36 9.969209968386869e+36
000040 00 00 00 00 00 00 9e 47 00 00 00 00 00 00 9e 47
       9.969209968386869e+36 9.969209968386869e+36
000050 00 00 00 00 00 00 9e 47 00 00 00 00 00 00 9e 47
       9.969209968386869e+36 9.969209968386869e+36
000060 00 00 00 00 00 00 9e 47 00 00 00 00 00 00 9e 47
       9.969209968386869e+36 9.969209968386869e+36
000070 00 00 00 00 00 00 9e 47 00 00 00 00 00 00 9e 47
       9.969209968386869e+36 9.969209968386869e+36
000080 00 00 00 00 00 00 9e 47 00 00 00 00 00 00 9e 47
       9.969209968386869e+36 9.969209968386869e+36
000090 00 00 00 00 00 00 9e 47 00 00 00 00 00 00 9e 47
       9.969209968386869e+36 9.969209968386869e+36
0000a0 00 00 00 00 00 00 9e 47 00 00 00 00 00 00 9e 47
       9.969209968386869e+36 9.969209968386869e+36
0000b0 00 00 00 00 00 00 9e 47 00 00 00 00 00 00 9e 47
       9.969209968386869e+36 9.969209968386869e+36
0000c0 00 00 00 00 00 00 9e 47 00 00 00 00 00 00 9e 47
       9.969209968386869e+36 9.969209968386869e+36
0000d0 00 00 00 00 00 00 9e 47 00 00 00 00 00 00 9e 47
       9.969209968386869e+36 9.969209968386869e+36
0000e0 00 00 00 00 00 00 9e 47 00 00 00 00 00 00 9e 47
       9.969209968386869e+36 9.969209968386869e+36
0000f0 00 00 00 00 00 00 9e 47 00 00 00 00 00 00 9e 47
       9.969209968386869e+36 9.969209968386869e+36
000100 00 00 00 00 00 00 9e 47 00 00 00 00 00 00 9e 47
       9.969209968386869e+36 9.969209968386869e+36
000110 00 00 00 00 00 00 9e 47 00 00 00 00 00 00 9e 47
       9.969209968386869e+36 9.969209968386869e+36
000120 00 00 00 00 00 00 9e 47 00 00 00 00 00 00 9e 47
       9.969209968386869e+36 9.969209968386869e+36
000130 00 00 00 00 00 00 9e 47 00 00 00 00 00 00 9e 47
       9.969209968386869e+36 9.969209968386869e+36
000140 00 00 00 00 00 00 9e 47 00 00 00 00 00 00 9e 47
       9.969209968386869e+36 9.969209968386869e+36
000150 00 00 00 00 00 00 9e 47 00 00 00 00 00 00 9e 47
       9.969209968386869e+36 9.969209968386869e+36
000160 00 00 00 00 00 00 9e 47 00 00 00 00 00 00 9e 47
       9.969209968386869e+36 9.969209968386869e+36
000170 00 00 00 00 00 00 9e 47 00 00 00 00 00 00 9e 47
       9.969209968386869e+36 9.969209968386869e+36
000180 00 00 00 00 00 00 9e 47 00 00 00 00 00 00 9e 47
       9.969209968386869e+36 9.969209968386869e+36
000190 00 00 00 00 00 00 9e 47 00 00 00 00 00 00 9e 47
       9.969209968386869e+36 9.969209968386869e+36
0001a0 00 00 00 00 00 00 9e 47 00 00 00 00 00 00 9e 47
       9.969209968386869e+36 9.969209968386869e+36
0001b0 00 00 00 00 00 00 9e 47 00 00 00 00 00 00 9e 47
       9.969209968386869e+36 9.969209968386869e+36
0001c0 00 00 00 00 00 00 9e 47 00 00 00 00 00 00 9e 47
       9.969209968386869e+36 9.969209968386869e+36
0001d0 00 00 00 00 00 00 9e 47 00 00 00 00 00 00 9e 47
       9.969209968386869e+36 9.969209968386869e+36
0001e0 00 00 00 00 00 00 9e 47 00 00 00 00 00 00 9e 47
       9.969209968386869e+36 9.969209968386869e+36
0001f0 00 00 00 00 00 00 9e 47 00 00 00 00 00 00 9e 47
       9.969209968386869e+36 9.969209968386869e+36
000200 00 00 00 00 00 00 9e 47 00 00 00 00 00 00 9e 47
       9.969209968386869e+36 9.969209968386869e+36
000210 00 00 00 00 00 00 9e 47 00 00 00 00 00 00 9e 47
       9.969209968386869e+36 9.969209968386869e+36
000220 00 00 00 00 00 00 9e 47 00 00 00 00 00 00 9e 47
       9.969209968386869e+36 9.969209968386869e+36
000230 00 00 00 00 00 00 9e 47 00 00 00 00 00 00 9e 47
       9.969209968386869e+36 9.969209968386869e+36
000240 00 00 00 00 00 00 9e 47 00 00 00 00 00 00 9e 47
       9.969209968386869e+36 9.969209968386869e+36
000250 00 00 00 00 00 00 9e 47 00 00 00 00 00 00 9e 47
       9.969209968386869e+36 9.969209968386869e+36
000260 00 00 00 00 00 00 9e 47 00 00 00 00 00 00 9e 47
       9.969209968386869e+36 9.969209968386869e+36
000270 00 00 00 00 00 00 9e 47 00 00 00 00 00 00 9e 47
       9.969209968386869e+36 9.969209968386869e+36
000280 00 00 00 00 00 00 9e 47 00 00 00 00 00 00 9e 47
       9.969209968386869e+36 9.969209968386869e+36
000290 00 00 00 00 00 00 9e 47 00 00 00 00 00 00 9e 47
       9.969209968386869e+36 9.969209968386869e+36
0002a0 00 00 00 00 00 00 9e 47 00 00 00 00 00 00 9e 47
       9.969209968386869e+36 9.969209968386869e+36
0002b0 00 00 00 00 00 00 9e 47 00 00 00 00 00 00 9e 47
       9.969209968386869e+36 9.969209968386869e+36
0002c0 00 00 00 00 00 00 9e 47 00 00 00 00 00 00 9e 47
       9.969209968386869e+36 9.969209968386869e+36
0002d0 00 00 00 00 00 00 9e 47 00 00 00 00 00 00 9e 47
       9.969209968386869e+36 9.969209968386869e+36
0002e0 00 00 00 00 00 00 9e 47 00 00 00 00 00 00 9e 47
       9.969209968386869e+36 9.969209968386869e+36
0002f0 00 00 00 00 00 00 9e 47 00 00 00 00 00 00 9e 47
       9.969209968386869e+36 9.969209968386869e+36
000300 00 00 00 00 00 00 9e 47 00 00 00 00 00 00 9e 47
       9.969209968386869e+36 9.969209968386869e+36
000310 00 00 00 00 00 00 9e 47 00 00 00 00 00 00 9e 47
       9.969209968386869e+36 9.969209968386869e+36
000320 00 00 00 00 00 00 9e 47 00 00 00 00 00 00 9e 47
       9.969209968386869e+36 9.969209968386869e+36
000330 00 00 00 00 00 00 9e 47 00 00 00 00 00 00 9e 47
       9.969209968386869e+36 9.969209968386869e+36
000340 00 00 00 00 00 00 9e 47 00 00 00 00 00 00 9e 47
       9.969209968386869e+36 9.969209968386869e+36
000350 00 00 00 00 00 00 9e 47 00 00 00 00 00 00 9e 47
       9.969209968386869e+36 9.969209968386869e+36
000360 00 00 00 00 00 00 9e 47 00 00 00 00 00 00 9e 47
       9.969209968386869e+36 9.969209968386869e+36
000370 00 00 00 00 00 00 9e 47 00 00 00 00 00 00 9e 47
       9.969209968386869e+36 9.969209968386869e+36
000380 00 00 00 00 00 00 9e 47 00 00 00 00 00 00 9e 47
       9.969209968386869e+36 9.969209968386869e+36
000390 00 00 00 00 00 00 9e 47 00 00 00 00 00 00 9e 47
       9.969209968386869e+36 9.969209968386869e+36
0003a0 00 00 00 00 00 00 9e 47 00 00 00 00 00 00 9e 47
       9.969209968386869e+36 9.969209968386869e+36
0003b0 00 00 00 00 00 00 9e 47 00 00 00 00 00 00 9e 47
       9.969209968386869e+36 9.969209968386869e+36
0003c0 00 00 00 00 00 00 9e 47 00 00 00 00 00 00 9e 47
       9.969209968386869e+36 9.969209968386869e+36
0003d0 00 00 00 00 00 00 9e 47 00 00 00 00 00 00 9e 47
       9.969209968386869e+36 9.969209968386869e+36
0003e0 00 00 00 00 00 00 9e 47 00 00 00 00 00 00 9e 47
       9.969209968386869e+36 9.969209968386869e+36
0003f0 00 00 00 00 00 00 9e 47 00 00 00 00 00 00 9e 47
       9.969209968386869e+36 9.969209968386869e+36
000400 00 00 00 00 00 00 9e 47 00 00 00 00 00 00 9e 47
       9.969209968386869e+36 9.969209968386869e+36
000410 00 00 00 00 00 00 9e 47 00 00 00 00 00 00 9e 47
       9.969209968386869e+36 9.969209968386869e+36
000420 00 00 00 00 00 00 9e 47 00 00 00 00 00 00 9e 47
       9.969209968386869e+36 9.969209968386869e+36
000430 00 00 00 00 00 00 9e 47 00 00 00 00 00 00 9e 47
       9.969209968386869e+36 9.969209968386869e+36
000440 00 00 00 00 00 00 9e 47 00 00 00 00 00 00 9e 47
       9.969209968386869e+36 9.969209968386869e+36
000450 00 00 00 00 00 00 9e 47 00 00 00 00 00 00 9e 47
       9.969209968386869e+36 9.969209968386869e+36
000460 00 00 00 00 00 00 9e 47 00 00 00 00 00 00 9e 47
       9.969209968386869e+36 9.969209968386869e+36
000470 00 00 00 00 00 00 9e 47 00 00 00 00 00 00 9e 47
       9.969209968386869e+36 9.969209968386869e+36
000480 00 00 00 00 00 00 9e 47 00 00 00 00 00 00 9e 47
       9.969209968386869e+36 9.969209968386869e+36
000490 00 00 00 00 00 00 9e 47 00 00 00 00 00 00 9e 47
       9.969209968386869e+36 9.969209968386869e+36
0004a0 00 00 00 00 00 00 9e 47 00 00 00 00 00 00 9e 47
       9.969209968386869e+36 9.969209968386869e+36
0004b0 00 00 00 00 00 00 9e 47 00 00 00 00 00 00 9e 47
       9.969209968386869e+36 9.969209968386869e+36
0004c0 00 00 00 00 00 00 9e 47 00 00 00 00 00 00 9e 47
       9.969209968386869e+36 9.969209968386869e+36
0004d0 00 00 00 00 00 00 9e 47 00 00 00 00 00 00 9e 47
       9.969209968386869e+36 9.969209968386869e+36
0004e0 00 00 00 00 00 00 9e 47 00 00 00 00 00 00 9e 47
       9.969209968386869e+36 9.969209968386869e+36
0004f0 00 00 00 00 00 00 9e 47 00 00 00 00 00 00 9e 47
       9.969209968386869e+36 9.969209968386869e+36
000500 00 00 00 00 00 00 9e 47 00 00 00 00 00 00 9e 47
       9.969209968386869e+36 9.969209968386869e+36
000510 00 00 00 00 00 00 9e 47 00 00 00 00 00 00 9e 47
       9.969209968386869e+36 9.969209968386869e+36
000520 00 00 00 00 00 00 9e 47 00 00 00 00 00 00 9e 47
       9.969209968386869e+36 9.969209968386869e+36
000530 00 00 00 00 00 00 9e 47 00 00 00 00 00 00 9e 47
       9.969209968386869e+36 9.969209968386869e+36
000540 00 00 00 00 00 00 9e 47 00 00 00 00 00 00 9e 47
       9.969209968386869e+36 9.969209968386869e+36
000550 00 00 00 00 00 00 9e 47 00 00 00 00 00 00 9e 47
       9.969209968386869e+36 9.969209968386869e+36
000560 00 00 00 00 00 00 9e 47 00 00 00 00 00 00 9e 47
       9.969209968386869e+36 9.969209968386869e+36
000570 00 00 00 00 00 00 9e 47 00 00 00 00 00 00 9e 47
       9.969209968386869e+36 9.969209968386869e+36
000580 00 00 00 00 00 00 9e 47 00 00 00 00 00 00 9e 47
       9.969209968386869e+36 9.969209968386869e+36
000590 00 00 00 00 00 00 9e 47 00 00 00 00 00 00 9e 47
       9.969209968386869e+36 9.969209968386869e+36
0005a0 00 00 00 00 00 00 9e 47 00 00 00 00 00 00 9e 47
       9.969209968386869e+36 9.969209968386869e+36
0005b0 00 00 00 00 00 00 9e 47 00 00 00 00 00 00 9e 47
       9.969209968386869e+36 9.969209968386869e+36
0005c0 00 00 00 00 00 00 9e 47 00 00 00 00 00 00 9e 47
       9.969209968386869e+36 9.969209968386869e+36
0005d0 00 00 00 00 00 00 9e 47 00 00 00 00 00 00 9e 47
       9.969209968386869e+36 9.969209968386869e+36
0005e0 00 00 00 00 00 00 9e 47 00 00 00 00 00 00 9e 47
       9.969209968386869e+36 9.969209968386869e+36
0005f0 00 00 00 00 00 00 9e 47 00 00 00 00 00 00 9e 47
       9.969209968386869e+36 9.969209968386869e+36
000600 00 00 00 00 00 00 9e 47 00 00 00 00 00 00 9e 47
       9.969209968386869e+36 9.969209968386869e+36
000610 00 00 00 00 00 00 9e 47 00 00 00 00 00 00 9e 47
       9.969209968386869e+36 9.969209968386869e+36
000620 00 00 00 00 00 00 9e 47 00 00 00 00 00 00 9e 47
       9.969209968386869e+36 9.969209968386869e+36
000630 00 00 00 00 00 00 9e 47 00 00 00 00 00 00 9e 47
       9.969209968386869e+36 9.969209968386869e+36
000640 00 00 00 00 00 00 9e 47 00 00 00 00 00 00 9e 47
       9.969209968386869e+36 9.969209968386869e+36
000650 00 00 00 00 00 00 9e 47 00 00 00 00 00 00 9e 47
       9.969209968386869e+36 9.969209968386869e+36
000660 00 00 00 00 00 00 9e 47 00 00 00 00 00 00 9e 47
       9.969209968386869e+36 9.969209968386869e+36
000670 00 00 00 00 00 00 9e 47 00 00 00 00 00 00 9e 47
       9.969209968386869e+36 9.969209968386869e+36
000680 00 00 00 00 00 00 9e 47 00 00 00 00 00 00 9e 47
       9.969209968386869e+36 9.969209968386869e+36
000690 00 00 00 00 00 00 9e 47 00 00 00 00 00 00 9e 47
       9.969209968386869e+36 9.969209968386869e+36
0006a0 00 00 00 00 00 00 9e 47 00 00 00 00 00 00 9e 47
       9.969209968386869e+36 9.969209968386869e+36
0006b0 00 00 00 00 00 00 9e 47 00 00 00 00 00 00 9e 47
       9.969209968386869e+36 9.969209968386869e+36
0006c0 00 00 00 00 00 00 9e 47 00 00 00 00 00 00 9e 47
       9.969209968386869e+36 9.969209968386869e+36
0006d0 00 00 00 00 00 00 9e 47 00 00 00 00 00 00 9e 47
       9.969209968386869e+36 9.969209968386869e+36
0006e0 00 00 00 00 00 00 9e 47 00 00 00 00 00 00 9e 47
       9.969209968386869e+36 9.969209968386869e+36
0006f0 00 00 00 00 00 00 9e 47 00 00 00 00 00 00 9e 47
       9.969209968386869e+36 9.969209968386869e+36
000700 00 00 00 00 00 00 9e 47 00 00 00 00 00 00 9e 47
       9.969209968386869e+36 9.969209968386869e+36
000710 00 00 00 00 00 00 9e 47 00 00 00 00 00 00 9e 47
       9.969209968386869e+36 9.969209968386869e+36
000720 00 00 00 00 00 00 9e 47 00 00 00 00 00 00 9e 47
       9.969209968386869e+36 9.969209968386869e+36
000730 00 00 00 00 00 00 9e 47 00 00 00 00 00 00 9e 47
       9.969209968386869e+36 9.969209968386869e+36
000740 00 00 00 00 00 00 9e 47 00 00 00 00 00 00 9e 47
       9.969209968386869e+36 9.969209968386869e+36
000750 00 00 00 00 00 00 9e 47 00 00 00 00 00 00 9e 47
       9.969209968386869e+36 9.969209968386869e+36
000760 00 00 00 00 00 00 9e 47 00 00 00 00 00 00 9e 47
       9.969209968386869e+36 9.969209968386869e+36
000770 00 00 00 00 00 00 9e 47 00 00 00 00 00 00 9e 47
       9.969209968386869e+36 9.969209968386869e+36
000780 00 00 00 00 00 00 9e 47 00 00 00 00 00 00 9e 47
       9.969209968386869e+36 9.969209968386869e+36
000790 00 00 00 00 00 00 9e 47 00 00 00 00 00 00 9e 47
       9.969209968386869e+36 9.969209968386869e+36
0007a0 00 00 00 00 00 00 9e 47 00 00 00 00 00 00 9e 47
       9.969209968386869e+36 9.969209968386869e+36
0007b0 00 00 00 00 00 00 9e 47 00 00 00 00 00 00 9e 47
       9.969209968386869e+36 9.969209968386869e+36
0007c0 00 00 00 00 00 00 9e 47 00 00 00 00 00 00 9e 47
       9.969209968386869e+36 9.969209968386869e+36
0007d0 00 00 00 00 00 00 9e 47 00 00 00 00 00 00 9e 47
       9.969209968386869e+36 9.969209968386869e+36
0007e0 00 00 00 00 00 00 9e 47 00 00 00 00 00 00 9e 47
       9.969209968386869e+36 9.969209968386869e+36
0007f0 00 00 00 00 00 00 9e 47 00 00 00 00 00 00 9e 47
       9.969209968386869e+36 9.969209968386869e+36

lat f4 [32, 32]
000000 d5 15 8a c2 ae fd 89 c2 30 e5 89 c2 56 cc 89 c2
       -69.04264 -68.99547 -68.94763 -68.89909
000010 1e b3 89 c2 82 99 89 c2 81 7f 89 c2 14 65 89 c2
       -68.84984 -68.79982 -68.74903 -68.69742
000020 3a 4a 89 c2 ec 2e 89 c2 26 13 89 c2 e3 f6 88 c2
       -68.64497 -68.591644 -68.5374 -68.4822
000030 1f da 88 c2 d3 bc 88 c2 fa 9e 88 c2 8e 80 88 c2
       -68.42602 -68.3688 -68.3105 -68.25108
000040 89 61 88 c2 e3 41 88 c2 95 21 88 c2 99 00 88 c2
       -68.1905 -68.128685 -68.06559 -68.00117
000050 e5 de 87 c2 72 bc 87 c2 37 99 87 c2 29 75 87 c2
       -67.93534 -67.86806 -67.79925 -67.72883
000060 3f 50 87 c2 6e 2a 87 c2 aa 03 87 c2 e6 db 86 c2
       -67.65673 -67.58287 -67.50716 -67.42949
000070 16 b3 86 c2 2c 89 86 c2 17 5e 86 c2 c9 31 86 c2
       -67.34978 -67.267914 -67.18377 -67.09724
000080 89 01 8a c2 70 e9 89 c2 fe d0 89 c2 32 b8 89 c2
       -69.003 -68.95593 -68.90819 -68.85976
000090 07 9f 89 c2 7a 85 89 c2 86 6b 89 c2 28 51 89 c2
       -68.8106 -68.7607 -68.71001 -68.65851
0000a0 5c 36 89 c2 1d 1b 89 c2 66 ff 88 c2 33 e3 88 c2
       -68.60617 -68.552956 -68.498825 -68.44375
0000b0 7e c6 88 c2 42 a9 88 c2 79 8b 88 c2 1d 6d 88 c2
       -68.38768 -68.33058 -68.27241 -68.21311
0000c0 28 4e 88 c2 93 2e 88 c2 57 0e 88 c2 6c ed 87 c2
       -68.15265 -68.090965 -68.02801 -67.963715
0000d0 cb cb 87 c2 6a a9 87 c2 41 86 87 c2 46 62 87 c2
       -67.89803 -67.83089 -67.762215 -67.69194
0000e0 70 3d 87 c2 b2 17 87 c2 02 f1 86 c2 53 c9 86 c2
       -67.619995 -67.54628 -67.47072 -67.39321
0000f0 99 a0 86 c2 c4 76 86 c2 c6 4b 86 c2 8e 1f 86 c2
       -67.31367 -67.231964 -67.147995 -67.06163
000100 2f ed 89 c2 23 d5 89 c2 bf bc 89 c2 00 a4 89 c2
       -68.96325 -68.91628 -68.868645 -68.82031
000110 e3 8a 89 c2 63 71 89 c2 7e 57 89 c2 2e 3d 89 c2
       -68.77126 -68.72146 -68.67088 -68.61949
000120 70 22 89 c2 3f 07 89 c2 97 eb 88 c2 73 cf 88 c2
       -68.56726 -68.51415 -68.46014 -68.405174
000130 ce b2 88 c2 a1 95 88 c2 e8 77 88 c2 9d 59 88 c2
       -68.34923 -68.292244 -68.23419 -68.175026
000140 b8 3a 88 c2 34 1b 88 c2 09 fb 87 c2 2f da 87 c2
       -68.114685 -68.05313 -67.9903 -67.92614
000150 a0 b8 87 c2 51 96 87 c2 3a 73 87 c2 52 4f 87 c2
       -67.860596 -67.79359 -67.72505 -67.65492
000160 8f 2a 87 c2 e5 04 87 c2 49 de 86 c2 af b6 86 c2
       -67.58312 -67.50956 -67.43415 -67.356804
000170 09 8e 86 c2 49 64 86 c2 61 39 86 c2 40 0d 86 c2
       -67.27741 -67.19587 -67.11207 -67.02588
000180 d6 d8 89 c2 d6 c0 89 c2 80 a8 89 c2 ce 8f 89 c2
       -68.92351 -68.87663 -68.8291 -68.78087
000190 be 76 89 c2 4c 5d 89 c2 75 43 89 c2 33 29 89 c2
       -68.73192 -68.68222 -68.63175 -68.58047
0001a0 84 0e 89 c2 62 f3 88 c2 c9 d7 88 c2 b3 bb 88 c2
       -68.52835 -68.47536 -68.421455 -68.3666
0001b0 1d 9f 88 c2 00 82 88 c2 57 64 88 c2 1c 46 88 c2
       -68.31077 -68.25391 -68.19598 -68.13693
0001c0 48 27 88 c2 d4 07 88 c2 ba e7 87 c2 f2 c6 87 c2
       -68.07672 -68.01529 -67.95259 -67.888565
0001d0 74 a5 87 c2 38 83 87 c2 34 60 87 c2 5f 3c 87 c2
       -67.82315 -67.75629 -67.6879 -67.61791
0001e0 ae 17 87 c2 18 f2 86 c2 90 cb 86 c2 0a a4 86 c2
       -67.54625 -67.47284 -67.39758 -67.32039
0001f0 7a 7b 86 c2 cf 51 86 c2 fd 26 86 c2 f2 fa 85 c2
       -67.241165 -67.15978 -67.07615 -66.99013
000200 79 c4 89 c2 87 ac 89 c2 3d 94 89 c2 99 7b 89 c2
       -68.883736 -68.83697 -68.78953 -68.7414
000210 97 62 89 c2 32 49 89 c2 69 2f 89 c2 35 15 89 c2
       -68.69256 -68.64296 -68.5926 -68.54142
000220 94 fa 88 c2 81 df 88 c2 f7 c3 88 c2 f1 a7 88 c2
       -68.48941 -68.43653 -68.382744 -68.32801
000230 6a 8b 88 c2 5c 6e 88 c2 c3 50 88 c2 98 32 88 c2
       -68.27229 -68.215546 -68.15774 -68.098816
000240 d4 13 88 c2 72 f4 87 c2 69 d4 87 c2 b2 b3 87 c2
       -68.03873 -67.97743 -67.91486 -67.85097
000250 46 92 87 c2 1b 70 87 c2 2a 4d 87 c2 67 29 87 c2
       -67.78569 -67.718956 -67.65071 -67.580864
000260 ca 04 87 c2 47 df 86 c2 d4 b8 86 c2 62 91 86 c2
       -67.50935 -67.43609 -67.36099 -67.28395
000270 e6 68 86 c2 52 3f 86 c2 95 14 86 c2 a1 e8 85 c2
       -67.20488 -67.12367 -67.0402 -66.95435
000280 13 b0 89 c2 2e 98 89 c2 f1 7f 89 c2 5a 67 89 c2
       -68.843895 -68.797226 -68.749886 -68.70186
000290 65 4e 89 c2 0f 35 89 c2 53 1b 89 c2 2e 01 89 c2
       -68.653114 -68.60363 -68.55337 -68.502304
0002a0 9b e6 88 c2 96 cb 88 c2 1b b0 88 c2 24 94 88 c2
       -68.4504 -68.39763 -68.343956 -68.28934
0002b0 ac 77 88 c2 ae 5a 88 c2 25 3d 88 c2 0a 1f 88 c2
       -68.233734 -68.17711 -68.11942 -68.06062
0002c0 56 00 88 c2 04 e1 87 c2 0c c1 87 c2 67 a0 87 c2
       -68.000656 -67.93948 -67.877045 -67.813286
0002d0 0c 7f 87 c2 f4 5c 87 c2 14 3a 87 c2 65 16 87 c2
       -67.74814 -67.68155 -67.613434 -67.54374
0002e0 db f1 86 c2 6b cc 86 c2 0c a6 86 c2 af 7e 86 c2
       -67.472374 -67.399254 -67.32431 -67.24743
0002f0 47 56 86 c2 c8 2c 86 c2 21 02 86 c2 43 d6 85 c2
       -67.16851 -67.08746 -67.00416 -66.91848
000300 a8 9b 89 c2 cf 83 89 c2 a0 6b 89 c2 16 53 89 c2
       -68.804016 -68.75744 -68.710205 -68.66228
000310 2e 3a 89 c2 e6 20 89 c2 38 07 89 c2 20 ed 88 c2
       -68.61363 -68.564255 -68.5141 -68.463135
000320 9c d2 88 c2 a5 b7 88 c2 39 9c 88 c2 51 80 88 c2
       -68.41135 -68.35868 -68.30512 -68.25062
000330 e8 63 88 c2 fa 46 88 c2 80 29 88 c2 75 0b 88 c2
       -68.19513 -68.138626 -68.081055 -68.02238
000340 d2 ec 87 c2 91 cd 87 c2 aa ad 87 c2 15 8d 87 c2
       -67.96254 -67.9015 -67.83919 -67.77555
000350 cc 6b 87 c2 c6 49 87 c2 f9 26 87 c2 5c 03 87 c2
       -67.71054 -67.64409 -67.57612 -67.50656
000360 e5 de 86 c2 89 b9 86 c2 3d 93 86 c2 f4 6b 86 c2
       -67.43534 -67.36237 -67.287575 -67.210846
000370 a2 43 86 c2 38 1a 86 c2 a7 ef 85 c2 df c3 85 c2
       -67.132095 -67.05121 -66.96807 -66.88256
000380 39 87 89 c2 6d 6f 89 c2 4a 57 89 c2 ce 3e 89 c2
       -68.76411 -68.71763 -68.67049 -68.622665
000390 f4 25 89 c2 b9 0c 89 c2 18 f3 88 c2 0f d9 88 c2
       -68.57413 -68.52485 -68.47479 -68.42394
0003a0 99 be 88 c2 b1 a3 88 c2 53 88 88 c2 7a 6c 88 c2
       -68.37226 -68.31971 -68.26626 -68.21187
0003b0 21 50 88 c2 42 33 88 c2 d8 15 88 c2 dd f7 87 c2
       -68.1565 -68.10011 -68.04266 -67.98411
0003c0 4a d9 87 c2 19 ba 87 c2 43 9a 87 c2 c0 79 87 c2
       -67.92439 -67.86347 -67.80129 -67.73779
0003d0 89 58 87 c2 94 36 87 c2 da 13 87 c2 4f f0 86 c2
       -67.67292 -67.6066 -67.53877 -67.46935
0003e0 eb cb 86 c2 a3 a6 86 c2 6b 80 86 c2 37 59 86 c2
       -67.39828 -67.32546 -67.25082 -67.17425
0003f0 f9 30 86 c2 a4 07 86 c2 29 dd 85 c2 78 b1 85 c2
       -67.09565 -67.01492 -66.93195 -66.84662

lon f4 [32, 32]
000000 cc 74 ae c1 5e ce ac c1 46 24 ab c1 60 76 a9 c1
       -21.80703 -21.600765 -21.392712 -21.1828
000010 8a c4 a7 c1 9d 0e a6 c1 74 54 a4 c1 e6 95 a2 c1
       -20.970966 -20.757135 -20.541237 -20.323193
000020 cc d2 a0 c1 fa 0a 9f c1 45 3e 9d c1 80 6c 9b c1
       -20.102928 -19.88036 -19.655405 -19.427979
000030 7b 95 99 c1 05 b9 97 c1 ec d6 95 c1 fa ee 93 c1
       -19.197989 -18.965342 -18.729942 -18.491688
000040 f9 00 92 c1 b0 0c 90 c1 e3 11 8e c1 53 10 8c c1
       -18.250475 -18.006195 -17.758734 -17.50797
000050 c0 07 8a c1 e6 f7 87 c1 7f e0 85 c1 3f c1 83 c1
       -17.253784 -16.996044 -16.734617 -16.469358
000060 d8 99 81 c1 f5 d3 7e c1 9f 62 7a c1 f9 de 75 c1
       -16.200119 -15.926747 -15.649077 -15.366937
000070 47 48 71 c1 c0 9d 6c c1 91 de 67 c1 db 09 63 c1
       -15.080146 -14.788513 -14.4918375 -14.189906
000080 ba 24 af c1 b4 7e ad c1 02 d5 ab c1 83 27 aa c1
       -21.892933 -21.686867 -21.479008 -21.269293
000090 12 76 a8 c1 8a c0 a6 c1 c5 06 a5 c1 9b 48 a3 c1
       -21.057652 -20.844013 -20.628305 -20.410452
0000a0 e4 85 a1 c1 74 be 9f c1 21 f2 9d c1 bb 20 9c c1
       -20.190376 -19.967995 -19.743227 -19.515982
0000b0 16 4a 9a c1 ff 6d 98 c1 43 8c 96 c1 ae a4 94 c1
       -19.286175 -19.053709 -18.818487 -18.58041
0000c0 09 b7 92 c1 1a c3 90 c1 a6 c8 8e c1 6f c7 8c c1
       -18.339373 -18.095264 -17.847973 -17.59738
0000d0 33 bf 8a c1 ae af 88 c1 9b 98 86 c1 ad 79 84 c1
       -17.343359 -17.085781 -16.824514 -16.559412
0000e0 99 52 82 c1 0a 23 80 c1 5a d5 7b c1 4c 52 77 c1
       -16.29033 -16.017109 -15.739588 -15.457592
0000f0 2e bc 72 c1 36 12 6e c1 92 53 69 c1 63 7f 64 c1
       -15.170942 -14.879446 -14.582903 -14.2811
000100 cf d3 af c1 30 2e ae c1 e6 84 ac c1 cd d7 aa c1
       -21.978422 -21.772552 -21.564892 -21.355371
000110 c2 26 a9 c1 9f 71 a7 c1 3e b8 a5 c1 77 fa a3 c1
       -21.143925 -20.93048 -20.714962 -20.497297
000120 22 38 a2 c1 14 71 a0 c1 22 a5 9e c1 1d d4 9c c1
       -20.277409 -20.055214 -19.830631 -19.60357
000130 d6 fd 9a c1 1d 22 99 c1 bf 40 97 c1 87 59 95 c1
       -19.373943 -19.141657 -18.906614 -18.668715
000140 3d 6c 93 c1 a8 78 91 c1 8d 7e 8f c1 ae 7d 8d c1
       -18.42785 -18.183914 -17.936792 -17.686367
000150 c8 75 8b c1 99 66 89 c1 da 4f 87 c1 3f 31 85 c1
       -17.43251 -17.175097 -16.91399 -16.649046
000160 7a 0a 83 c1 3b db 80 c1 56 46 7d c1 df c3 78 c1
       -16.380116 -16.107046 -15.829672 -15.54782
000170 54 2e 74 c1 eb 84 6f c1 d1 c6 6a c1 27 f3 65 c1
       -15.261311 -14.969951 -14.673539 -14.371863
000180 58 82 b0 c1 21 dd ae c1 3f 34 ad c1 8c 87 ab c1
       -22.063644 -21.857973 -21.65051 -21.441185
000190 e7 d6 a9 c1 29 22 a8 c1 2d 69 a6 c1 ca ab a4 c1
       -21.229933 -21.01668 -20.801355 -20.583881
0001a0 d8 e9 a2 c1 2d 23 a1 c1 9c 57 9f c1 f7 86 9d c1
       -20.364182 -20.142176 -19.917778 -19.6909
0001b0 11 b1 9b c1 b7 d5 99 c1 b7 f4 97 c1 db 0d 96 c1
       -19.461458 -19.229353 -18.99449 -18.756765
0001c0 ed 20 94 c1 b4 2d 92 c1 f3 33 90 c1 6c 33 8e c1
       -18.516077 -18.272316 -18.025366 -17.775108
0001d0 de 2b 8c c1 05 1d 8a c1 9a 06 88 c1 53 e8 85 c1
       -17.52142 -17.26417 -17.003223 -16.73844
0001e0 e0 c1 83 c1 f1 92 81 c1 5f b6 7e c1 82 34 7a c1
       -16.469666 -16.196749 -15.919524 -15.637819
0001f0 8b 9f 75 c1 b4 f6 70 c1 26 39 6c c1 04 66 67 c1
       -15.351451 -15.06023 -14.763952 -14.462406
000200 3a 30 b1 c1 6c 8b af c1 f1 e2 ad c1 a6 36 ac c1
       -22.148548 -21.943077 -21.735811 -21.526684
000210 67 86 aa c1 0f d2 a8 c1 77 19 a7 c1 79 5c a5 c1
       -21.315626 -21.102568 -20.887434 -20.670153
000220 eb 9a a3 c1 a2 d4 a1 c1 73 09 a0 c1 30 39 9e c1
       -20.450644 -20.228825 -20.004614 -19.777924
000230 aa 63 9c c1 af 88 9a c1 0e a8 98 c1 90 c1 96 c1
       -19.548664 -19.31674 -19.082058 -18.844513
000240 ff d4 94 c1 21 e2 92 c1 ba e8 90 c1 8d e8 8e c1
       -18.604002 -18.360415 -18.113636 -17.86355
000250 57 e1 8c c1 d5 d2 8a c1 c0 bc 88 c1 cc 9e 86 c1
       -17.61003 -17.352945 -17.092163 -16.827538
000260 ad 78 84 c1 0f 4a 82 c1 9c 12 80 c1 f6 a3 7b c1
       -16.558924 -16.286161 -16.009087 -15.72753
000270 97 0f 77 c1 52 67 72 c1 54 aa 6d c1 bc d7 68 c1
       -15.441306 -15.150225 -14.854084 -14.55267
000280 7f dd b1 c1 19 39 b0 c1 06 91 ae c1 22 e5 ac c1
       -22.233152 -22.02788 -21.820812 -21.611881
000290 4a 35 ab c1 58 81 a9 c1 26 c9 a7 c1 8d 0c a6 c1
       -21.40102 -21.188156 -20.973217 -20.756128
0002a0 62 4b a4 c1 7d 85 a2 c1 b0 ba a0 c1 cf ea 9e c1
       -20.536808 -20.31518 -20.091156 -19.864653
0002b0 aa 15 9d c1 0f 3b 9b c1 cd 5a 99 c1 ad 74 97 c1
       -19.635578 -19.403837 -19.169336 -18.93197
0002c0 79 88 95 c1 f7 95 93 c1 ec 9c 91 c1 19 9d 8f c1
       -18.691637 -18.448225 -18.201622 -17.951708
0002d0 3c 96 8d c1 11 88 8b c1 52 72 89 c1 b3 54 87 c1
       -17.698357 -17.441439 -17.18082 -16.916357
0002e0 e7 2e 85 c1 9b 00 83 c1 78 c9 80 c1 4a 12 7d c1
       -16.647902 -16.375296 -16.098373 -15.816965
0002f0 84 7e 78 c1 d4 d6 73 c1 66 1a 6f c1 59 48 6a c1
       -15.530888 -15.239948 -14.943945 -14.642663
000300 32 8a b2 c1 35 e6 b0 c1 8b 3e af c1 0f 93 ad c1
       -22.317478 -22.112406 -21.905539 -21.696806
000310 9e e3 ab c1 12 30 aa c1 46 78 a8 c1 11 bc a6 c1
       -21.486141 -21.273472 -21.058727 -20.84183
000320 4b fb a4 c1 ca 35 a3 c1 60 6b a1 c1 e1 9b 9f c1
       -20.622702 -20.401264 -20.17743 -19.951113
000330 1d c7 9d c1 e3 ec 9b c1 00 0d 9a c1 3f 27 98 c1
       -19.722223 -19.490667 -19.256348 -19.019163
000340 69 3b 96 c1 43 49 94 c1 94 50 92 c1 1b 51 90 c1
       -18.779009 -18.535772 -18.289345 -18.039602
000350 97 4a 8e c1 c5 3c 8c c1 5c 27 8a c1 13 0a 88 c1
       -17.78642 -17.529673 -17.269218 -17.00492
000360 9a e4 85 c1 a1 b6 83 c1 cf 7f 81 c1 96 7f 7e c1
       -16.736622 -16.464174 -16.187407 -15.906149
000370 69 ec 79 c1 50 45 75 c1 73 89 70 c1 f4 b7 6b c1
       -15.620217 -15.329422 -15.033557 -14.73241
000380 59 36 b3 c1 c6 92 b1 c1 84 eb af c1 70 40 ae c1
       -22.401537 -22.196667 -21.989998 -21.781464
000390 66 91 ac c1 42 de aa c1 dc 26 a9 c1 0d 6b a7 c1
       -21.570995 -21.358524 -21.143974 -20.92727
0003a0 ac aa a5 c1 8e e5 a3 c1 88 1b a2 c1 6b 4c a0 c1
       -20.708336 -20.487087 -20.263443 -20.037313
0003b0 09 78 9e c1 30 9e 9c c1 ae be 9a c1 4c d9 98 c1
       -19.80861 -19.57724 -19.343105 -19.106102
0003c0 d4 ed 96 c1 0c fc 94 c1 b9 03 93 c1 9b 04 91 c1
       -18.866127 -18.62307 -18.376818 -18.127249
0003d0 72 fe 8e c1 f9 f0 8c c1 e8 db 8a c1 f5 be 88 c1
       -17.87424 -17.617662 -17.357376 -17.09324
0003e0 d1 99 86 c1 2b 6c 84 c1 ab 35 82 c1 ed eb 7f c1
       -16.825106 -16.552816 -16.276205 -15.995099
0003f0 5e 59 7b c1 dc b2 76 c1 94 f7 71 c1 a5 26 6d c1
       -15.709318 -15.418667 -15.122944 -14.821935

qa f4 [32, 32]
000000 00 00 00 00 00 00 00 00 00 00 00 00 00 00 00 00
       0.0 0.0 0.0 0.0
000010 00 00 00 00 00 00 00 00 00 00 00 00 00 00 00 00
       0.0 0.0 0.0 0.0
000020 00 00 00 00 00 00 00 00 00 00 00 00 00 00 00 00
       0.0 0.0 0.0 0.0
000030 00 00 00 00 00 00 00 00 00 00 00 00 00 00 00 00
       0.0 0.0 0.0 0.0
000040 00 00 00 00 00 00 00 00 00 00 00 00 00 00 00 00
       0.0 0.0 0.0 0.0
000050 00 00 00 00 00 00 00 00 00 00 00 00 00 00 00 00
       0.0 0.0 0.0 0.0
000060 00 00 00 00 00 00 00 00 00 00 00 00 00 00 00 00
       0.0 0.0 0.0 0.0
000070 00 00 00 00 00 00 00 00 00 00 00 00 00 00 00 00
       0.0 0.0 0.0 0.0
000080 00 00 00 00 00 00 00 00 00 00 00 00 00 00 00 00
       0.0 0.0 0.0 0.0
000090 00 00 00 00 00 00 00 00 00 00 00 00 00 00 00 00
       0.0 0.0 0.0 0.0
0000a0 00 00 00 00 00 00 00 00 00 00 00 00 00 00 00 00
       0.0 0.0 0.0 0.0
0000b0 00 00 00 00 00 00 00 00 00 00 00 00 00 00 00 00
       0.0 0.0 0.0 0.0
0000c0 00 00 00 00 00 00 00 00 00 00 00 00 00 00 00 00
       0.0 0.0 0.0 0.0
0000d0 00 00 00 00 00 00 00 00 00 00 00 00 00 00 00 00
       0.0 0.0 0.0 0.0
0000e0 00 00 00 00 00 00 00 00 00 00 00 00 00 00 00 00
       0.0 0.0 0.0 0.0
0000f0 00 00 00 00 00 00 00 00 00 00 00 00 00 00 00 00
       0.0 0.0 0.0 0.0
000100 00 00 00 00 00 00 00 00 00 00 00 00 00 00 00 00
       0.0 0.0 0.0 0.0
000110 00 00 00 00 00 00 00 00 00 00 00 00 00 00 00 00
       0.0 0.0 0.0 0.0
000120 00 00 00 00 00 00 00 00 00 00 00 00 00 00 00 00
       0.0 0.0 0.0 0.0
000130 00 00 00 00 00 00 00 00 00 00 00 00 00 00 00 00
       0.0 0.0 0.0 0.0
000140 00 00 00 00 00 00 00 00 00 00 00 00 00 00 00 00
       0.0 0.0 0.0 0.0
000150 00 00 00 00 00 00 00 00 00 00 00 00 00 00 00 00
       0.0 0.0 0.0 0.0
000160 00 00 00 00 00 00 00 00 00 00 00 00 00 00 00 00
       0.0 0.0 0.0 0.0
000170 00 00 00 00 00 00 00 00 00 00 00 00 00 00 00 00
       0.0 0.0 0.0 0.0
000180 00 00 00 00 00 00 00 00 00 00 00 00 00 00 00 00
       0.0 0.0 0.0 0.0
000190 00 00 00 00 00 00 00 00 00 00 00 00 00 00 00 00
       0.0 0.0 0.0 0.0
0001a0 00 00 00 00 00 00 00 00 00 00 00 00 00 00 00 00
       0.0 0.0 0.0 0.0
0001b0 00 00 00 00 00 00 00 00 00 00 00 00 00 00 00 00
       0.0 0.0 0.0 0.0
0001c0 00 00 00 00 00 00 00 00 00 00 00 00 00 00 00 00
       0.0 0.0 0.0 0.0
0001d0 00 00 00 00 00 00 00 00 00 00 00 00 00 00 00 00
       0.0 0.0 0.0 0.0
0001e0 00 00 00 00 00 00 00 00 00 00 00 00 00 00 00 00
       0.0 0.0 0.0 0.0
0001f0 00 00 00 00 00 00 00 00 00 00 00 00 00 00 00 00
       0.0 0.0 0.0 0.0
000200 00 00 00 00 00 00 00 00 00 00 00 00 00 00 00 00
       0.0 0.0 0.0 0.0
000210 00 00 00 00 00 00 00 00 00 00 00 00 00 00 00 00
       0.0 0.0 0.0 0.0
000220 00 00 00 00 00 00 00 00 00 00 00 00 00 00 00 00
       0.0 0.0 0.0 0.0
000230 00 00 00 00 00 00 00 00 00 00 00 00 00 00 00 00
       0.0 0.0 0.0 0.0
000240 00 00 00 00 00 00 00 00 00 00 00 00 00 00 00 00
       0.0 0.0 0.0 0.0
000250 00 00 00 00 00 00 00 00 00 00 00 00 00 00 00 00
       0.0 0.0 0.0 0.0
000260 00 00 00 00 00 00 00 00 00 00 00 00 00 00 00 00
       0.0 0.0 0.0 0.0
000270 00 00 00 00 00 00 00 00 00 00 00 00 00 00 00 00
       0.0 0.0 0.0 0.0
000280 00 00 00 00 00 00 00 00 00 00 00 00 00 00 00 00
       0.0 0.0 0.0 0.0
000290 00 00 00 00 00 00 00 00 00 00 00 00 00 00 00 00
       0.0 0.0 0.0 0.0
0002a0 00 00 00 00 00 00 00 00 00 00 00 00 00 00 00 00
       0.0 0.0 0.0 0.0
0002b0 00 00 00 00 00 00 00 00 00 00 00 00 00 00 00 00
       0.0 0.0 0.0 0.0
0002c0 00 00 00 00 00 00 00 00 00 00 00 00 00 00 00 00
       0.0 0.0 0.0 0.0
0002d0 00 00 00 00 00 00 00 00 00 00 00 00 00 00 00 00
       0.0 0.0 0.0 0.0
0002e0 00 00 00 00 00 00 00 00 00 00 00 00 00 00 00 00
       0.0 0.0 0.0 0.0
0002f0 00 00 00 00 00 00 00 00 00 00 00 00 00 00 00 00
       0.0 0.0 0.0 0.0
000300 00 00 00 00 00 00 00 00 00 00 00 00 00 00 00 00
       0.0 0.0 0.0 0.0
000310 00 00 00 00 00 00 00 00 00 00 00 00 00 00 00 00
       0.0 0.0 0.0 0.0
000320 00 00 00 00 00 00 00 00 00 00 00 00 00 00 00 00
       0.0 0.0 0.0 0.0
000330 00 00 00 00 00 00 00 00 00 00 00 00 00 00 00 00
       0.0 0.0 0.0 0.0
000340 00 00 00 00 00 00 00 00 00 00 00 00 00 00 00 00
       0.0 0.0 0.0 0.0
000350 00 00 00 00 00 00 00 00 00 00 00 00 00 00 00 00
       0.0 0.0 0.0 0.0
000360 00 00 00 00 00 00 00 00 00 00 00 00 00 00 00 00
       0.0 0.0 0.0 0.0
000370 00 00 00 00 00 00 00 00 00 00 00 00 00 00 00 00
       0.0 0.0 0.0 0.0
000380 00 00 00 00 00 00 00 00 00 00 00 00 00 00 00 00
       0.0 0.0 0.0 0.0
000390 00 00 00 00 00 00 00 00 00 00 00 00 00 00 00 00
       0.0 0.0 0.0 0.0
0003a0 00 00 00 00 00 00 00 00 00 00 00 00 00 00 00 00
       0.0 0.0 0.0 0.0
0003b0 00 00 00 00 00 00 00 00 00 00 00 00 00 00 00 00
       0.0 0.0 0.0 0.0
0003c0 00 00 00 00 00 00 00 00 00 00 00 00 00 00 00 00
       0.0 0.0 0.0 0.0
0003d0 00 00 00 00 00 00 00 00 00 00 00 00 00 00 00 00
       0.0 0.0 0.0 0.0
0003e0 00 00 00 00 00 00 00 00 00 00 00 00 00 00 00 00
       0.0 0.0 0.0 0.0
0003f0 00 00 00 00 00 00 00 00 00 00 00 00 00 00 00 00
       0.0 0.0 0.0 0.0
