data/dataset/negative/e02b23b6-f0bf-40b3-b048-4c586b58fa70.npz (npz, 23743 bytes, 4 tensors)

methane f8 [32, 32]
0	0x479e000000000000	9.969209968386869e+36
1	0x479e000000000000	9.969209968386869e+36
2	0x479e000000000000	9.969209968386869e+36
3	0x479e000000000000	9.969209968386869e+36
4	0x479e000000000000	9.969209968386869e+36
5	0x479e000000000000	9.969209968386869e+36
6	0x479e000000000000	9.969209968386869e+36
7	0x479e000000000000	9.969209968386869e+36
8	0x479e000000000000	9.969209968386869e+36
9	0x479e000000000000	9.969209968386869e+36
10	0x479e000000000000	9.969209968386869e+36
11	0x479e000000000000	9.969209968386869e+36
12	0x479e000000000000	9.969209968386869e+36
13	0x479e000000000000	9.969209968386869e+36
14	0x479e000000000000	9.969209968386869e+36
15	0x479e000000000000	9.969209968386869e+36
16	0x479e000000000000	9.969209968386869e+36
17	0x479e000000000000	9.969209968386869e+36
18	0x479e000000000000	9.969209968386869e+36
19	0x479e000000000000	9.969209968386869e+36
20	0x479e000000000000	9.969209968386869e+36
21	0x479e000000000000	9.969209968386869e+36
22	0x479e000000000000	9.969209968386869e+36
23	0x479e000000000000	9.969209968386869e+36
24	0x479e000000000000	9.969209968386869e+36
25	0x479e000000000000	9.969209968386869e+36
26	0x479e000000000000	9.969209968386869e+36
27	0x479e000000000000	9.969209968386869e+36
28	0x479e000000000000	9.969209968386869e+36
29	0x479e000000000000	9.969209968386869e+36
30	0x479e000000000000	9.969209968386869e+36
31	0x479e000000000000	9.969209968386869e+36
32	0x479e000000000000	9.969209968386869e+36
33	0x479e000000000000	9.969209968386869e+36
34	0x479e000000000000	9.969209968386869e+36
35	0x479e000000000000	9.969209968386869e+36
36	0x479e000000000000	9.969209968386869e+36
37	0x479e000000000000	9.969209968386869e+36
38	0x479e000000000000	9.969209968386869e+36
39	0x479e000000000000	9.969209968386869e+36
40	0x479e000000000000	9.969209968386869e+36
41	0x479e000000000000	9.969209968386869e+36
42	0x479e000000000000	9.969209968386869e+36
43	0x479e000000000000	9.969209968386869e+36
44	0x479e000000000000	9.969209968386869e+36
45	0x479e000000000000	9.969209968386869e+36
46	0x479e000000000000	9.969209968386869e+36
47	0x479e000000000000	9.969209968386869e+36
48	0x479e000000000000	9.969209968386869e+36
49	0x479e000000000000	9.969209968386869e+36
50	0x479e000000000000	9.969209968386869e+36
51	0x479e000000000000	9.969209968386869e+36
52	0x479e000000000000	9.969209968386869e+36
53	0x479e000000000000	9.969209968386869e+36
54	0x479e000000000000	9.969209968386869e+36
55	0x479e000000000000	9.969209968386869e+36
56	0x479e000000000000	9.969209968386869e+36
57	0x479e000000000000	9.969209968386869e+36
58	0x479e000000000000	9.969209968386869e+36
59	0x479e000000000000	9.969209968386869e+36
60	0x479e000000000000	9.969209968386869e+36
61	0x479e000000000000	9.969209968386869e+36
62	0x479e000000000000	9.969209968386869e+36
63	0x479e000000000000	9.969209968386869e+36
64	0x479e000000000000	9.969209968386869e+36
65	0x479e000000000000	9.969209968386869e+36
66	0x479e000000000000	9.969209968386869e+36
67	0x479e000000000000	9.969209968386869e+36
68	0x479e000000000000	9.969209968386869e+36
69	0x479e000000000000	9.969209968386869e+36
70	0x479e000000000000	9.969209968386869e+36
71	0x479e000000000000	9.969209968386869e+36
72	0x479e000000000000	9.969209968386869e+36
73	0x479e000000000000	9.969209968386869e+36
74	0x479e000000000000	9.969209968386869e+36
75	0x479e000000000000	9.969209968386869e+36
76	0x479e000000000000	9.969209968386869e+36
77	0x479e000000000000	9.969209968386869e+36
78	0x479e000000000000	9.969209968386869e+36
79	0x479e000000000000	9.969209968386869e+36
80	0x479e000000000000	9.969209968386869e+36
81	0x479e000000000000	9.969209968386869e+36
82	0x479e000000000000	9.969209968386869e+36
83	0x479e000000000000	9.969209968386869e+36
84	0x479e000000000000	9.969209968386869e+36
85	0x479e000000000000	9.969209968386869e+36
86	0x479e000000000000	9.969209968386869e+36
87	0x479e000000000000	9.969209968386869e+36
88	0x479e000000000000	9.969209968386869e+36
89	0x479e000000000000	9.969209968386869e+36
90	0x479e000000000000	9.969209968386869e+36
91	0x479e000000000000	9.969209968386869e+36
92	0x479e000000000000	9.969209968386869e+36
93	0x479e000000000000	9.969209968386869e+36
94	0x479e000000000000	9.969209968386869e+36
95	0x479e000000000000	9.969209968386869e+36
96	0x479e000000000000	9.969209968386869e+36
97	0x479e000000000000	9.969209968386869e+36
98	0x479e000000000000	9.969209968386869e+36
99	0x479e000000000000	9.969209968386869e+36
100	0x479e000000000000	9.969209968386869e+36
101	0x479e000000000000	9.969209968386869e+36
102	0x479e000000000000	9.969209968386869e+36
103	0x479e000000000000	9.969209968386869e+36
104	0x479e000000000000	9.969209968386869e+36
105	0x479e000000000000	9.969209968386869e+36
106	0x479e000000000000	9.969209968386869e+36
107	0x479e000000000000	9.969209968386869e+36
108	0x479e000000000000	9.969209968386869e+36
109	0x479e000000000000	9.969209968386869e+36
110	0x479e000000000000	9.969209968386869e+36
111	0x479e000000000000	9.969209968386869e+36
112	0x479e000000000000	9.969209968386869e+36
113	0x479e000000000000	9.969209968386869e+36
114	0x479e000000000000	9.969209968386869e+36
115	0x479e000000000000	9.969209968386869e+36
116	0x479e000000000000	9.969209968386869e+36
117	0x479e000000000000	9.969209968386869e+36
118	0x479e000000000000	9.969209968386869e+36
119	0x479e000000000000	9.969209968386869e+36
120	0x479e000000000000	9.969209968386869e+36
121	0x479e000000000000	9.969209968386869e+36
122	0x479e000000000000	9.969209968386869e+36
123	0x479e000000000000	9.969209968386869e+36
124	0x479e000000000000	9.969209968386869e+36
125	0x479e000000000000	9.969209968386869e+36
126	0x479e000000000000	9.969209968386869e+36
127	0x479e000000000000	9.969209968386869e+36
128	0x479e000000000000	9.969209968386869e+36
129	0x479e000000000000	9.969209968386869e+36
130	0x479e000000000000	9.969209968386869e+36
131	0x479e000000000000	9.969209968386869e+36
132	0x479e000000000000	9.969209968386869e+36
133	0x479e000000000000	9.969209968386869e+36
134	0x479e000000000000	9.969209968386869e+36
135	0x479e000000000000	9.969209968386869e+36
136	0x479e000000000000	9.969209968386869e+36
137	0x479e000000000000	9.969209968386869e+36
138	0x479e000000000000	9.969209968386869e+36
139	0x479e000000000000	9.969209968386869e+36
140	0x479e000000000000	9.969209968386869e+36
141	0x479e000000000000	9.969209968386869e+36
142	0x479e000000000000	9.969209968386869e+36
143	0x479e000000000000	9.969209968386869e+36
144	0x479e000000000000	9.969209968386869e+36
145	0x479e000000000000	9.969209968386869e+36
146	0x479e000000000000	9.969209968386869e+36
147	0x479e000000000000	9.969209968386869e+36
148	0x479e000000000000	9.969209968386869e+36
149	0x479e000000000000	9.969209968386869e+36
150	0x479e000000000000	9.969209968386869e+36
151	0x479e000000000000	9.969209968386869e+36
152	0x479e000000000000	9.969209968386869e+36
153	0x479e000000000000	9.969209968386869e+36
154	0x479e000000000000	9.969209968386869e+36
155	0x479e000000000000	9.969209968386869e+36
156	0x479e000000000000	9.969209968386869e+36
157	0x479e000000000000	9.969209968386869e+36
158	0x479e000000000000	9.969209968386869e+36
159	0x479e000000000000	9.969209968386869e+36
160	0x479e000000000000	9.969209968386869e+36
161	0x479e000000000000	9.969209968386869e+36
162	0x479e000000000000	9.969209968386869e+36
163	0x479e000000000000	9.969209968386869e+36
164	0x479e000000000000	9.969209968386869e+36
165	0x479e000000000000	9.969209968386869e+36
166	0x479e000000000000	9.969209968386869e+36
167	0x479e000000000000	9.969209968386869e+36
168	0x479e000000000000	9.969209968386869e+36
169	0x479e000000000000	9.969209968386869e+36
170	0x479e000000000000	9.969209968386869e+36
171	0x479e000000000000	9.969209968386869e+36
172	0x479e000000000000	9.969209968386869e+36
173	0x479e000000000000	9.969209968386869e+36
174	0x479e000000000000	9.969209968386869e+36
175	0x479e000000000000	9.969209968386869e+36
176	0x479e000000000000	9.969209968386869e+36
177	0x479e000000000000	9.969209968386869e+36
178	0x479e000000000000	9.969209968386869e+36
179	0x479e000000000000	9.969209968386869e+36
180	0x479e000000000000	9.969209968386869e+36
181	0x479e000000000000	9.969209968386869e+36
182	0x479e000000000000	9.969209968386869e+36
183	0x479e000000000000	9.969209968386869e+36
184	0x479e000000000000	9.969209968386869e+36
185	0x479e000000000000	9.969209968386869e+36
186	0x479e000000000000	9.969209968386869e+36
187	0x479e000000000000	9.969209968386869e+36
188	0x479e000000000000	9.969209968386869e+36
189	0x479e000000000000	9.969209968386869e+36
190	0x479e000000000000	9.969209968386869e+36
191	0x479e000000000000	9.969209968386869e+36
192	0x479e000000000000	9.969209968386869e+36
193	0x479e000000000000	9.969209968386869e+36
194	0x479e000000000000	9.969209968386869e+36
195	0x479e000000000000	9.969209968386869e+36
196	0x479e000000000000	9.969209968386869e+36
197	0x479e000000000000	9.969209968386869e+36
198	0x479e000000000000	9.969209968386869e+36
199	0x479e000000000000	9.969209968386869e+36
200	0x479e000000000000	9.969209968386869e+36
201	0x479e000000000000	9.969209968386869e+36
202	0x479e000000000000	9.969209968386869e+36
203	0x479e000000000000	9.969209968386869e+36
204	0x479e000000000000	9.969209968386869e+36
205	0x479e000000000000	9.969209968386869e+36
206	0x479e000000000000	9.969209968386869e+36
207	0x479e000000000000	9.969209968386869e+36
208	0x479e000000000000	9.969209968386869e+36
209	0x479e000000000000	9.969209968386869e+36
210	0x479e000000000000	9.969209968386869e+36
211	0x479e000000000000	9.969209968386869e+36
212	0x479e000000000000	9.969209968386869e+36
213	0x479e000000000000	9.969209968386869e+36
214	0x479e000000000000	9.969209968386869e+36
215	0x479e000000000000	9.969209968386869e+36
216	0x479e000000000000	9.969209968386869e+36
217	0x479e000000000000	9.969209968386869e+36
218	0x479e000000000000	9.969209968386869e+36
219	0x479e000000000000	9.969209968386869e+36
220	0x479e000000000000	9.969209968386869e+36
221	0x479e000000000000	9.969209968386869e+36
222	0x479e000000000000	9.969209968386869e+36
223	0x479e000000000000	9.969209968386869e+36
224	0x479e000000000000	9.969209968386869e+36
225	0x479e000000000000	9.969209968386869e+36
226	0x479e000000000000	9.969209968386869e+36
227	0x479e000000000000	9.969209968386869e+36
228	0x479e000000000000	9.969209968386869e+36
229	0x479e000000000000	9.969209968386869e+36
230	0x479e000000000000	9.969209968386869e+36
231	0x479e000000000000	9.969209968386869e+36
232	0x479e000000000000	9.969209968386869e+36
233	0x479e000000000000	9.969209968386869e+36
234	0x479e000000000000	9.969209968386869e+36
235	0x479e000000000000	9.969209968386869e+36
236	0x479e000000000000	9.969209968386869e+36
237	0x479e000000000000	9.969209968386869e+36
238	0x479e000000000000	9.969209968386869e+36
239	0x479e000000000000	9.969209968386869e+36
240	0x479e000000000000	9.969209968386869e+36
241	0x479e000000000000	9.969209968386869e+36
242	0x479e000000000000	9.969209968386869e+36
243	0x479e000000000000	9.969209968386869e+36
244	0x479e000000000000	9.969209968386869e+36
245	0x479e000000000000	9.969209968386869e+36
246	0x479e000000000000	9.969209968386869e+36
247	0x479e000000000000	9.969209968386869e+36
248	0x479e000000000000	9.969209968386869e+36
249	0x479e000000000000	9.969209968386869e+36
250	0x479e000000000000	9.969209968386869e+36
251	0x479e000000000000	9.969209968386869e+36
252	0x479e000000000000	9.969209968386869e+36
253	0x479e000000000000	9.969209968386869e+36
254	0x479e000000000000	9.969209968386869e+36
255	0x479e000000000000	9.969209968386869e+36

lat f4 [32, 32]
0	0xc2780226	-62.002098
1	0xc277ea3d	-61.97875
2	0xc277d249	-61.955357
3	0xc277ba48	-61.931915
4	0xc277a239	-61.90842
5	0xc2778a1a	-61.884865
6	0xc27771eb	-61.861248
7	0xc27759aa	-61.837563
8	0xc2774156	-61.813805
9	0xc27728ed	-61.789967
10	0xc2771070	-61.766052
11	0xc276f7db	-61.742046
12	0xc276df2e	-61.71795
13	0xc276c668	-61.693756
14	0xc276ad87	-61.66946
15	0xc2769489	-61.645054
16	0xc2767b6e	-61.620537
17	0xc2766234	-61.5959
18	0xc27648d9	-61.57114
19	0xc2762f5c	-61.54625
20	0xc27615bc	-61.521225
21	0xc275fbf6	-61.496056
22	0xc275e20a	-61.47074
23	0xc275c7f4	-61.445267
24	0xc275adb5	-61.419636
25	0xc275934a	-61.393837
26	0xc27578b1	-61.367863
27	0xc2755de8	-61.341705
28	0xc27542ed	-61.315357
29	0xc27527bf	-61.288815
30	0xc2750c5b	-61.262066
31	0xc274f0c0	-61.235107
32	0xc277d26c	-61.95549
33	0xc277ba8b	-61.93217
34	0xc277a29f	-61.90881
35	0xc2778aa6	-61.8854
36	0xc277729f	-61.861935
37	0xc2775a88	-61.83841
38	0xc2774261	-61.814823
39	0xc2772a29	-61.791172
40	0xc27711dd	-61.767445
41	0xc276f97d	-61.74364
42	0xc276e108	-61.719757
43	0xc276c87c	-61.695786
44	0xc276afd8	-61.671722
45	0xc276971b	-61.647564
46	0xc2767e42	-61.6233
47	0xc276654e	-61.59893
48	0xc2764c3c	-61.574448
49	0xc276330b	-61.549847
50	0xc27619ba	-61.525124
51	0xc2760046	-61.500267
52	0xc275e6af	-61.475277
53	0xc275ccf3	-61.450146
54	0xc275b310	-61.424866
55	0xc2759905	-61.399433
56	0xc2757ed0	-61.37384
57	0xc275646f	-61.34808
58	0xc27549e0	-61.322144
59	0xc2752f21	-61.296024
60	0xc2751431	-61.26972
61	0xc274f90d	-61.243214
62	0xc274ddb4	-61.216507
63	0xc274c224	-61.18959
64	0xc277a29b	-61.908794
65	0xc2778ac2	-61.885506
66	0xc27772de	-61.862175
67	0xc2775aed	-61.838795
68	0xc27742ee	-61.81536
69	0xc2772ae0	-61.79187
70	0xc27712c1	-61.768314
71	0xc276fa91	-61.744694
72	0xc276e24d	-61.720997
73	0xc276c9f6	-61.697227
74	0xc276b189	-61.673374
75	0xc2769906	-61.649437
76	0xc276806b	-61.62541
77	0xc27667b6	-61.60128
78	0xc2764ee7	-61.577053
79	0xc27635fb	-61.552715
80	0xc2761cf2	-61.528267
81	0xc27603cb	-61.503704
82	0xc275ea83	-61.479015
83	0xc275d118	-61.454193
84	0xc275b78b	-61.42924
85	0xc2759dd8	-61.404144
86	0xc27583ff	-61.378902
87	0xc27569fe	-61.353508
88	0xc2754fd2	-61.32795
89	0xc275357b	-61.302227
90	0xc2751af6	-61.27633
91	0xc2750042	-61.25025
92	0xc274e55c	-61.223984
93	0xc274ca43	-61.19752
94	0xc274aef5	-61.170856
95	0xc274936f	-61.14398
96	0xc27772f0	-61.862244
97	0xc2775b20	-61.83899
98	0xc2774344	-61.81569
99	0xc2772b5b	-61.79234
100	0xc2771364	-61.768936
101	0xc276fb5e	-61.745476
102	0xc276e347	-61.72195
103	0xc276cb1f	-61.69836
104	0xc276b2e4	-61.674698
105	0xc2769a96	-61.650963
106	0xc2768231	-61.62714
107	0xc27669b7	-61.603237
108	0xc2765124	-61.57924
109	0xc2763878	-61.555145
110	0xc2761fb2	-61.530952
111	0xc27606d0	-61.506653
112	0xc275edd0	-61.48224
113	0xc275d4b1	-61.457706
114	0xc275bb72	-61.433052
115	0xc275a212	-61.40827
116	0xc275888e	-61.383354
117	0xc2756ee5	-61.358295
118	0xc2755515	-61.333088
119	0xc2753b1e	-61.30773
120	0xc27520fc	-61.28221
121	0xc27506af	-61.256527
122	0xc274ec34	-61.230667
123	0xc274d18a	-61.204628
124	0xc274b6af	-61.178402
125	0xc2749ba1	-61.15198
126	0xc274805d	-61.125355
127	0xc27464e2	-61.09852
128	0xc277433a	-61.81565
129	0xc2772b72	-61.792427
130	0xc277139d	-61.769154
131	0xc276fbbd	-61.74584
132	0xc276e3ce	-61.722466
133	0xc276cbd0	-61.699036
134	0xc276b3c2	-61.675545
135	0xc2769ba2	-61.651985
136	0xc2768370	-61.628357
137	0xc2766b29	-61.60465
138	0xc27652ce	-61.580864
139	0xc2763a5c	-61.55699
140	0xc27621d2	-61.533028
141	0xc276092f	-61.50897
142	0xc275f071	-61.484806
143	0xc275d798	-61.46054
144	0xc275bea1	-61.43616
145	0xc275a58c	-61.411667
146	0xc2758c56	-61.387047
147	0xc27572ff	-61.3623
148	0xc2755984	-61.337418
149	0xc2753fe5	-61.312397
150	0xc275261f	-61.287228
151	0xc2750c31	-61.261906
152	0xc274f21a	-61.236427
153	0xc274d7d7	-61.21078
154	0xc274bd66	-61.18496
155	0xc274a2c6	-61.15896
156	0xc27487f6	-61.132774
157	0xc2746cf2	-61.10639
158	0xc27451b9	-61.079807
159	0xc2743649	-61.053013
160	0xc2771374	-61.768997
161	0xc276fbb3	-61.7458
162	0xc276e3e7	-61.72256
163	0xc276cc0e	-61.699272
164	0xc276b428	-61.675934
165	0xc2769c32	-61.652534
166	0xc276842c	-61.629074
167	0xc2766c15	-61.60555
168	0xc27653eb	-61.58195
169	0xc2763bad	-61.558277
170	0xc276235a	-61.534523
171	0xc2760af0	-61.51068
172	0xc275f26f	-61.48675
173	0xc275d9d5	-61.462727
174	0xc275c120	-61.4386
175	0xc275a850	-61.414368
176	0xc2758f62	-61.390022
177	0xc2757656	-61.365562
178	0xc2755d29	-61.340977
179	0xc27543db	-61.316265
180	0xc2752a6a	-61.29142
181	0xc27510d5	-61.266438
182	0xc274f718	-61.241302
183	0xc274dd34	-61.21602
184	0xc274c327	-61.19058
185	0xc274a8ed	-61.164967
186	0xc2748e87	-61.139187
187	0xc27473f2	-61.113228
188	0xc274592b	-61.08708
189	0xc2743e32	-61.060738
190	0xc2742303	-61.03419
191	0xc274079e	-61.00744
192	0xc276e3b0	-61.72235
193	0xc276cbf7	-61.699184
194	0xc276b433	-61.675976
195	0xc2769c62	-61.652718
196	0xc2768483	-61.629406
197	0xc2766c96	-61.60604
198	0xc2765498	-61.58261
199	0xc2763c89	-61.559116
200	0xc2762467	-61.53555
201	0xc2760c32	-61.51191
202	0xc275f3e7	-61.488186
203	0xc275db86	-61.46438
204	0xc275c30e	-61.440483
205	0xc275aa7c	-61.41649
206	0xc27591d0	-61.392395
207	0xc2757909	-61.3682
208	0xc2756024	-61.343887
209	0xc2754721	-61.31946
210	0xc2752dfe	-61.294914
211	0xc27514b9	-61.270237
212	0xc274fb51	-61.245426
213	0xc274e1c5	-61.220478
214	0xc274c813	-61.195385
215	0xc274ae38	-61.170135
216	0xc2749434	-61.14473
217	0xc2747a05	-61.11916
218	0xc2745fa9	-61.09342
219	0xc274451d	-61.067493
220	0xc2742a61	-61.041386
221	0xc2740f72	-61.015083
222	0xc273f44f	-60.988583
223	0xc273d8f4	-60.96187
224	0xc276b3dd	-61.675648
225	0xc2769c2c	-61.65251
226	0xc276846f	-61.62933
227	0xc2766ca6	-61.606102
228	0xc27654cf	-61.58282
229	0xc2763ce9	-61.559483
230	0xc27624f3	-61.536083
231	0xc2760cec	-61.51262
232	0xc275f4d3	-61.489086
233	0xc275dca6	-61.465477
234	0xc275c463	-61.441784
235	0xc275ac0b	-61.41801
236	0xc275939b	-61.394146
237	0xc2757b12	-61.370186
238	0xc275626f	-61.346127
239	0xc27549b0	-61.32196
240	0xc27530d4	-61.297684
241	0xc27517da	-61.273293
242	0xc274fec0	-61.24878
243	0xc274e584	-61.224136
244	0xc274cc26	-61.199364
245	0xc274b2a3	-61.17445
246	0xc27498fa	-61.14939
247	0xc2747f29	-61.12418
248	0xc274652e	-61.09881
249	0xc2744b09	-61.073277
250	0xc27430b6	-61.04757
251	0xc2741635	-61.021687
252	0xc273fb83	-60.995617
253	0xc273e09e	-60.969353
254	0xc273c585	-60.94289
255	0xc273aa35	-60.916218

lon f4 [32, 32]
0	0x4316e5e0	150.89795
1	0x4317075e	151.02878
2	0x431728de	151.15964
3	0x43174a61	151.29054
4	0x43176be9	151.42152
5	0x43178d77	151.5526
6	0x4317af0c	151.68378
7	0x4317d0ac	151.81512
8	0x4317f256	151.94662
9	0x4318140e	152.07834
10	0x431835d4	152.21027
11	0x431857ab	152.34245
12	0x43187993	152.4749
13	0x43189b90	152.60767
14	0x4318bda2	152.74075
15	0x4318dfcb	152.87419
16	0x4319020e	153.00803
17	0x4319246c	153.14227
18	0x431946e6	153.27695
19	0x4319697f	153.4121
20	0x43198c39	153.54774
21	0x4319af15	153.68391
22	0x4319d215	153.82063
23	0x4319f53c	153.95795
24	0x431a188c	154.09589
25	0x431a3c06	154.23447
26	0x431a5fac	154.37372
27	0x431a8382	154.5137
28	0x431aa788	154.65442
29	0x431acbc1	154.79591
30	0x431af030	154.93823
31	0x431b14d7	155.0814
32	0x4316dc0f	150.8596
33	0x4316fd82	150.99026
34	0x43171ef7	151.12096
35	0x4317406e	151.25168
36	0x431761ea	151.38248
37	0x4317836d	151.51338
38	0x4317a4f7	151.6444
39	0x4317c68b	151.77556
40	0x4317e82a	151.90689
41	0x431809d6	152.03842
42	0x43182b91	152.17018
43	0x43184d5c	152.30219
44	0x43186f39	152.43446
45	0x4318912a	152.56705
46	0x4318b331	152.69997
47	0x4318d54f	152.83324
48	0x4318f786	152.96689
49	0x431919d9	153.10097
50	0x43193c48	153.23547
51	0x43195ed5	153.37044
52	0x43198184	153.50592
53	0x4319a454	153.6419
54	0x4319c749	153.77846
55	0x4319ea65	153.9156
56	0x431a0da9	154.05336
57	0x431a3118	154.19177
58	0x431a54b3	154.33086
59	0x431a787d	154.47066
60	0x431a9c78	154.6112
61	0x431ac0a6	154.75253
62	0x431ae509	154.89467
63	0x431b09a4	155.03766
64	0x4316d246	150.82138
65	0x4316f3ad	150.95186
66	0x43171516	151.08237
67	0x43173682	151.21292
68	0x431757f2	151.34354
69	0x43177969	151.47426
70	0x43179ae8	151.6051
71	0x4317bc70	151.73608
72	0x4317de04	151.86725
73	0x4317ffa5	151.99861
74	0x43182154	152.13019
75	0x43184314	152.26202
76	0x431864e6	152.39413
77	0x431886cc	152.52655
78	0x4318a8c7	152.65929
79	0x4318cada	152.79239
80	0x4318ed06	152.92587
81	0x43190f4c	153.05975
82	0x431931b0	153.19409
83	0x43195432	153.32889
84	0x431976d5	153.46419
85	0x4319999b	153.60002
86	0x4319bc84	153.73639
87	0x4319df95	153.87337
88	0x431a02cd	154.01094
89	0x431a2630	154.14917
90	0x431a49c0	154.28809
91	0x431a6d7f	154.42772
92	0x431a916e	154.56808
93	0x431ab591	154.70924
94	0x431ad9e9	154.85121
95	0x431afe78	154.99402
96	0x4316c882	150.78323
97	0x4316e9de	150.91354
98	0x43170b3b	151.04387
99	0x43172c9c	151.17426
100	0x43174e01	151.3047
101	0x43176f6c	151.43524
102	0x431790e0	151.56592
103	0x4317b25d	151.69673
104	0x4317d3e5	151.82771
105	0x4317f57a	151.9589
106	0x4318171e	152.0903
107	0x431838d3	152.22197
108	0x43185a99	152.3539
109	0x43187c74	152.48615
110	0x43189e64	152.61871
111	0x4318c06b	152.75163
112	0x4318e28c	152.88495
113	0x431904c7	153.01866
114	0x43192720	153.15283
115	0x43194997	153.28746
116	0x43196c2e	153.42258
117	0x43198ee8	153.55823
118	0x4319b1c7	153.69444
119	0x4319d4cc	153.83124
120	0x4319f7f9	153.96864
121	0x431a1b51	154.1067
122	0x431a3ed5	154.24544
123	0x431a6288	154.38489
124	0x431a866c	154.52509
125	0x431aaa84	154.66608
126	0x431aced0	154.80786
127	0x431af354	154.9505
128	0x4316bec5	150.7452
129	0x4316e016	150.87534
130	0x43170167	151.00548
131	0x431722bc	151.13568
132	0x43174416	151.26596
133	0x43176576	151.39633
134	0x431786de	151.52682
135	0x4317a850	151.65747
136	0x4317c9cd	151.78828
137	0x4317eb57	151.9193
138	0x43180cef	152.05052
139	0x43182e98	152.182
140	0x43185054	152.31378
141	0x43187223	152.44585
142	0x43189408	152.57825
143	0x4318b604	152.711
144	0x4318d819	152.84413
145	0x4318fa49	152.97768
146	0x43191c96	153.11166
147	0x43193f02	153.24612
148	0x4319618e	153.38107
149	0x4319843d	153.51656
150	0x4319a710	153.65259
151	0x4319ca0a	153.78922
152	0x4319ed2c	153.92645
153	0x431a1079	154.06435
154	0x431a33f2	154.20291
155	0x431a5799	154.34218
156	0x431a7b72	154.48221
157	0x431a9f7e	154.62302
158	0x431ac3bf	154.76463
159	0x431ae837	154.90709
160	0x4316b50e	150.70724
161	0x4316d653	150.8372
162	0x4316f799	150.96718
163	0x431718e3	151.09721
164	0x43173a31	151.22731
165	0x43175b85	151.3575
166	0x43177ce2	151.48782
167	0x43179e48	151.61829
168	0x4317bfba	151.74893
169	0x4317e139	151.87978
170	0x431802c6	152.01083
171	0x43182464	152.14215
172	0x43184614	152.27374
173	0x431867d8	152.40564
174	0x431889b1	152.53786
175	0x4318aba2	152.67044
176	0x4318cdac	152.8034
177	0x4318efd1	152.93678
178	0x43191213	153.0706
179	0x43193473	153.20488
180	0x431956f4	153.33966
181	0x43197998	153.47498
182	0x43199c60	153.61084
183	0x4319bf4e	153.74728
184	0x4319e265	153.88435
185	0x431a05a6	154.02206
186	0x431a2914	154.16046
187	0x431a4cb0	154.29956
188	0x431a707d	154.4394
189	0x431a947e	154.58005
190	0x431ab8b3	154.72148
191	0x431add21	154.86378
192	0x4316ab5d	150.66939
193	0x4316cc96	150.79916
194	0x4316edd1	150.92897
195	0x43170f0f	151.05882
196	0x43173052	151.18875
197	0x4317519b	151.31877
198	0x431772ec	151.44891
199	0x43179447	151.57921
200	0x4317b5ae	151.70969
201	0x4317d721	151.84035
202	0x4317f8a3	151.97124
203	0x43181a36	152.10239
204	0x43183bdb	152.23381
205	0x43185d93	152.36552
206	0x43187f61	152.49757
207	0x4318a147	152.62999
208	0x4318c346	152.76279
209	0x4318e560	152.896
210	0x43190796	153.02963
211	0x431929ec	153.16376
212	0x43194c61	153.29836
213	0x43196efa	153.4335
214	0x431991b6	153.56918
215	0x4319b499	153.70546
216	0x4319d7a5	153.84236
217	0x4319fadb	153.9799
218	0x431a1e3d	154.11812
219	0x431a41ce	154.25705
220	0x431a6590	154.39673
221	0x431a8985	154.53719
222	0x431aadaf	154.67845
223	0x431ad211	154.82057
224	0x4316a1ba	150.63174
225	0x4316c2e8	150.76135
226	0x4316e417	150.89098
227	0x4317054a	151.02066
228	0x43172681	151.1504
229	0x431747bf	151.28026
230	0x43176905	151.41023
231	0x43178a54	151.54034
232	0x4317abb0	151.67065
233	0x4317cd18	151.80115
234	0x4317ee8f	151.93187
235	0x43181016	152.06284
236	0x431831af	152.19408
237	0x4318535d	152.32564
238	0x43187520	152.45752
239	0x431896fa	152.58975
240	0x4318b8ee	152.72238
241	0x4318dafc	152.85541
242	0x4318fd28	152.98889
243	0x43191f72	153.12283
244	0x431941dc	153.25726
245	0x43196469	153.39223
246	0x4319871b	153.52776
247	0x4319a9f3	153.66386
248	0x4319ccf3	153.80058
249	0x4319f01d	153.93794
250	0x431a1375	154.076
251	0x431a36fa	154.21475
252	0x431a5ab1	154.35426
253	0x431a7e9b	154.49455
254	0x431aa2b9	154.63564
255	0x431ac710	154.77759

qa f4 [32, 32]
0	0x00000000	0.0
1	0x00000000	0.0
2	0x00000000	0.0
3	0x00000000	0.0
4	0x00000000	0.0
5	0x00000000	0.0
6	0x00000000	0.0
7	0x00000000	0.0
8	0x00000000	0.0
9	0x00000000	0.0
10	0x00000000	0.0
11	0x00000000	0.0
12	0x00000000	0.0
13	0x00000000	0.0
14	0x00000000	0.0
15	0x00000000	0.0
16	0x00000000	0.0
17	0x00000000	0.0
18	0x00000000	0.0
19	0x00000000	0.0
20	0x00000000	0.0
21	0x00000000	0.0
22	0x00000000	0.0
23	0x00000000	0.0
24	0x00000000	0.0
25	0x00000000	0.0
26	0x00000000	0.0
27	0x00000000	0.0
28	0x00000000	0.0
29	0x00000000	0.0
30	0x00000000	0.0
31	0x00000000	0.0
32	0x00000000	0.0
33	0x00000000	0.0
34	0x00000000	0.0
35	0x00000000	0.0
36	0x00000000	0.0
37	0x00000000	0.0
38	0x00000000	0.0
39	0x00000000	0.0
40	0x00000000	0.0
41	0x00000000	0.0
42	0x00000000	0.0
43	0x00000000	0.0
44	0x00000000	0.0
45	0x00000000	0.0
46	0x00000000	0.0
47	0x00000000	0.0
48	0x00000000	0.0
49	0x00000000	0.0
50	0x00000000	0.0
51	0x00000000	0.0
52	0x00000000	0.0
53	0x00000000	0.0
54	0x00000000	0.0
55	0x00000000	0.0
56	0x00000000	0.0
57	0x00000000	0.0
58	0x00000000	0.0
59	0x00000000	0.0
60	0x00000000	0.0
61	0x00000000	0.0
62	0x00000000	0.0
63	0x00000000	0.0
64	0x00000000	0.0
65	0x00000000	0.0
66	0x00000000	0.0
67	0x00000000	0.0
68	0x00000000	0.0
69	0x00000000	0.0
70	0x00000000	0.0
71	0x00000000	0.0
72	0x00000000	0.0
73	0x00000000	0.0
74	0x00000000	0.0
75	0x00000000	0.0
76	0x00000000	0.0
77	0x00000000	0.0
78	0x00000000	0.0
79	0x00000000	0.0
80	0x00000000	0.0
81	0x00000000	0.0
82	0x00000000	0.0
83	0x00000000	0.0
84	0x00000000	0.0
85	0x00000000	0.0
86	0x00000000	0.0
87	0x00000000	0.0
88	0x00000000	0.0
89	0x00000000	0.0
90	0x00000000	0.0
91	0x00000000	0.0
92	0x00000000	0.0
93	0x00000000	0.0
94	0x00000000	0.0
95	0x00000000	0.0
96	0x00000000	0.0
97	0x00000000	0.0
98	0x00000000	0.0
99	0x00000000	0.0
100	0x00000000	0.0
101	0x00000000	0.0
102	0x00000000	0.0
103	0x00000000	0.0
104	0x00000000	0.0
105	0x00000000	0.0
106	0x00000000	0.0
107	0x00000000	0.0
108	0x00000000	0.0
109	0x00000000	0.0
110	0x00000000	0.0
111	0x00000000	0.0
112	0x00000000	0.0
113	0x00000000	0.0
114	0x00000000	0.0
115	0x00000000	0.0
116	0x00000000	0.0
117	0x00000000	0.0
118	0x00000000	0.0
119	0x00000000	0.0
120	0x00000000	0.0
121	0x00000000	0.0
122	0x00000000	0.0
123	0x00000000	0.0
124	0x00000000	0.0
125	0x00000000	0.0
126	0x00000000	0.0
127	0x00000000	0.0
128	0x00000000	0.0
129	0x00000000	0.0
130	0x00000000	0.0
131	0x00000000	0.0
132	0x00000000	0.0
133	0x00000000	0.0
134	0x00000000	0.0
135	0x00000000	0.0
136	0x00000000	0.0
137	0x00000000	0.0
138	0x00000000	0.0
139	0x00000000	0.0
140	0x00000000	0.0
141	0x00000000	0.0
142	0x00000000	0.0
143	0x00000000	0.0
144	0x00000000	0.0
145	0x00000000	0.0
146	0x00000000	0.0
147	0x00000000	0.0
148	0x00000000	0.0
149	0x00000000	0.0
150	0x00000000	0.0
151	0x00000000	0.0
152	0x00000000	0.0
153	0x00000000	0.0
154	0x00000000	0.0
155	0x00000000	0.0
156	0x00000000	0.0
157	0x00000000	0.0
158	0x00000000	0.0
159	0x00000000	0.0
160	0x00000000	0.0
161	0x00000000	0.0
162	0x00000000	0.0
163	0x00000000	0.0
164	0x00000000	0.0
165	0x00000000	0.0
166	0x00000000	0.0
167	0x00000000	0.0
168	0x00000000	0.0
169	0x00000000	0.0
170	0x00000000	0.0
171	0x00000000	0.0
172	0x00000000	0.0
173	0x00000000	0.0
174	0x00000000	0.0
175	0x00000000	0.0
176	0x00000000	0.0
177	0x00000000	0.0
178	0x00000000	0.0
179	0x00000000	0.0
180	0x00000000	0.0
181	0x00000000	0.0
182	0x00000000	0.0
183	0x00000000	0.0
184	0x00000000	0.0
185	0x00000000	0.0
186	0x00000000	0.0
187	0x00000000	0.0
188	0x00000000	0.0
189	0x00000000	0.0
190	0x00000000	0.0
191	0x00000000	0.0
192	0x00000000	0.0
193	0x00000000	0.0
194	0x00000000	0.0
195	0x00000000	0.0
196	0x00000000	0.0
197	0x00000000	0.0
198	0x00000000	0.0
199	0x00000000	0.0
200	0x00000000	0.0
201	0x00000000	0.0
202	0x00000000	0.0
203	0x00000000	0.0
204	0x00000000	0.0
205	0x00000000	0.0
206	0x00000000	0.0
207	0x00000000	0.0
208	0x00000000	0.0
209	0x00000000	0.0
210	0x00000000	0.0
211	0x00000000	0.0
212	0x00000000	0.0
213	0x00000000	0.0
214	0x00000000	0.0
215	0x00000000	0.0
216	0x00000000	0.0
217	0x00000000	0.0
218	0x00000000	0.0
219	0x00000000	0.0
220	0x00000000	0.0
221	0x00000000	0.0
222	0x00000000	0.0
223	0x00000000	0.0
224	0x00000000	0.0
225	0x00000000	0.0
226	0x00000000	0.0
227	0x00000000	0.0
228	0x00000000	0.0
229	0x00000000	0.0
230	0x00000000	0.0
231	0x00000000	0.0
232	0x00000000	0.0
233	0x00000000	0.0
234	0x00000000	0.0
235	0x00000000	0.0
236	0x00000000	0.0
237	0x00000000	0.0
238	0x00000000	0.0
239	0x00000000	0.0
240	0x00000000	0.0
241	0x00000000	0.0
242	0x00000000	0.0
243	0x00000000	0.0
244	0x00000000	0.0
245	0x00000000	0.0
246	0x00000000	0.0
247	0x00000000	0.0
248	0x00000000	0.0
249	0x00000000	0.0
250	0x00000000	0.0
251	0x00000000	0.0
252	0x00000000	0.0
253	0x00000000	0.0
254	0x00000000	0.0
255	0x00000000	0.0
