data/dataset/negative/efd7c640-c1f1-4578-85af-b59f447e199c.npz (npz, 23743 bytes, 4 tensors)

methane f8 [32, 32]
000000 00 00 00 00 40 17 0a 40 00 00 00 00 40 60 14 40
       3.2613525390625 5.093994140625
000010 00 00 00 00 a0 16 1a 40 00 00 00 00 60 74 16 40
       6.5220947265625 5.6136474609375
000020 00 00 00 00 40 c5 fc 3f 00 00 00 00 c0 bd 1a 40
       1.79815673828125 6.685302734375
000030 00 00 00 00 00 5c f9 3f 00 00 00 00 80 35 e0 bf
       1.5849609375 -0.50653076171875
000040 00 00 00 00 c0 a6 0e c0 00 00 00 00 00 e0 9e bf
       -3.8314208984375 -0.0301513671875
000050 00 00 00 00 80 22 f4 bf 00 00 00 00 f0 8b 10 c0
       -1.2584228515625 -4.13665771484375
000060 00 00 00 00 00 55 fa bf 00 00 00 00 40 f1 02 c0
       -1.645751953125 -2.3677978515625
000070 00 00 00 00 c0 81 fd bf 00 00 00 00 a0 57 0b c0
       -1.84417724609375 -3.41778564453125
000080 00 00 00 00 40 46 fe bf 00 00 00 00 c0 fb 01 40
       -1.89215087890625 2.2479248046875
000090 00 00 00 00 00 88 ef bf 00 00 00 00 00 52 e2 3f
       -0.9853515625 0.572509765625
0000a0 00 00 00 00 00 56 e0 3f 00 00 00 00 00 a9 e2 3f
       0.510498046875 0.5831298828125
0000b0 00 00 00 00 80 e6 fc bf 00 00 00 00 00 69 04 40
       -1.8062744140625 2.55126953125
0000c0 00 00 00 00 00 83 e9 3f 00 00 00 00 80 06 08 40
       0.7972412109375 3.003173828125
0000d0 00 00 00 00 80 c1 ee 3f 00 00 00 00 40 8a 07 c0
       0.96112060546875 -2.9425048828125
0000e0 00 00 00 00 00 00 9e 47 00 00 00 00 00 00 9e 47
       9.969209968386869e+36 9.969209968386869e+36
0000f0 00 00 00 00 00 d9 d9 bf 00 00 00 00 00 b5 06 c0
       -0.40386962890625 -2.83837890625
000100 00 00 00 00 40 05 0a 40 00 00 00 00 00 06 e7 bf
       3.2525634765625 -0.719482421875
000110 00 00 00 00 40 85 05 c0 00 00 00 00 80 ad 00 40
       -2.6900634765625 2.084716796875
000120 00 00 00 00 00 1e 0c 40 00 00 00 00 a0 c3 11 c0
       3.5146484375 -4.4410400390625
000130 00 00 00 00 a0 6c 10 40 00 00 00 00 20 58 0b c0
       4.1060791015625 -3.41802978515625
000140 00 00 00 00 20 5e 18 c0 00 00 00 00 40 00 07 c0
       -6.0919189453125 -2.8751220703125
000150 00 00 00 00 00 3d f3 bf 00 00 00 00 b0 8f 19 c0
       -1.202392578125 -6.39031982421875
000160 00 00 00 00 80 53 05 c0 00 00 00 00 00 48 fe 3f
       -2.665771484375 1.892578125
000170 00 00 00 00 a0 6c 19 c0 00 00 00 00 80 30 f7 bf
       -6.3560791015625 -1.4493408203125
000180 00 00 00 00 00 4c cb 3f 00 00 00 00 c0 8b 05 40
       0.2132568359375 2.6932373046875
000190 00 00 00 00 80 76 f9 3f 00 00 00 00 20 f6 0b 40
       1.5914306640625 3.49517822265625
0001a0 00 00 00 00 00 ff e1 bf 00 00 00 00 00 00 f9 3f
       -0.5623779296875 1.5625
0001b0 00 00 00 00 40 aa 08 c0 00 00 00 00 00 30 e1 3f
       -3.0831298828125 0.537109375
0001c0 00 00 00 00 c0 65 fb 3f 00 00 00 00 20 93 1d 40
       1.71234130859375 7.3936767578125
0001d0 00 00 00 00 00 3a d1 3f 00 00 00 00 00 00 9e 47
       0.2691650390625 9.969209968386869e+36
0001e0 00 00 00 00 00 00 9e 47 00 00 00 00 00 00 9e 47
       9.969209968386869e+36 9.969209968386869e+36
0001f0 00 00 00 00 e0 ac 06 40 00 00 00 00 70 00 1a c0
       2.83441162109375 -6.50042724609375
000200 00 00 00 00 00 7c ca 3f 00 00 00 00 00 56 f6 bf
       0.2069091796875 -1.39599609375
000210 00 00 00 00 a0 7e 03 40 00 00 00 00 80 49 02 40
       2.43682861328125 2.285888671875
000220 00 00 00 00 00 94 c0 bf 00 00 00 00 80 16 19 40
       -0.1295166015625 6.27197265625
000230 00 00 00 00 00 6e 0c 40 00 00 00 00 20 50 07 c0
       3.5537109375 -2.91412353515625
000240 00 00 00 00 20 2c 11 c0 00 00 00 00 80 cc f2 3f
       -4.2930908203125 1.1749267578125
000250 00 00 00 00 80 e5 fd bf 00 00 00 00 d0 79 18 c0
       -1.8685302734375 -6.11895751953125
000260 00 00 00 00 c0 dc 0d c0 00 00 00 00 80 66 f6 3f
       -3.7327880859375 1.4000244140625
000270 00 00 00 00 80 50 06 c0 00 00 00 00 c0 41 05 c0
       -2.789306640625 -2.6571044921875
000280 00 00 00 00 00 40 87 3f 00 00 00 00 40 6e 12 40
       0.0113525390625 4.607666015625
000290 00 00 00 00 00 3c ed 3f 00 00 00 00 00 7b f8 bf
       0.91357421875 -1.530029296875
0002a0 00 00 00 00 00 fa dd bf 00 00 00 00 80 9c 0e 40
       -0.4683837890625 3.826416015625
0002b0 00 00 00 00 60 eb 09 c0 00 00 00 00 c0 88 05 40
       -3.23992919921875 2.6917724609375
0002c0 00 00 00 00 40 86 0b 40 00 00 00 00 00 0c 09 40
       3.4405517578125 3.130859375
0002d0 00 00 00 00 00 91 d5 3f 00 00 00 00 00 00 9e 47
       0.33697509765625 9.969209968386869e+36
0002e0 00 00 00 00 00 00 9e 47 00 00 00 00 00 00 9e 47
       9.969209968386869e+36 9.969209968386869e+36
0002f0 00 00 00 00 00 fd d0 bf 00 00 00 00 a0 6d 19 c0
       -0.26544189453125 -6.3570556640625
000300 00 00 00 00 00 4d 01 c0 00 00 00 00 80 e2 f9 3f
       -2.16259765625 1.6177978515625
000310 00 00 00 00 00 fb ec 3f 00 00 00 00 40 32 04 40
       0.9056396484375 2.5245361328125
000320 00 00 00 00 40 16 0d 40 00 00 00 00 20 c7 1b 40
       3.6358642578125 6.9444580078125
000330 00 00 00 00 b0 29 12 c0 00 00 00 00 a0 f7 05 c0
       -4.54071044921875 -2.74591064453125
000340 00 00 00 00 f0 33 20 c0 00 00 00 00 00 e2 d2 3f
       -8.1014404296875 0.2950439453125
000350 00 00 00 00 40 d0 0d c0 00 00 00 00 80 8b e7 bf
       -3.7266845703125 -0.73577880859375
000360 00 00 00 00 00 a8 e0 bf 00 00 00 00 00 70 e4 bf
       -0.5205078125 -0.638671875
000370 00 00 00 00 00 21 fc bf 00 00 00 00 80 c9 f8 bf
       -1.758056640625 -1.5491943359375
000380 00 00 00 00 e0 4f 14 c0 00 00 00 00 80 89 fa 3f
       -5.0780029296875 1.6585693359375
000390 00 00 00 00 00 c0 8b 3f 00 00 00 00 80 bc eb 3f
       0.0135498046875 0.86676025390625
0003a0 00 00 00 00 00 4c cb bf 00 00 00 00 e0 d5 13 40
       -0.2132568359375 4.9588623046875
0003b0 00 00 00 00 80 36 fc bf 00 00 00 00 00 bc e8 bf
       -1.7633056640625 -0.77294921875
0003c0 00 00 00 00 00 d7 17 40 00 00 00 00 80 87 04 40
       5.9599609375 2.566162109375
0003d0 00 00 00 00 00 fa c4 3f 00 00 00 00 00 00 9e 47
       0.16387939453125 9.969209968386869e+36
0003e0 00 00 00 00 00 00 9e 47 00 00 00 00 00 00 9e 47
       9.969209968386869e+36 9.969209968386869e+36
0003f0 00 00 00 00 80 25 0e c0 00 00 00 00 60 73 1a c0
       -3.768310546875 -6.6126708984375
000400 00 00 00 00 80 ae 0b c0 00 00 00 00 00 a2 d9 bf
       -3.460205078125 -0.4005126953125
000410 00 00 00 00 20 bd 02 40 00 00 00 00 80 70 ec 3f
       2.34234619140625 0.88873291015625
000420 00 00 00 00 80 ac 0b 40 00 00 00 00 80 c8 fd bf
       3.459228515625 -1.8614501953125
000430 00 00 00 00 00 d0 e8 3f 00 00 00 00 60 1b 05 40
       0.775390625 2.63836669921875
000440 00 00 00 00 00 d2 ff bf 00 00 00 00 00 22 f5 bf
       -1.98876953125 -1.32080078125
000450 00 00 00 00 00 72 db 3f 00 00 00 00 e0 00 05 40
       0.4288330078125 2.62542724609375
000460 00 00 00 00 40 31 0a c0 00 00 00 00 e0 aa 29 c0
       -3.2740478515625 -12.833740234375
000470 00 00 00 00 c0 8c 03 c0 00 00 00 00 00 f2 0e c0
       -2.4437255859375 -3.8681640625
000480 00 00 00 00 40 38 03 c0 00 00 00 00 60 ea 03 40
       -2.4024658203125 2.48944091796875
000490 00 00 00 00 e0 e3 00 c0 00 00 00 00 40 b2 0a 40
       -2.11126708984375 3.3370361328125
0004a0 00 00 00 00 80 07 ea 3f 00 00 00 00 00 58 1b 40
       0.81341552734375 6.8359375
0004b0 00 00 00 00 80 5b 00 c0 00 00 00 00 00 00 00 00
       -2.044677734375 0.0
0004c0 00 00 00 00 60 bc 14 40 00 00 00 00 c0 34 1a 40
       5.1839599609375 6.551513671875
0004d0 00 00 00 00 80 ed e4 bf 00 00 00 00 00 00 9e 47
       -0.65399169921875 9.969209968386869e+36
0004e0 00 00 00 00 00 00 9e 47 00 00 00 00 00 00 9e 47
       9.969209968386869e+36 9.969209968386869e+36
0004f0 00 00 00 00 00 00 9e 47 00 00 00 00 20 0e 1d c0
       9.969209968386869e+36 -7.2637939453125
000500 00 00 00 00 00 4d 01 c0 00 00 00 00 00 6a fe 3f
       -2.16259765625 1.90087890625
000510 00 00 00 00 00 14 03 40 00 00 00 00 e0 06 13 40
       2.384765625 4.7567138671875
000520 00 00 00 00 80 01 f9 3f 00 00 00 00 20 51 19 c0
       1.5628662109375 -6.3292236328125
000530 00 00 00 00 d0 bd 1b c0 00 00 00 00 00 94 b1 bf
       -6.93536376953125 -0.06866455078125
000540 00 00 00 00 80 2c f4 3f 00 00 00 00 00 fb ea bf
       1.2608642578125 -0.8431396484375
000550 00 00 00 00 80 7d 07 c0 00 00 00 00 a0 6f 01 c0
       -2.936279296875 -2.17950439453125
000560 00 00 00 00 80 ba 01 40 00 00 00 00 70 3a 24 c0
       2.216064453125 -10.1141357421875
000570 00 00 00 00 00 57 e9 bf 00 00 00 00 00 ee de 3f
       -0.7918701171875 0.4832763671875
000580 00 00 00 00 00 30 a0 bf 00 00 00 00 20 cf 01 40
       -0.0316162109375 2.22613525390625
000590 00 00 00 00 80 e6 04 c0 00 00 00 00 00 77 e3 3f
       -2.612548828125 0.6082763671875
0005a0 00 00 00 00 00 d2 00 c0 00 00 00 00 00 64 c3 3f
       -2.1025390625 0.1514892578125
0005b0 00 00 00 00 e0 3c 08 c0 00 00 00 00 00 55 f7 3f
       -3.02972412109375 1.458251953125
0005c0 00 00 00 00 20 14 10 40 00 00 00 00 00 da 17 40
       4.0196533203125 5.962890625
0005d0 00 00 00 00 00 00 9e 47 00 00 00 00 00 00 9e 47
       9.969209968386869e+36 9.969209968386869e+36
0005e0 00 00 00 00 00 00 9e 47 00 00 00 00 00 00 9e 47
       9.969209968386869e+36 9.969209968386869e+36
0005f0 00 00 00 00 00 00 9e 47 00 00 00 00 a0 6d 19 c0
       9.969209968386869e+36 -6.3570556640625
000600 00 00 00 00 40 bc 0b 40 00 00 00 00 c0 78 04 40
       3.4669189453125 2.5589599609375
000610 00 00 00 00 80 c2 e2 3f 00 00 00 00 c0 21 1a 40
       0.58624267578125 6.532958984375
000620 00 00 00 00 80 3a 13 c0 00 00 00 00 80 1d f4 3f
       -4.80712890625 1.2572021484375
000630 00 00 00 00 20 67 13 40 00 00 00 00 c0 d5 f7 3f
       4.8507080078125 1.48968505859375
000640 00 00 00 00 80 1c 1c c0 00 00 00 00 00 ea de 3f
       -7.02783203125 0.4830322265625
000650 00 00 00 00 80 7a 10 40 00 00 00 00 00 55 f1 3f
       4.11962890625 1.083251953125
000660 00 00 00 00 00 49 0b c0 00 00 00 00 00 24 f5 bf
       -3.41064453125 -1.3212890625
000670 00 00 00 00 a0 3c 07 c0 00 00 00 00 80 30 f1 bf
       -2.90460205078125 -1.0743408203125
000680 00 00 00 00 80 fc f9 bf 00 00 00 00 f0 f8 13 40
       -1.6241455078125 4.99310302734375
000690 00 00 00 00 00 d6 e0 bf 00 00 00 00 00 74 d8 bf
       -0.526123046875 -0.382080078125
0006a0 00 00 00 00 40 55 f5 3f 00 00 00 00 00 3a d5 bf
       1.33331298828125 -0.3316650390625
0006b0 00 00 00 00 00 fc 0e c0 00 00 00 00 80 9a f0 3f
       -3.873046875 1.0377197265625
0006c0 00 00 00 00 00 90 bf bf 00 00 00 00 c0 85 15 40
       -0.123291015625 5.380615234375
0006d0 00 00 00 00 00 00 9e 47 00 00 00 00 00 00 9e 47
       9.969209968386869e+36 9.969209968386869e+36
0006e0 00 00 00 00 00 00 9e 47 00 00 00 00 00 00 9e 47
       9.969209968386869e+36 9.969209968386869e+36
0006f0 00 00 00 00 c0 2a 00 c0 00 00 00 00 00 94 0e c0
       -2.0208740234375 -3.822265625
000700 00 00 00 00 80 0e f9 bf 00 00 00 00 00 dd ed bf
       -1.5660400390625 -0.9332275390625
000710 00 00 00 00 80 05 00 40 00 00 00 00 00 00 9e 47
       2.002685546875 9.969209968386869e+36
000720 00 00 00 00 90 2b 23 40 00 00 00 00 00 5c 0a 40
       9.5850830078125 3.294921875
000730 00 00 00 00 90 ce 12 40 00 00 00 00 60 ac 00 40
       4.70172119140625 2.08416748046875
000740 00 00 00 00 00 f8 dd 3f 00 00 00 00 c0 93 0d c0
       0.46826171875 -3.6971435546875
000750 00 00 00 00 80 13 fc bf 00 00 00 00 80 b7 ed 3f
       -1.7547607421875 0.92864990234375
000760 00 00 00 00 00 99 ff bf 00 00 00 00 80 3a 12 c0
       -1.974853515625 -4.55712890625
000770 00 00 00 00 c0 42 00 c0 00 00 00 00 40 c7 f4 3f
       -2.0325927734375 1.29864501953125
000780 00 00 00 00 00 2e f2 bf 00 00 00 00 80 eb eb 3f
       -1.13623046875 0.87249755859375
000790 00 00 00 00 00 d0 de bf 00 00 00 00 80 c5 e8 3f
       -0.4814453125 0.77410888671875
0007a0 00 00 00 00 c0 c1 05 40 00 00 00 00 00 e2 cd 3f
       2.7196044921875 0.23345947265625
0007b0 00 00 00 00 00 cc ea bf 00 00 00 00 00 00 00 00
       -0.83740234375 0.0
0007c0 00 00 00 00 80 d4 fc 3f 00 00 00 00 c0 db 0b 40
       1.8018798828125 3.4822998046875
0007d0 00 00 00 00 00 00 9e 47 00 00 00 00 00 00 9e 47
       9.969209968386869e+36 9.969209968386869e+36
0007e0 00 00 00 00 00 00 9e 47 00 00 00 00 00 00 9e 47
       9.969209968386869e+36 9.969209968386869e+36
0007f0 00 00 00 00 c0 8d 11 c0 00 00 00 00 a0 e1 10 c0
       -4.388427734375 -4.2203369140625

lat f4 [32, 32]
000000 2e 0f 99 c2 75 fb 98 c2 4c e7 98 c2 c5 d2 98 c2
       -76.52965 -76.49113 -76.45175 -76.41166
000010 f0 bd 98 c2 d9 a8 98 c2 8c 93 98 c2 14 7e 98 c2
       -76.37097 -76.32978 -76.28818 -76.24625
000020 7a 68 98 c2 c6 52 98 c2 00 3d 98 c2 2d 27 98 c2
       -76.204056 -76.16167 -76.11914 -76.076515
000030 53 11 98 c2 77 fb 97 c2 9e e5 97 c2 cb cf 97 c2
       -76.03384 -75.99114 -75.94847 -75.905846
000040 02 ba 97 c2 44 a4 97 c2 96 8e 97 c2 f9 78 97 c2
       -75.8633 -75.82083 -75.77849 -75.736275
000050 6f 63 97 c2 fa 4d 97 c2 9a 38 97 c2 52 23 97 c2
       -75.69421 -75.6523 -75.61055 -75.568985
000060 22 0e 97 c2 0a f9 96 c2 0d e4 96 c2 29 cf 96 c2
       -75.5276 -75.486404 -75.44541 -75.40461
000070 60 ba 96 c2 b2 a5 96 c2 1e 91 96 c2 a5 7c 96 c2
       -75.36401 -75.32362 -75.28343 -75.24345
000080 7e f6 98 c2 c3 e2 98 c2 9a ce 98 c2 14 ba 98 c2
       -76.48143 -76.442894 -76.40352 -76.363434
000090 40 a5 98 c2 2b 90 98 c2 e1 7a 98 c2 6d 65 98 c2
       -76.322754 -76.28158 -76.24 -76.1981
0000a0 d8 4f 98 c2 29 3a 98 c2 68 24 98 c2 9b 0e 98 c2
       -76.155945 -76.113594 -76.071106 -76.02853
0000b0 c7 f8 97 c2 f2 e2 97 c2 20 cd 97 c2 54 b7 97 c2
       -75.98589 -75.94325 -75.900635 -75.85806
0000c0 92 a1 97 c2 dc 8b 97 c2 36 76 97 c2 a1 60 97 c2
       -75.81557 -75.77316 -75.73088 -75.68873
0000d0 20 4b 97 c2 b3 35 97 c2 5c 20 97 c2 1c 0b 97 c2
       -75.64673 -75.60488 -75.5632 -75.5217
0000e0 f5 f5 96 c2 e7 e0 96 c2 f2 cb 96 c2 18 b7 96 c2
       -75.480385 -75.43926 -75.39833 -75.357605
0000f0 58 a2 96 c2 b3 8d 96 c2 29 79 96 c2 ba 64 96 c2
       -75.31708 -75.27676 -75.23664 -75.19673
000100 ca dd 98 c2 0d ca 98 c2 e4 b5 98 c2 5e a1 98 c2
       -76.43318 -76.39463 -76.355255 -76.31517
000110 8c 8c 98 c2 7a 77 98 c2 33 62 98 c2 c3 4c 98 c2
       -76.274506 -76.23335 -76.191795 -76.149925
000120 32 37 98 c2 88 21 98 c2 cc 0b 98 c2 05 f6 97 c2
       -76.1078 -76.06549 -76.02304 -75.98051
000130 38 e0 97 c2 69 ca 97 c2 9e b4 97 c2 d9 9e 97 c2
       -75.93793 -75.89533 -75.85277 -75.81025
000140 1f 89 97 c2 71 73 97 c2 d3 5d 97 c2 46 48 97 c2
       -75.767815 -75.72547 -75.68325 -75.64116
000150 cd 32 97 c2 68 1d 97 c2 1a 08 97 c2 e4 f2 96 c2
       -75.59922 -75.557434 -75.51582 -75.474396
000160 c5 dd 96 c2 c0 c8 96 c2 d5 b3 96 c2 04 9f 96 c2
       -75.43314 -75.39209 -75.351234 -75.31058
000170 4d 8a 96 c2 b1 75 96 c2 30 61 96 c2 cb 4c 96 c2
       -75.27012 -75.229866 -75.18982 -75.14999
000180 18 c5 98 c2 5a b1 98 c2 31 9d 98 c2 ac 88 98 c2
       -76.38495 -76.34639 -76.307014 -76.26694
000190 db 73 98 c2 cb 5e 98 c2 88 49 98 c2 1b 34 98 c2
       -76.22628 -76.18514 -76.143616 -76.10177
0001a0 8e 1e 98 c2 e9 08 98 c2 33 f3 97 c2 72 dd 97 c2
       -76.05968 -76.0174 -75.975 -75.93251
0001b0 aa c7 97 c2 e3 b1 97 c2 1e 9c 97 c2 61 86 97 c2
       -75.88997 -75.847435 -75.80492 -75.76246
0001c0 ae 70 97 c2 08 5b 97 c2 71 45 97 c2 ed 2f 97 c2
       -75.72008 -75.677795 -75.63563 -75.593605
0001d0 7c 1a 97 c2 20 05 97 c2 da ef 96 c2 ac da 96 c2
       -75.55173 -75.51001 -75.46846 -75.42709
0001e0 97 c5 96 c2 9a b0 96 c2 b8 9b 96 c2 f0 86 96 c2
       -75.38592 -75.344925 -75.30414 -75.26355
0001f0 43 72 96 c2 b0 5d 96 c2 39 49 96 c2 dc 34 96 c2
       -75.22317 -75.18298 -75.14301 -75.10324
000200 66 ac 98 c2 a7 98 98 c2 7d 84 98 c2 f9 6f 98 c2
       -76.336716 -76.29815 -76.258766 -76.2187
000210 2a 5b 98 c2 1c 46 98 c2 dc 30 98 c2 73 1b 98 c2
       -76.178055 -76.13693 -76.09543 -76.05361
000220 eb 05 98 c2 4a f0 97 c2 99 da 97 c2 de c4 97 c2
       -76.01156 -75.969315 -75.92695 -75.88451
000230 1d af 97 c2 5c 99 97 c2 9e 83 97 c2 e8 6d 97 c2
       -75.84202 -75.79953 -75.757065 -75.71466
000240 3c 58 97 c2 9e 42 97 c2 0f 2d 97 c2 93 17 97 c2
       -75.67233 -75.63011 -75.588005 -75.54604
000250 2a 02 97 c2 d6 ec 96 c2 99 d7 96 c2 74 c2 96 c2
       -75.50423 -75.46257 -75.42109 -75.37979
000260 67 ad 96 c2 74 98 96 c2 9b 83 96 c2 dc 6e 96 c2
       -75.33868 -75.29776 -75.25704 -75.21652
000270 38 5a 96 c2 ae 45 96 c2 40 31 96 c2 ed 1c 96 c2
       -75.17621 -75.13609 -75.09619 -75.056496
000280 b1 93 98 c2 f1 7f 98 c2 c6 6b 98 c2 43 57 98 c2
       -76.28846 -76.249886 -76.210495 -76.17043
000290 75 42 98 c2 6a 2d 98 c2 2d 18 98 c2 c8 02 98 c2
       -76.1298 -76.0887 -76.04722 -76.00543
0002a0 44 ed 97 c2 a8 d7 97 c2 fd c1 97 c2 47 ac 97 c2
       -75.96341 -75.9212 -75.87888 -75.83648
0002b0 8c 96 97 c2 d1 80 97 c2 1b 6b 97 c2 6b 55 97 c2
       -75.79404 -75.751595 -75.70919 -75.66683
0002c0 c7 3f 97 c2 30 2a 97 c2 aa 14 97 c2 35 ff 96 c2
       -75.624565 -75.5824 -75.54036 -75.49845
0002d0 d5 e9 96 c2 89 d4 96 c2 55 bf 96 c2 38 aa 96 c2
       -75.4567 -75.41511 -75.373695 -75.33246
0002e0 34 95 96 c2 4a 80 96 c2 79 6b 96 c2 c4 56 96 c2
       -75.29141 -75.250565 -75.20991 -75.169464
0002f0 28 42 96 c2 a8 2d 96 c2 43 19 96 c2 fa 04 96 c2
       -75.12921 -75.08917 -75.04934 -75.00972
000300 fc 7a 98 c2 3a 67 98 c2 0f 53 98 c2 8c 3e 98 c2
       -76.240204 -76.201614 -76.162224 -76.12216
000310 c0 29 98 c2 b7 14 98 c2 7d ff 97 c2 1c ea 97 c2
       -76.08154 -76.04046 -75.999 -75.957245
000320 9c d4 97 c2 05 bf 97 c2 5e a9 97 c2 ae 93 97 c2
       -75.91525 -75.873085 -75.830795 -75.78844
000330 fa 7d 97 c2 45 68 97 c2 95 52 97 c2 ed 3c 97 c2
       -75.74605 -75.70365 -75.66129 -75.618996
000340 50 27 97 c2 c1 11 97 c2 42 fc 96 c2 d5 e6 96 c2
       -75.57678 -75.534676 -75.49269 -75.45084
000350 7d d1 96 c2 3a bc 96 c2 0d a7 96 c2 f9 91 96 c2
       -75.40916 -75.36763 -75.32627 -75.2851
000360 fe 7c 96 c2 1c 68 96 c2 55 53 96 c2 a8 3e 96 c2
       -75.244125 -75.20334 -75.16276 -75.122375
000370 16 2a 96 c2 9f 15 96 c2 43 01 96 c2 02 ed 95 c2
       -75.0822 -75.04223 -75.002464 -74.962906
000380 4a 62 98 c2 86 4e 98 c2 5b 3a 98 c2 d9 25 98 c2
       -76.19197 -76.153366 -76.113976 -76.07392
000390 0e 11 98 c2 08 fc 97 c2 d0 e6 97 c2 72 d1 97 c2
       -76.03331 -75.99225 -75.950806 -75.90907
0003a0 f7 bb 97 c2 65 a6 97 c2 c4 90 97 c2 19 7b 97 c2
       -75.86712 -75.82499 -75.782745 -75.740425
0003b0 6a 65 97 c2 bc 4f 97 c2 13 3a 97 c2 72 24 97 c2
       -75.698074 -75.65573 -75.61343 -75.57118
0003c0 dc 0e 97 c2 54 f9 96 c2 dd e3 96 c2 78 ce 96 c2
       -75.52902 -75.48697 -75.445045 -75.40326
0003d0 28 b9 96 c2 ed a3 96 c2 c9 8e 96 c2 be 79 96 c2
       -75.36163 -75.32017 -75.27888 -75.23778
0003e0 cb 64 96 c2 f2 4f 96 c2 33 3b 96 c2 8f 26 96 c2
       -75.19686 -75.15614 -75.11562 -75.07531
0003f0 06 12 96 c2 98 fd 95 c2 45 e9 95 c2 0e d5 95 c2
       -75.0352 -74.9953 -74.955605 -74.91612

lon f4 [32, 32]
000000 19 98 e0 c0 ed 42 c8 c0 9d c3 b0 c0 4a 0e 9a c0
       -7.0185666 -6.2581697 -5.5238786 -4.8142443
000010 ef 17 84 c0 89 ac 5d c0 73 7f 34 c0 bf 96 0c c0
       -4.1279216 -3.4636557 -2.820279 -2.1967008
000020 7c c3 cb bf ad a1 80 bf 70 ab de be 14 c5 f3 3d
       -1.5919032 -1.004934 -0.4349017 0.11902824
000030 05 5b 28 3f cc 40 97 3f cc 8c d8 3f 64 13 0c 40
       0.65763885 1.181665 1.6917968 2.1886835
000040 62 11 2b 40 cd 49 49 40 89 c5 66 40 7b c6 81 40
       2.672936 3.1451294 3.6058066 4.0554786
000050 00 d4 8f 40 10 8f 9d 40 34 fb aa 40 c6 1b b8 40
       4.494629 4.9237137 5.3431644 5.7533903
000060 ef f3 c4 40 b2 86 d1 40 e6 d6 dd 40 40 e7 e9 40
       6.154777 6.5476923 6.9324827 7.3094788
000070 50 ba f5 40 43 a9 00 41 1b 59 06 41 c9 ed 0b 41
       7.678993 8.041324 8.396754 8.745553
000080 d1 e1 e0 c0 ae a2 c8 c0 84 38 b1 c0 83 97 9a c0
       -7.0275655 -6.2698584 -5.538149 -4.830995
000090 ad b4 84 c0 8b 0b 5f c0 8b 02 36 c0 8d 3c 0e c0
       -4.147055 -3.4850795 -2.8439052 -2.2224457
0000a0 e9 51 cf bf 6f 70 84 bf 5c de ee be ca 3d af 3d
       -1.6196872 -1.0346812 -0.46654022 0.08556707
0000b0 f0 56 1f 3f 34 87 92 3f 98 9d d3 3f e9 81 09 40
       0.6224203 1.1447511 1.6532469 2.148554
0000c0 e6 66 28 40 28 87 46 40 87 eb 63 40 2d 4e 80 40
       2.6312804 3.1019993 3.5612504 4.009543
0000d0 c3 50 8e 40 3c 01 9c 40 20 63 a9 40 c1 79 b6 40
       4.4473586 4.8751507 5.29335 5.7023625
0000e0 48 48 c3 40 b2 d1 cf 40 d5 18 dc 40 62 20 e8 40
       6.1025734 6.4943476 6.8780313 7.253953
0000f0 e6 ea f3 40 cf 7a ff 40 36 69 05 41 f7 f9 0a 41
       7.622424 7.9837413 8.338186 8.686027
000100 d3 2d e1 c0 81 04 c9 c0 4a af b1 c0 67 22 9b c0
       -7.036844 -6.2818 -5.5526476 -4.8479495
000110 e6 52 85 c0 29 6d 60 c0 e7 87 37 c0 4c e4 0f c0
       -4.1663694 -3.5066626 -2.8676698 -2.2483091
000120 98 e3 d2 bf db 41 88 bf ad 19 ff be 2f 3b 55 3d
       -1.6475706 -1.0645097 -0.49824277 0.052058395
000130 c6 50 16 3f 11 cd 8d 3f 52 ae ce 3f 9d f0 06 40
       0.58717 1.1078206 1.6146948 2.1084359
000140 d2 bc 25 40 1f c5 43 40 54 12 61 40 bf ac 7d 40
       2.5896497 3.0589063 3.5167437 3.9636686
000150 1c ce 8c 40 16 74 9a 40 cd cb a7 40 92 d8 b4 40
       4.40016 4.8266706 5.243628 5.651437
000160 8a 9d c1 40 af 1d ce 40 d3 5b da 40 a3 5a e6 40
       6.050481 6.4411235 6.823709 7.198564
000170 ab 1c f2 40 56 a4 fd 40 f8 79 04 41 d5 06 0a 41
       7.5659995 7.9263105 8.279778 8.626668
000180 9a 7b e1 c0 e0 67 c9 c0 65 27 b2 c0 6d ae 9b c0
       -7.046338 -6.29393 -5.567309 -4.865042
000190 10 f2 85 c0 4a d0 61 c0 6d 0e 39 c0 e1 8c 11 c0
       -4.1857986 -3.528338 -2.8915055 -2.2742236
0001a0 53 76 d6 bf ba 13 8c bf 40 aa 07 bf 01 20 98 3c
       -1.675486 -1.094352 -0.52994156 0.018569948
0001b0 f8 4c 0d 3f 99 14 89 3f 2e c1 c9 3f 9d 60 04 40
       0.5519557 1.0709411 1.5762079 2.0683968
0001c0 3f 14 23 40 cb 04 41 40 07 3b 5e 40 38 bf 7a 40
       2.5481107 3.0159175 3.4723527 3.917921
0001d0 98 4c 8b 40 26 e8 98 40 c6 35 a6 40 c3 38 b3 40
       4.3531 4.7783384 5.194064 5.600679
0001e0 3f f4 bf 40 30 6b cc 40 65 a0 d8 40 8a 96 e4 40
       5.998565 6.3880844 6.7695794 7.1433764
0001f0 26 50 f0 40 a2 cf fb 40 a4 8b 03 41 a2 14 09 41
       7.5097837 7.869096 8.221592 8.567537
000200 7d c9 e1 c0 31 cb c9 c0 4a 9f b2 c0 18 3a 9c c0
       -7.0558457 -6.3060536 -5.5819445 -4.8820915
000210 ba 90 86 c0 27 32 63 c0 6d 93 3a c0 b0 33 13 c0
       -4.205167 -3.549936 -2.9152482 -2.3000298
000220 0a 05 da bf 23 e1 8f bf e4 bd 0f bf a3 c6 71 bc
       -1.7032788 -1.1240581 -0.56149125 -0.014756831
000230 8a 54 04 3f 32 62 84 3f 76 da c4 3f fe d3 01 40
       0.51691496 1.0342467 1.5379169 2.028564
000240 37 6f 20 40 2a 48 3e 40 94 67 5b 40 b0 d5 77 40
       2.506788 2.9731545 3.428197 3.8724174
000250 23 cd 89 40 58 5e 97 40 ef a1 a4 40 34 9b b1 40
       4.306291 4.7302666 5.1447673 5.5501957
000260 42 4d be 40 0d bb ca 40 62 e7 d6 40 e8 d4 e2 40
       5.946931 6.3353333 6.715745 7.0884895
000270 24 86 ee 40 7d fd f9 40 9d 9e 02 41 c2 23 08 41
       7.4538746 7.8121934 8.163724 8.50873
000280 21 16 e2 c0 28 2d ca c0 bc 15 b3 c0 36 c4 9c c0
       -7.0652013 -6.318012 -5.596403 -4.8989515
000290 c0 2d 87 c0 8e 90 64 c0 cb 14 3c c0 b4 d6 14 c0
       -4.2243347 -3.571323 -2.938769 -2.3256044
0002a0 d9 8b dd bf 58 a6 93 bf 8b c0 17 bf cc da 43 bd
       -1.7308303 -1.1535139 -0.5927817 -0.047816083
0002b0 54 dc f6 3e 22 72 7f 3f 42 fd bf 3f 7b 98 fe 3f
       0.48214972 0.9978353 1.4999163 1.9890283
0002c0 2a cf 1d 40 9f 90 3b 40 4f 99 58 40 6e f1 74 40
       2.4657693 2.930702 3.3843572 3.8272357
0002d0 5e 50 88 40 43 d7 95 40 de 10 a3 40 74 00 b0 40
       4.2598104 4.682527 5.095809 5.5000553
0002e0 1e a9 bc 40 cd 0d c9 40 4a 31 d5 40 39 16 e1 40
       5.895644 6.2829347 6.6622667 7.0339627
0002f0 1e bf ec 40 5b 2e f8 40 1b b3 01 41 6b 34 07 41
       7.3983297 7.7556586 8.106227 8.450297
000300 6d 61 e2 c0 ac 8d ca c0 a1 8a b3 c0 af 4c 9d c0
       -7.074393 -6.329794 -5.6106725 -4.915611
000310 0a c9 87 c0 50 eb 65 c0 5b 92 3d c0 c1 75 16 c0
       -4.243291 -3.5924873 -2.9620578 -2.3509371
000320 71 0a e1 bf 0c 63 97 bf aa b1 1f bf b2 11 a5 bd
       -1.7581311 -1.1827102 -0.6238047 -0.08060016
000330 9c 34 e5 3e d7 32 76 3f c1 29 bb 3f e2 92 f9 3f
       0.447667 0.96171325 1.4622117 1.949795
000340 29 34 1b 40 37 de 38 40 45 d0 55 40 7c 12 72 40
       2.4250586 2.888563 3.3408368 3.7823782
000350 4a d6 86 40 ea 52 94 40 91 82 a1 40 80 68 ae 40
       4.2136583 4.6351213 5.0471883 5.4502563
000360 cf 07 bb 40 69 63 c7 40 15 7e d3 40 75 5a df 40
       5.844703 6.230885 6.609141 6.979792
000370 08 fb ea 40 30 62 f6 40 17 c9 00 41 95 46 06 41
       7.3431435 7.699486 8.049094 8.392232
000380 46 ae e2 c0 86 ef ca c0 a7 00 b4 c0 16 d6 9d c0
       -7.0837736 -6.3417387 -5.6250796 -4.9323835
000390 12 65 88 c0 31 47 67 c0 b1 10 3f c0 41 15 18 c0
       -4.2623377 -3.6137202 -2.9853938 -2.3762972
0003a0 4c 89 e4 bf 6b 1f 9b bf f8 a0 27 bf ab 1e e8 bd
       -1.78544 -1.2118963 -0.65479994 -0.113339745
0003b0 d0 94 d3 3e 85 f8 6c 3f 36 59 b6 3f b5 90 f4 3f
       0.41324472 0.9256671 1.4245975 1.9106661
0003c0 16 9b 18 40 f4 2d 36 40 92 09 53 40 13 36 6f 40
       2.3844657 2.8465548 3.2974591 3.7376754
0003d0 92 5d 85 40 04 d0 92 40 cc f5 9f 40 2b d2 ac 40
       4.167672 4.5878925 4.9987545 5.4006553
0003e0 31 68 b9 40 ca ba c5 40 b8 cc d1 40 9a a0 dd 40
       5.7939687 6.1790514 6.55624 6.9258547
0003f0 ed 38 e9 40 10 98 f4 40 42 c0 ff 40 d4 59 05 41
       7.288199 7.6435623 7.992219 8.334431

qa f4 [32, 32]
000000 00 00 80 3f 00 00 80 3f 00 00 80 3f 00 00 80 3f
       1.0 1.0 1.0 1.0
000010 cc cc cc 3e cc cc cc 3e cc cc cc 3e cc cc cc 3e
       0.39999998 0.39999998 0.39999998 0.39999998
000020 00 00 80 3f 00 00 80 3f 00 00 80 3f 00 00 80 3f
       1.0 1.0 1.0 1.0
000030 00 00 80 3f 00 00 80 3f 00 00 80 3f 00 00 80 3f
       1.0 1.0 1.0 1.0
000040 00 00 80 3f 00 00 80 3f 00 00 80 3f 00 00 80 3f
       1.0 1.0 1.0 1.0
000050 00 00 80 3f 00 00 80 3f 00 00 80 3f 00 00 80 3f
       1.0 1.0 1.0 1.0
000060 cc cc cc 3e cc cc cc 3e cc cc cc 3e cc cc cc 3e
       0.39999998 0.39999998 0.39999998 0.39999998
000070 00 00 00 00 00 00 00 00 cc cc cc 3e 00 00 80 3f
       0.0 0.0 0.39999998 1.0
000080 00 00 80 3f 00 00 80 3f 00 00 80 3f 00 00 80 3f
       1.0 1.0 1.0 1.0
000090 cc cc cc 3e cc cc cc 3e 00 00 80 3f 00 00 80 3f
       0.39999998 0.39999998 1.0 1.0
0000a0 00 00 80 3f 00 00 80 3f 00 00 80 3f 00 00 80 3f
       1.0 1.0 1.0 1.0
0000b0 00 00 80 3f 00 00 80 3f 00 00 80 3f 00 00 80 3f
       1.0 1.0 1.0 1.0
0000c0 00 00 80 3f 00 00 80 3f 00 00 80 3f 00 00 80 3f
       1.0 1.0 1.0 1.0
0000d0 00 00 80 3f 00 00 80 3f 00 00 80 3f 00 00 80 3f
       1.0 1.0 1.0 1.0
0000e0 00 00 80 3f 00 00 80 3f 00 00 80 3f 00 00 00 00
       1.0 1.0 1.0 0.0
0000f0 00 00 00 00 00 00 00 00 cc cc cc 3e 00 00 80 3f
       0.0 0.0 0.39999998 1.0
000100 00 00 80 3f 00 00 80 3f 00 00 80 3f 00 00 80 3f
       1.0 1.0 1.0 1.0
000110 cc cc cc 3e cc cc cc 3e 00 00 80 3f 00 00 80 3f
       0.39999998 0.39999998 1.0 1.0
000120 00 00 80 3f 00 00 80 3f 00 00 80 3f 00 00 80 3f
       1.0 1.0 1.0 1.0
000130 00 00 80 3f 00 00 80 3f 00 00 80 3f 00 00 80 3f
       1.0 1.0 1.0 1.0
000140 00 00 80 3f 00 00 80 3f 00 00 80 3f 00 00 80 3f
       1.0 1.0 1.0 1.0
000150 00 00 80 3f 00 00 80 3f 00 00 80 3f 00 00 80 3f
       1.0 1.0 1.0 1.0
000160 00 00 80 3f 00 00 80 3f cc cc cc 3e 00 00 00 00
       1.0 1.0 0.39999998 0.0
000170 00 00 00 00 00 00 00 00 cc cc cc 3e 00 00 80 3f
       0.0 0.0 0.39999998 1.0
000180 00 00 80 3f 00 00 80 3f 00 00 80 3f 00 00 80 3f
       1.0 1.0 1.0 1.0
000190 cc cc cc 3e cc cc cc 3e 00 00 80 3f 00 00 80 3f
       0.39999998 0.39999998 1.0 1.0
0001a0 00 00 80 3f 00 00 80 3f 00 00 80 3f 00 00 80 3f
       1.0 1.0 1.0 1.0
0001b0 00 00 80 3f 00 00 80 3f 00 00 80 3f 00 00 80 3f
       1.0 1.0 1.0 1.0
0001c0 00 00 80 3f 00 00 80 3f 00 00 80 3f 00 00 80 3f
       1.0 1.0 1.0 1.0
0001d0 00 00 80 3f 00 00 80 3f 00 00 80 3f 00 00 80 3f
       1.0 1.0 1.0 1.0
0001e0 00 00 80 3f 00 00 80 3f cc cc cc 3e 00 00 00 00
       1.0 1.0 0.39999998 0.0
0001f0 00 00 00 00 00 00 00 00 cc cc cc 3e 00 00 80 3f
       0.0 0.0 0.39999998 1.0
000200 00 00 80 3f 00 00 80 3f 00 00 80 3f 00 00 80 3f
       1.0 1.0 1.0 1.0
000210 cc cc cc 3e cc cc cc 3e 00 00 80 3f 00 00 80 3f
       0.39999998 0.39999998 1.0 1.0
000220 00 00 80 3f 00 00 80 3f 00 00 80 3f 00 00 80 3f
       1.0 1.0 1.0 1.0
000230 00 00 80 3f 00 00 80 3f 00 00 80 3f 00 00 80 3f
       1.0 1.0 1.0 1.0
000240 00 00 80 3f 00 00 80 3f 00 00 80 3f 00 00 80 3f
       1.0 1.0 1.0 1.0
000250 00 00 80 3f 00 00 80 3f 00 00 80 3f 00 00 80 3f
       1.0 1.0 1.0 1.0
000260 00 00 80 3f 00 00 80 3f cc cc cc 3e 00 00 00 00
       1.0 1.0 0.39999998 0.0
000270 00 00 00 00 00 00 00 00 00 00 00 00 00 00 80 3f
       0.0 0.0 0.0 1.0
000280 00 00 80 3f 00 00 80 3f 00 00 80 3f 00 00 80 3f
       1.0 1.0 1.0 1.0
000290 cc cc cc 3e cc cc cc 3e 00 00 80 3f 00 00 80 3f
       0.39999998 0.39999998 1.0 1.0
0002a0 00 00 80 3f 00 00 80 3f 00 00 80 3f 00 00 80 3f
       1.0 1.0 1.0 1.0
0002b0 00 00 80 3f 00 00 80 3f 00 00 80 3f 00 00 80 3f
       1.0 1.0 1.0 1.0
0002c0 00 00 80 3f 00 00 80 3f 00 00 80 3f 00 00 80 3f
       1.0 1.0 1.0 1.0
0002d0 00 00 80 3f 00 00 80 3f 00 00 80 3f 00 00 80 3f
       1.0 1.0 1.0 1.0
0002e0 00 00 80 3f 00 00 80 3f 00 00 00 00 00 00 00 00
       1.0 1.0 0.0 0.0
0002f0 00 00 00 00 00 00 00 00 00 00 00 00 00 00 80 3f
       0.0 0.0 0.0 1.0
000300 00 00 80 3f 00 00 80 3f 00 00 80 3f cc cc cc 3e
       1.0 1.0 1.0 0.39999998
000310 cc cc cc 3e 00 00 80 3f 00 00 80 3f 00 00 80 3f
       0.39999998 1.0 1.0 1.0
000320 00 00 80 3f 00 00 80 3f 00 00 80 3f 00 00 80 3f
       1.0 1.0 1.0 1.0
000330 00 00 80 3f 00 00 80 3f 00 00 80 3f 00 00 80 3f
       1.0 1.0 1.0 1.0
000340 00 00 80 3f 00 00 80 3f 00 00 80 3f 00 00 80 3f
       1.0 1.0 1.0 1.0
000350 00 00 80 3f 00 00 80 3f 00 00 80 3f 00 00 80 3f
       1.0 1.0 1.0 1.0
000360 00 00 80 3f cc cc cc 3e 00 00 00 00 00 00 00 00
       1.0 0.39999998 0.0 0.0
000370 00 00 00 00 00 00 00 00 cc cc cc 3e 00 00 80 3f
       0.0 0.0 0.39999998 1.0
000380 00 00 80 3f 00 00 80 3f 00 00 80 3f 00 00 00 00
       1.0 1.0 1.0 0.0
000390 cc cc cc 3e 00 00 80 3f 00 00 80 3f 00 00 80 3f
       0.39999998 1.0 1.0 1.0
0003a0 00 00 80 3f 00 00 80 3f 00 00 80 3f 00 00 80 3f
       1.0 1.0 1.0 1.0
0003b0 00 00 80 3f 00 00 80 3f 00 00 80 3f 00 00 80 3f
       1.0 1.0 1.0 1.0
0003c0 00 00 80 3f 00 00 80 3f 00 00 80 3f 00 00 80 3f
       1.0 1.0 1.0 1.0
0003d0 00 00 80 3f 00 00 80 3f 00 00 80 3f 00 00 80 3f
       1.0 1.0 1.0 1.0
0003e0 00 00 80 3f cc cc cc 3e 00 00 00 00 00 00 00 00
       1.0 0.39999998 0.0 0.0
0003f0 00 00 00 00 00 00 00 00 cc cc cc 3e 00 00 80 3f
       0.0 0.0 0.39999998 1.0
