data/dataset/negative/f476e6c8-e15e-4ba6-93d9-b0f2758560c9.npz (npz, 23743 bytes, 4 tensors)

methane f8 [32, 32]
9.969209968386869e+36 9.969209968386869e+36 9.969209968386869e+36 9.969209968386869e+36 9.969209968386869e+36 9.969209968386869e+36 9.969209968386869e+36 9.969209968386869e+36
9.969209968386869e+36 9.969209968386869e+36 9.969209968386869e+36 9.969209968386869e+36 9.969209968386869e+36 9.969209968386869e+36 9.969209968386869e+36 9.969209968386869e+36
9.969209968386869e+36 9.969209968386869e+36 9.969209968386869e+36 9.969209968386869e+36 9.969209968386869e+36 9.969209968386869e+36 9.969209968386869e+36 9.969209968386869e+36
9.969209968386869e+36 9.969209968386869e+36 9.969209968386869e+36 9.969209968386869e+36 9.969209968386869e+36 9.969209968386869e+36 9.969209968386869e+36 9.969209968386869e+36
9.969209968386869e+36 9.969209968386869e+36 9.969209968386869e+36 9.969209968386869e+36 9.969209968386869e+36 9.969209968386869e+36 9.969209968386869e+36 9.969209968386869e+36
9.969209968386869e+36 9.969209968386869e+36 9.969209968386869e+36 9.969209968386869e+36 9.969209968386869e+36 9.969209968386869e+36 9.969209968386869e+36 9.969209968386869e+36
9.969209968386869e+36 9.969209968386869e+36 9.969209968386869e+36 9.969209968386869e+36 9.969209968386869e+36 9.969209968386869e+36 9.969209968386869e+36 9.969209968386869e+36
9.969209968386869e+36 9.969209968386869e+36 9.969209968386869e+36 9.969209968386869e+36 9.969209968386869e+36 9.969209968386869e+36 9.969209968386869e+36 9.969209968386869e+36
9.969209968386869e+36 9.969209968386869e+36 9.969209968386869e+36 9.969209968386869e+36 9.969209968386869e+36 9.969209968386869e+36 9.969209968386869e+36 9.969209968386869e+36
9.969209968386869e+36 9.969209968386869e+36 9.969209968386869e+36 9.969209968386869e+36 9.969209968386869e+36 9.969209968386869e+36 9.969209968386869e+36 9.969209968386869e+36
9.969209968386869e+36 9.969209968386869e+36 9.969209968386869e+36 9.969209968386869e+36 9.969209968386869e+36 9.969209968386869e+36 9.969209968386869e+36 9.969209968386869e+36
9.969209968386869e+36 9.969209968386869e+36 9.969209968386869e+36 9.969209968386869e+36 9.969209968386869e+36 9.969209968386869e+36 9.969209968386869e+36 9.969209968386869e+36
9.969209968386869e+36 9.969209968386869e+36 9.969209968386869e+36 9.969209968386869e+36 9.969209968386869e+36 9.969209968386869e+36 9.969209968386869e+36 9.969209968386869e+36
9.969209968386869e+36 9.969209968386869e+36 9.969209968386869e+36 9.969209968386869e+36 9.969209968386869e+36 9.969209968386869e+36 9.969209968386869e+36 9.969209968386869e+36
9.969209968386869e+36 9.969209968386869e+36 9.969209968386869e+36 9.969209968386869e+36 9.969209968386869e+36 9.969209968386869e+36 9.969209968386869e+36 9.969209968386869e+36
9.969209968386869e+36 9.969209968386869e+36 9.969209968386869e+36 9.969209968386869e+36 9.969209968386869e+36 9.969209968386869e+36 9.969209968386869e+36 9.969209968386869e+36
9.969209968386869e+36 9.969209968386869e+36 9.969209968386869e+36 9.969209968386869e+36 9.969209968386869e+36 9.969209968386869e+36 9.969209968386869e+36 9.969209968386869e+36
9.969209968386869e+36 9.969209968386869e+36 9.969209968386869e+36 9.969209968386869e+36 9.969209968386869e+36 9.969209968386869e+36 9.969209968386869e+36 9.969209968386869e+36
9.969209968386869e+36 9.969209968386869e+36 9.969209968386869e+36 9.969209968386869e+36 9.969209968386869e+36 9.969209968386869e+36 9.969209968386869e+36 9.969209968386869e+36
9.969209968386869e+36 9.969209968386869e+36 9.969209968386869e+36 9.969209968386869e+36 9.969209968386869e+36 9.969209968386869e+36 9.969209968386869e+36 9.969209968386869e+36
9.969209968386869e+36 9.969209968386869e+36 9.969209968386869e+36 9.969209968386869e+36 9.969209968386869e+36 9.969209968386869e+36 9.969209968386869e+36 9.969209968386869e+36
9.969209968386869e+36 9.969209968386869e+36 9.969209968386869e+36 9.969209968386869e+36 9.969209968386869e+36 9.969209968386869e+36 9.969209968386869e+36 9.969209968386869e+36
9.969209968386869e+36 9.969209968386869e+36 9.969209968386869e+36 9.969209968386869e+36 9.969209968386869e+36 9.969209968386869e+36 9.969209968386869e+36 9.969209968386869e+36
9.969209968386869e+36 9.969209968386869e+36 9.969209968386869e+36 9.969209968386869e+36 9.969209968386869e+36 9.969209968386869e+36 9.969209968386869e+36 9.969209968386869e+36
9.969209968386869e+36 9.969209968386869e+36 9.969209968386869e+36 9.969209968386869e+36 9.969209968386869e+36 9.969209968386869e+36 9.969209968386869e+36 9.969209968386869e+36
9.969209968386869e+36 9.969209968386869e+36 9.969209968386869e+36 9.969209968386869e+36 9.969209968386869e+36 9.969209968386869e+36 9.969209968386869e+36 9.969209968386869e+36
9.969209968386869e+36 9.969209968386869e+36 9.969209968386869e+36 9.969209968386869e+36 9.969209968386869e+36 9.969209968386869e+36 9.969209968386869e+36 9.969209968386869e+36
9.969209968386869e+36 9.969209968386869e+36 9.969209968386869e+36 9.969209968386869e+36 9.969209968386869e+36 9.969209968386869e+36 9.969209968386869e+36 9.969209968386869e+36
9.969209968386869e+36 9.969209968386869e+36 9.969209968386869e+36 9.969209968386869e+36 9.969209968386869e+36 9.969209968386869e+36 9.969209968386869e+36 9.969209968386869e+36
9.969209968386869e+36 9.969209968386869e+36 9.969209968386869e+36 9.969209968386869e+36 9.969209968386869e+36 9.969209968386869e+36 9.969209968386869e+36 9.969209968386869e+36
9.969209968386869e+36 9.969209968386869e+36 9.969209968386869e+36 9.969209968386869e+36 9.969209968386869e+36 9.969209968386869e+36 9.969209968386869e+36 9.969209968386869e+36
9.969209968386869e+36 9.969209968386869e+36 9.969209968386869e+36 9.969209968386869e+36 9.969209968386869e+36 9.969209968386869e+36 9.969209968386869e+36 9.969209968386869e+36
00000000: 0000 0000 0000 9e47 0000 0000 0000 9e47
00000010: 0000 0000 0000 9e47 0000 0000 0000 9e47
00000020: 0000 0000 0000 9e47 0000 0000 0000 9e47
00000030: 0000 0000 0000 9e47 0000 0000 0000 9e47
00000040: 0000 0000 0000 9e47 0000 0000 0000 9e47
00000050: 0000 0000 0000 9e47 0000 0000 0000 9e47
00000060: 0000 0000 0000 9e47 0000 0000 0000 9e47
00000070: 0000 0000 0000 9e47 0000 0000 0000 9e47
00000080: 0000 0000 0000 9e47 0000 0000 0000 9e47
00000090: 0000 0000 0000 9e47 0000 0000 0000 9e47
000000a0: 0000 0000 0000 9e47 0000 0000 0000 9e47
000000b0: 0000 0000 0000 9e47 0000 0000 0000 9e47
000000c0: 0000 0000 0000 9e47 0000 0000 0000 9e47
000000d0: 0000 0000 0000 9e47 0000 0000 0000 9e47
000000e0: 0000 0000 0000 9e47 0000 0000 0000 9e47
000000f0: 0000 0000 0000 9e47 0000 0000 0000 9e47
00000100: 0000 0000 0000 9e47 0000 0000 0000 9e47
00000110: 0000 0000 0000 9e47 0000 0000 0000 9e47
00000120: 0000 0000 0000 9e47 0000 0000 0000 9e47
00000130: 0000 0000 0000 9e47 0000 0000 0000 9e47
00000140: 0000 0000 0000 9e47 0000 0000 0000 9e47
00000150: 0000 0000 0000 9e47 0000 0000 0000 9e47
00000160: 0000 0000 0000 9e47 0000 0000 0000 9e47
00000170: 0000 0000 0000 9e47 0000 0000 0000 9e47
00000180: 0000 0000 0000 9e47 0000 0000 0000 9e47
00000190: 0000 0000 0000 9e47 0000 0000 0000 9e47
000001a0: 0000 0000 0000 9e47 0000 0000 0000 9e47
000001b0: 0000 0000 0000 9e47 0000 0000 0000 9e47
000001c0: 0000 0000 0000 9e47 0000 0000 0000 9e47
000001d0: 0000 0000 0000 9e47 0000 0000 0000 9e47
000001e0: 0000 0000 0000 9e47 0000 0000 0000 9e47
000001f0: 0000 0000 0000 9e47 0000 0000 0000 9e47
00000200: 0000 0000 0000 9e47 0000 0000 0000 9e47
00000210: 0000 0000 0000 9e47 0000 0000 0000 9e47
00000220: 0000 0000 0000 9e47 0000 0000 0000 9e47
00000230: 0000 0000 0000 9e47 0000 0000 0000 9e47
00000240: 0000 0000 0000 9e47 0000 0000 0000 9e47
00000250: 0000 0000 0000 9e47 0000 0000 0000 9e47
00000260: 0000 0000 0000 9e47 0000 0000 0000 9e47
00000270: 0000 0000 0000 9e47 0000 0000 0000 9e47
00000280: 0000 0000 0000 9e47 0000 0000 0000 9e47
00000290: 0000 0000 0000 9e47 0000 0000 0000 9e47
000002a0: 0000 0000 0000 9e47 0000 0000 0000 9e47
000002b0: 0000 0000 0000 9e47 0000 0000 0000 9e47
000002c0: 0000 0000 0000 9e47 0000 0000 0000 9e47
000002d0: 0000 0000 0000 9e47 0000 0000 0000 9e47
000002e0: 0000 0000 0000 9e47 0000 0000 0000 9e47
000002f0: 0000 0000 0000 9e47 0000 0000 0000 9e47
00000300: 0000 0000 0000 9e47 0000 0000 0000 9e47
00000310: 0000 0000 0000 9e47 0000 0000 0000 9e47
00000320: 0000 0000 0000 9e47 0000 0000 0000 9e47
00000330: 0000 0000 0000 9e47 0000 0000 0000 9e47
00000340: 0000 0000 0000 9e47 0000 0000 0000 9e47
00000350: 0000 0000 0000 9e47 0000 0000 0000 9e47
00000360: 0000 0000 0000 9e47 0000 0000 0000 9e47
00000370: 0000 0000 0000 9e47 0000 0000 0000 9e47
00000380: 0000 0000 0000 9e47 0000 0000 0000 9e47
00000390: 0000 0000 0000 9e47 0000 0000 0000 9e47
000003a0: 0000 0000 0000 9e47 0000 0000 0000 9e47
000003b0: 0000 0000 0000 9e47 0000 0000 0000 9e47
000003c0: 0000 0000 0000 9e47 0000 0000 0000 9e47
000003d0: 0000 0000 0000 9e47 0000 0000 0000 9e47
000003e0: 0000 0000 0000 9e47 0000 0000 0000 9e47
000003f0: 0000 0000 0000 9e47 0000 0000 0000 9e47
00000400: 0000 0000 0000 9e47 0000 0000 0000 9e47
00000410: 0000 0000 0000 9e47 0000 0000 0000 9e47
00000420: 0000 0000 0000 9e47 0000 0000 0000 9e47
00000430: 0000 0000 0000 9e47 0000 0000 0000 9e47
00000440: 0000 0000 0000 9e47 0000 0000 0000 9e47
00000450: 0000 0000 0000 9e47 0000 0000 0000 9e47
00000460: 0000 0000 0000 9e47 0000 0000 0000 9e47
00000470: 0000 0000 0000 9e47 0000 0000 0000 9e47
00000480: 0000 0000 0000 9e47 0000 0000 0000 9e47
00000490: 0000 0000 0000 9e47 0000 0000 0000 9e47
000004a0: 0000 0000 0000 9e47 0000 0000 0000 9e47
000004b0: 0000 0000 0000 9e47 0000 0000 0000 9e47
000004c0: 0000 0000 0000 9e47 0000 0000 0000 9e47
000004d0: 0000 0000 0000 9e47 0000 0000 0000 9e47
000004e0: 0000 0000 0000 9e47 0000 0000 0000 9e47
000004f0: 0000 0000 0000 9e47 0000 0000 0000 9e47
00000500: 0000 0000 0000 9e47 0000 0000 0000 9e47
00000510: 0000 0000 0000 9e47 0000 0000 0000 9e47
00000520: 0000 0000 0000 9e47 0000 0000 0000 9e47
00000530: 0000 0000 0000 9e47 0000 0000 0000 9e47
00000540: 0000 0000 0000 9e47 0000 0000 0000 9e47
00000550: 0000 0000 0000 9e47 0000 0000 0000 9e47
00000560: 0000 0000 0000 9e47 0000 0000 0000 9e47
00000570: 0000 0000 0000 9e47 0000 0000 0000 9e47
00000580: 0000 0000 0000 9e47 0000 0000 0000 9e47
00000590: 0000 0000 0000 9e47 0000 0000 0000 9e47
000005a0: 0000 0000 0000 9e47 0000 0000 0000 9e47
000005b0: 0000 0000 0000 9e47 0000 0000 0000 9e47
000005c0: 0000 0000 0000 9e47 0000 0000 0000 9e47
000005d0: 0000 0000 0000 9e47 0000 0000 0000 9e47
000005e0: 0000 0000 0000 9e47 0000 0000 0000 9e47
000005f0: 0000 0000 0000 9e47 0000 0000 0000 9e47
00000600: 0000 0000 0000 9e47 0000 0000 0000 9e47
00000610: 0000 0000 0000 9e47 0000 0000 0000 9e47
00000620: 0000 0000 0000 9e47 0000 0000 0000 9e47
00000630: 0000 0000 0000 9e47 0000 0000 0000 9e47
00000640: 0000 0000 0000 9e47 0000 0000 0000 9e47
00000650: 0000 0000 0000 9e47 0000 0000 0000 9e47
00000660: 0000 0000 0000 9e47 0000 0000 0000 9e47
00000670: 0000 0000 0000 9e47 0000 0000 0000 9e47
00000680: 0000 0000 0000 9e47 0000 0000 0000 9e47
00000690: 0000 0000 0000 9e47 0000 0000 0000 9e47
000006a0: 0000 0000 0000 9e47 0000 0000 0000 9e47
000006b0: 0000 0000 0000 9e47 0000 0000 0000 9e47
000006c0: 0000 0000 0000 9e47 0000 0000 0000 9e47
000006d0: 0000 0000 0000 9e47 0000 0000 0000 9e47
000006e0: 0000 0000 0000 9e47 0000 0000 0000 9e47
000006f0: 0000 0000 0000 9e47 0000 0000 0000 9e47
00000700: 0000 0000 0000 9e47 0000 0000 0000 9e47
00000710: 0000 0000 0000 9e47 0000 0000 0000 9e47
00000720: 0000 0000 0000 9e47 0000 0000 0000 9e47
00000730: 0000 0000 0000 9e47 0000 0000 0000 9e47
00000740: 0000 0000 0000 9e47 0000 0000 0000 9e47
00000750: 0000 0000 0000 9e47 0000 0000 0000 9e47
00000760: 0000 0000 0000 9e47 0000 0000 0000 9e47
00000770: 0000 0000 0000 9e47 0000 0000 0000 9e47
00000780: 0000 0000 0000 9e47 0000 0000 0000 9e47
00000790: 0000 0000 0000 9e47 0000 0000 0000 9e47
000007a0: 0000 0000 0000 9e47 0000 0000 0000 9e47
000007b0: 0000 0000 0000 9e47 0000 0000 0000 9e47
000007c0: 0000 0000 0000 9e47 0000 0000 0000 9e47
000007d0: 0000 0000 0000 9e47 0000 0000 0000 9e47
000007e0: 0000 0000 0000 9e47 0000 0000 0000 9e47
000007f0: 0000 0000 0000 9e47 0000 0000 0000 9e47

lat f4 [32, 32]
-7.165267 -7.1533055 -7.141304 -7.1292577 -7.1171613 -7.10501 -7.0927987 -7.08052
-7.068168 -7.0557365 -7.0432167 -7.030601 -7.0178804 -7.0050454 -6.9920855 -6.9789896
-6.9657454 -6.9523396 -6.938758 -6.924984 -6.911001 -6.8967896 -6.882329 -6.867596
-6.852566 -6.8372097 -6.821497 -6.8053937 -6.788861 -6.771856 -6.75433 -6.73623
-7.116161 -7.104209 -7.092217 -7.0801806 -7.068095 -7.055955 -7.0437546 -7.031488
-7.0191483 -7.006729 -6.9942226 -6.9816203 -6.968914 -6.956094 -6.9431496 -6.93007
-6.9168425 -6.9034543 -6.8898907 -6.8761363 -6.862173 -6.847983 -6.8335443 -6.8188343
-6.8038282 -6.788498 -6.772813 -6.7567377 -6.740235 -6.7232614 -6.7057695 -6.687705
-7.0670934 -7.0551515 -7.0431695 -7.0311437 -7.019069 -7.0069404 -6.9947515 -6.982497
-6.9701705 -6.957764 -6.9452715 -6.9326835 -6.919992 -6.907187 -6.894259 -6.8811955
-6.8679857 -6.8546157 -6.841071 -6.8273363 -6.813394 -6.7992253 -6.7848096 -6.770124
-6.7551427 -6.739839 -6.724181 -6.7081356 -6.6916637 -6.6747227 -6.657265 -6.6392374
-7.018003 -7.0060706 -6.9940987 -6.9820833 -6.9700193 -6.9579015 -6.9457245 -6.933482
-6.9211674 -6.9087744 -6.896295 -6.883721 -6.871044 -6.8582544 -6.8453417 -6.8322954
-6.8191023 -6.8057504 -6.7922244 -6.7785096 -6.7645874 -6.7504406 -6.7360473 -6.721385
-6.7064285 -6.691151 -6.675521 -6.659504 -6.6430626 -6.6261544 -6.6087313 -6.5907397
-6.9689183 -6.9569955 -6.945034 -6.9330297 -6.9209766 -6.90887 -6.8967047 -6.8844748
-6.8721733 -6.859793 -6.847327 -6.834768 -6.822106 -6.8093314 -6.7964354 -6.7834053
-6.7702303 -6.7568965 -6.7433896 -6.729695 -6.7157936 -6.7016683 -6.6872983 -6.67266
-6.657729 -6.642478 -6.626876 -6.610889 -6.5944786 -6.5776033 -6.560215 -6.5422606
-6.9198394 -6.907927 -6.8959756 -6.883981 -6.871939 -6.859844 -6.847691 -6.8354726
-6.823184 -6.8108172 -6.798365 -6.7858195 -6.7731724 -6.7604136 -6.747533 -6.73452
-6.721362 -6.7080464 -6.694559 -6.680884 -6.6670036 -6.6529 -6.6385527 -6.6239386
-6.6090326 -6.593808 -6.5782337 -6.562276 -6.545897 -6.5290546 -6.511701 -6.4937835
-6.8707576 -6.858855 -6.846914 -6.83493 -6.822899 -6.810815 -6.798673 -6.786467
-6.7741904 -6.7618365 -6.749398 -6.736867 -6.724234 -6.7114906 -6.698626 -6.6856294
-6.672489 -6.6591916 -6.645723 -6.632067 -6.6182075 -6.6041255 -6.589801 -6.5752106
-6.56033 -6.5451317 -6.529585 -6.513656 -6.497308 -6.480498 -6.463179 -6.445298
-6.821679 -6.809786 -6.7978544 -6.7858815 -6.773861 -6.7617884 -6.749658 -6.737464
-6.7252 -6.7128596 -6.7004347 -6.687917 -6.675299 -6.662571 -6.649722 -6.636742
-6.623619 -6.6103396 -6.5968895 -6.5832534 -6.5694146 -6.5553546 -6.5410523 -6.5264854
-6.51163 -6.4964576 -6.480939 -6.4650393 -6.448722 -6.4319444 -6.4146595 -6.3968153
00000000: de49 e5c0 e1e7 e4c0 9085 e4c0 e122 e4c0
00000010: c9bf e3c0 3e5c e3c0 35f8 e2c0 9f93 e2c0
00000020: 6f2e e2c0 98c8 e1c0 0862 e1c0 affa e0c0
00000030: 7a92 e0c0 5529 e0c0 2abf dfc0 e253 dfc0
00000040: 63e7 dec0 9179 dec0 4e0a dec0 7899 ddc0
00000050: ec26 ddc0 80b2 dcc0 0a3c dcc0 59c3 dbc0
00000060: 3848 dbc0 6cca dac0 b449 dac0 c9c5 d9c0
00000070: 593e d9c0 0bb3 d8c0 7923 d8c0 328f d7c0
00000080: 97b7 e3c0 ae55 e3c0 71f3 e2c0 d790 e2c0
00000090: d62d e2c0 62ca e1c0 7066 e1c0 f301 e1c0
000000a0: dd9c e0c0 2037 e0c0 acd0 dfc0 6f69 dfc0
000000b0: 5801 dfc0 5298 dec0 482e dec0 22c3 ddc0
000000c0: c656 ddc0 19e9 dcc0 fc79 dcc0 4f09 dcc0
000000d0: ec96 dbc0 ad22 dbc0 65ac dac0 e433 dac0
000000e0: f6b8 d9c0 603b d9c0 e2ba d8c0 3237 d8c0
000000f0: 01b0 d7c0 f524 d7c0 aa95 d6c0 ae01 d6c0
00000100: a125 e2c0 cdc3 e1c0 a561 e1c0 21ff e0c0
00000110: 379c e0c0 db38 e0c0 01d5 dfc0 9e70 dfc0
00000120: a30b dfc0 01a6 dec0 aa3f dec0 8bd8 ddc0
00000130: 9370 ddc0 ad07 ddc0 c59d dcc0 c132 dcc0
00000140: 8ac6 dbc0 0359 dbc0 0eea dac0 8a79 dac0
00000150: 5307 dac0 4193 d9c0 291d d9c0 dba4 d8c0
00000160: 212a d8c0 c3ac d7c0 7e2c d7c0 0ca9 d6c0
00000170: 1c22 d6c0 5497 d5c0 5108 d5c0 a274 d4c0
00000180: 7b93 e0c0 bb31 e0c0 a8cf dfc0 3a6d dfc0
00000190: 660a dfc0 21a7 dec0 6043 dec0 16df ddc0
000001a0: 347a ddc0 ae14 ddc0 73ae dcc0 7147 dcc0
000001b0: 98df dbc0 d276 dbc0 0a0d dbc0 2aa2 dac0
000001c0: 1636 dac0 b5c8 d9c0 e759 d9c0 8de9 d8c0
000001d0: 8077 d8c0 9c03 d8c0 b38d d7c0 9615 d7c0
000001e0: 109b d6c0 e91d d6c0 de9d d5c0 a81a d5c0
000001f0: f893 d4c0 7509 d4c0 ba7a d3c0 57e7 d2c0
00000200: 6101 dfc0 b59f dec0 b83d dec0 61db ddc0
00000210: a478 ddc0 7715 ddc0 ceb1 dcc0 9e4d dcc0
00000220: d8e8 dbc0 6d83 dbc0 4e1d dbc0 6bb6 dac0
00000230: b14e dac0 0be6 d9c0 667c d9c0 a811 d9c0
00000240: baa5 d8c0 7f38 d8c0 d9c9 d7c0 a959 d7c0
00000250: c8e7 d6c0 1174 d6c0 59fe d5c0 6e86 d5c0
00000260: 1e0c d5c0 2e8f d4c0 5e0f d4c0 678c d3c0
00000270: f805 d3c0 ba7b d2c0 48ed d1c0 335a d1c0
00000280: 536f ddc0 bd0d ddc0 d5ab dcc0 9349 dcc0
00000290: ede6 dbc0 d883 dbc0 4920 dbc0 31bc dac0
000002a0: 8657 dac0 37f2 d9c0 358c d9c0 6f25 d9c0
000002b0: d4bd d8c0 4f55 d8c0 caeb d7c0 3081 d7c0
000002c0: 6615 d7c0 51a8 d6c0 d439 d6c0 cdc9 d5c0
000002d0: 1858 d5c0 8fe4 d4c0 066f d4c0 4ef7 d3c0
000002e0: 327d d3c0 7a00 d3c0 e480 d2c0 2afe d1c0
000002f0: fd77 d1c0 04ee d0c0 db5f d0c0 13cd cfc0
00000300: 3fdd dbc0 bd7b dbc0 eb19 dbc0 bfb7 dac0
00000310: 3055 dac0 32f2 d9c0 bb8e d9c0 bd2a d9c0
00000320: 2bc6 d8c0 f760 d8c0 12fb d7c0 6a94 d7c0
00000330: ed2c d7c0 88c4 d6c0 255b d6c0 adf0 d5c0
00000340: 0885 d5c0 1918 d5c0 c3a9 d4c0 e539 d4c0
00000350: 5bc8 d3c0 ff54 d3c0 a6df d2c0 2068 d2c0
00000360: 39ee d1c0 b871 d1c0 5cf2 d0c0 df6f d0c0
00000370: f2e9 cfc0 3d60 cfc0 5dd2 cec0 e23f cec0
00000380: 324b dac0 c4e9 d9c0 0688 d9c0 f125 d9c0
00000390: 78c3 d8c0 9260 d8c0 33fd d7c0 4e99 d7c0
000003a0: d734 d7c0 bfcf d6c0 f669 d6c0 6b03 d6c0
000003b0: 0d9c d5c0 c833 d5c0 86ca d4c0 3160 d4c0
000003c0: b0f4 d3c0 e787 d3c0 b819 d3c0 03aa d2c0
000003d0: a538 d2c0 77c5 d1c0 4d50 d1c0 f8d8 d0c0
000003e0: 465f d0c0 fbe2 cfc0 da63 cfc0 9ae1 cec0
000003f0: ee5b cec0 7dd2 cdc0 e444 cdc0 b6b2 ccc0

lon f4 [32, 32]
172.52768 172.63477 172.74371 172.85458 172.96748 173.08246 173.19965 173.3191
173.44095 173.56528 173.69221 173.82185 173.95436 174.08984 174.22845 174.37035
174.51569 174.66464 174.81741 174.9742 175.13522 175.30072 175.47093 175.64615
175.82668 176.01282 176.20496 176.40347 176.6088 176.8214 177.0418 177.27058
172.51591 172.623 172.73193 172.84279 172.95567 173.07065 173.18782 173.30727
173.4291 173.5534 173.68033 173.80997 173.94246 174.07793 174.21652 174.3584
174.50372 174.65266 174.80542 174.9622 175.1232 175.28868 175.45888 175.63408
175.81458 176.00072 176.19284 176.39133 176.59663 176.80922 177.0296 177.25836
172.50418 172.61124 172.72017 172.83102 172.94388 173.05885 173.17601 173.29544
173.41725 173.54156 173.66847 173.7981 173.93057 174.06602 174.2046 174.34648
174.49179 174.64072 174.79346 174.95021 175.1112 175.27666 175.44684 175.62202
175.80252 175.98863 176.18074 176.37921 176.5845 176.79707 177.01743 177.24617
172.49237 172.59941 172.70833 172.81917 172.93202 173.04698 173.16411 173.28354
173.40533 173.52963 173.65652 173.78613 173.9186 174.05405 174.19261 174.33446
174.47975 174.62866 174.78139 174.93813 175.0991 175.26454 175.43471 175.60986
175.79034 175.97644 176.16852 176.36697 176.57224 176.78477 177.00511 177.23384
172.48055 172.58759 172.69649 172.80731 172.92017 173.0351 173.15222 173.27164
173.39343 173.5177 173.64458 173.77419 173.90663 174.04205 174.1806 174.32243
174.46771 174.61661 174.76932 174.92604 175.08699 175.25241 175.42256 175.5977
175.77815 175.96423 176.1563 176.35472 176.55997 176.77248 176.9928 177.2215
172.46873 172.57576 172.68465 172.79547 172.9083 173.02322 173.14034 173.25974
173.38152 173.50577 173.63264 173.76222 173.89465 174.03006 174.1686 174.31041
174.45567 174.60455 174.75725 174.91396 175.07489 175.2403 175.41042 175.58554
175.76598 175.95203 176.14406 176.34247 176.54768 176.76018 176.98047 177.20914
172.45694 172.56396 172.67284 172.78365 172.89645 173.01137 173.12846 173.24785
173.36961 173.49387 173.62071 173.75029 173.8827 174.0181 174.15662 174.29842
174.44366 174.59253 174.74521 174.90189 175.0628 175.2282 175.3983 175.57341
175.75381 175.93985 176.13187 176.33026 176.53546 176.74792 176.96819 177.19684
172.44519 172.55219 172.66106 172.77185 172.88464 172.99956 173.11664 173.23601
173.35776 173.482 173.60884 173.73839 173.87079 174.00618 174.14468 174.28647
174.4317 174.58055 174.7332 174.88988 175.05078 175.21614 175.38625 175.56133
175.74171 175.92773 176.11974 176.3181 176.52327 176.73573 176.95596 177.18459
00000000: 1687 2c43 80a2 2c43 64be 2c43 c6da 2c43
00000010: adf7 2c43 1c15 2d43 1c33 2d43 b151 2d43
00000020: e270 2d43 b690 2d43 35b1 2d43 65d2 2d43
00000030: 51f4 2d43 0017 2e43 7c3a 2e43 cf5e 2e43
00000040: 0484 2e43 26aa 2e43 42d1 2e43 65f9 2e43
00000050: 9e22 2f43 fc4c 2f43 8f78 2f43 6aa5 2f43
00000060: a1d3 2f43 4803 3043 7834 3043 4a67 3043
00000070: da9b 3043 47d2 3043 b30a 3143 4545 3143
00000080: 1384 2c43 7d9f 2c43 60bb 2c43 c1d7 2c43
00000090: a7f4 2c43 1612 2d43 1530 2d43 a94e 2d43
000000a0: d96d 2d43 ac8d 2d43 2aae 2d43 5acf 2d43
000000b0: 45f1 2d43 f313 2e43 6e37 2e43 c05b 2e43
000000c0: f480 2e43 15a7 2e43 30ce 2e43 53f6 2e43
000000d0: 8a1f 2f43 e749 2f43 7975 2f43 53a2 2f43
000000e0: 88d0 2f43 2f00 3043 5e31 3043 2e64 3043
000000f0: bd98 3043 29cf 3043 9407 3143 2442 3143
00000100: 1281 2c43 7a9c 2c43 5db8 2c43 bed4 2c43
00000110: a2f1 2c43 110f 2d43 0f2d 2d43 a24b 2d43
00000120: d16a 2d43 a48a 2d43 21ab 2d43 50cc 2d43
00000130: 3aee 2d43 e710 2e43 6134 2e43 b358 2e43
00000140: e67d 2e43 06a4 2e43 20cb 2e43 41f3 2e43
00000150: 781c 2f43 d346 2f43 6472 2f43 3d9f 2f43
00000160: 72cd 2f43 17fd 2f43 452e 3043 1461 3043
00000170: a295 3043 0dcc 3043 7604 3143 053f 3143
00000180: 0c7e 2c43 7399 2c43 55b5 2c43 b5d1 2c43
00000190: 99ee 2c43 070c 2d43 032a 2d43 9648 2d43
000001a0: c467 2d43 9687 2d43 12a8 2d43 40c9 2d43
000001b0: 29eb 2d43 d60d 2e43 4f31 2e43 9f55 2e43
000001c0: d17a 2e43 f0a0 2e43 09c8 2e43 29f0 2e43
000001d0: 5f19 2f43 b943 2f43 496f 2f43 209c 2f43
000001e0: 54ca 2f43 f8f9 2f43 242b 3043 f25d 3043
000001f0: 7e92 3043 e7c8 3043 4f01 3143 dd3b 3143
00000200: 057b 2c43 6c96 2c43 4db2 2c43 acce 2c43
00000210: 90eb 2c43 fc08 2d43 f826 2d43 8a45 2d43
00000220: b864 2d43 8884 2d43 03a5 2d43 31c6 2d43
00000230: 19e8 2d43 c40a 2e43 3c2e 2e43 8b52 2e43
00000240: bc77 2e43 da9d 2e43 f2c4 2e43 11ed 2e43
00000250: 4516 2f43 9e40 2f43 2d6c 2f43 0399 2f43
00000260: 35c7 2f43 d8f6 2f43 0328 3043 cf5a 3043
00000270: 5a8f 3043 c1c5 3043 28fe 3043 b438 3143
00000280: ff77 2c43 6593 2c43 45af 2c43 a4cb 2c43
00000290: 86e8 2c43 f205 2d43 ed23 2d43 7e42 2d43
000002a0: ab61 2d43 7a81 2d43 f5a1 2d43 21c3 2d43
000002b0: 08e5 2d43 b207 2e43 292b 2e43 774f 2e43
000002c0: a774 2e43 c49a 2e43 dbc1 2e43 f9e9 2e43
000002d0: 2c13 2f43 843d 2f43 1169 2f43 e695 2f43
000002e0: 17c4 2f43 b8f3 2f43 e124 3043 ac57 3043
000002f0: 358c 3043 9bc2 3043 00fb 3043 8a35 3143
00000300: fa74 2c43 6090 2c43 3fac 2c43 9dc8 2c43
00000310: 7ee5 2c43 e902 2d43 e320 2d43 733f 2d43
00000320: 9f5e 2d43 6e7e 2d43 e79e 2d43 13c0 2d43
00000330: f9e1 2d43 a204 2e43 1828 2e43 654c 2e43
00000340: 9471 2e43 b097 2e43 c6be 2e43 e2e6 2e43
00000350: 1410 2f43 6b3a 2f43 f765 2f43 cb92 2f43
00000360: fac0 2f43 9af0 2f43 c221 3043 8c54 3043
00000370: 1489 3043 78bf 3043 dbf7 3043 6432 3143
00000380: f871 2c43 5c8d 2c43 3ba9 2c43 98c5 2c43
00000390: 78e2 2c43 e3ff 2c43 dc1d 2d43 6b3c 2d43
000003a0: 965b 2d43 647b 2d43 dd9b 2d43 07bd 2d43
000003b0: ecde 2d43 9501 2e43 0a25 2e43 5649 2e43
000003c0: 846e 2e43 9f94 2e43 b3bb 2e43 cfe3 2e43
000003d0: 000d 2f43 5537 2f43 e162 2f43 b38f 2f43
000003e0: e1bd 2f43 80ed 2f43 a71e 3043 6f51 3043
000003f0: f585 3043 59bc 3043 baf4 3043 412f 3143

qa f4 [32, 32]
0.0 0.0 0.0 0.0 0.0 0.0 0.0 0.0
0.0 0.0 0.0 0.0 0.0 0.0 0.0 0.0
0.0 0.0 0.0 0.0 0.0 0.0 0.0 0.0
0.0 0.0 0.0 0.0 0.0 0.0 0.0 0.0
0.0 0.0 0.0 0.0 0.0 0.0 0.0 0.0
0.0 0.0 0.0 0.0 0.0 0.0 0.0 0.0
0.0 0.0 0.0 0.0 0.0 0.0 0.0 0.0
0.0 0.0 0.0 0.0 0.0 0.0 0.0 0.0
0.0 0.0 0.0 0.0 0.0 0.0 0.0 0.0
0.0 0.0 0.0 0.0 0.0 0.0 0.0 0.0
0.0 0.0 0.0 0.0 0.0 0.0 0.0 0.0
0.0 0.0 0.0 0.0 0.0 0.0 0.0 0.0
0.0 0.0 0.0 0.0 0.0 0.0 0.0 0.0
0.0 0.0 0.0 0.0 0.0 0.0 0.0 0.0
0.0 0.0 0.0 0.0 0.0 0.0 0.0 0.0
0.0 0.0 0.0 0.0 0.0 0.0 0.0 0.0
0.0 0.0 0.0 0.0 0.0 0.0 0.0 0.0
0.0 0.0 0.0 0.0 0.0 0.0 0.0 0.0
0.0 0.0 0.0 0.0 0.0 0.0 0.0 0.0
0.0 0.0 0.0 0.0 0.0 0.0 0.0 0.0
0.0 0.0 0.0 0.0 0.0 0.0 0.0 0.0
0.0 0.0 0.0 0.0 0.0 0.0 0.0 0.0
0.0 0.0 0.0 0.0 0.0 0.0 0.0 0.0
0.0 0.0 0.0 0.0 0.0 0.0 0.0 0.0
0.0 0.0 0.0 0.0 0.0 0.0 0.0 0.0
0.0 0.0 0.0 0.0 0.0 0.0 0.0 0.0
0.0 0.0 0.0 0.0 0.0 0.0 0.0 0.0
0.0 0.0 0.0 0.0 0.0 0.0 0.0 0.0
0.0 0.0 0.0 0.0 0.0 0.0 0.0 0.0
0.0 0.0 0.0 0.0 0.0 0.0 0.0 0.0
0.0 0.0 0.0 0.0 0.0 0.0 0.0 0.0
0.0 0.0 0.0 0.0 0.0 0.0 0.0 0.0
00000000: 0000 0000 0000 0000 0000 0000 0000 0000
00000010: 0000 0000 0000 0000 0000 0000 0000 0000
00000020: 0000 0000 0000 0000 0000 0000 0000 0000
00000030: 0000 0000 0000 0000 0000 0000 0000 0000
00000040: 0000 0000 0000 0000 0000 0000 0000 0000
00000050: 0000 0000 0000 0000 0000 0000 0000 0000
00000060: 0000 0000 0000 0000 0000 0000 0000 0000
00000070: 0000 0000 0000 0000 0000 0000 0000 0000
00000080: 0000 0000 0000 0000 0000 0000 0000 0000
00000090: 0000 0000 0000 0000 0000 0000 0000 0000
000000a0: 0000 0000 0000 0000 0000 0000 0000 0000
000000b0: 0000 0000 0000 0000 0000 0000 0000 0000
000000c0: 0000 0000 0000 0000 0000 0000 0000 0000
000000d0: 0000 0000 0000 0000 0000 0000 0000 0000
000000e0: 0000 0000 0000 0000 0000 0000 0000 0000
000000f0: 0000 0000 0000 0000 0000 0000 0000 0000
00000100: 0000 0000 0000 0000 0000 0000 0000 0000
00000110: 0000 0000 0000 0000 0000 0000 0000 0000
00000120: 0000 0000 0000 0000 0000 0000 0000 0000
00000130: 0000 0000 0000 0000 0000 0000 0000 0000
00000140: 0000 0000 0000 0000 0000 0000 0000 0000
00000150: 0000 0000 0000 0000 0000 0000 0000 0000
00000160: 0000 0000 0000 0000 0000 0000 0000 0000
00000170: 0000 0000 0000 0000 0000 0000 0000 0000
00000180: 0000 0000 0000 0000 0000 0000 0000 0000
00000190: 0000 0000 0000 0000 0000 0000 0000 0000
000001a0: 0000 0000 0000 0000 0000 0000 0000 0000
000001b0: 0000 0000 0000 0000 0000 0000 0000 0000
000001c0: 0000 0000 0000 0000 0000 0000 0000 0000
000001d0: 0000 0000 0000 0000 0000 0000 0000 0000
000001e0: 0000 0000 0000 0000 0000 0000 0000 0000
000001f0: 0000 0000 0000 0000 0000 0000 0000 0000
00000200: 0000 0000 0000 0000 0000 0000 0000 0000
00000210: 0000 0000 0000 0000 0000 0000 0000 0000
00000220: 0000 0000 0000 0000 0000 0000 0000 0000
00000230: 0000 0000 0000 0000 0000 0000 0000 0000
00000240: 0000 0000 0000 0000 0000 0000 0000 0000
00000250: 0000 0000 0000 0000 0000 0000 0000 0000
00000260: 0000 0000 0000 0000 0000 0000 0000 0000
00000270: 0000 0000 0000 0000 0000 0000 0000 0000
00000280: 0000 0000 0000 0000 0000 0000 0000 0000
00000290: 0000 0000 0000 0000 0000 0000 0000 0000
000002a0: 0000 0000 0000 0000 0000 0000 0000 0000
000002b0: 0000 0000 0000 0000 0000 0000 0000 0000
000002c0: 0000 0000 0000 0000 0000 0000 0000 0000
000002d0: 0000 0000 0000 0000 0000 0000 0000 0000
000002e0: 0000 0000 0000 0000 0000 0000 0000 0000
000002f0: 0000 0000 0000 0000 0000 0000 0000 0000
00000300: 0000 0000 0000 0000 0000 0000 0000 0000
00000310: 0000 0000 0000 0000 0000 0000 0000 0000
00000320: 0000 0000 0000 0000 0000 0000 0000 0000
00000330: 0000 0000 0000 0000 0000 0000 0000 0000
00000340: 0000 0000 0000 0000 0000 0000 0000 0000
00000350: 0000 0000 0000 0000 0000 0000 0000 0000
00000360: 0000 0000 0000 0000 0000 0000 0000 0000
00000370: 0000 0000 0000 0000 0000 0000 0000 0000
00000380: 0000 0000 0000 0000 0000 0000 0000 0000
00000390: 0000 0000 0000 0000 0000 0000 0000 0000
000003a0: 0000 0000 0000 0000 0000 0000 0000 0000
000003b0: 0000 0000 0000 0000 0000 0000 0000 0000
000003c0: 0000 0000 0000 0000 0000 0000 0000 0000
000003d0: 0000 0000 0000 0000 0000 0000 0000 0000
000003e0: 0000 0000 0000 0000 0000 0000 0000 0000
000003f0: 0000 0000 0000 0000 0000 0000 0000 0000
