data/dataset/negative/f8b44b87-d98c-4b95-b574-fc20f94cc559.npz (npz, 28097 bytes, 5 tensors)

methane f8 [32, 32]
00000000: 0000 0000 f093 1540 0000 0000 303f 1340
00000010: 0000 0000 c002 ffbf 0000 0000 50ff 16c0
00000020: 0000 0000 c074 0ac0 0000 0000 80f1 f03f
00000030: 0000 0000 80aa eebf 0000 0000 00c0 b43f
00000040: 0000 0000 2095 13c0 0000 0000 a014 0fc0
00000050: 0000 0000 80be f43f 0000 0000 0000 c93f
00000060: 0000 0000 c05c 0ec0 0000 0000 c002 0a40
00000070: 0000 0000 8065 f6bf 0000 0000 60ee 1740
00000080: 0000 0000 002c ef3f 0000 0000 a0fe 1840
00000090: 0000 0000 a08d 1740 0000 0000 804f e43f
000000a0: 0000 0000 2079 0140 0000 0000 d079 15c0
000000b0: 0000 0000 4066 0dc0 0000 0000 805e f83f
000000c0: 0000 0000 0044 b9bf 0000 0000 409f 0dc0
000000d0: 0000 0000 e00c 1040 0000 0000 0034 e53f
000000e0: 0000 0000 406c f03f 0000 0000 80b4 1940
000000f0: 0000 0000 4017 1f40 0000 0000 10a7 1d40
00000100: 0000 0000 c0a1 fbbf 0000 0000 10aa 1140
00000110: 0000 0000 6046 0740 0000 0000 c01b fa3f
00000120: 0000 0000 40ce 09c0 0000 0000 40fa fcbf
00000130: 0000 0000 4052 f6bf 0000 0000 d0af 11c0
00000140: 0000 0000 6039 11c0 0000 0000 60da 0ec0
00000150: 0000 0000 409c 04c0 0000 0000 00f6 ef3f
00000160: 0000 0000 8001 1d40 0000 0000 183f 2940
00000170: 0000 0000 4043 00c0 0000 0000 e096 1940
00000180: 0000 0000 0040 933f 0000 0000 80f3 16c0
00000190: 0000 0000 8001 0440 0000 0000 105f 1740
000001a0: 0000 0000 80e9 ea3f 0000 0000 c85f 2040
000001b0: 0000 0000 6015 19c0 0000 0000 001b f23f
000001c0: 0000 0000 6046 0040 0000 0000 20a1 0fc0
000001d0: 0000 0000 c03c f23f 0000 0000 0021 f03f
000001e0: 0000 0000 00fc d9bf 0000 0000 60c0 1140
000001f0: 0000 0000 2039 0a40 0000 0000 800e 1340
00000200: 0000 0000 00ff d93f 0000 0000 e00d 0640
00000210: 0000 0000 20b6 0a40 0000 0000 a074 0140
00000220: 0000 0000 6092 14c0 0000 0000 0089 0240
00000230: 0000 0000 40f1 fabf 0000 0000 0076 08c0
00000240: 0000 0000 00d2 f1bf 0000 0000 6085 13c0
00000250: 0000 0000 80c4 01c0 0000 0000 4014 1d40
00000260: 0000 0000 0028 d3bf 0000 0000 b020 2040
00000270: 0000 0000 c00a 00c0 0000 0000 006f fd3f
00000280: 0000 0000 4042 1e40 0000 0000 0066 ef3f
00000290: 0000 0000 50af 2340 0000 0000 0068 0340
000002a0: 0000 0000 483d 2640 0000 0000 400a 0ac0
000002b0: 0000 0000 4050 0e40 0000 0000 4059 09c0
000002c0: 0000 0000 e084 11c0 0000 0000 c0cf f4bf
000002d0: 0000 0000 4041 ffbf 0000 0000 0093 1440
000002e0: 0000 0000 c0d2 f43f 0000 0000 c0dc 0740
000002f0: 0000 0000 c099 0e40 0000 0000 40d8 f5bf
00000300: 0000 0000 a0d0 0dc0 0000 0000 a094 0b40
00000310: 0000 0000 005d dabf 0000 0000 60f4 0f40
00000320: 0000 0000 00e9 e7bf 0000 0000 0042 e3bf
00000330: 0000 0000 60d3 01c0 0000 0000 001a 13c0
00000340: 0000 0000 00e6 f1bf 0000 0000 0098 e03f
00000350: 0000 0000 00b5 02c0 0000 0000 40c2 0540
00000360: 0000 0000 c07b 08c0 0000 0000 002c 0140
00000370: 0000 0000 40ac 0540 0000 0000 e003 1040
00000380: 0000 0000 a0eb 2340 0000 0000 c07f 0340
00000390: 0000 0000 40c2 0240 0000 0000 20c1 2540
000003a0: 0000 0000 c086 fdbf 0000 0000 2053 26c0
000003b0: 0000 0000 0062 ec3f 0000 0000 0081 f2bf
000003c0: 0000 0000 e0f1 21c0 0000 0000 2069 07c0
000003d0: 0000 0000 40bb f6bf 0000 0000 0029 0f40
000003e0: 0000 0000 806d eebf 0000 0000 80b7 0840
000003f0: 0000 0000 c0d8 f13f 0000 0000 00d0 bebf
00000400: 0000 0000 0035 f03f 0000 0000 6099 02c0
00000410: 0000 0000 608e 05c0 0000 0000 b04c 1340
00000420: 0000 0000 8007 fb3f 0000 0000 8040 0cc0
00000430: 0000 0000 40d9 0240 0000 0000 c0d9 09c0
00000440: 0000 0000 c053 0340 0000 0000 8067 e3bf
00000450: 0000 0000 000c c9bf 0000 0000 00c1 f83f
00000460: 0000 0000 00e8 c0bf 0000 0000 00e0 823f
00000470: 0000 0000 60cc 1440 0000 0000 6022 1a40
00000480: 0000 0000 0076 01c0 0000 0000 c040 05c0
00000490: 0000 0000 000e e43f 0000 0000 605d 0440
000004a0: 0000 0000 807d e4bf 0000 0000 80b7 fc3f
000004b0: 0000 0000 005a 0840 0000 0000 00f9 fb3f
000004c0: 0000 0000 8004 03c0 0000 0000 009e cc3f
000004d0: 0000 0000 80ef e4bf 0000 0000 f003 21c0
000004e0: 0000 0000 80a1 1340 0000 0000 70a0 10c0
000004f0: 0000 0000 a054 0ac0 0000 0000 f083 21c0
00000500: 0000 0000 30c9 17c0 0000 0000 b093 13c0
00000510: 0000 0000 b072 18c0 0000 0000 d0ca 1240
00000520: 0000 0000 007d ff3f 0000 0000 807a f53f
00000530: 0000 0000 0035 ecbf 0000 0000 304f 11c0
00000540: 0000 0000 0094 ddbf 0000 0000 a093 00c0
00000550: 0000 0000 8056 02c0 0000 0000 807a fcbf
00000560: 0000 0000 c085 0240 0000 0000 0053 d7bf
00000570: 0000 0000 00ba d53f 0000 0000 8091 1f40
00000580: 0000 0000 0000 0000 0000 0000 0066 fcbf
00000590: 0000 0000 4027 07c0 0000 0000 e00a 0240
000005a0: 0000 0000 e0c1 04c0 0000 0000 80c6 eb3f
000005b0: 0000 0000 b017 1d40 0000 0000 00fb e53f
000005c0: 0000 0000 3820 2740 0000 0000 b02e 1c40
000005d0: 0000 0000 e044 0140 0000 0000 005f 07c0
000005e0: 0000 0000 00a8 d9bf 0000 0000 a032 05c0
000005f0: 0000 0000 9031 1fc0 0000 0000 2071 18c0
00000600: 0000 0000 5016 17c0 0000 0000 8005 ebbf
00000610: 0000 0000 002b da3f 0000 0000 c097 fb3f
00000620: 0000 0000 80ff fd3f 0000 0000 0084 e43f
00000630: 0000 0000 8067 f23f 0000 0000 a0a1 0dc0
00000640: 0000 0000 c021 17c0 0000 0000 80d3 e6bf
00000650: 0000 0000 80f9 f2bf 0000 0000 2071 15c0
00000660: 0000 0000 8061 0ac0 0000 0000 8069 febf
00000670: 0000 0000 0089 e03f 0000 0000 0039 e73f
00000680: 0000 0000 4046 0ec0 0000 0000 a081 1b40
00000690: 0000 0000 c0f4 0c40 0000 0000 0069 e93f
000006a0: 0000 0000 601a 0540 0000 0000 607c 0440
000006b0: 0000 0000 40dd f43f 0000 0000 c0b5 01c0
000006c0: 0000 0000 803b 0e40 0000 0000 000a ce3f
000006d0: 0000 0000 809b e0bf 0000 0000 00dc f9bf
000006e0: 0000 0000 001e db3f 0000 0000 00af d7bf
000006f0: 0000 0000 2029 0b40 0000 0000 c030 0040
00000700: 0000 0000 0027 f0bf 0000 0000 8013 f5bf
00000710: 0000 0000 a025 08c0 0000 0000 40dd f03f
00000720: 0000 0000 802d 0640 0000 0000 c0bc 0f40
00000730: 0000 0000 00ab d33f 0000 0000 10a3 17c0
00000740: 0000 0000 a02b 11c0 0000 0000 18ea 20c0
00000750: 0000 0000 0037 febf 0000 0000 0000 0000
00000760: 0000 0000 006e 0cc0 0000 0000 80fc f7bf
00000770: 0000 0000 0062 dd3f 0000 0000 40bb 1040
00000780: 0000 0000 003e d73f 0000 0000 007c c23f
00000790: 0000 0000 8033 f13f 0000 0000 4060 0940
000007a0: 0000 0000 a04a 0040 0000 0000 c056 f33f
000007b0: 0000 0000 00e6 c9bf 0000 0000 004a df3f
000007c0: 0000 0000 40b2 f93f 0000 0000 5037 1f40
000007d0: 0000 0000 70ee 1840 0000 0000 4022 17c0
000007e0: 0000 0000 80fe f63f 0000 0000 005c ecbf
000007f0: 0000 0000 80ca 0140 0000 0000 70c1 1a40
5.39447021484375 4.81170654296875 -1.93817138671875 -5.74932861328125 -3.3070068359375 1.0589599609375 -0.95831298828125 0.0810546875
-4.8956298828125 -3.88507080078125 1.2965087890625 0.1953125 -3.7952880859375 3.2513427734375 -1.3997802734375 5.9827880859375
0.97412109375 6.2486572265625 5.8883056640625 0.63470458984375 2.18414306640625 -5.36895751953125 -3.6749267578125 1.5230712890625
-0.09869384765625 -3.7027587890625 4.0125732421875 0.66259765625 1.02642822265625 6.42626953125 7.772705078125 7.41314697265625
-1.72698974609375 4.41607666015625 2.90936279296875 1.63177490234375 -3.2257080078125 -1.81109619140625 -1.39508056640625 -4.42169189453125
-4.3060302734375 -3.85662841796875 -2.5762939453125 0.998779296875 7.25146484375 12.62322998046875 -2.0328369140625 6.3973388671875
0.018798828125 -5.73779296875 2.500732421875 5.84283447265625 0.84100341796875 8.18707275390625 -6.2708740234375 1.131591796875
2.03436279296875 -3.95367431640625 1.13983154296875 1.008056640625 -0.406005859375 4.4378662109375 3.27789306640625 4.76416015625
0.40618896484375 2.75677490234375 3.33892822265625 2.18194580078125 -5.1429443359375 2.31689453125 -1.68389892578125 -3.0576171875
-1.11376953125 -4.8802490234375 -2.220947265625 7.269775390625 -0.29931640625 8.0638427734375 -2.0052490234375 1.839599609375
7.564697265625 0.981201171875 9.8424072265625 2.42578125 11.11968994140625 -3.2550048828125 3.7891845703125 -3.1685791015625
-4.3797607421875 -1.30072021484375 -1.95343017578125 5.1435546875 1.30145263671875 2.9827880859375 3.8250732421875 -1.36529541015625
-3.72686767578125 3.44757080078125 -0.41192626953125 3.99432373046875 -0.7471923828125 -0.601806640625 -2.22821044921875 -4.775390625
-1.11865234375 0.5185546875 -2.33837890625 2.7198486328125 -3.0604248046875 2.146484375 2.7091064453125 4.0037841796875
9.960205078125 2.4373779296875 2.3448486328125 10.877197265625 -1.84539794921875 -11.162353515625 0.886962890625 -1.156494140625
-8.972412109375 -2.92633056640625 -1.42071533203125 3.89501953125 -0.95086669921875 3.089599609375 1.11541748046875 -0.120361328125
1.012939453125 -2.32489013671875 -2.69451904296875 4.82489013671875 1.6893310546875 -3.531494140625 2.3560791015625 -3.2313232421875
2.4158935546875 -0.60638427734375 -0.1956787109375 1.547119140625 -0.132080078125 0.00921630859375 5.1995849609375 6.5335693359375
-2.1826171875 -2.6566162109375 0.626708984375 2.54559326171875 -0.64031982421875 1.7947998046875 3.0439453125 1.748291015625
-2.377197265625 0.22357177734375 -0.65423583984375 -8.5076904296875 4.90771484375 -4.15667724609375 -3.29132080078125 -8.7576904296875
-5.94647216796875 -4.89422607421875 -6.11199951171875 4.69805908203125 1.968017578125 1.3424072265625 -0.8814697265625 -4.32733154296875
-0.462158203125 -2.07208251953125 -2.292236328125 -1.7799072265625 2.3153076171875 -0.36444091796875 0.3394775390625 7.89208984375
0.0 -1.77490234375 -2.8941650390625 2.25531005859375 -2.59466552734375 0.86798095703125 7.27313232421875 0.6868896484375
11.56292724609375 7.04559326171875 2.15863037109375 -2.92138671875 -0.40087890625 -2.64971923828125 -7.79840087890625 -6.1104736328125
-5.77178955078125 -0.84442138671875 0.40887451171875 1.72454833984375 1.8748779296875 0.64111328125 1.1502685546875 -3.70391845703125
-5.782958984375 -0.71331787109375 -1.1859130859375 -5.3604736328125 -3.297607421875 -1.9007568359375 0.5167236328125 0.7257080078125
-3.7843017578125 6.8765869140625 3.6195068359375 0.7940673828125 2.63787841796875 2.56072998046875 1.30401611328125 -2.2137451171875
3.779052734375 0.23468017578125 -0.51898193359375 -1.6162109375 0.4237060546875 -0.37005615234375 3.39508056640625 2.0238037109375
-1.009521484375 -1.3172607421875 -3.01837158203125 1.05401611328125 2.772216796875 3.9671630859375 0.30731201171875 -5.90924072265625
-4.2926025390625 -8.45721435546875 -1.888427734375 0.0 -3.5537109375 -1.4991455078125 0.4591064453125 4.182861328125
0.3631591796875 0.1444091796875 1.0750732421875 3.1719970703125 2.03643798828125 1.20867919921875 -0.20233154296875 0.4888916015625
1.60601806640625 7.80401611328125 6.23284912109375 -5.783447265625 1.4371337890625 -0.88623046875 2.223876953125 6.68890380859375

lat f4 [32, 32]
00000000: 6c89 a1c2 2f6d a1c2 0751 a1c2 f234 a1c2
00000010: f018 a1c2 00fd a0c2 20e1 a0c2 4fc5 a0c2
00000020: 8da9 a0c2 d78d a0c2 2e72 a0c2 9056 a0c2
00000030: fb3a a0c2 6f1f a0c2 eb03 a0c2 6de8 9fc2
00000040: f4cc 9fc2 7fb1 9fc2 0e96 9fc2 9e7a 9fc2
00000050: 305f 9fc2 c143 9fc2 5028 9fc2 dd0c 9fc2
00000060: 66f1 9ec2 ebd5 9ec2 69ba 9ec2 e09e 9ec2
00000070: 4e83 9ec2 b367 9ec2 0d4c 9ec2 5b30 9ec2
00000080: 8b78 a1c2 645c a1c2 5240 a1c2 5324 a1c2
00000090: 6708 a1c2 8cec a0c2 c1d0 a0c2 05b5 a0c2
000000a0: 5799 a0c2 b77d a0c2 2262 a0c2 9846 a0c2
000000b0: 172b a0c2 9f0f a0c2 2ef4 9fc2 c4d8 9fc2
000000c0: 5fbd 9fc2 fda1 9fc2 9f86 9fc2 436b 9fc2
000000d0: e74f 9fc2 8b34 9fc2 2d19 9fc2 ccfd 9ec2
000000e0: 68e2 9ec2 ffc6 9ec2 8fab 9ec2 1890 9ec2
000000f0: 9974 9ec2 0f59 9ec2 7b3d 9ec2 db21 9ec2
00000100: 9967 a1c2 884b a1c2 8c2f a1c2 a313 a1c2
00000110: ccf7 a0c2 06dc a0c2 50c0 a0c2 aaa4 a0c2
00000120: 1189 a0c2 846d a0c2 0452 a0c2 8e36 a0c2
00000130: 211b a0c2 bdff 9fc2 60e4 9fc2 09c9 9fc2
00000140: b7ad 9fc2 6a92 9fc2 1e77 9fc2 d55b 9fc2
00000150: 8c40 9fc2 4325 9fc2 f809 9fc2 aaee 9ec2
00000160: 58d3 9ec2 01b8 9ec2 a39c 9ec2 3f81 9ec2
00000170: d165 9ec2 5a4a 9ec2 d82e 9ec2 4913 9ec2
00000180: 9856 a1c2 9e3a a1c2 b71e a1c2 e402 a1c2
00000190: 22e7 a0c2 72cb a0c2 d1af a0c2 3f94 a0c2
000001a0: bb78 a0c2 435d a0c2 d741 a0c2 7526 a0c2
000001b0: 1c0b a0c2 ccef 9fc2 82d4 9fc2 3fb9 9fc2
000001c0: 019e 9fc2 c682 9fc2 8e67 9fc2 584c 9fc2
000001d0: 2231 9fc2 eb15 9fc2 b2fa 9ec2 77df 9ec2
000001e0: 38c4 9ec2 f3a8 9ec2 a88d 9ec2 5572 9ec2
000001f0: fa56 9ec2 953b 9ec2 2420 9ec2 a804 9ec2
00000200: 8445 a1c2 9f29 a1c2 ce0d a1c2 10f2 a0c2
00000210: 64d6 a0c2 c9ba a0c2 3d9f a0c2 c083 a0c2
00000220: 5168 a0c2 ed4c a0c2 9531 a0c2 4816 a0c2
00000230: 03fb 9fc2 c6df 9fc2 91c4 9fc2 61a9 9fc2
00000240: 368e 9fc2 0e73 9fc2 ea57 9fc2 c63c 9fc2
00000250: a321 9fc2 7f06 9fc2 59eb 9ec2 30d0 9ec2
00000260: 03b5 9ec2 d199 9ec2 987e 9ec2 5863 9ec2
00000270: 0e48 9ec2 bb2c 9ec2 5d11 9ec2 f2f5 9dc2
00000280: 5a34 a1c2 8b18 a1c2 d0fc a0c2 28e1 a0c2
00000290: 91c5 a0c2 0baa a0c2 958e a0c2 2c73 a0c2
000002a0: d157 a0c2 823c a0c2 3f21 a0c2 0506 a0c2
000002b0: d4ea 9fc2 abcf 9fc2 89b4 9fc2 6d99 9fc2
000002c0: 557e 9fc2 4163 9fc2 2f48 9fc2 1f2d 9fc2
000002d0: 0f12 9fc2 fdf6 9ec2 eadb 9ec2 d4c0 9ec2
000002e0: b9a5 9ec2 998a 9ec2 726f 9ec2 4454 9ec2
000002f0: 0d39 9ec2 cc1d 9ec2 7f02 9ec2 26e7 9dc2
00000300: 1f23 a1c2 6607 a1c2 c1eb a0c2 2ed0 a0c2
00000310: adb4 a0c2 3c99 a0c2 da7d a0c2 8662 a0c2
00000320: 4047 a0c2 052c a0c2 d610 a0c2 b0f5 9fc2
00000330: 94da 9fc2 7ebf 9fc2 70a4 9fc2 6789 9fc2
00000340: 636e 9fc2 6253 9fc2 6338 9fc2 651d 9fc2
00000350: 6802 9fc2 69e7 9ec2 69cc 9ec2 65b1 9ec2
00000360: 5d96 9ec2 4f7b 9ec2 3b60 9ec2 1e45 9ec2
00000370: f929 9ec2 ca0e 9ec2 8ff3 9dc2 48d8 9dc2
00000380: d411 a1c2 31f6 a0c2 a1da a0c2 24bf a0c2
00000390: b8a3 a0c2 5c88 a0c2 0f6d a0c2 d051 a0c2
000003a0: 9e36 a0c2 781b a0c2 5c00 a0c2 4be5 9fc2
000003b0: 42ca 9fc2 40af 9fc2 4594 9fc2 5079 9fc2
000003c0: 5f5e 9fc2 7143 9fc2 8528 9fc2 9b0d 9fc2
000003d0: b0f2 9ec2 c4d7 9ec2 d6bc 9ec2 e5a1 9ec2
000003e0: ef86 9ec2 f36b 9ec2 f150 9ec2 e735 9ec2
000003f0: d41a 9ec2 b6ff 9dc2 8de4 9dc2 58c9 9dc2
-80.7684 -80.71325 -80.65826 -80.60341 -80.548706 -80.49414 -80.4397 -80.38537
-80.331154 -80.27703 -80.22301 -80.16907 -80.1152 -80.06139 -80.00765 -79.95396
-79.9003 -79.84667 -79.793076 -79.73949 -79.68591 -79.63233 -79.578735 -79.52512
-79.47148 -79.41781 -79.36408 -79.3103 -79.256454 -79.20254 -79.14854 -79.094444
-80.735435 -80.68045 -80.625626 -80.570946 -80.51641 -80.462006 -80.40772 -80.35355
-80.29949 -80.24554 -80.191666 -80.13788 -80.08416 -80.03051 -79.97691 -79.92337
-79.869865 -79.81638 -79.76293 -79.709496 -79.65606 -79.60262 -79.54917 -79.4957
-79.4422 -79.388664 -79.335075 -79.28143 -79.22773 -79.17394 -79.12008 -79.066124
-80.70234 -80.64752 -80.592865 -80.53835 -80.48398 -80.42973 -80.37561 -80.32161
-80.26771 -80.2139 -80.16019 -80.10655 -80.052986 -79.99949 -79.946045 -79.89265
-79.83929 -79.785965 -79.73265 -79.67936 -79.62607 -79.57278 -79.51947 -79.46614
-79.41278 -79.35938 -79.30593 -79.25243 -79.19886 -79.14522 -79.09149 -79.03767
-80.66913 -80.61449 -80.55999 -80.505646 -80.45143 -80.397354 -80.34339 -80.28954
-80.2358 -80.18215 -80.12859 -80.07511 -80.0217 -79.96835 -79.915054 -79.86181
-79.8086 -79.75542 -79.702255 -79.64911 -79.59596 -79.54281 -79.48964 -79.436455
-79.38324 -79.32998 -79.27667 -79.223305 -79.169876 -79.11637 -79.062775 -79.009094
-80.63577 -80.58129 -80.52696 -80.47278 -80.41873 -80.364815 -80.31101 -80.257324
-80.20374 -80.150246 -80.09684 -80.04352 -79.99026 -79.93706 -79.88392 -79.83082
-79.777756 -79.72472 -79.67171 -79.6187 -79.5657 -79.51269 -79.45966 -79.40662
-79.35354 -79.30042 -79.24725 -79.19403 -79.14073 -79.087364 -79.03391 -78.98036
-80.60225 -80.547935 -80.493774 -80.43976 -80.38587 -80.332115 -80.27848 -80.224945
-80.17152 -80.11818 -80.06493 -80.01176 -79.95865 -79.9056 -79.85261 -79.79966
-79.74674 -79.693855 -79.64098 -79.58813 -79.53527 -79.4824 -79.42952 -79.37662
-79.32368 -79.2707 -79.21767 -79.16458 -79.11143 -79.0582 -79.004875 -78.95146
-80.568596 -80.51445 -80.46046 -80.4066 -80.35288 -80.299286 -80.245804 -80.19243
-80.13916 -80.085976 -80.03288 -79.97986 -79.92691 -79.87401 -79.82117 -79.768364
-79.7156 -79.66286 -79.61013 -79.55741 -79.5047 -79.45197 -79.39924 -79.34647
-79.29368 -79.24084 -79.18795 -79.134995 -79.08198 -79.028885 -78.9757 -78.922424
-80.53482 -80.48084 -80.42701 -80.37332 -80.31976 -80.26633 -80.213005 -80.15979
-80.106674 -80.05365 -80.0007 -79.94784 -79.895035 -79.842285 -79.78959 -79.73694
-79.68432 -79.63172 -79.57914 -79.52657 -79.474 -79.42142 -79.36882 -79.3162
-79.26354 -79.21084 -79.15809 -79.10528 -79.0524 -78.999435 -78.94639 -78.89325

lon f4 [32, 32]
00000000: 3d40 cbc0 aa71 c2c0 40c4 b9c0 ce36 b1c0
00000010: 31c8 a8c0 4f77 a0c0 1c43 98c0 942a 90c0
00000020: bd2c 88c0 a948 80c0 e0fa 70c0 6794 61c0
00000030: 395c 52c0 b850 43c0 5470 34c0 8bb9 25c0
00000040: e82a 17c0 01c3 08c0 f300 f5bf fdc3 d8bf
00000050: 91cc bcbf 3318 a1bf 7ba4 85bf 22de 54bf
00000060: 61eb 1ebf 8ed8 d2be 2572 51be f20c 903a
00000070: ea15 523e 95bf d03e d5da 1b3f 61fa 4e3f
00000080: be9d d2c0 6fcc c9c0 301c c1c0 d38b b8c0
00000090: 351a b0c0 3ec6 a7c0 e28e 9fc0 1f73 97c0
000000a0: fc71 8fc0 8c8a 87c0 cf77 7fc0 620a 70c0
000000b0: 24cb 60c0 79b8 51c0 d3d0 42c0 b112 34c0
000000c0: 9d7c 25c0 310d 17c0 0fc3 08c0 ce39 f5bf
000000d0: e232 d9bf e06e bdbf 61eb a1bf 11a6 86bf
000000e0: 5339 57bf ef99 21bf 58d3 d8be 7a91 5ebe
000000f0: 4a7d 51bc 17d6 423e dfa3 c83e 0d93 173f
00000100: c3ee d9c0 e11a d1c0 f667 c8c0 d5d4 bfc0
00000110: 5c60 b7c0 7609 afc0 17cf a6c0 3fb0 9ec0
00000120: f6ab 96c0 4ec1 8ec0 62ef 86c0 aa6a 7ec0
00000130: a324 6fc0 140b 60c0 701c 51c0 3757 42c0
00000140: f6b9 33c0 4643 25c0 ccf1 16c0 36c4 08c0
00000150: 7f72 f5bf 579f d9bf 8f0c bebf d2b7 a2bf
00000160: dd9e 87bf fc7e 59bf 212f 24bf ff93 debe
00000170: 232e 6bbe 00f9 d5bc 7934 343e dcdd c03e
00000180: 9a30 e1c0 4e5a d8c0 dfa4 cfc0 220f c7c0
00000190: f797 bec0 493e b6c0 0f01 aec0 47df a5c0
000001a0: fdd7 9dc0 42ea 95c0 3315 8ec0 f357 86c0
000001b0: 5e63 7dc0 3143 6ec0 d54d 5fc0 ca81 50c0
000001c0: 9fdd 41c0 ed5f 33c0 5c07 25c0 9ad2 16c0
000001d0: 63c0 08c0 f79e f5bf 61fd d9bf b399 bebf
000001e0: ab71 a3bf 1883 88bf aa97 5bbf a093 26bf
000001f0: 09ec e3be 90eb 76be 47e6 1dbd f18c 263e
00000200: 9867 e8c0 068f dfc0 38d7 d6c0 033f cec0
00000210: 49c5 c5c0 f668 bdc0 0129 b5c0 6c04 adc0
00000220: 42fa a4c0 9609 9dc0 8431 95c0 3271 8dc0
00000230: cdc7 85c0 0d69 7cc0 356d 6dc0 969a 5ec0
00000240: bdef 4fc0 466b 41c0 d80b 33c0 24d0 24c0
00000250: e6b6 16c0 e3be 08c0 d3cd f5bf a35b dabf
00000260: f524 bfbf 9827 a4bf 6b61 89bf b6a0 5dbf
00000270: c6e4 28bf 2716 e9be 8c1f 81be dcf1 4ebd
00000280: fb90 efc0 4eb6 e6c0 49fc ddc0 c561 d5c0
00000290: a3e5 ccc0 d386 c4c0 4b44 bcc0 0f1d b4c0
000002a0: 2a10 acc0 b11c a4c0 c141 9cc0 817e 94c0
000002b0: 1ed2 8cc0 cb3b 85c0 8875 7bc0 979c 6cc0
000002c0: 53eb 5dc0 5960 4fc0 4ffa 40c0 e9b7 32c0
000002d0: e397 24c0 0399 16c0 19ba 08c0 f9f3 f5bf
000002e0: 1caf dabf 6da3 bfbf cbce a4bf 232f 8abf
000002f0: e584 5fbf 820d 2bbf 8ae8 edbe e16a 86be
00000300: 22ae f6c0 7fd1 edc0 6b15 e5c0 be78 dcc0
00000310: 5afa d3c0 3199 cbc0 3b54 c3c0 7b2a bbc0
00000320: 001b b3c0 de24 abc0 3347 a3c0 2881 9bc0
00000330: e8d1 93c0 aa38 8cc0 a9b4 84c0 528a 7ac0
00000340: e4d2 6bc0 a641 5dc0 41d5 4ec0 688c 40c0
00000350: d865 32c0 5860 24c0 ba7a 16c0 d5b3 08c0
00000360: 1515 f6bf 88fb dabf e418 c0bf 186b a5bf
00000370: 21f0 8abf 0e4c 61bf c015 2dbf 3673 f2be
00000380: cfbd fdc0 5edf f4c0 6021 ecc0 af82 e3c0
00000390: 2f02 dbc0 d29e d2c0 9157 cac0 722b c2c0
000003a0: 8319 bac0 db20 b2c0 9840 aac0 e277 a2c0
000003b0: e8c5 9ac0 e029 93c0 06a3 8bc0 9f30 84c0
000003c0: e6a3 79c0 a30c 6bc0 209a 5cc0 114b 4ec0
000003d0: 341e 40c0 5112 32c0 3926 24c0 c658 16c0
000003e0: daa8 08c0 bd2a f6bf 893a dbbf 097f c0bf
000003f0: 39f6 a5bf 259e 8bbf c4e9 62bf 26f1 2ebf
-6.3515916 -6.076375 -5.8052063 -5.53794 -5.2744374 -5.014564 -4.758192 -4.5051975
-4.255461 -4.0088696 -3.7653122 -3.5246828 -3.2868788 -3.0518017 -2.819356 -2.5894496
-2.3619938 -2.136902 -1.9140915 -1.6934811 -1.4749929 -1.258551 -1.044082 -0.8315145
-0.6207791 -0.41180843 -0.20453699 0.0010990186 0.20516172 0.40771165 0.60880786 0.808508
-6.5817556 -6.3062053 -6.034691 -5.7670684 -5.503199 -5.2429495 -4.9861917 -4.732803
-4.482664 -4.2356625 -3.9916875 -3.7506337 -3.5123987 -3.2768843 -3.0439956 -2.8136408
-2.5857308 -2.3601801 -2.1369054 -1.9158266 -1.6968653 -1.4799461 -1.2649957 -1.051943
-0.84071845 -0.6312551 -0.42348742 -0.21735182 -0.012786219 0.19026981 0.39187524 0.59208757
-6.8103957 -6.534531 -6.2626905 -5.9947305 -5.7305126 -5.469905 -5.2127795 -4.9590144
-4.7084913 -4.461097 -4.2167215 -3.9752603 -3.7366111 -3.5006762 -3.2673607 -3.0365732
-2.8082252 -2.582231 -2.358508 -2.1369758 -1.9175566 -1.7001752 -1.4847583 -1.2712348
-1.0595356 -0.8495939 -0.64134413 -0.43472287 -0.22966819 -0.026119709 0.17598142 0.37669265
-7.037183 -6.7610235 -6.488876 -6.2205973 -5.9560504 -5.695103 -5.437629 -5.1835055
-4.9326158 -4.684846 -4.440088 -4.198236 -3.95919 -3.722851 -3.4891255 -3.2579217
-3.0291517 -2.8027298 -2.5785742 -2.356604 -2.1367424 -1.9189137 -1.703045 -1.4890655
-1.2769064 -1.0665007 -0.85778296 -0.6506901 -0.44516018 -0.24113297 -0.038549688 0.16264702
-7.2626457 -6.986209 -6.713772 -6.445192 -6.1803327 -5.9190626 -5.6612554 -5.40679
-5.155549 -4.90742 -4.6622944 -4.420068 -4.1806397 -3.9439118 -3.7097905 -3.4781852
-3.2490075 -3.0221725 -2.797598 -2.575204 -2.3549132 -2.1366508 -1.9203438 -1.7059215
-1.4933153 -1.2824583 -1.0732855 -0.8657335 -0.6597408 -0.45524713 -0.2521938 -0.050523624
-7.486448 -7.209754 -6.9370465 -6.6681848 -6.403032 -6.141458 -5.8833365 -5.628547
-5.376973 -5.1285024 -4.8830266 -4.6404424 -4.400649 -4.163549 -3.9290485 -3.6970575
-3.467488 -3.2402556 -3.0152776 -2.792475 -2.5717704 -2.353089 -2.1363585 -1.921508
-1.7084689 -1.4971749 -1.2875608 -1.0795635 -0.87312156 -0.66817486 -0.46466476 -0.26253417
-7.7087564 -7.4318233 -7.1588645 -6.889739 -6.6243105 -6.36245 -6.104032 -5.8489356
-5.597046 -5.3482504 -5.1024413 -4.859516 -4.6193733 -4.381917 -4.1470532 -3.9146924
-3.6847467 -3.4571319 -3.231766 -3.0085697 -2.787466 -2.5683804 -2.3512406 -2.135976
-1.9225184 -1.7108011 -1.5007596 -1.2923307 -1.0854532 -0.88006675 -0.6761131 -0.47353524
-7.92942 -7.6522665 -7.379074 -7.1097026 -6.8440166 -6.5818872 -6.3231893 -6.0678034
-5.815614 -5.5665107 -5.320385 -5.077134 -4.8366585 -4.5988617 -4.3636503 -4.130935
-3.9006286 -3.6726463 -3.446907 -3.2233317 -3.0018435 -2.782368 -2.564833 -2.3491683
-2.135306 -1.9231793 -1.7127239 -1.5038768 -1.2965766 -1.0907637 -0.8863795 -0.68336713

qa f4 [32, 32]
00000000: cccc cc3e cccc cc3e cccc cc3e cccc cc3e
00000010: cccc cc3e cccc cc3e cccc cc3e cccc cc3e
00000020: cccc cc3e cccc cc3e cccc cc3e cccc cc3e
00000030: cccc cc3e cccc cc3e cccc cc3e cccc cc3e
00000040: cccc cc3e cccc cc3e cccc cc3e cccc cc3e
00000050: cccc cc3e cccc cc3e cccc cc3e cccc cc3e
00000060: cccc cc3e cccc cc3e cccc cc3e cccc cc3e
00000070: cccc cc3e cccc cc3e cccc cc3e cccc cc3e
00000080: cccc cc3e cccc cc3e cccc cc3e cccc cc3e
00000090: cccc cc3e cccc cc3e cccc cc3e cccc cc3e
000000a0: cccc cc3e cccc cc3e cccc cc3e cccc cc3e
000000b0: cccc cc3e cccc cc3e cccc cc3e cccc cc3e
000000c0: cccc cc3e cccc cc3e cccc cc3e cccc cc3e
000000d0: cccc cc3e cccc cc3e cccc cc3e cccc cc3e
000000e0: cccc cc3e cccc cc3e cccc cc3e cccc cc3e
000000f0: cccc cc3e cccc cc3e cccc cc3e cccc cc3e
00000100: cccc cc3e cccc cc3e cccc cc3e cccc cc3e
00000110: cccc cc3e cccc cc3e cccc cc3e cccc cc3e
00000120: cccc cc3e cccc cc3e cccc cc3e cccc cc3e
00000130: cccc cc3e cccc cc3e cccc cc3e cccc cc3e
00000140: cccc cc3e cccc cc3e cccc cc3e cccc cc3e
00000150: cccc cc3e cccc cc3e cccc cc3e cccc cc3e
00000160: cccc cc3e cccc cc3e cccc cc3e cccc cc3e
00000170: cccc cc3e cccc cc3e cccc cc3e cccc cc3e
00000180: cccc cc3e cccc cc3e cccc cc3e cccc cc3e
00000190: cccc cc3e cccc cc3e cccc cc3e cccc cc3e
000001a0: cccc cc3e cccc cc3e cccc cc3e cccc cc3e
000001b0: cccc cc3e cccc cc3e cccc cc3e cccc cc3e
000001c0: cccc cc3e cccc cc3e cccc cc3e cccc cc3e
000001d0: cccc cc3e cccc cc3e cccc cc3e cccc cc3e
000001e0: cccc cc3e cccc cc3e cccc cc3e cccc cc3e
000001f0: cccc cc3e cccc cc3e cccc cc3e cccc cc3e
00000200: cccc cc3e cccc cc3e cccc cc3e cccc cc3e
00000210: cccc cc3e cccc cc3e cccc cc3e cccc cc3e
00000220: cccc cc3e cccc cc3e cccc cc3e cccc cc3e
00000230: cccc cc3e cccc cc3e cccc cc3e cccc cc3e
00000240: cccc cc3e cccc cc3e cccc cc3e cccc cc3e
00000250: cccc cc3e cccc cc3e cccc cc3e cccc cc3e
00000260: cccc cc3e cccc cc3e cccc cc3e cccc cc3e
00000270: cccc cc3e cccc cc3e cccc cc3e cccc cc3e
00000280: cccc cc3e cccc cc3e cccc cc3e cccc cc3e
00000290: cccc cc3e cccc cc3e cccc cc3e cccc cc3e
000002a0: cccc cc3e cccc cc3e cccc cc3e cccc cc3e
000002b0: cccc cc3e cccc cc3e cccc cc3e cccc cc3e
000002c0: cccc cc3e cccc cc3e cccc cc3e cccc cc3e
000002d0: cccc cc3e cccc cc3e cccc cc3e cccc cc3e
000002e0: cccc cc3e cccc cc3e cccc cc3e cccc cc3e
000002f0: cccc cc3e cccc cc3e cccc cc3e cccc cc3e
00000300: cccc cc3e cccc cc3e cccc cc3e cccc cc3e
00000310: cccc cc3e cccc cc3e cccc cc3e cccc cc3e
00000320: cccc cc3e cccc cc3e cccc cc3e cccc cc3e
00000330: cccc cc3e cccc cc3e cccc cc3e cccc cc3e
00000340: cccc cc3e cccc cc3e cccc cc3e cccc cc3e
00000350: cccc cc3e cccc cc3e cccc cc3e cccc cc3e
00000360: cccc cc3e cccc cc3e cccc cc3e cccc cc3e
00000370: cccc cc3e cccc cc3e cccc cc3e cccc cc3e
00000380: cccc cc3e cccc cc3e cccc cc3e cccc cc3e
00000390: cccc cc3e cccc cc3e cccc cc3e cccc cc3e
000003a0: cccc cc3e cccc cc3e cccc cc3e cccc cc3e
000003b0: cccc cc3e cccc cc3e cccc cc3e cccc cc3e
000003c0: cccc cc3e cccc cc3e cccc cc3e cccc cc3e
000003d0: cccc cc3e cccc cc3e cccc cc3e cccc cc3e
000003e0: cccc cc3e cccc cc3e cccc cc3e cccc cc3e
000003f0: cccc cc3e cccc cc3e cccc cc3e cccc cc3e
0.39999998 0.39999998 0.39999998 0.39999998 0.39999998 0.39999998 0.39999998 0.39999998
0.39999998 0.39999998 0.39999998 0.39999998 0.39999998 0.39999998 0.39999998 0.39999998
0.39999998 0.39999998 0.39999998 0.39999998 0.39999998 0.39999998 0.39999998 0.39999998
0.39999998 0.39999998 0.39999998 0.39999998 0.39999998 0.39999998 0.39999998 0.39999998
0.39999998 0.39999998 0.39999998 0.39999998 0.39999998 0.39999998 0.39999998 0.39999998
0.39999998 0.39999998 0.39999998 0.39999998 0.39999998 0.39999998 0.39999998 0.39999998
0.39999998 0.39999998 0.39999998 0.39999998 0.39999998 0.39999998 0.39999998 0.39999998
0.39999998 0.39999998 0.39999998 0.39999998 0.39999998 0.39999998 0.39999998 0.39999998
0.39999998 0.39999998 0.39999998 0.39999998 0.39999998 0.39999998 0.39999998 0.39999998
0.39999998 0.39999998 0.39999998 0.39999998 0.39999998 0.39999998 0.39999998 0.39999998
0.39999998 0.39999998 0.39999998 0.39999998 0.39999998 0.39999998 0.39999998 0.39999998
0.39999998 0.39999998 0.39999998 0.39999998 0.39999998 0.39999998 0.39999998 0.39999998
0.39999998 0.39999998 0.39999998 0.39999998 0.39999998 0.39999998 0.39999998 0.39999998
0.39999998 0.39999998 0.39999998 0.39999998 0.39999998 0.39999998 0.39999998 0.39999998
0.39999998 0.39999998 0.39999998 0.39999998 0.39999998 0.39999998 0.39999998 0.39999998
0.39999998 0.39999998 0.39999998 0.39999998 0.39999998 0.39999998 0.39999998 0.39999998
0.39999998 0.39999998 0.39999998 0.39999998 0.39999998 0.39999998 0.39999998 0.39999998
0.39999998 0.39999998 0.39999998 0.39999998 0.39999998 0.39999998 0.39999998 0.39999998
0.39999998 0.39999998 0.39999998 0.39999998 0.39999998 0.39999998 0.39999998 0.39999998
0.39999998 0.39999998 0.39999998 0.39999998 0.39999998 0.39999998 0.39999998 0.39999998
0.39999998 0.39999998 0.39999998 0.39999998 0.39999998 0.39999998 0.39999998 0.39999998
0.39999998 0.39999998 0.39999998 0.39999998 0.39999998 0.39999998 0.39999998 0.39999998
0.39999998 0.39999998 0.39999998 0.39999998 0.39999998 0.39999998 0.39999998 0.39999998
0.39999998 0.39999998 0.39999998 0.39999998 0.39999998 0.39999998 0.39999998 0.39999998
0.39999998 0.39999998 0.39999998 0.39999998 0.39999998 0.39999998 0.39999998 0.39999998
0.39999998 0.39999998 0.39999998 0.39999998 0.39999998 0.39999998 0.39999998 0.39999998
0.39999998 0.39999998 0.39999998 0.39999998 0.39999998 0.39999998 0.39999998 0.39999998
0.39999998 0.39999998 0.39999998 0.39999998 0.39999998 0.39999998 0.39999998 0.39999998
0.39999998 0.39999998 0.39999998 0.39999998 0.39999998 0.39999998 0.39999998 0.39999998
0.39999998 0.39999998 0.39999998 0.39999998 0.39999998 0.39999998 0.39999998 0.39999998
0.39999998 0.39999998 0.39999998 0.39999998 0.39999998 0.39999998 0.39999998 0.39999998
0.39999998 0.39999998 0.39999998 0.39999998 0.39999998 0.39999998 0.39999998 0.39999998

non_destriped f4 [32, 32]
00000000: 65e7 d444 0779 d444 b75e d344 f940 d444
00000010: 97de d444 1dfd d444 5631 d444 378d d444
00000020: 62f1 d244 67bc d344 6d19 d544 4c80 d344
00000030: bcf1 d344 49fb d544 c79e d544 a851 d744
00000040: 3b73 d744 dbb4 d644 9f1b d844 b4e4 d644
00000050: 5ac9 d844 5f86 d644 8523 d744 136b d744
00000060: 4ce1 d644 7c57 d744 cd20 d844 b53e d744
00000070: 6071 d744 bbac d744 7c07 da44 52a7 d844
00000080: ffe3 d344 8a33 d444 2fa6 d344 a5f6 d444
00000090: 8c84 d444 b522 d444 83cb d344 659f d344
000000a0: 60d2 d244 6789 d344 f546 d444 e811 d344
000000b0: e2d6 d444 72d1 d644 a92c d544 a85f d744
000000c0: 1cb9 d744 aeb1 d544 364a d844 e92f d844
000000d0: 941a d944 08a7 d844 af32 d744 fbb4 d744
000000e0: 549c d744 50f4 d744 af2b d844 a68e d744
000000f0: 9c7c d744 2e80 d744 c05e d944 b42f d844
00000100: a624 d444 10ed d344 60bd d344 78f0 d444
00000110: 064c d444 b6ae d444 1498 d344 599d d344
00000120: a5e8 d244 642d d344 f531 d444 d2b3 d344
00000130: 42c5 d344 ebfd d544 8257 d544 e777 d644
00000140: 6de3 d744 64d9 d544 3452 d844 87dc d644
00000150: 8091 d944 6bb7 d644 1941 d844 def7 d644
00000160: af7e d644 02c0 d744 9777 d744 cbe6 d744
00000170: 7d8f d744 0633 d744 db46 d944 8e51 d744
00000180: dce0 d344 9829 d444 4168 d344 1c58 d544
00000190: b4cc d444 6943 d444 3185 d344 b666 d344
000001a0: e308 d344 21d2 d344 0c15 d444 750f d344
000001b0: cb28 d344 b40c d544 3997 d544 4b57 d644
000001c0: e893 d744 5d74 d544 44cb d644 48b2 d744
000001d0: 15e3 d744 c7b0 d544 97a1 d744 92f6 d644
000001e0: b4aa d544 ac65 d744 a471 d744 bf82 d744
000001f0: 611f d744 0910 d744 34cb d844 5651 d744
00000200: 8e48 d444 2d60 d344 21f9 d244 4c2e d544
00000210: ceeb d444 ec99 d344 7ebe d344 fb3f d344
00000220: 5309 d344 c968 d344 4519 d444 42a8 d244
00000230: d543 d344 b782 d444 477c d544 e675 d644
00000240: 1d49 d644 9d2a d544 f8f7 d644 2596 d644
00000250: e8de d744 b7d8 d644 6f8c d744 58f9 d644
00000260: e233 d644 7c69 d744 c63a d744 55dc d544
00000270: 299c d744 fd13 d644 1730 d844 1f36 d644
00000280: 85df d344 95a8 d344 e603 d344 0a51 d544
00000290: 490a d544 4b50 d444 9799 d344 1d63 d344
000002a0: 07ef d244 3292 d344 e324 d444 808c d244
000002b0: dbe0 d344 e172 d444 af85 d444 231e d644
000002c0: b348 d644 bd1a d544 6699 d644 10a7 d644
000002d0: 5eab d744 58e9 d644 4e18 d844 ccdd d644
000002e0: 982b d844 227e d844 0c07 d844 52f4 d644
000002f0: af71 d744 918a d644 3bc1 d744 bfa5 d644
00000300: e49f d344 0496 d344 b750 d344 c5c9 d444
00000310: e4f4 d444 de25 d444 b6b9 d344 2b56 d344
00000320: 1c30 d244 6ca6 d344 0c35 d444 4b00 d244
00000330: 9d13 d344 0d1c d444 de51 d444 c822 d544
00000340: 7281 d544 c979 d544 1ace d644 2d29 d644
00000350: f536 d844 9706 d744 ce54 d744 8f7c d644
00000360: 0c07 d744 dc8f d744 046a d744 33c7 d644
00000370: 083a d744 2c87 d644 d605 d944 7588 d744
00000380: 824c d444 8edf d344 5a70 d344 a140 d544
00000390: 373b d544 98c0 d444 ddd5 d344 2747 d344
000003a0: 038c d244 27a1 d244 49e6 d344 9072 d244
000003b0: 69d2 d244 f9e4 d344 d1fe d344 3b03 d544
000003c0: 3c66 d544 7959 d444 fd63 d644 fa44 d644
000003d0: 22b8 d744 ad4b d644 9682 d644 0731 d644
000003e0: 1f14 d644 d4d4 d744 4990 d744 eafe d544
000003f0: aca8 d644 99ca d544 0b7e d844 27bc d744
1703.2311 1699.7821 1690.9598 1698.0304 1702.9559 1703.9098 1697.5417 1700.413
1687.5432 1693.8876 1704.7946 1692.0093 1695.5542 1711.8527 1708.9618 1722.5518
1723.601 1717.6517 1728.8632 1719.147 1734.2922 1716.1991 1721.11 1723.3461
1719.0405 1722.7339 1729.025 1721.9596 1723.543 1725.3978 1744.2339 1733.2288
1695.1249 1697.6106 1693.1932 1703.7076 1700.1421 1697.0846 1694.3597 1692.9811
1686.5742 1692.2938 1698.2174 1688.5596 1702.7151 1718.5452 1705.3956 1722.9893
1725.7847 1709.5525 1730.3191 1729.4972 1736.8306 1733.2197 1721.5839 1725.6556
1724.8853 1727.6348 1729.3651 1724.4578 1723.894 1724.0056 1738.9609 1729.4907
1697.1453 1695.4082 1693.918 1703.5146 1698.3757 1701.4597 1692.7524 1692.9171
1687.2701 1689.4185 1697.5612 1693.6194 1694.1643 1711.9349 1706.7346 1715.747
1727.107 1710.7935 1730.5688 1718.8915 1740.5469 1717.7318 1730.0343 1719.7458
1715.9589 1726.0002 1723.7372 1727.2123 1724.484 1721.5945 1738.2142 1722.5486
1695.0269 1697.2998 1691.2579 1706.7534 1702.397 1698.1066 1692.1622 1691.2097
1688.2777 1694.5665 1696.6577 1688.483 1689.2748 1704.397 1708.7257 1714.7279
1724.6221 1707.6364 1718.352 1725.5713 1727.0963 1709.5243 1725.0497 1719.7053
1709.3345 1723.1772 1723.5513 1724.0858 1720.9806 1720.5011 1734.3501 1722.5417
1698.2673 1691.0055 1687.7853 1705.4468 1703.3689 1692.81 1693.9529 1689.9994
1688.2914 1691.2745 1696.7897 1685.258 1690.1198 1700.0848 1707.8837 1715.6843
1714.2848 1705.3317 1719.749 1716.692 1726.9658 1718.7723 1724.3885 1719.792
1713.6213 1723.2964 1721.8367 1710.8854 1724.88 1712.6246 1729.5028 1713.6913
1694.985 1693.2682 1688.1218 1706.5325 1704.3214 1698.5092 1692.7997 1691.0973
1687.4696 1692.5686 1697.1527 1684.3906 1695.0267 1699.59 1700.1776 1712.9418
1714.2719 1704.8356 1716.7937 1717.2207 1725.3552 1719.292 1728.7595 1718.9312
1729.3623 1731.9417 1728.2202 1719.635 1723.5526 1716.3302 1726.0385 1717.1796
1692.9966 1692.688 1690.5223 1702.3053 1703.6528 1697.1833 1693.8035 1690.6927
1681.5034 1693.2007 1697.6577 1680.0092 1688.6129 1696.8766 1698.5583 1705.0869
1708.0452 1707.8058 1718.4407 1713.2867 1729.7174 1720.2059 1722.6501 1715.8925
1720.2202 1724.4956 1723.313 1718.225 1721.8135 1716.2241 1736.1824 1724.2643
1698.3909 1694.9861 1691.511 1706.0197 1705.8505 1702.0186 1694.6832 1690.2235
1684.3754 1685.036 1695.1964 1683.5801 1686.5753 1695.1554 1695.963 1704.101
1707.1948 1698.796 1715.1246 1714.1555 1725.7542 1714.3649 1716.0808 1713.5321
1712.6288 1726.6509 1724.5089 1711.9661 1717.271 1710.3312 1731.9388 1725.8798
