data/dataset/negative/fb4f643a-b39f-430f-af56-1c289da8b2e4.npz (npz, 23743 bytes, 4 tensors)

methane f8 [32, 32]
00000000: 0000 0000 0000 9e47 0000 0000 0000 9e47
00000010: 0000 0000 0000 9e47 0000 0000 0000 9e47
00000020: 0000 0000 0000 9e47 0000 0000 0000 9e47
00000030: 0000 0000 0000 9e47 0000 0000 0000 9e47
00000040: 0000 0000 0000 9e47 0000 0000 0000 9e47
00000050: 0000 0000 0000 9e47 0000 0000 0000 9e47
00000060: 0000 0000 0000 9e47 0000 0000 0000 9e47
00000070: 0000 0000 0000 9e47 0000 0000 0000 9e47
00000080: 0000 0000 0000 9e47 0000 0000 0000 9e47
00000090: 0000 0000 0000 9e47 0000 0000 0000 9e47
000000a0: 0000 0000 0000 9e47 0000 0000 0000 9e47
000000b0: 0000 0000 0000 9e47 0000 0000 0000 9e47
000000c0: 0000 0000 0000 9e47 0000 0000 0000 9e47
000000d0: 0000 0000 0000 9e47 0000 0000 0000 9e47
000000e0: 0000 0000 0000 9e47 0000 0000 0000 9e47
000000f0: 0000 0000 0000 9e47 0000 0000 0000 9e47
00000100: 0000 0000 0000 9e47 0000 0000 0000 9e47
00000110: 0000 0000 0000 9e47 0000 0000 0000 9e47
00000120: 0000 0000 0000 9e47 0000 0000 0000 9e47
00000130: 0000 0000 0000 9e47 0000 0000 0000 9e47
00000140: 0000 0000 0000 9e47 0000 0000 0000 9e47
00000150: 0000 0000 0000 9e47 0000 0000 0000 9e47
00000160: 0000 0000 0000 9e47 0000 0000 0000 9e47
00000170: 0000 0000 0000 9e47 0000 0000 0000 9e47
00000180: 0000 0000 0000 9e47 0000 0000 0000 9e47
00000190: 0000 0000 0000 9e47 0000 0000 0000 9e47
000001a0: 0000 0000 0000 9e47 0000 0000 0000 9e47
000001b0: 0000 0000 0000 9e47 0000 0000 0000 9e47
000001c0: 0000 0000 0000 9e47 0000 0000 0000 9e47
000001d0: 0000 0000 0000 9e47 0000 0000 0000 9e47
000001e0: 0000 0000 0000 9e47 0000 0000 0000 9e47
000001f0: 0000 0000 0000 9e47 0000 0000 0000 9e47
00000200: 0000 0000 0000 9e47 0000 0000 0000 9e47
00000210: 0000 0000 0000 9e47 0000 0000 0000 9e47
00000220: 0000 0000 0000 9e47 0000 0000 0000 9e47
00000230: 0000 0000 0000 9e47 0000 0000 0000 9e47
00000240: 0000 0000 0000 9e47 0000 0000 0000 9e47
00000250: 0000 0000 0000 9e47 0000 0000 0000 9e47
00000260: 0000 0000 0000 9e47 0000 0000 0000 9e47
00000270: 0000 0000 0000 9e47 0000 0000 0000 9e47
00000280: 0000 0000 0000 9e47 0000 0000 0000 9e47
00000290: 0000 0000 0000 9e47 0000 0000 0000 9e47
000002a0: 0000 0000 0000 9e47 0000 0000 0000 9e47
000002b0: 0000 0000 0000 9e47 0000 0000 0000 9e47
000002c0: 0000 0000 0000 9e47 0000 0000 0000 9e47
000002d0: 0000 0000 0000 9e47 0000 0000 0000 9e47
000002e0: 0000 0000 0000 9e47 0000 0000 0000 9e47
000002f0: 0000 0000 0000 9e47 0000 0000 0000 9e47
00000300: 0000 0000 0000 9e47 0000 0000 0000 9e47
00000310: 0000 0000 0000 9e47 0000 0000 0000 9e47
00000320: 0000 0000 0000 9e47 0000 0000 0000 9e47
00000330: 0000 0000 0000 9e47 0000 0000 0000 9e47
00000340: 0000 0000 0000 9e47 0000 0000 0000 9e47
00000350: 0000 0000 0000 9e47 0000 0000 0000 9e47
00000360: 0000 0000 0000 9e47 0000 0000 0000 9e47
00000370: 0000 0000 0000 9e47 0000 0000 0000 9e47
00000380: 0000 0000 0000 9e47 0000 0000 0000 9e47
00000390: 0000 0000 0000 9e47 0000 0000 0000 9e47
000003a0: 0000 0000 0000 9e47 0000 0000 0000 9e47
000003b0: 0000 0000 0000 9e47 0000 0000 0000 9e47
000003c0: 0000 0000 0000 9e47 0000 0000 0000 9e47
000003d0: 0000 0000 0000 9e47 0000 0000 0000 9e47
000003e0: 0000 0000 0000 9e47 0000 0000 0000 9e47
000003f0: 0000 0000 0000 9e47 0000 0000 0000 9e47
00000400: 0000 0000 0000 9e47 0000 0000 0000 9e47
00000410: 0000 0000 0000 9e47 0000 0000 0000 9e47
00000420: 0000 0000 0000 9e47 0000 0000 0000 9e47
00000430: 0000 0000 0000 9e47 0000 0000 0000 9e47
00000440: 0000 0000 0000 9e47 0000 0000 0000 9e47
00000450: 0000 0000 0000 9e47 0000 0000 0000 9e47
00000460: 0000 0000 0000 9e47 0000 0000 0000 9e47
00000470: 0000 0000 0000 9e47 0000 0000 0000 9e47
00000480: 0000 0000 0000 9e47 0000 0000 0000 9e47
00000490: 0000 0000 0000 9e47 0000 0000 0000 9e47
000004a0: 0000 0000 0000 9e47 0000 0000 0000 9e47
000004b0: 0000 0000 0000 9e47 0000 0000 0000 9e47
000004c0: 0000 0000 0000 9e47 0000 0000 0000 9e47
000004d0: 0000 0000 0000 9e47 0000 0000 0000 9e47
000004e0: 0000 0000 0000 9e47 0000 0000 0000 9e47
000004f0: 0000 0000 0000 9e47 0000 0000 0000 9e47
00000500: 0000 0000 0000 9e47 0000 0000 0000 9e47
00000510: 0000 0000 0000 9e47 0000 0000 0000 9e47
00000520: 0000 0000 0000 9e47 0000 0000 0000 9e47
00000530: 0000 0000 0000 9e47 0000 0000 0000 9e47
00000540: 0000 0000 0000 9e47 0000 0000 0000 9e47
00000550: 0000 0000 0000 9e47 0000 0000 0000 9e47
00000560: 0000 0000 0000 9e47 0000 0000 0000 9e47
00000570: 0000 0000 0000 9e47 0000 0000 0000 9e47
00000580: 0000 0000 0000 9e47 0000 0000 0000 9e47
00000590: 0000 0000 0000 9e47 0000 0000 0000 9e47
000005a0: 0000 0000 0000 9e47 0000 0000 0000 9e47
000005b0: 0000 0000 0000 9e47 0000 0000 0000 9e47
000005c0: 0000 0000 0000 9e47 0000 0000 0000 9e47
000005d0: 0000 0000 0000 9e47 0000 0000 0000 9e47
000005e0: 0000 0000 0000 9e47 0000 0000 0000 9e47
000005f0: 0000 0000 0000 9e47 0000 0000 0000 9e47
00000600: 0000 0000 0000 9e47 0000 0000 0000 9e47
00000610: 0000 0000 0000 9e47 0000 0000 0000 9e47
00000620: 0000 0000 0000 9e47 0000 0000 0000 9e47
00000630: 0000 0000 0000 9e47 0000 0000 0000 9e47
00000640: 0000 0000 0000 9e47 0000 0000 0000 9e47
00000650: 0000 0000 0000 9e47 0000 0000 0000 9e47
00000660: 0000 0000 0000 9e47 0000 0000 0000 9e47
00000670: 0000 0000 0000 9e47 0000 0000 0000 9e47
00000680: 0000 0000 0000 9e47 0000 0000 0000 9e47
00000690: 0000 0000 0000 9e47 0000 0000 0000 9e47
000006a0: 0000 0000 0000 9e47 0000 0000 0000 9e47
000006b0: 0000 0000 0000 9e47 0000 0000 0000 9e47
000006c0: 0000 0000 0000 9e47 0000 0000 0000 9e47
000006d0: 0000 0000 0000 9e47 0000 0000 0000 9e47
000006e0: 0000 0000 0000 9e47 0000 0000 0000 9e47
000006f0: 0000 0000 0000 9e47 0000 0000 0000 9e47
00000700: 0000 0000 0000 9e47 0000 0000 0000 9e47
00000710: 0000 0000 0000 9e47 0000 0000 0000 9e47
00000720: 0000 0000 0000 9e47 0000 0000 0000 9e47
00000730: 0000 0000 0000 9e47 0000 0000 0000 9e47
00000740: 0000 0000 0000 9e47 0000 0000 0000 9e47
00000750: 0000 0000 0000 9e47 0000 0000 0000 9e47
00000760: 0000 0000 0000 9e47 0000 0000 0000 9e47
00000770: 0000 0000 0000 9e47 0000 0000 0000 9e47
00000780: 0000 0000 0000 9e47 0000 0000 0000 9e47
00000790: 0000 0000 0000 9e47 0000 0000 0000 9e47
000007a0: 0000 0000 0000 9e47 0000 0000 0000 9e47
000007b0: 0000 0000 0000 9e47 0000 0000 0000 9e47
000007c0: 0000 0000 0000 9e47 0000 0000 0000 9e47
000007d0: 0000 0000 0000 9e47 0000 0000 0000 9e47
000007e0: 0000 0000 0000 9e47 0000 0000 0000 9e47
000007f0: 0000 0000 0000 9e47 0000 0000 0000 9e47
9.969209968386869e+36 9.969209968386869e+36 9.969209968386869e+36 9.969209968386869e+36 9.969209968386869e+36 9.969209968386869e+36 9.969209968386869e+36 9.969209968386869e+36
9.969209968386869e+36 9.969209968386869e+36 9.969209968386869e+36 9.969209968386869e+36 9.969209968386869e+36 9.969209968386869e+36 9.969209968386869e+36 9.969209968386869e+36
9.969209968386869e+36 9.969209968386869e+36 9.969209968386869e+36 9.969209968386869e+36 9.969209968386869e+36 9.969209968386869e+36 9.969209968386869e+36 9.969209968386869e+36
9.969209968386869e+36 9.969209968386869e+36 9.969209968386869e+36 9.969209968386869e+36 9.969209968386869e+36 9.969209968386869e+36 9.969209968386869e+36 9.969209968386869e+36
9.969209968386869e+36 9.969209968386869e+36 9.969209968386869e+36 9.969209968386869e+36 9.969209968386869e+36 9.969209968386869e+36 9.969209968386869e+36 9.969209968386869e+36
9.969209968386869e+36 9.969209968386869e+36 9.969209968386869e+36 9.969209968386869e+36 9.969209968386869e+36 9.969209968386869e+36 9.969209968386869e+36 9.969209968386869e+36
9.969209968386869e+36 9.969209968386869e+36 9.969209968386869e+36 9.969209968386869e+36 9.969209968386869e+36 9.969209968386869e+36 9.969209968386869e+36 9.969209968386869e+36
9.969209968386869e+36 9.969209968386869e+36 9.969209968386869e+36 9.969209968386869e+36 9.969209968386869e+36 9.969209968386869e+36 9.969209968386869e+36 9.969209968386869e+36
9.969209968386869e+36 9.969209968386869e+36 9.969209968386869e+36 9.969209968386869e+36 9.969209968386869e+36 9.969209968386869e+36 9.969209968386869e+36 9.969209968386869e+36
9.969209968386869e+36 9.969209968386869e+36 9.969209968386869e+36 9.969209968386869e+36 9.969209968386869e+36 9.969209968386869e+36 9.969209968386869e+36 9.969209968386869e+36
9.969209968386869e+36 9.969209968386869e+36 9.969209968386869e+36 9.969209968386869e+36 9.969209968386869e+36 9.969209968386869e+36 9.969209968386869e+36 9.969209968386869e+36
9.969209968386869e+36 9.969209968386869e+36 9.969209968386869e+36 9.969209968386869e+36 9.969209968386869e+36 9.969209968386869e+36 9.969209968386869e+36 9.969209968386869e+36
9.969209968386869e+36 9.969209968386869e+36 9.969209968386869e+36 9.969209968386869e+36 9.969209968386869e+36 9.969209968386869e+36 9.969209968386869e+36 9.969209968386869e+36
9.969209968386869e+36 9.969209968386869e+36 9.969209968386869e+36 9.969209968386869e+36 9.969209968386869e+36 9.969209968386869e+36 9.969209968386869e+36 9.969209968386869e+36
9.969209968386869e+36 9.969209968386869e+36 9.969209968386869e+36 9.969209968386869e+36 9.969209968386869e+36 9.969209968386869e+36 9.969209968386869e+36 9.969209968386869e+36
9.969209968386869e+36 9.969209968386869e+36 9.969209968386869e+36 9.969209968386869e+36 9.969209968386869e+36 9.969209968386869e+36 9.969209968386869e+36 9.969209968386869e+36
9.969209968386869e+36 9.969209968386869e+36 9.969209968386869e+36 9.969209968386869e+36 9.969209968386869e+36 9.969209968386869e+36 9.969209968386869e+36 9.969209968386869e+36
9.969209968386869e+36 9.969209968386869e+36 9.969209968386869e+36 9.969209968386869e+36 9.969209968386869e+36 9.969209968386869e+36 9.969209968386869e+36 9.969209968386869e+36
9.969209968386869e+36 9.969209968386869e+36 9.969209968386869e+36 9.969209968386869e+36 9.969209968386869e+36 9.969209968386869e+36 9.969209968386869e+36 9.969209968386869e+36
9.969209968386869e+36 9.969209968386869e+36 9.969209968386869e+36 9.969209968386869e+36 9.969209968386869e+36 9.969209968386869e+36 9.969209968386869e+36 9.969209968386869e+36
9.969209968386869e+36 9.969209968386869e+36 9.969209968386869e+36 9.969209968386869e+36 9.969209968386869e+36 9.969209968386869e+36 9.969209968386869e+36 9.969209968386869e+36
9.969209968386869e+36 9.969209968386869e+36 9.969209968386869e+36 9.969209968386869e+36 9.969209968386869e+36 9.969209968386869e+36 9.969209968386869e+36 9.969209968386869e+36
9.969209968386869e+36 9.969209968386869e+36 9.969209968386869e+36 9.969209968386869e+36 9.969209968386869e+36 9.969209968386869e+36 9.969209968386869e+36 9.969209968386869e+36
9.969209968386869e+36 9.969209968386869e+36 9.969209968386869e+36 9.969209968386869e+36 9.969209968386869e+36 9.969209968386869e+36 9.969209968386869e+36 9.969209968386869e+36
9.969209968386869e+36 9.969209968386869e+36 9.969209968386869e+36 9.969209968386869e+36 9.969209968386869e+36 9.969209968386869e+36 9.969209968386869e+36 9.969209968386869e+36
9.969209968386869e+36 9.969209968386869e+36 9.969209968386869e+36 9.969209968386869e+36 9.969209968386869e+36 9.969209968386869e+36 9.969209968386869e+36 9.969209968386869e+36
9.969209968386869e+36 9.969209968386869e+36 9.969209968386869e+36 9.969209968386869e+36 9.969209968386869e+36 9.969209968386869e+36 9.969209968386869e+36 9.969209968386869e+36
9.969209968386869e+36 9.969209968386869e+36 9.969209968386869e+36 9.969209968386869e+36 9.969209968386869e+36 9.969209968386869e+36 9.969209968386869e+36 9.969209968386869e+36
9.969209968386869e+36 9.969209968386869e+36 9.969209968386869e+36 9.969209968386869e+36 9.969209968386869e+36 9.969209968386869e+36 9.969209968386869e+36 9.969209968386869e+36
9.969209968386869e+36 9.969209968386869e+36 9.969209968386869e+36 9.969209968386869e+36 9.969209968386869e+36 9.969209968386869e+36 9.969209968386869e+36 9.969209968386869e+36
9.969209968386869e+36 9.969209968386869e+36 9.969209968386869e+36 9.969209968386869e+36 9.969209968386869e+36 9.969209968386869e+36 9.969209968386869e+36 9.969209968386869e+36
9.969209968386869e+36 9.969209968386869e+36 9.969209968386869e+36 9.969209968386869e+36 9.969209968386869e+36 9.969209968386869e+36 9.969209968386869e+36 9.969209968386869e+36

lat f4 [32, 32]
00000000: bc65 9fc2 6d51 9fc2 023d 9fc2 7c28 9fc2
00000010: db13 9fc2 20ff 9ec2 4dea 9ec2 62d5 9ec2
00000020: 5fc0 9ec2 45ab 9ec2 1496 9ec2 ce80 9ec2
00000030: 716b 9ec2 ff55 9ec2 7840 9ec2 dc2a 9ec2
00000040: 2a15 9ec2 64ff 9dc2 89e9 9dc2 9ad3 9dc2
00000050: 95bd 9dc2 7ca7 9dc2 4d91 9dc2 097b 9dc2
00000060: b064 9dc2 424e 9dc2 bd37 9dc2 2321 9dc2
00000070: 710a 9dc2 a9f3 9cc2 cadc 9cc2 d4c5 9cc2
00000080: a27a 9fc2 3d66 9fc2 bb51 9fc2 1f3d 9fc2
00000090: 6828 9fc2 9713 9fc2 aefe 9ec2 ade9 9ec2
000000a0: 95d4 9ec2 65bf 9ec2 20aa 9ec2 c494 9ec2
000000b0: 537f 9ec2 cc69 9ec2 3054 9ec2 803e 9ec2
000000c0: ba28 9ec2 e012 9ec2 f1fc 9dc2 eee6 9dc2
000000d0: d6d0 9dc2 a9ba 9dc2 67a4 9dc2 108e 9dc2
000000e0: a477 9dc2 2261 9dc2 8b4a 9dc2 de33 9dc2
000000f0: 1a1d 9dc2 4006 9dc2 4fef 9cc2 46d8 9cc2
00000100: 7f8f 9fc2 037b 9fc2 6b66 9fc2 b851 9fc2
00000110: ea3c 9fc2 0428 9fc2 0513 9fc2 eefd 9ec2
00000120: c0e8 9ec2 7bd3 9ec2 20be 9ec2 b0a8 9ec2
00000130: 2993 9ec2 8e7d 9ec2 de67 9ec2 1952 9ec2
00000140: 3f3c 9ec2 5026 9ec2 4e10 9ec2 36fa 9dc2
00000150: 0ae4 9dc2 cacd 9dc2 75b7 9dc2 0ba1 9dc2
00000160: 8b8a 9dc2 f773 9dc2 4d5d 9dc2 8d46 9dc2
00000170: b72f 9dc2 ca18 9dc2 c601 9dc2 abea 9cc2
00000180: 53a4 9fc2 c08f 9fc2 117b 9fc2 4766 9fc2
00000190: 6451 9fc2 673c 9fc2 5227 9fc2 2512 9fc2
000001a0: e1fc 9ec2 87e7 9ec2 17d2 9ec2 91bc 9ec2
000001b0: f5a6 9ec2 4591 9ec2 807b 9ec2 a665 9ec2
000001c0: b84f 9ec2 b639 9ec2 9f23 9ec2 740d 9ec2
000001d0: 34f7 9dc2 e0e0 9dc2 77ca 9dc2 fab3 9dc2
000001e0: 679d 9dc2 c086 9dc2 0370 9dc2 3059 9dc2
000001f0: 4742 9dc2 482b 9dc2 3214 9dc2 05fd 9cc2
00000200: 17b9 9fc2 6da4 9fc2 a78f 9fc2 c77a 9fc2
00000210: cc65 9fc2 b950 9fc2 8e3b 9fc2 4b26 9fc2
00000220: f210 9fc2 82fb 9ec2 fce5 9ec2 60d0 9ec2
00000230: b0ba 9ec2 eba4 9ec2 118f 9ec2 2279 9ec2
00000240: 2063 9ec2 094d 9ec2 de36 9ec2 9f20 9ec2
00000250: 4b0a 9ec2 e3f3 9dc2 67dd 9dc2 d6c6 9dc2
00000260: 31b0 9dc2 7699 9dc2 a682 9dc2 c06b 9dc2
00000270: c554 9dc2 b33d 9dc2 8b26 9dc2 4b0f 9dc2
00000280: dacd 9fc2 18b9 9fc2 3ba4 9fc2 448f 9fc2
00000290: 337a 9fc2 0965 9fc2 c84f 9fc2 6f3a 9fc2
000002a0: ff24 9fc2 790f 9fc2 def9 9ec2 2de4 9ec2
000002b0: 67ce 9ec2 8db8 9ec2 9ea2 9ec2 9b8c 9ec2
000002c0: 8476 9ec2 5860 9ec2 194a 9ec2 c633 9ec2
000002d0: 5e1d 9ec2 e306 9ec2 53f0 9dc2 aed9 9dc2
000002e0: f5c2 9dc2 27ac 9dc2 4495 9dc2 4c7e 9dc2
000002f0: 3e67 9dc2 1950 9dc2 de38 9dc2 8c21 9dc2
00000300: 90e2 9fc2 b8cd 9fc2 c3b8 9fc2 b5a3 9fc2
00000310: 8d8e 9fc2 4d79 9fc2 f563 9fc2 864e 9fc2
00000320: 0039 9fc2 6423 9fc2 b30d 9fc2 ecf7 9ec2
00000330: 11e2 9ec2 22cc 9ec2 1eb6 9ec2 06a0 9ec2
00000340: da89 9ec2 9a73 9ec2 465d 9ec2 de46 9ec2
00000350: 6330 9ec2 d319 9ec2 3003 9ec2 78ec 9dc2
00000360: abd5 9dc2 cabe 9dc2 d4a7 9dc2 c890 9dc2
00000370: a779 9dc2 7062 9dc2 224b 9dc2 be33 9dc2
00000380: 3ef7 9fc2 4ee2 9fc2 42cd 9fc2 1cb8 9fc2
00000390: dea2 9fc2 868d 9fc2 1878 9fc2 9262 9fc2
000003a0: f64c 9fc2 4437 9fc2 7d21 9fc2 a10b 9fc2
000003b0: b0f5 9ec2 abdf 9ec2 92c9 9ec2 65b3 9ec2
000003c0: 249d 9ec2 d086 9ec2 6770 9ec2 eb59 9ec2
000003d0: 5c43 9ec2 b82c 9ec2 0116 9ec2 35ff 9dc2
000003e0: 55e8 9dc2 60d1 9dc2 57ba 9dc2 38a3 9dc2
000003f0: 048c 9dc2 ba74 9dc2 5a5d 9dc2 e345 9dc2
-79.6987 -79.659035 -79.619156 -79.57907 -79.53878 -79.49829 -79.45762 -79.41676
-79.375725 -79.33451 -79.29312 -79.25157 -79.20985 -79.16796 -79.125916 -79.08371
-79.041336 -78.99881 -78.95612 -78.913284 -78.87028 -78.82712 -78.78379 -78.7403
-78.696655 -78.65285 -78.608864 -78.56472 -78.52039 -78.4759 -78.43123 -78.38638
-79.73952 -79.699684 -79.65963 -79.61938 -79.57892 -79.53826 -79.49742 -79.4564
-79.4152 -79.37382 -79.332275 -79.29056 -79.24868 -79.206635 -79.16443 -79.12207
-79.079544 -79.036865 -78.994026 -78.951035 -78.90788 -78.86457 -78.8211 -78.777466
-78.73367 -78.68971 -78.64559 -78.6013 -78.55684 -78.51221 -78.4674 -78.42241
-79.780266 -79.74026 -79.700035 -79.65961 -79.61897 -79.578156 -79.53715 -79.49596
-79.45459 -79.41305 -79.37134 -79.32947 -79.28742 -79.245224 -79.202866 -79.16035
-79.11767 -79.07483 -79.031845 -78.98869 -78.94539 -78.90193 -78.858315 -78.81454
-78.77059 -78.726494 -78.68223 -78.637794 -78.59319 -78.548416 -78.50346 -78.458336
-79.820946 -79.78076 -79.740364 -79.69976 -79.658966 -79.61797 -79.5768 -79.53544
-79.493904 -79.4522 -79.41033 -79.36829 -79.32609 -79.28373 -79.24121 -79.19853
-79.1557 -79.11272 -79.06957 -79.026276 -78.98282 -78.93921 -78.89544 -78.85152
-78.80743 -78.76318 -78.71877 -78.674194 -78.62945 -78.58453 -78.539444 -78.49418
-79.8615 -79.821144 -79.78057 -79.7398 -79.69882 -79.65766 -79.61632 -79.57479
-79.5331 -79.49123 -79.44919 -79.40698 -79.364624 -79.322105 -79.27943 -79.23659
-79.1936 -79.15046 -79.10716 -79.06371 -79.0201 -78.97634 -78.93243 -78.88835
-78.844124 -78.79973 -78.75517 -78.71045 -78.665565 -78.62051 -78.57528 -78.52987
-79.902054 -79.86151 -79.82076 -79.779816 -79.73867 -79.697334 -79.65582 -79.61413
-79.57226 -79.53022 -79.48802 -79.445656 -79.40313 -79.36045 -79.31761 -79.27462
-79.231476 -79.18817 -79.14472 -79.10112 -79.05736 -79.01345 -78.96938 -78.925156
-78.880775 -78.836235 -78.791534 -78.74667 -78.701645 -78.65644 -78.61107 -78.56552
-79.942505 -79.901794 -79.86086 -79.81974 -79.77842 -79.736916 -79.69523 -79.653366
-79.61133 -79.56912 -79.52676 -79.48422 -79.441536 -79.3987 -79.3557 -79.312546
-79.26924 -79.225784 -79.182175 -79.13841 -79.094505 -79.05044 -79.006226 -78.96185
-78.91732 -78.872635 -78.82779 -78.782776 -78.7376 -78.69226 -78.64674 -78.60106
-79.982895 -79.942 -79.900894 -79.85959 -79.8181 -79.77641 -79.73456 -79.69252
-79.650314 -79.60794 -79.56541 -79.52271 -79.47986 -79.43685 -79.39369 -79.35038
-79.306915 -79.263306 -79.219536 -79.17562 -79.13156 -79.08734 -79.04298 -78.99845
-78.95377 -78.908936 -78.863945 -78.81879 -78.77347 -78.72798 -78.68233 -78.6365

lon f4 [32, 32]
00000000: 1117 9441 7a06 9141 8c03 8e41 e10d 8b41
00000010: 1525 8841 c648 8541 9a78 8241 6968 7f41
00000020: 7ff6 7941 cd9a 7441 b054 6f41 8b23 6a41
00000030: c506 6541 cbfd 5f41 0d08 5b41 0025 5641
00000040: 2054 5141 ea94 4c41 e0e6 4741 8849 4341
00000050: 6dbc 3e41 1c3f 3a41 26d1 3541 1f72 3141
00000060: 9f21 2d41 42df 2841 a4aa 2441 6683 2041
00000070: 2d69 1c41 9e5b 1841 635a 1441 2665 1041
00000080: b6d8 9241 30c6 8f41 6ac1 8c41 fcc9 8941
00000090: 81df 8641 9901 8441 e52f 8141 17d4 7c41
000000a0: 695f 7741 1601 7241 79b8 6c41 f584 6741
000000b0: ee65 6241 d15a 5d41 0d63 5841 177e 5341
000000c0: 69ab 4e41 7eea 4941 d93a 4541 ff9b 4041
000000d0: 790d 3c41 d48e 3741 9f1f 3341 70bf 2e41
000000e0: dc6d 2a41 7f2a 2641 f4f4 2141 ddcc 1d41
000000f0: ddb1 1941 98a3 1541 b8a1 1141 e8ab 0d41
00000100: 0098 9141 8c83 8e41 ee7c 8b41 be83 8841
00000110: 9797 8541 16b8 8241 bcc9 7f41 253b 7a41
00000120: b7c3 7441 c762 6f41 af17 6a41 d0e1 6441
00000130: 8ec0 5f41 54b3 5a41 90b9 5541 b7d2 5041
00000140: 40fe 4b41 a73b 4741 6d8a 4241 17ea 3d41
00000150: 2d5a 3941 3ada 3441 ce69 3041 7d08 2c41
00000160: ddb5 2741 8671 2341 163b 1f41 2d12 1b41
00000170: 6cf6 1641 7ae7 1241 fde4 0e41 a0ee 0a41
00000180: 8e54 9041 2d3e 8d41 ba35 8a41 cb3a 8741
00000190: f94c 8441 e26b 8141 4f2e 7d41 d99c 7741
000001a0: b022 7241 29bf 6c41 9c71 6741 6839 6241
000001b0: f115 5d41 a006 5841 e30a 5341 2c22 4e41
000001c0: f34b 4941 b487 4441 ecd4 3f41 2133 3b41
000001d0: d9a1 3641 a020 3241 04af 2d41 984c 2941
000001e0: f2f8 2441 aab3 2041 5d7c 1c41 a852 1841
000001f0: 2f36 1441 9626 1041 8323 0c41 a22c 0841
00000200: d70e 8f41 8cf6 8b41 46ec 8841 99ef 8541
00000210: 1f00 8341 761d 8041 778e 7a41 28fa 7441
00000220: 4c7d 6f41 3317 6a41 37c7 6441 b68c 5f41
00000230: 1067 5a41 b055 5541 0158 5041 756d 4b41
00000240: 8295 4641 a2cf 4141 551b 3d41 1c78 3841
00000250: 7ee5 3341 0763 2f41 43f0 2a41 c58c 2641
00000260: 2138 2241 f0f1 1d41 cdb9 1941 568f 1541
00000270: 2c72 1141 f461 0d41 555e 0941 f766 0541
00000280: 4ec6 8d41 1aac 8a41 01a0 8741 98a1 8441
00000290: 78b0 8141 7798 7d41 07e9 7741 e251 7241
000002a0: 55d2 6c41 b069 6741 4917 6241 7eda 5c41
000002b0: afb2 5741 449f 5241 a89f 4d41 4bb3 4841
000002c0: a4d9 4341 2a12 3f41 5c5c 3a41 bcb7 3541
000002d0: cf23 3141 1fa0 2c41 3a2c 2841 b0c7 2341
000002e0: 1572 1f41 022b 1b41 0ff2 1641 dcc6 1241
000002f0: 0aa9 0e41 3a98 0a41 1494 0641 419c 0241
00000300: 717b 8c41 555f 8941 6b51 8641 4851 8341
00000310: 835e 8041 6ff1 7a41 083f 7541 13a5 6f41
00000320: db22 6a41 afb7 6441 e462 5f41 d623 5a41
00000330: e4f9 5441 75e4 4f41 f3e2 4a41 cdf4 4541
00000340: 7819 4141 6b50 3c41 2599 3741 25f3 3241
00000350: f15d 2e41 11d9 2941 1264 2541 84fe 2041
00000360: faa7 1c41 0c60 1841 5326 1441 6dfa 0f41
00000370: f9db 0b41 9aca 0741 f7c5 0341 6e9b ff40
00000380: fd2d 8b41 fa0f 8841 4100 8541 66fe 8141
00000390: fc13 7e41 4b45 7841 f18f 7241 31f3 6c41
000003a0: 536e 6741 a500 6241 7ba9 5c41 2f68 5741
000003b0: 213c 5241 b424 4d41 5221 4841 6931 4341
000003c0: 6d54 3e41 d589 3941 1cd1 3441 c329 3041
000003d0: 4e93 2b41 450d 2741 3497 2241 aa30 1e41
000003e0: 39d9 1941 7790 1541 ff55 1141 6d29 0d41
000003f0: 600a 0941 7af8 0441 60f3 0041 77f5 f940
18.511263 18.128162 17.751732 17.381777 17.018106 16.660534 16.308887 15.962991
15.62268 15.287793 14.958176 14.6336775 14.314153 13.999461 13.6894655 13.384033
13.083038 12.786356 12.493866 12.205452 11.921002 11.640408 11.363562 11.090362
10.820708 10.554506 10.29166 10.03208 9.775678 9.5223675 9.272067 9.024694
18.355816 17.971771 17.59444 17.223625 16.859133 16.50078 16.148386 15.80178
15.4607935 15.125265 14.795037 14.46996 14.149885 13.834672 13.524182 13.218284
12.916848 12.619749 12.326867 12.038085 11.753289 11.47237 11.19522 10.921738
10.651821 10.385375 10.122303 9.862515 9.605924 9.35244 9.101982 8.854469
18.199219 17.814232 17.436 17.064327 16.699018 16.339886 15.986752 15.63944
15.297782 14.961616 14.630782 14.30513 13.98451 13.668781 13.357803 13.051444
12.749573 12.452064 12.158795 11.869651 11.584516 11.303278 11.025831 10.752072
10.4819 10.215216 9.951925 9.691937 9.435162 9.181513 8.930905 8.683258
18.041286 17.65536 17.276234 16.903708 16.537584 16.177677 15.823806 15.475793
15.133469 14.79667 14.465237 14.139015 13.817857 13.501617 13.190158 12.883343
12.581042 12.283131 11.989483 11.699983 11.414514 11.132965 10.855228 10.5812
10.310778 10.043863 9.780362 9.52018 9.263228 9.00942 8.75867 8.510897
17.882246 17.495384 17.115368 16.741991 16.37506 16.014385 15.659781 15.311073
14.96809 14.630664 14.298636 13.971853 13.650162 13.33342 13.021485 12.714223
12.411501 12.113192 11.819173 11.529324 11.243528 10.961677 10.683658 10.409368
10.138703 9.871567 9.6078615 9.347494 9.090374 8.836414 8.58553 8.337638
17.721828 17.334034 16.953127 16.578903 16.211166 15.849723 15.494391 15.144991
14.801351 14.463303 14.130685 13.803343 13.481124 13.163883 12.851479 12.543773
12.240635 11.941935 11.647549 11.357357 11.071242 10.789092 10.5107975 10.236252
9.965352 9.698 9.434096 9.17355 8.916269 8.662165 8.411152 8.163148
17.560274 17.171549 16.789755 16.414688 16.046148 15.683944 15.3278885 14.977801
14.63351 14.294845 13.961643 13.633749 13.311008 12.993276 12.680408 12.372266
12.068718 11.769633 11.474889 11.184361 10.897935 10.615495 10.336931 10.062138
9.79101 9.523449 9.2593565 8.998639 8.741204 8.486963 8.235831 7.9877234
17.397455 17.007801 16.625124 16.249218 15.879879 15.516917 15.160142 14.809373
14.464435 14.125157 13.791377 13.462935 13.13968 12.821461 12.508135 12.199563
11.895612 11.59615 11.301052 11.010196 10.723463 10.44074 10.161915 9.886881
9.615533 9.34777 9.083495 8.822614 8.565033 8.310663 8.059418 7.811214

qa f4 [32, 32]
00000000: 0000 0000 0000 0000 0000 0000 0000 0000
00000010: 0000 0000 0000 0000 0000 0000 0000 0000
00000020: 0000 0000 0000 0000 0000 0000 0000 0000
00000030: 0000 0000 0000 0000 0000 0000 0000 0000
00000040: 0000 0000 0000 0000 0000 0000 0000 0000
00000050: 0000 0000 0000 0000 0000 0000 0000 0000
00000060: 0000 0000 0000 0000 0000 0000 0000 0000
00000070: 0000 0000 0000 0000 0000 0000 0000 0000
00000080: 0000 0000 0000 0000 0000 0000 0000 0000
00000090: 0000 0000 0000 0000 0000 0000 0000 0000
000000a0: 0000 0000 0000 0000 0000 0000 0000 0000
000000b0: 0000 0000 0000 0000 0000 0000 0000 0000
000000c0: 0000 0000 0000 0000 0000 0000 0000 0000
000000d0: 0000 0000 0000 0000 0000 0000 0000 0000
000000e0: 0000 0000 0000 0000 0000 0000 0000 0000
000000f0: 0000 0000 0000 0000 0000 0000 0000 0000
00000100: 0000 0000 0000 0000 0000 0000 0000 0000
00000110: 0000 0000 0000 0000 0000 0000 0000 0000
00000120: 0000 0000 0000 0000 0000 0000 0000 0000
00000130: 0000 0000 0000 0000 0000 0000 0000 0000
00000140: 0000 0000 0000 0000 0000 0000 0000 0000
00000150: 0000 0000 0000 0000 0000 0000 0000 0000
00000160: 0000 0000 0000 0000 0000 0000 0000 0000
00000170: 0000 0000 0000 0000 0000 0000 0000 0000
00000180: 0000 0000 0000 0000 0000 0000 0000 0000
00000190: 0000 0000 0000 0000 0000 0000 0000 0000
000001a0: 0000 0000 0000 0000 0000 0000 0000 0000
000001b0: 0000 0000 0000 0000 0000 0000 0000 0000
000001c0: 0000 0000 0000 0000 0000 0000 0000 0000
000001d0: 0000 0000 0000 0000 0000 0000 0000 0000
000001e0: 0000 0000 0000 0000 0000 0000 0000 0000
000001f0: 0000 0000 0000 0000 0000 0000 0000 0000
00000200: 0000 0000 0000 0000 0000 0000 0000 0000
00000210: 0000 0000 0000 0000 0000 0000 0000 0000
00000220: 0000 0000 0000 0000 0000 0000 0000 0000
00000230: 0000 0000 0000 0000 0000 0000 0000 0000
00000240: 0000 0000 0000 0000 0000 0000 0000 0000
00000250: 0000 0000 0000 0000 0000 0000 0000 0000
00000260: 0000 0000 0000 0000 0000 0000 0000 0000
00000270: 0000 0000 0000 0000 0000 0000 0000 0000
00000280: 0000 0000 0000 0000 0000 0000 0000 0000
00000290: 0000 0000 0000 0000 0000 0000 0000 0000
000002a0: 0000 0000 0000 0000 0000 0000 0000 0000
000002b0: 0000 0000 0000 0000 0000 0000 0000 0000
000002c0: 0000 0000 0000 0000 0000 0000 0000 0000
000002d0: 0000 0000 0000 0000 0000 0000 0000 0000
000002e0: 0000 0000 0000 0000 0000 0000 0000 0000
000002f0: 0000 0000 0000 0000 0000 0000 0000 0000
00000300: 0000 0000 0000 0000 0000 0000 0000 0000
00000310: 0000 0000 0000 0000 0000 0000 0000 0000
00000320: 0000 0000 0000 0000 0000 0000 0000 0000
00000330: 0000 0000 0000 0000 0000 0000 0000 0000
00000340: 0000 0000 0000 0000 0000 0000 0000 0000
00000350: 0000 0000 0000 0000 0000 0000 0000 0000
00000360: 0000 0000 0000 0000 0000 0000 0000 0000
00000370: 0000 0000 0000 0000 0000 0000 0000 0000
00000380: 0000 0000 0000 0000 0000 0000 0000 0000
00000390: 0000 0000 0000 0000 0000 0000 0000 0000
000003a0: 0000 0000 0000 0000 0000 0000 0000 0000
000003b0: 0000 0000 0000 0000 0000 0000 0000 0000
000003c0: 0000 0000 0000 0000 0000 0000 0000 0000
000003d0: 0000 0000 0000 0000 0000 0000 0000 0000
000003e0: 0000 0000 0000 0000 0000 0000 0000 0000
000003f0: 0000 0000 0000 0000 0000 0000 0000 0000
0.0 0.0 0.0 0.0 0.0 0.0 0.0 0.0
0.0 0.0 0.0 0.0 0.0 0.0 0.0 0.0
0.0 0.0 0.0 0.0 0.0 0.0 0.0 0.0
0.0 0.0 0.0 0.0 0.0 0.0 0.0 0.0
0.0 0.0 0.0 0.0 0.0 0.0 0.0 0.0
0.0 0.0 0.0 0.0 0.0 0.0 0.0 0.0
0.0 0.0 0.0 0.0 0.0 0.0 0.0 0.0
0.0 0.0 0.0 0.0 0.0 0.0 0.0 0.0
0.0 0.0 0.0 0.0 0.0 0.0 0.0 0.0
0.0 0.0 0.0 0.0 0.0 0.0 0.0 0.0
0.0 0.0 0.0 0.0 0.0 0.0 0.0 0.0
0.0 0.0 0.0 0.0 0.0 0.0 0.0 0.0
0.0 0.0 0.0 0.0 0.0 0.0 0.0 0.0
0.0 0.0 0.0 0.0 0.0 0.0 0.0 0.0
0.0 0.0 0.0 0.0 0.0 0.0 0.0 0.0
0.0 0.0 0.0 0.0 0.0 0.0 0.0 0.0
0.0 0.0 0.0 0.0 0.0 0.0 0.0 0.0
0.0 0.0 0.0 0.0 0.0 0.0 0.0 0.0
0.0 0.0 0.0 0.0 0.0 0.0 0.0 0.0
0.0 0.0 0.0 0.0 0.0 0.0 0.0 0.0
0.0 0.0 0.0 0.0 0.0 0.0 0.0 0.0
0.0 0.0 0.0 0.0 0.0 0.0 0.0 0.0
0.0 0.0 0.0 0.0 0.0 0.0 0.0 0.0
0.0 0.0 0.0 0.0 0.0 0.0 0.0 0.0
0.0 0.0 0.0 0.0 0.0 0.0 0.0 0.0
0.0 0.0 0.0 0.0 0.0 0.0 0.0 0.0
0.0 0.0 0.0 0.0 0.0 0.0 0.0 0.0
0.0 0.0 0.0 0.0 0.0 0.0 0.0 0.0
0.0 0.0 0.0 0.0 0.0 0.0 0.0 0.0
0.0 0.0 0.0 0.0 0.0 0.0 0.0 0.0
0.0 0.0 0.0 0.0 0.0 0.0 0.0 0.0
0.0 0.0 0.0 0.0 0.0 0.0 0.0 0.0
