data/dataset/negative/fdb62e62-dee5-4d1d-b31f-eae94ce9b5e4.npz (npz, 22479 bytes, 4 tensors)

methane f8 [32, 32]
000000 00 00 00 00 00 00 9e 47 00 00 00 00 00 00 9e 47
       9.969209968386869e+36 9.969209968386869e+36
000010 00 00 00 00 00 00 9e 47 00 00 00 00 00 00 9e 47
       9.969209968386869e+36 9.969209968386869e+36
000020 00 00 00 00 00 00 9e 47 00 00 00 00 00 00 9e 47
       9.969209968386869e+36 9.969209968386869e+36
000030 00 00 00 00 00 00 9e 47 00 00 00 00 00 00 9e 47
       9.969209968386869e+36 9.969209968386869e+36
000040 00 00 00 00 00 00 9e 47 00 00 00 00 00 00 9e 47
       9.969209968386869e+36 9.969209968386869e+36
000050 00 00 00 00 00 00 9e 47 00 00 00 00 00 00 9e 47
       9.969209968386869e+36 9.969209968386869e+36
000060 00 00 00 00 00 00 9e 47 00 00 00 00 00 00 9e 47
       9.969209968386869e+36 9.969209968386869e+36
000070 00 00 00 00 00 00 9e 47 00 00 00 00 00 00 9e 47
       9.969209968386869e+36 9.969209968386869e+36
000080 00 00 00 00 00 00 9e 47 00 00 00 00 00 00 9e 47
       9.969209968386869e+36 9.969209968386869e+36
000090 00 00 00 00 00 00 9e 47 00 00 00 00 00 00 9e 47
       9.969209968386869e+36 9.969209968386869e+36
0000a0 00 00 00 00 00 00 9e 47 00 00 00 00 00 00 9e 47
       9.969209968386869e+36 9.969209968386869e+36
0000b0 00 00 00 00 00 00 9e 47 00 00 00 00 00 00 9e 47
       9.969209968386869e+36 9.969209968386869e+36
0000c0 00 00 00 00 00 00 9e 47 00 00 00 00 00 00 9e 47
       9.969209968386869e+36 9.969209968386869e+36
0000d0 00 00 00 00 00 00 9e 47 00 00 00 00 00 00 9e 47
       9.969209968386869e+36 9.969209968386869e+36
0000e0 00 00 00 00 00 00 9e 47 00 00 00 00 00 00 9e 47
       9.969209968386869e+36 9.969209968386869e+36
0000f0 00 00 00 00 00 00 9e 47 00 00 00 00 00 00 9e 47
       9.969209968386869e+36 9.969209968386869e+36
000100 00 00 00 00 00 00 9e 47 00 00 00 00 00 00 9e 47
       9.969209968386869e+36 9.969209968386869e+36
000110 00 00 00 00 00 00 9e 47 00 00 00 00 00 00 9e 47
       9.969209968386869e+36 9.969209968386869e+36
000120 00 00 00 00 00 00 9e 47 00 00 00 00 00 00 9e 47
       9.969209968386869e+36 9.969209968386869e+36
000130 00 00 00 00 00 00 9e 47 00 00 00 00 00 00 9e 47
       9.969209968386869e+36 9.969209968386869e+36
000140 00 00 00 00 00 00 9e 47 00 00 00 00 00 00 9e 47
       9.969209968386869e+36 9.969209968386869e+36
000150 00 00 00 00 00 00 9e 47 00 00 00 00 00 00 9e 47
       9.969209968386869e+36 9.969209968386869e+36
000160 00 00 00 00 00 00 9e 47 00 00 00 00 00 00 9e 47
       9.969209968386869e+36 9.969209968386869e+36
000170 00 00 00 00 00 00 9e 47 00 00 00 00 00 00 9e 47
       9.969209968386869e+36 9.969209968386869e+36
000180 00 00 00 00 00 00 9e 47 00 00 00 00 00 00 9e 47
       9.969209968386869e+36 9.969209968386869e+36
000190 00 00 00 00 00 00 9e 47 00 00 00 00 00 00 9e 47
       9.969209968386869e+36 9.969209968386869e+36
0001a0 00 00 00 00 00 00 9e 47 00 00 00 00 00 00 9e 47
       9.969209968386869e+36 9.969209968386869e+36
0001b0 00 00 00 00 00 00 9e 47 00 00 00 00 00 00 9e 47
       9.969209968386869e+36 9.969209968386869e+36
0001c0 00 00 00 00 00 00 9e 47 00 00 00 00 00 00 9e 47
       9.969209968386869e+36 9.969209968386869e+36
0001d0 00 00 00 00 00 00 9e 47 00 00 00 00 00 00 9e 47
       9.969209968386869e+36 9.969209968386869e+36
0001e0 00 00 00 00 00 00 9e 47 00 00 00 00 00 00 9e 47
       9.969209968386869e+36 9.969209968386869e+36
0001f0 00 00 00 00 00 00 9e 47 00 00 00 00 00 00 9e 47
       9.969209968386869e+36 9.969209968386869e+36
000200 00 00 00 00 00 00 9e 47 00 00 00 00 00 00 9e 47
       9.969209968386869e+36 9.969209968386869e+36
000210 00 00 00 00 00 00 9e 47 00 00 00 00 00 00 9e 47
       9.969209968386869e+36 9.969209968386869e+36
000220 00 00 00 00 00 00 9e 47 00 00 00 00 00 00 9e 47
       9.969209968386869e+36 9.969209968386869e+36
000230 00 00 00 00 00 00 9e 47 00 00 00 00 00 00 9e 47
       9.969209968386869e+36 9.969209968386869e+36
000240 00 00 00 00 00 00 9e 47 00 00 00 00 00 00 9e 47
       9.969209968386869e+36 9.969209968386869e+36
000250 00 00 00 00 00 00 9e 47 00 00 00 00 00 00 9e 47
       9.969209968386869e+36 9.969209968386869e+36
000260 00 00 00 00 00 00 9e 47 00 00 00 00 00 00 9e 47
       9.969209968386869e+36 9.969209968386869e+36
000270 00 00 00 00 00 00 9e 47 00 00 00 00 00 00 9e 47
       9.969209968386869e+36 9.969209968386869e+36
000280 00 00 00 00 00 00 9e 47 00 00 00 00 00 00 9e 47
       9.969209968386869e+36 9.969209968386869e+36
000290 00 00 00 00 00 00 9e 47 00 00 00 00 00 00 9e 47
       9.969209968386869e+36 9.969209968386869e+36
0002a0 00 00 00 00 00 00 9e 47 00 00 00 00 00 00 9e 47
       9.969209968386869e+36 9.969209968386869e+36
0002b0 00 00 00 00 00 00 9e 47 00 00 00 00 00 00 9e 47
       9.969209968386869e+36 9.969209968386869e+36
0002c0 00 00 00 00 00 00 9e 47 00 00 00 00 00 00 9e 47
       9.969209968386869e+36 9.969209968386869e+36
0002d0 00 00 00 00 00 00 9e 47 00 00 00 00 00 00 9e 47
       9.969209968386869e+36 9.969209968386869e+36
0002e0 00 00 00 00 00 00 9e 47 00 00 00 00 00 00 9e 47
       9.969209968386869e+36 9.969209968386869e+36
0002f0 00 00 00 00 00 00 9e 47 00 00 00 00 00 00 9e 47
       9.969209968386869e+36 9.969209968386869e+36
000300 00 00 00 00 00 00 9e 47 00 00 00 00 00 00 9e 47
       9.969209968386869e+36 9.969209968386869e+36
000310 00 00 00 00 00 00 9e 47 00 00 00 00 00 00 9e 47
       9.969209968386869e+36 9.969209968386869e+36
000320 00 00 00 00 00 00 9e 47 00 00 00 00 00 00 9e 47
       9.969209968386869e+36 9.969209968386869e+36
000330 00 00 00 00 00 00 9e 47 00 00 00 00 00 00 9e 47
       9.969209968386869e+36 9.969209968386869e+36
000340 00 00 00 00 00 00 9e 47 00 00 00 00 00 00 9e 47
       9.969209968386869e+36 9.969209968386869e+36
000350 00 00 00 00 00 00 9e 47 00 00 00 00 00 00 9e 47
       9.969209968386869e+36 9.969209968386869e+36
000360 00 00 00 00 00 00 9e 47 00 00 00 00 00 00 9e 47
       9.969209968386869e+36 9.969209968386869e+36
000370 00 00 00 00 00 00 9e 47 00 00 00 00 00 00 9e 47
       9.969209968386869e+36 9.969209968386869e+36
000380 00 00 00 00 00 00 9e 47 00 00 00 00 00 00 9e 47
       9.969209968386869e+36 9.969209968386869e+36
000390 00 00 00 00 00 00 9e 47 00 00 00 00 00 00 9e 47
       9.969209968386869e+36 9.969209968386869e+36
0003a0 00 00 00 00 00 00 9e 47 00 00 00 00 00 00 9e 47
       9.969209968386869e+36 9.969209968386869e+36
0003b0 00 00 00 00 00 00 9e 47 00 00 00 00 00 00 9e 47
       9.969209968386869e+36 9.969209968386869e+36
0003c0 00 00 00 00 00 00 9e 47 00 00 00 00 00 00 9e 47
       9.969209968386869e+36 9.969209968386869e+36
0003d0 00 00 00 00 00 00 9e 47 00 00 00 00 00 00 9e 47
       9.969209968386869e+36 9.969209968386869e+36
0003e0 00 00 00 00 00 00 9e 47 00 00 00 00 00 00 9e 47
       9.969209968386869e+36 9.969209968386869e+36
0003f0 00 00 00 00 00 00 9e 47 00 00 00 00 00 00 9e 47
       9.969209968386869e+36 9.969209968386869e+36
000400 00 00 00 00 00 00 9e 47 00 00 00 00 00 00 9e 47
       9.969209968386869e+36 9.969209968386869e+36
000410 00 00 00 00 00 00 9e 47 00 00 00 00 00 00 9e 47
       9.969209968386869e+36 9.969209968386869e+36
000420 00 00 00 00 00 00 9e 47 00 00 00 00 00 00 9e 47
       9.969209968386869e+36 9.969209968386869e+36
000430 00 00 00 00 00 00 9e 47 00 00 00 00 00 00 9e 47
       9.969209968386869e+36 9.969209968386869e+36
000440 00 00 00 00 00 00 9e 47 00 00 00 00 00 00 9e 47
       9.969209968386869e+36 9.969209968386869e+36
000450 00 00 00 00 00 00 9e 47 00 00 00 00 00 00 9e 47
       9.969209968386869e+36 9.969209968386869e+36
000460 00 00 00 00 00 00 9e 47 00 00 00 00 00 00 9e 47
       9.969209968386869e+36 9.969209968386869e+36
000470 00 00 00 00 00 00 9e 47 00 00 00 00 00 00 9e 47
       9.969209968386869e+36 9.969209968386869e+36
000480 00 00 00 00 00 00 9e 47 00 00 00 00 00 00 9e 47
       9.969209968386869e+36 9.969209968386869e+36
000490 00 00 00 00 00 00 9e 47 00 00 00 00 00 00 9e 47
       9.969209968386869e+36 9.969209968386869e+36
0004a0 00 00 00 00 00 00 9e 47 00 00 00 00 00 00 9e 47
       9.969209968386869e+36 9.969209968386869e+36
0004b0 00 00 00 00 00 00 9e 47 00 00 00 00 00 00 9e 47
       9.969209968386869e+36 9.969209968386869e+36
0004c0 00 00 00 00 00 00 9e 47 00 00 00 00 00 00 9e 47
       9.969209968386869e+36 9.969209968386869e+36
0004d0 00 00 00 00 00 00 9e 47 00 00 00 00 00 00 9e 47
       9.969209968386869e+36 9.969209968386869e+36
0004e0 00 00 00 00 00 00 9e 47 00 00 00 00 00 00 9e 47
       9.969209968386869e+36 9.969209968386869e+36
0004f0 00 00 00 00 00 00 9e 47 00 00 00 00 00 00 9e 47
       9.969209968386869e+36 9.969209968386869e+36
000500 00 00 00 00 00 00 9e 47 00 00 00 00 00 00 9e 47
       9.969209968386869e+36 9.969209968386869e+36
000510 00 00 00 00 00 00 9e 47 00 00 00 00 00 00 9e 47
       9.969209968386869e+36 9.969209968386869e+36
000520 00 00 00 00 00 00 9e 47 00 00 00 00 00 00 9e 47
       9.969209968386869e+36 9.969209968386869e+36
000530 00 00 00 00 00 00 9e 47 00 00 00 00 00 00 9e 47
       9.969209968386869e+36 9.969209968386869e+36
000540 00 00 00 00 00 00 9e 47 00 00 00 00 00 00 9e 47
       9.969209968386869e+36 9.969209968386869e+36
000550 00 00 00 00 00 00 9e 47 00 00 00 00 00 00 9e 47
       9.969209968386869e+36 9.969209968386869e+36
000560 00 00 00 00 00 00 9e 47 00 00 00 00 00 00 9e 47
       9.969209968386869e+36 9.969209968386869e+36
000570 00 00 00 00 00 00 9e 47 00 00 00 00 00 00 9e 47
       9.969209968386869e+36 9.969209968386869e+36
000580 00 00 00 00 00 00 9e 47 00 00 00 00 00 00 9e 47
       9.969209968386869e+36 9.969209968386869e+36
000590 00 00 00 00 00 00 9e 47 00 00 00 00 00 00 9e 47
       9.969209968386869e+36 9.969209968386869e+36
0005a0 00 00 00 00 00 00 9e 47 00 00 00 00 00 00 9e 47
       9.969209968386869e+36 9.969209968386869e+36
0005b0 00 00 00 00 00 00 9e 47 00 00 00 00 00 00 9e 47
       9.969209968386869e+36 9.969209968386869e+36
0005c0 00 00 00 00 00 00 9e 47 00 00 00 00 00 00 9e 47
       9.969209968386869e+36 9.969209968386869e+36
0005d0 00 00 00 00 00 00 9e 47 00 00 00 00 00 00 9e 47
       9.969209968386869e+36 9.969209968386869e+36
0005e0 00 00 00 00 00 00 9e 47 00 00 00 00 00 00 9e 47
       9.969209968386869e+36 9.969209968386869e+36
0005f0 00 00 00 00 00 00 9e 47 00 00 00 00 00 00 9e 47
       9.969209968386869e+36 9.969209968386869e+36
000600 00 00 00 00 00 00 9e 47 00 00 00 00 00 00 9e 47
       9.969209968386869e+36 9.969209968386869e+36
000610 00 00 00 00 00 00 9e 47 00 00 00 00 00 00 9e 47
       9.969209968386869e+36 9.969209968386869e+36
000620 00 00 00 00 00 00 9e 47 00 00 00 00 00 00 9e 47
       9.969209968386869e+36 9.969209968386869e+36
000630 00 00 00 00 00 00 9e 47 00 00 00 00 00 00 9e 47
       9.969209968386869e+36 9.969209968386869e+36
000640 00 00 00 00 00 00 9e 47 00 00 00 00 00 00 9e 47
       9.969209968386869e+36 9.969209968386869e+36
000650 00 00 00 00 00 00 9e 47 00 00 00 00 00 00 9e 47
       9.969209968386869e+36 9.969209968386869e+36
000660 00 00 00 00 00 00 9e 47 00 00 00 00 00 00 9e 47
       9.969209968386869e+36 9.969209968386869e+36
000670 00 00 00 00 00 00 9e 47 00 00 00 00 00 00 9e 47
       9.969209968386869e+36 9.969209968386869e+36
000680 00 00 00 00 00 00 9e 47 00 00 00 00 00 00 9e 47
       9.969209968386869e+36 9.969209968386869e+36
000690 00 00 00 00 00 00 9e 47 00 00 00 00 00 00 9e 47
       9.969209968386869e+36 9.969209968386869e+36
0006a0 00 00 00 00 00 00 9e 47 00 00 00 00 00 00 9e 47
       9.969209968386869e+36 9.969209968386869e+36
0006b0 00 00 00 00 00 00 9e 47 00 00 00 00 00 00 9e 47
       9.969209968386869e+36 9.969209968386869e+36
0006c0 00 00 00 00 00 00 9e 47 00 00 00 00 00 00 9e 47
       9.969209968386869e+36 9.969209968386869e+36
0006d0 00 00 00 00 00 00 9e 47 00 00 00 00 00 00 9e 47
       9.969209968386869e+36 9.969209968386869e+36
0006e0 00 00 00 00 00 00 9e 47 00 00 00 00 00 00 9e 47
       9.969209968386869e+36 9.969209968386869e+36
0006f0 00 00 00 00 00 00 9e 47 00 00 00 00 00 00 9e 47
       9.969209968386869e+36 9.969209968386869e+36
000700 00 00 00 00 00 00 9e 47 00 00 00 00 00 00 9e 47
       9.969209968386869e+36 9.969209968386869e+36
000710 00 00 00 00 00 00 9e 47 00 00 00 00 00 00 9e 47
       9.969209968386869e+36 9.969209968386869e+36
000720 00 00 00 00 00 00 9e 47 00 00 00 00 00 00 9e 47
       9.969209968386869e+36 9.969209968386869e+36
000730 00 00 00 00 00 00 9e 47 00 00 00 00 00 00 9e 47
       9.969209968386869e+36 9.969209968386869e+36
000740 00 00 00 00 00 00 9e 47 00 00 00 00 00 00 9e 47
       9.969209968386869e+36 9.969209968386869e+36
000750 00 00 00 00 00 00 9e 47 00 00 00 00 00 00 9e 47
       9.969209968386869e+36 9.969209968386869e+36
000760 00 00 00 00 00 00 9e 47 00 00 00 00 00 00 9e 47
       9.969209968386869e+36 9.969209968386869e+36
000770 00 00 00 00 00 00 9e 47 00 00 00 00 00 00 9e 47
       9.969209968386869e+36 9.969209968386869e+36
000780 00 00 00 00 00 00 9e 47 00 00 00 00 00 00 9e 47
       9.969209968386869e+36 9.969209968386869e+36
000790 00 00 00 00 00 00 9e 47 00 00 00 00 00 00 9e 47
       9.969209968386869e+36 9.969209968386869e+36
0007a0 00 00 00 00 00 00 9e 47 00 00 00 00 00 00 9e 47
       9.969209968386869e+36 9.969209968386869e+36
0007b0 00 00 00 00 00 00 9e 47 00 00 00 00 00 00 9e 47
       9.969209968386869e+36 9.969209968386869e+36
0007c0 00 00 00 00 00 00 9e 47 00 00 00 00 00 00 9e 47
       9.969209968386869e+36 9.969209968386869e+36
0007d0 00 00 00 00 00 00 9e 47 00 00 00 00 00 00 9e 47
       9.969209968386869e+36 9.969209968386869e+36
0007e0 00 00 00 00 00 00 9e 47 00 00 00 00 00 00 9e 47
       9.969209968386869e+36 9.969209968386869e+36
0007f0 00 00 00 00 00 00 9e 47 00 00 00 00 00 00 9e 47
       9.969209968386869e+36 9.969209968386869e+36

lat f4 [32, 32]
000000 c4 14 ad c2 d4 eb ac c2 66 c2 ac c2 97 98 ac c2
       -86.54056 -86.4606 -86.379684 -86.29803
000010 82 6e ac c2 3d 44 ac c2 da 19 ac c2 6a ef ab c2
       -86.215836 -86.13328 -86.05049 -85.967606
000020 fc c4 ab c2 9a 9a ab c2 4e 70 ab c2 22 46 ab c2
       -85.884735 -85.801956 -85.719345 -85.63698
000030 1c 1c ab c2 41 f2 aa c2 97 c8 aa c2 22 9f aa c2
       -85.5549 -85.47315 -85.39178 -85.31081
000040 e5 75 aa c2 e2 4c aa c2 1c 24 aa c2 94 fb a9 c2
       -85.23026 -85.15016 -85.070526 -84.99136
000050 4b d3 a9 c2 42 ab a9 c2 79 83 a9 c2 f1 5b a9 c2
       -84.91268 -84.83449 -84.75678 -84.67957
000060 a8 34 a9 c2 a0 0d a9 c2 d7 e6 a8 c2 4c c0 a8 c2
       -84.602844 -84.52661 -84.45086 -84.37558
000070 ff 99 a8 c2 f0 73 a8 c2 1c 4e a8 c2 83 28 a8 c2
       -84.30077 -84.22644 -84.15256 -84.079124
000080 93 25 ad c2 26 fc ac c2 3f d2 ac c2 fe a7 ac c2
       -86.57339 -86.49248 -86.41064 -86.32811
000090 7b 7d ac c2 cd 52 ac c2 07 28 ac c2 39 fd ab c2
       -86.24508 -86.16172 -86.07818 -85.994576
0000a0 70 d2 ab c2 b7 a7 ab c2 1a 7d ab c2 9f 52 ab c2
       -85.91101 -85.82757 -85.74434 -85.66137
0000b0 4e 28 ab c2 2c fe aa c2 3e d4 aa c2 88 aa aa c2
       -85.57872 -85.49643 -85.414536 -85.33307
0000c0 0d 81 aa c2 cf 57 aa c2 d0 2e aa c2 12 06 aa c2
       -85.25205 -85.1715 -85.09143 -85.011856
0000d0 95 dd a9 c2 5a b5 a9 c2 61 8d a9 c2 ab 65 a9 c2
       -84.93278 -84.8542 -84.77613 -84.69857
0000e0 36 3e a9 c2 03 17 a9 c2 11 f0 a8 c2 60 c9 a8 c2
       -84.621506 -84.544945 -84.46888 -84.39331
0000f0 ed a2 a8 c2 b9 7c a8 c2 c3 56 a8 c2 08 31 a8 c2
       -84.318214 -84.2436 -84.16946 -84.095764
000100 31 36 ad c2 45 0c ad c2 e6 e1 ac c2 31 b7 ac c2
       -86.60584 -86.523964 -86.44121 -86.357796
000110 40 8c ac c2 29 61 ac c2 ff 35 ac c2 d1 0a ac c2
       -86.273926 -86.189766 -86.10546 -86.021126
000120 ae df ab c2 9f b4 ab c2 b0 89 ab c2 e7 5e ab c2
       -85.936874 -85.852776 -85.76892 -85.685356
000130 4b 34 ab c2 e3 09 ab c2 b1 df aa c2 ba b5 aa c2
       -85.602135 -85.51931 -85.4369 -85.354935
000140 02 8c aa c2 89 62 aa c2 51 39 aa c2 5d 10 aa c2
       -85.27345 -85.19245 -85.111946 -85.03196
000150 ac e7 a9 c2 40 bf a9 c2 18 97 a9 c2 33 6f a9 c2
       -84.952484 -84.873535 -84.795105 -84.717186
000160 93 47 a9 c2 36 20 a9 c2 1c f9 a8 c2 44 d2 a8 c2
       -84.63979 -84.56291 -84.48654 -84.410675
000170 ac ab a8 c2 54 85 a8 c2 3b 5f a8 c2 5f 39 a8 c2
       -84.3353 -84.26041 -84.186 -84.11205
000180 98 46 ad c2 2d 1c ad c2 53 f1 ac c2 2a c6 ac c2
       -86.63788 -86.55503 -86.47134 -86.38704
000190 ca 9a ac c2 4a 6f ac c2 bc 43 ac c2 2f 18 ac c2
       -86.30232 -86.21736 -86.13229 -86.04723
0001a0 b1 ec ab c2 4d c1 ab c2 0b 96 ab c2 f4 6a ab c2
       -85.96229 -85.87754 -85.79305 -85.70889
0001b0 0f 40 ab c2 5f 15 ab c2 ea ea aa c2 b3 c0 aa c2
       -85.625114 -85.54174 -85.45882 -85.376366
0001c0 bd 96 aa c2 09 6d aa c2 9a 43 aa c2 70 1a aa c2
       -85.29441 -85.21296 -85.132034 -85.051636
0001d0 8c f1 a9 c2 ef c8 a9 c2 98 a0 a9 c2 86 78 a9 c2
       -84.97177 -84.89245 -84.81366 -84.7354
0001e0 bb 50 a9 c2 35 29 a9 c2 f2 01 a9 c2 f4 da a8 c2
       -84.65768 -84.58048 -84.5038 -84.42764
0001f0 37 b4 a8 c2 bc 8d a8 c2 80 67 a8 c2 83 41 a8 c2
       -84.35198 -84.276825 -84.20215 -84.12795
000200 c8 56 ad c2 db 2b ad c2 87 00 ad c2 e9 d4 ac c2
       -86.669495 -86.585655 -86.50103 -86.41584
000210 1a a9 ac c2 30 7d ac c2 3e 51 ac c2 52 25 ac c2
       -86.33028 -86.24451 -86.158676 -86.07289
000220 79 f9 ab c2 bf cd ab c2 2b a2 ab c2 c7 76 ab c2
       -85.98725 -85.90185 -85.816734 -85.73199
000230 97 4b ab c2 a1 20 ab c2 e9 f5 aa c2 72 cb aa c2
       -85.64764 -85.56373 -85.48029 -85.397354
000240 3f a1 aa c2 51 77 aa c2 aa 4d aa c2 4b 24 aa c2
       -85.31493 -85.23304 -85.15169 -85.070885
000250 35 fb a9 c2 66 d2 a9 c2 e1 a9 a9 c2 a3 81 a9 c2
       -84.99064 -84.910934 -84.831795 -84.7532
000260 ad 59 a9 c2 fd 31 a9 c2 94 0a a9 c2 6f e3 a8 c2
       -84.67515 -84.59763 -84.52066 -84.44421
000270 8e bc a8 c2 f0 95 a8 c2 92 6f a8 c2 75 49 a8 c2
       -84.36827 -84.29285 -84.21791 -84.14347
000280 c7 66 ad c2 58 3b ad c2 88 0f ad c2 74 e3 ac c2
       -86.70074 -86.615906 -86.530334 -86.444244
000290 36 b7 ac c2 e2 8a ac c2 8b 5e ac c2 3f 32 ac c2
       -86.357834 -86.271255 -86.184654 -86.09814
0002a0 0c 06 ac c2 fc d9 ab c2 17 ae ab c2 65 82 ab c2
       -86.01181 -85.92575 -85.84002 -85.75468
0002b0 eb 56 ab c2 af 2b ab c2 b4 00 ab c2 fe d5 aa c2
       -85.66976 -85.58532 -85.50137 -85.41795
0002c0 8e ab aa c2 66 81 aa c2 88 57 aa c2 f5 2d aa c2
       -85.33507 -85.25273 -85.17096 -85.08976
0002d0 ab 04 aa c2 ad db a9 c2 f9 b2 a9 c2 8f 8a a9 c2
       -85.00912 -84.929054 -84.849556 -84.77062
0002e0 6e 62 a9 c2 96 3a a9 c2 06 13 a9 c2 bc eb a8 c2
       -84.692245 -84.614426 -84.537155 -84.46042
0002f0 b7 c4 a8 c2 f6 9d a8 c2 77 77 a8 c2 3a 51 a8 c2
       -84.38421 -84.30852 -84.23333 -84.158646
000300 9a 76 ad c2 a8 4a ad c2 5b 1e ad c2 d1 f1 ac c2
       -86.73164 -86.64581 -86.55929 -86.4723
000310 22 c5 ac c2 64 98 ac c2 a8 6b ac c2 fd 3e ac c2
       -86.385025 -86.29764 -86.210266 -86.123024
000320 6f 12 ac c2 09 e6 ab c2 d3 b9 ab c2 d3 8d ab c2
       -86.036 -85.94929 -85.86294 -85.777
000330 10 62 ab c2 8e 36 ab c2 51 0b ab c2 5b e0 aa c2
       -85.69153 -85.60655 -85.5221 -85.438194
000340 af b5 aa c2 4e 8b aa c2 39 61 aa c2 71 37 aa c2
       -85.35485 -85.27208 -85.18989 -85.108284
000350 f6 0d aa c2 c8 e4 a9 c2 e6 bb a9 c2 50 93 a9 c2
       -85.02727 -84.94684 -84.86699 -84.78772
000360 06 6b a9 c2 05 43 a9 c2 4e 1b a9 c2 df f3 a8 c2
       -84.70903 -84.6309 -84.55333 -84.47631
000370 b7 cc a8 c2 d3 a5 a8 c2 34 7f a8 c2 d7 58 a8 c2
       -84.39983 -84.323875 -84.24844 -84.173515
000380 24 86 ad c2 ad 59 ad c2 e3 2c ad c2 e3 ff ac c2
       -86.76199 -86.67515 -86.58767 -86.49978
000390 c4 d2 ac c2 9b a5 ac c2 7b 78 ac c2 71 4b ac c2
       -86.41165 -86.32345 -86.23531 -86.14735
0003a0 89 1e ac c2 cd f1 ab c2 46 c5 ab c2 f9 98 ab c2
       -86.05964 -85.97227 -85.8853 -85.798775
0003b0 ee 6c ab c2 26 41 ab c2 a7 15 ab c2 73 ea aa c2
       -85.71275 -85.62724 -85.54229 -85.45791
0003c0 8b bf aa c2 f1 94 aa c2 a6 6a aa c2 aa 40 aa c2
       -85.37411 -85.2909 -85.2083 -85.1263
0003d0 fe 16 aa c2 a1 ed a9 c2 92 c4 a9 c2 d1 9b a9 c2
       -85.04491 -84.96412 -84.88393 -84.80433
0003e0 5d 73 a9 c2 35 4b a9 c2 58 23 a9 c2 c4 fb a8 c2
       -84.72532 -84.64689 -84.56903 -84.49173
0003f0 78 d4 a8 c2 73 ad a8 c2 b4 86 a8 c2 38 60 a8 c2
       -84.41498 -84.33877 -84.26309 -84.18793

lon f4 [32, 32]
000000 e4 85 99 42 f8 72 96 42 8f 92 93 42 ca e0 90 42
       76.761505 75.22455 73.78625 72.43904
000010 0f 5a 8e 42 0a fb 8b 42 a8 c0 89 42 19 a8 87 42
       71.175896 69.99031 68.87628 67.828316
000020 c6 ae 85 42 51 d2 83 42 90 10 82 42 87 67 80 42
       66.841354 65.910774 65.03235 64.2022
000030 d1 aa 7d 42 17 b1 7a 42 d9 de 77 42 51 31 75 42
       63.416813 62.67294 61.967625 61.29816
000040 f7 a5 72 42 75 3a 70 42 aa ec 6d 42 9f ba 6b 42
       60.662075 60.057087 59.481117 58.932247
000050 88 a2 69 42 bc a2 67 42 b4 b9 65 42 07 e6 63 42
       58.408722 57.90892 57.43135 56.974636
000060 68 26 62 42 a4 79 60 42 9f de 5e 42 50 54 5d 42
       56.537506 56.11879 55.717403 55.332336
000070 c2 d9 5b 42 14 6e 5a 42 73 10 59 42 19 c0 57 42
       54.962654 54.6075 54.266064 53.937595
000080 8a 52 98 42 44 3f 95 42 3e 5f 92 42 78 ae 8f 42
       76.16121 74.623566 73.18602 71.84076
000090 3c 29 8d 42 1b cc 8a 42 ef 93 88 42 d6 7d 86 42
       70.580536 69.39864 68.28893 67.24577
0000a0 2b 87 84 42 83 ad 82 42 ac ee 80 42 41 91 7e 42
       66.264 65.33889 64.466156 63.64185
0000b0 18 73 7b 42 80 7f 78 42 6b b3 75 42 0a 0c 73 42
       62.862396 62.12451 61.425213 60.761757
0000c0 ce 86 70 42 5f 21 6e 42 95 d9 6b 42 79 ad 69 42
       60.131645 59.53259 58.962482 58.419407
0000d0 3a 9b 67 42 2f a1 65 42 ce bd 63 42 ae ef 61 42
       57.90159 57.407406 56.935356 56.484062
0000e0 83 35 60 42 17 8e 5e 42 4e f8 5c 42 20 73 5b 42
       56.052258 55.63876 55.242485 54.862427
0000f0 99 fd 59 42 d7 96 58 42 06 3e 57 42 64 f2 55 42
       54.497654 54.147305 53.81057 53.48671
000100 93 19 97 42 3c 06 94 42 e3 26 91 42 63 77 8e 42
       75.54995 74.01218 72.57595 71.23318
000110 e8 f3 8b 42 ec 98 89 42 33 63 87 42 c9 4f 85 42
       69.97638 68.798676 67.69375 66.65583
000120 fc 5b 83 42 55 85 81 42 2c 93 7f 42 68 4d 7c 42
       65.67966 64.760414 63.893723 63.075592
000130 a6 35 79 42 7e 48 76 42 d9 82 73 42 e2 e1 70 42
       62.30239 61.570793 60.87778 60.22059
000140 04 63 6e 42 e1 03 6c 42 51 c2 69 42 56 9c 67 42
       59.596695 59.003788 58.439762 57.90267
000150 1f 90 65 42 01 9c 63 42 72 be 61 42 08 f6 5f 42
       57.390743 56.902348 56.43598 55.990265
000160 74 41 5e 42 83 9f 5c 42 18 0f 5b 42 2a 8f 59 42
       55.56392 55.155773 54.76474 54.38981
000170 c7 1e 58 42 0b bd 56 42 26 69 55 42 53 22 54 42
       54.030056 53.684612 53.352684 53.03352
000180 88 da 95 42 75 c7 92 42 1b e9 8f 42 2f 3b 8d 42
       74.92682 73.389565 71.955284 70.61559
000190 c1 b9 8a 42 30 61 88 42 2d 2e 86 42 b1 1d 84 42
       69.3628 68.18982 67.09019 66.05799
0001a0 fc 2c 82 42 8c 59 80 42 31 42 7d 42 20 03 7a 42
       65.08786 64.1749 63.31464 62.50305
0001b0 1d f2 76 42 b8 0b 74 42 d0 4c 71 42 8b b2 6e 42
       61.73644 61.011444 60.325012 59.67436
0001c0 4d 3a 6c 42 b6 e1 69 42 98 a6 67 42 f5 86 65 42
       59.056934 58.47042 57.91269 57.381794
0001d0 fa 80 63 42 f9 92 61 42 68 bb 5f 42 dd f8 5d 42
       56.875954 56.393528 55.933014 55.49303
0001e0 09 4a 5c 42 b7 ad 5a 42 cc 22 59 42 3f a8 57 42
       55.0723 54.669643 54.28398 53.914303
0001f0 1e 3d 56 42 86 e0 54 42 a7 91 53 42 bd 4f 52 42
       53.559685 53.21926 52.89224 52.57787
000200 21 95 94 42 ad 82 91 42 a8 a5 8e 42 a5 f9 8b 42
       74.29127 72.755226 71.32355 69.98759
000210 93 7a 89 42 b8 24 87 42 b1 f4 84 42 64 e7 82 42
       68.7394 67.57172 66.47791 65.451935
000220 05 fa 80 42 09 54 7e 42 25 ea 7a 42 29 b2 77 42
       64.48832 63.582066 62.728657 61.923985
000230 42 a8 74 42 f6 c8 71 42 1b 11 6f 42 d2 7d 6c 42
       61.164314 60.44625 59.766705 59.12287
000240 7a 0c 6a 42 af ba 67 42 40 86 65 42 2e 6d 63 42
       58.512184 57.93231 57.381104 56.85662
000250 a3 6d 61 42 f0 85 5f 42 8c b4 5d 42 0b f8 5b 42
       56.357067 55.8808 55.426315 54.99223
000260 1e 4f 5a 42 92 b8 58 42 4b 33 57 42 41 be 55 42
       54.577263 54.180244 53.80009 53.435795
000270 81 58 54 42 2b 01 53 42 6e b7 51 42 88 7a 50 42
       53.08643 52.75114 52.42913 52.11966
000280 a1 49 93 42 23 38 90 42 c9 5c 8d 42 ff b2 8a 42
       73.64381 72.10964 70.68122 69.3496
000290 95 36 88 42 b9 e3 85 42 f0 b6 83 42 13 ad 81 42
       68.106606 66.94477 65.8573 64.838036
0002a0 88 86 7f 42 d6 ed 7b 42 5b 8b 78 42 d4 5a 75 42
       63.88138 62.98226 62.13609 61.3387
0002b0 60 58 72 42 7f 80 6f 42 ff cf 6c 42 fa 43 6a 42
       60.586304 59.875484 59.20312 58.566383
0002c0 ca d9 67 42 09 8f 65 42 83 61 63 42 37 4f 61 42
       57.962685 57.389683 56.845226 56.32736
0002d0 4e 56 5f 42 19 75 5d 42 0d aa 5b 42 bf f3 59 42
       55.834282 55.364353 54.916065 54.488033
0002e0 e1 50 58 42 3f c0 56 42 be 40 55 42 56 d1 53 42
       54.078983 53.68774 53.313225 52.95443
0002f0 17 71 52 42 1f 1f 51 42 9f da 4f 42 d6 a2 4e 42
       52.61044 52.28039 51.963497 51.65902
000300 99 f8 91 42 65 e8 8e 42 04 0f 8c 42 bf 67 89 42
       72.98554 71.453896 70.02933 68.70263
000310 45 ee 86 42 ab 9e 84 42 61 75 82 42 2e 6f 80 42
       67.46537 66.3099 65.229256 64.21715
000320 4d 12 7d 42 4f 81 79 42 9b 26 76 42 e0 fd 72 42
       63.26787 62.376278 61.5377 60.747925
000330 33 03 70 42 08 33 6d 42 28 8a 6a 42 a7 05 68 42
       60.003124 59.299835 58.63492 58.00552
000340 dd a2 65 42 5e 5f 63 42 f5 38 61 42 a0 2d 5f 42
       57.409046 56.843132 56.305622 55.794556
000350 87 3b 5d 42 fa 60 5b 42 6f 9c 59 42 79 ec 57 42
       55.308132 54.844704 54.402767 53.98093
000360 cc 4f 56 42 35 c5 54 42 98 4b 53 42 ef e1 51 42
       53.577927 53.192585 52.823822 52.47064
000370 4b 87 50 42 cb 3a 4f 42 a0 fb 4d 42 0a c9 4c 42
       52.132122 51.807415 51.495728 51.196327
000380 b4 a0 90 42 3a 92 8d 42 3f bb 8a 42 e3 16 88 42
       72.31387 70.7856 69.365715 68.0447
000390 b8 a0 85 42 b7 54 83 42 3c 2f 81 42 fb 59 7e 42
       66.8139 65.66546 64.592255 63.58787
0003a0 06 96 7a 42 3c 0d 77 42 c5 ba 73 42 43 9a 70 42
       62.646507 61.762924 60.932392 60.150646
0003b0 c0 a7 6d 42 a9 df 6a 42 bf 3e 68 42 13 c2 65 42
       59.41382 58.71842 58.061275 57.439526
0003c0 f7 66 63 42 fe 2a 61 42 f2 0b 5f 42 ce 07 5d 42
       56.85055 56.291985 55.761665 55.25762
0003d0 bb 1c 5b 42 09 49 59 42 2d 8b 57 42 bc e1 55 42
       54.778057 54.321323 53.885914 53.470444
0003e0 6a 4b 54 42 03 c7 52 42 6e 53 51 42 a7 ef 4f 42
       53.073647 52.694347 52.331474 51.984035
0003f0 bd 9a 4e 42 d1 53 4d 42 17 1a 4c 42 d0 ec 4a 42
       51.65111 51.331852 51.02548 50.731262

qa f4 [32, 32]
000000 00 00 00 00 00 00 00 00 00 00 00 00 00 00 00 00
       0.0 0.0 0.0 0.0
000010 00 00 00 00 00 00 00 00 00 00 00 00 00 00 00 00
       0.0 0.0 0.0 0.0
000020 00 00 00 00 00 00 00 00 00 00 00 00 00 00 00 00
       0.0 0.0 0.0 0.0
000030 00 00 00 00 00 00 00 00 00 00 00 00 00 00 00 00
       0.0 0.0 0.0 0.0
000040 00 00 00 00 00 00 00 00 00 00 00 00 00 00 00 00
       0.0 0.0 0.0 0.0
000050 00 00 00 00 00 00 00 00 00 00 00 00 00 00 00 00
       0.0 0.0 0.0 0.0
000060 00 00 00 00 00 00 00 00 00 00 00 00 00 00 00 00
       0.0 0.0 0.0 0.0
000070 00 00 00 00 00 00 00 00 00 00 00 00 00 00 00 00
       0.0 0.0 0.0 0.0
000080 00 00 00 00 00 00 00 00 00 00 00 00 00 00 00 00
       0.0 0.0 0.0 0.0
000090 00 00 00 00 00 00 00 00 00 00 00 00 00 00 00 00
       0.0 0.0 0.0 0.0
0000a0 00 00 00 00 00 00 00 00 00 00 00 00 00 00 00 00
       0.0 0.0 0.0 0.0
0000b0 00 00 00 00 00 00 00 00 00 00 00 00 00 00 00 00
       0.0 0.0 0.0 0.0
0000c0 00 00 00 00 00 00 00 00 00 00 00 00 00 00 00 00
       0.0 0.0 0.0 0.0
0000d0 00 00 00 00 00 00 00 00 00 00 00 00 00 00 00 00
       0.0 0.0 0.0 0.0
0000e0 00 00 00 00 00 00 00 00 00 00 00 00 00 00 00 00
       0.0 0.0 0.0 0.0
0000f0 00 00 00 00 00 00 00 00 00 00 00 00 00 00 00 00
       0.0 0.0 0.0 0.0
000100 00 00 00 00 00 00 00 00 00 00 00 00 00 00 00 00
       0.0 0.0 0.0 0.0
000110 00 00 00 00 00 00 00 00 00 00 00 00 00 00 00 00
       0.0 0.0 0.0 0.0
000120 00 00 00 00 00 00 00 00 00 00 00 00 00 00 00 00
       0.0 0.0 0.0 0.0
000130 00 00 00 00 00 00 00 00 00 00 00 00 00 00 00 00
       0.0 0.0 0.0 0.0
000140 00 00 00 00 00 00 00 00 00 00 00 00 00 00 00 00
       0.0 0.0 0.0 0.0
000150 00 00 00 00 00 00 00 00 00 00 00 00 00 00 00 00
       0.0 0.0 0.0 0.0
000160 00 00 00 00 00 00 00 00 00 00 00 00 00 00 00 00
       0.0 0.0 0.0 0.0
000170 00 00 00 00 00 00 00 00 00 00 00 00 00 00 00 00
       0.0 0.0 0.0 0.0
000180 00 00 00 00 00 00 00 00 00 00 00 00 00 00 00 00
       0.0 0.0 0.0 0.0
000190 00 00 00 00 00 00 00 00 00 00 00 00 00 00 00 00
       0.0 0.0 0.0 0.0
0001a0 00 00 00 00 00 00 00 00 00 00 00 00 00 00 00 00
       0.0 0.0 0.0 0.0
0001b0 00 00 00 00 00 00 00 00 00 00 00 00 00 00 00 00
       0.0 0.0 0.0 0.0
0001c0 00 00 00 00 00 00 00 00 00 00 00 00 00 00 00 00
       0.0 0.0 0.0 0.0
0001d0 00 00 00 00 00 00 00 00 00 00 00 00 00 00 00 00
       0.0 0.0 0.0 0.0
0001e0 00 00 00 00 00 00 00 00 00 00 00 00 00 00 00 00
       0.0 0.0 0.0 0.0
0001f0 00 00 00 00 00 00 00 00 00 00 00 00 00 00 00 00
       0.0 0.0 0.0 0.0
000200 00 00 00 00 00 00 00 00 00 00 00 00 00 00 00 00
       0.0 0.0 0.0 0.0
000210 00 00 00 00 00 00 00 00 00 00 00 00 00 00 00 00
       0.0 0.0 0.0 0.0
000220 00 00 00 00 00 00 00 00 00 00 00 00 00 00 00 00
       0.0 0.0 0.0 0.0
000230 00 00 00 00 00 00 00 00 00 00 00 00 00 00 00 00
       0.0 0.0 0.0 0.0
000240 00 00 00 00 00 00 00 00 00 00 00 00 00 00 00 00
       0.0 0.0 0.0 0.0
000250 00 00 00 00 00 00 00 00 00 00 00 00 00 00 00 00
       0.0 0.0 0.0 0.0
000260 00 00 00 00 00 00 00 00 00 00 00 00 00 00 00 00
       0.0 0.0 0.0 0.0
000270 00 00 00 00 00 00 00 00 00 00 00 00 00 00 00 00
       0.0 0.0 0.0 0.0
000280 00 00 00 00 00 00 00 00 00 00 00 00 00 00 00 00
       0.0 0.0 0.0 0.0
000290 00 00 00 00 00 00 00 00 00 00 00 00 00 00 00 00
       0.0 0.0 0.0 0.0
0002a0 00 00 00 00 00 00 00 00 00 00 00 00 00 00 00 00
       0.0 0.0 0.0 0.0
0002b0 00 00 00 00 00 00 00 00 00 00 00 00 00 00 00 00
       0.0 0.0 0.0 0.0
0002c0 00 00 00 00 00 00 00 00 00 00 00 00 00 00 00 00
       0.0 0.0 0.0 0.0
0002d0 00 00 00 00 00 00 00 00 00 00 00 00 00 00 00 00
       0.0 0.0 0.0 0.0
0002e0 00 00 00 00 00 00 00 00 00 00 00 00 00 00 00 00
       0.0 0.0 0.0 0.0
0002f0 00 00 00 00 00 00 00 00 00 00 00 00 00 00 00 00
       0.0 0.0 0.0 0.0
000300 00 00 00 00 00 00 00 00 00 00 00 00 00 00 00 00
       0.0 0.0 0.0 0.0
000310 00 00 00 00 00 00 00 00 00 00 00 00 00 00 00 00
       0.0 0.0 0.0 0.0
000320 00 00 00 00 00 00 00 00 00 00 00 00 00 00 00 00
       0.0 0.0 0.0 0.0
000330 00 00 00 00 00 00 00 00 00 00 00 00 00 00 00 00
       0.0 0.0 0.0 0.0
000340 00 00 00 00 00 00 00 00 00 00 00 00 00 00 00 00
       0.0 0.0 0.0 0.0
000350 00 00 00 00 00 00 00 00 00 00 00 00 00 00 00 00
       0.0 0.0 0.0 0.0
000360 00 00 00 00 00 00 00 00 00 00 00 00 00 00 00 00
       0.0 0.0 0.0 0.0
000370 00 00 00 00 00 00 00 00 00 00 00 00 00 00 00 00
       0.0 0.0 0.0 0.0
000380 00 00 00 00 00 00 00 00 00 00 00 00 00 00 00 00
       0.0 0.0 0.0 0.0
000390 00 00 00 00 00 00 00 00 00 00 00 00 00 00 00 00
       0.0 0.0 0.0 0.0
0003a0 00 00 00 00 00 00 00 00 00 00 00 00 00 00 00 00
       0.0 0.0 0.0 0.0
0003b0 00 00 00 00 00 00 00 00 00 00 00 00 00 00 00 00
       0.0 0.0 0.0 0.0
0003c0 00 00 00 00 00 00 00 00 00 00 00 00 00 00 00 00
       0.0 0.0 0.0 0.0
0003d0 00 00 00 00 00 00 00 00 00 00 00 00 00 00 00 00
       0.0 0.0 0.0 0.0
0003e0 00 00 00 00 00 00 00 00 00 00 00 00 00 00 00 00
       0.0 0.0 0.0 0.0
0003f0 00 00 00 00 00 00 00 00 00 00 00 00 00 00 00 00
       0.0 0.0 0.0 0.0
